input/05_cnn_qsar/01_featurize/01_featurize_fda_world/02_CNN/run_files_0.1/model_3.pth (torch, 634400 bytes, 20 tensors)

conv1.weight f4 [128, 1, 11, 42]
00000000: bd0e d7bc 7a6a c33b 4ccc 40bc 35d9 233d
00000010: 95bc 143d e990 163d b2e2 103d 919f 563d
00000020: 6fde 803a 953f 473d 9b05 a63c fb3d f43c
00000030: a80c 94bb 5394 04bc 32ca 38bd 8217 38bd
00000040: cc14 cc3c f320 d5bc 027b a03c d1b4 dabc
00000050: 225a bdbc 9a10 91bc b08f 2b3c c4fd 2f3d
00000060: efd9 01bd 5a90 843c 78d5 6a3c 6cf4 3f3d
00000070: 60cf 2b3d ef19 0fbb 26d3 0e3d e08f fcbb
00000080: c00a b7bc 71ec d43c 507e e13c 5876 a139
00000090: f718 ebbc 56e1 383c a95f d13c 60d5 383d
000000a0: c78f 823c 8f0e 763b 3399 4f3c d2ec f23c
000000b0: cd6a a13c 2f6b 483c 7f3b dd3b 5de3 293d
000000c0: 9ffa 8abc 8519 98bc c2f1 54bd 6608 0f3c
000000d0: c07c 303a 0478 3b3d 7ad6 debc 29d2 2fbc
000000e0: 497a e53c db54 2c3d 1907 52bb 9cb9 08bd
000000f0: 5b29 1e3d fd9f be3b 48e2 32bd 388d 343d
00000100: fcdb fb3c 5afd 5cbb 69c1 d43c 871a 78bc
00000110: ec38 9c3c e344 8cbc 607b b93b 604d 10bc
00000120: 376e 0fbd e45a e03c bc11 3a3d 6d53 18bd
00000130: 95da f3bc 48ac 833a 6d7e bbbb 5eee 06bc
00000140: 5fd2 473c 4bf8 e83c 5639 463c bfd1 10bd
00000150: c6fe d13c 033f 12bd f349 ed3b 3be0 0abd
00000160: 9138 173d a88d c538 3046 21bd adc7 0a3b
00000170: da98 46bd ace2 123d a6ae dbbc 3798 873c
00000180: 8cbe aebc 35f7 063d 1836 063d 6da2 9cbc
00000190: eb8d 42bd 726d 323d 2c68 66bb 65db f93c
000001a0: bfc8 3ebc b0b5 573d af9b 81bc b302 803c
000001b0: e3a2 ad3c a743 1d3d 0212 aa3c 9269 053d
000001c0: bc41 2ebd 6805 f33c 3b19 39bc 20f5 46bc
000001d0: 3a29 63bd 40fd 66bc 0f23 00bc 43e1 363d
000001e0: 7c7b 0abd 3f1b 033d da01 193c 2dbb 233d
000001f0: 54e9 643d c1ad 05bd 2074 f33c d89f 0f3d
00000200: b33d 31bd 6e59 793a 8ae7 4f3d 0c7a 953c
00000210: 4690 b0bb 1a23 513d 8503 8e3c 6fae 9cbb
00000220: e9ed 323d de04 bebc ebb8 e0bb d079 e6bc
00000230: fcab d0bc 2b2e 90bb 0b4d 9dbc c0f2 f33c
00000240: e99f 46bc 52b4 3c3c 3551 1cbd 7fba 30bc
00000250: 52b4 4b3d ff31 2a3c b9fd 8bbc ce2d 30bc
00000260: 6230 65bc 63cc 50bd 8787 4ebd 5155 93bc
00000270: 73ed e83b 33e8 263d 73ce 8d3c ebdd d73c
00000280: 6002 01bd a5c4 9b3a fb8f 313d 8051 b0bc
00000290: 80b8 16bd a374 d9bc 2a1c cd3a 20e1 4cb9
000002a0: b26a 4e3d 06ec 1d3d 6d03 863c 1929 c8bb
000002b0: e974 b7bb 8094 0037 b260 62bc 9457 1e3d
000002c0: f029 c9bc eae2 063d 5f8a 053d f4b9 ffbc
000002d0: 4271 cd3c 169d af3c 61f0 2a3d 6b3e a33c
000002e0: 1e76 fe3b cae0 82bc 1532 2fbd 3de7 023d
000002f0: 3cd3 2a3d bcf7 073c 427a 913d c333 973c
00000300: f633 833c fd94 d1bc bfb0 983c 09ca 2dbd
00000310: 85fd 9ebc 1354 0ebd 203e dabc 4f2f 1e3d
00000320: a49a 553d ff1b 453c dd3c 893c cdae 78bc
00000330: 659b adbc 65f2 09bd 5a5d 303c 7aeb bfbb
00000340: ea35 d33b f799 9d3c a9e1 8e3c ba8a 2fbb
00000350: cf75 2b3d 4084 6fbd ae4d efbb 1650 36bd
00000360: 0e6e 423c f8c3 203d 498c 27bc 4276 61bb
00000370: a692 fdbc 9624 113d 8183 363d 15ee 303c
00000380: c095 2f3d f87e 953c 7151 74bd 7c2e 2a3d
00000390: 0772 8abc e282 f6bb c9c1 03bd 68a2 813b
000003a0: 4e6d 693d 7d68 50bc 97c8 f53a cf1e 9f3c
000003b0: 58ea c3bc 3312 c53c c262 26bd 18f1 b93c
000003c0: db87 353d f925 c63c b121 59bd 614d cebc
000003d0: f522 063d cf51 b83c 8470 09bc 4a38 d4bc
000003e0: e301 0d3d a7de 123d 8dba ea3c b0fa 4abc
000003f0: 27ff 8fbc e9a9 4e3d 1fd4 b03c b18f 803c
-0.026252145 0.0059636207 -0.011767458 0.040002067 0.03631266 0.03675929 0.035372443 0.052398268
0.0009831915 0.04864462 0.020266345 0.02981471 -0.0045181103 -0.008092004 -0.045114703 -0.044944294
0.02491226 -0.026016688 0.019589905 -0.026697548 -0.023114268 -0.017708112 0.0104712695 0.04296662
-0.03170198 0.016182113 0.0143331215 0.04686396 0.041945815 -0.0021835526 0.034869336 -0.007707581
-0.022343993 0.02599165 0.02752605 0.00030796486 -0.028698428 0.011284193 0.02555831 0.045125365
0.015937699 0.0037545299 0.012670803 0.02965394 0.019704247 0.012232586 0.0067514773 0.041476596
-0.016965209 -0.018566856 -0.05198837 0.00873003 0.00067324564 0.045768753 -0.02720188 -0.010731258
0.028012412 0.042073112 -0.0032047688 -0.033380136 0.03861366 0.005817412 -0.04367283 0.04407999
0.030744545 -0.0033720345 0.025971131 -0.015143043 0.019070111 -0.017122691 0.0056604594 -0.00880751
-0.03501722 0.02738709 0.04542707 -0.037188936 -0.029767314 0.0010045851 -0.0057218582 -0.008235542
0.0121961525 0.028438708 0.012098631 -0.03535628 0.02563418 -0.035704624 0.0072414814 -0.03390525
0.03691918 9.4200775e-05 -0.039373577 0.0021176145 -0.048485614 0.035860702 -0.026816677 0.016552074
-0.021331094 0.0329506 0.03276643 -0.01912042 -0.047498625 0.043561406 -0.0035157306 0.030500123
-0.011644541 0.052663505 -0.015821306 0.015626287 0.021195835 0.038394596 0.02076054 0.032571383
-0.042543158 0.029665664 -0.011297519 -0.012143403 -0.05545924 -0.014098465 -0.007820859 0.04464842
-0.03380917 0.032008406 0.00933882 0.039973427 0.05588658 -0.032636408 0.029718459 0.03506455
-0.04327173 0.0009511922 0.050757922 0.018246673 -0.0053882925 0.051058866 0.017335663 -0.0047815363
0.04368392 -0.02319568 -0.0068579814 -0.028134257 -0.025472634 -0.004400035 -0.019201776 0.029778838
-0.0121230865 0.011517601 -0.038163383 -0.010786652 0.049732514 0.010387897 -0.017088758 -0.010753108
-0.013988586 -0.05097617 -0.050422218 -0.017985018 0.0071083843 0.040748786 0.017310357 0.026350936
-0.031496406 0.0011884166 0.0433502 -0.021523237 -0.036797047 -0.026544875 0.0015648652 -0.00019538822
0.05039472 0.038555168 0.016359055 -0.006108415 -0.0055986536 7.66397e-06 -0.013816999 0.03865774
-0.02455613 0.032931246 0.032602664 -0.031216599 0.02507842 0.02143721 0.04173315 0.019927224
0.0077655455 -0.015976328 -0.04277237 0.031958807 0.041705355 0.008298811 0.07103397 0.0184573
0.016015988 -0.025583738 0.018638967 -0.042429004 -0.019407997 -0.03474815 -0.026640952 0.038619336
0.05214943 0.012030601 0.016752655 -0.0151783945 -0.021192262 -0.03367843 0.010764444 -0.0058569284
0.006445636 0.019238455 0.017441588 -0.0026785568 0.041860398 -0.058475733 -0.0073029613 -0.04450997
0.011867059 0.03924939 -0.010226318 -0.0034402763 -0.030953716 0.03543528 0.044559006 0.010798951
0.042867422 0.01824902 -0.05964798 0.041548237 -0.016900076 -0.0075229267 -0.03216723 0.003956128
0.056989007 -0.012720224 0.0018751797 0.01942387 -0.023915455 0.02405653 -0.040621527 0.02269797
0.044319015 0.024188029 -0.053010646 -0.025183382 0.03274818 0.022499947 -0.008388642 -0.025905747
0.034425627 0.03585687 0.028653407 -0.01238887 -0.01757772 0.050455008 0.021585522 0.015693517

conv1.bias f4 [128]
00000000: 3a96 afbb 0433 4a3d 0e53 e53b 6b8f 28bd
00000010: d8bc 413d 3ed7 913c fae0 323d 257a 0ebd
00000020: a0f7 bb3c 5235 f3bc 9149 733c c6f7 133d
00000030: 650e 2ebc 12cc 5c3d dfcb 22bb 2614 27bd
00000040: fcfb 883d 1dd5 c6bb ec13 d4bc 5281 1d3c
00000050: 5c9f 863b 4894 cf3b f1f7 f33c cbd6 89bc
00000060: 658e c73c 5fe7 8a3c ebad 43bd 64e8 1cbd
00000070: ca65 c93c bde6 473d d966 89bb e8e6 fabc
00000080: 59ae 1ebd 208c b5bc 9a40 8bbc 9b55 28bd
00000090: a00d cd3c 2ab2 9ebb fec6 503c 8aa3 733a
000000a0: d337 b9bc e0aa 663b 743e 923b f4ab a73c
000000b0: 7d2f 413d ad28 333c 1579 193c a33d 493d
000000c0: db95 c7bb 5743 c83c e40e 8d3b be22 b4bc
000000d0: debf 1b3c bc0e d5bc 0f0d d63c 0d91 1a3d
000000e0: 7528 09bc bb07 ad3c 4ba6 cf3b 73b5 02bd
000000f0: 152c 3a3d 945d 333d c779 9e3b 4c95 dabc
00000100: 0484 a3bc 92c5 febc 1efa d4bc 2524 00bc
00000110: 5b01 1ebc 1d3d 07bd b356 cabb 9b5d dc3c
00000120: 739e 0abd 9274 e33c 313a 83bb 55c2 203d
00000130: 4003 5f3c 07a7 33bd 8a45 133c 96c1 853d
00000140: a9d7 8e3c 31e0 d9bc af4c 2d3c bac9 ff3c
00000150: fe5f 74bc e93c dc3c cf71 373d 4ba7 59bd
00000160: 38b3 923c 8bcc 0abd 8bf2 8ebc cec5 1f3d
00000170: b059 07bd 7f2f 123b cd32 3d3c e64d 24bc
00000180: 0067 2dbd cac6 5e3d 4912 eabb db3f 9dbc
00000190: 9476 7a3d 3e05 01bd 5af2 173d 06df ecbc
000001a0: 18c4 103b 61e7 333c 5aa2 7b3c 1d8a 163c
000001b0: d945 cdbc efde f13c 2f08 c33c 963d ecbc
000001c0: d135 53ba fd9f 833c 6d8e 103d cc8b c13b
000001d0: 1cac 083d 8690 de3c ba44 3e3a e49c cb3c
000001e0: 18cf 203d b2ef 3bbb f435 833c 0386 b83c
000001f0: 80c0 933c 78d1 003d 7d1d bbba 9e49 2a3c
-0.0053584846 0.04936506 0.0069984263 -0.0411524 0.047299236 0.01780283 0.043671586 -0.034784455
0.022945225 -0.029688511 0.014849083 0.036124967 -0.010623549 0.053905554 -0.0024840755 -0.0407907
0.06688687 -0.0060678856 -0.025888406 0.009613352 0.0041083526 0.006334815 0.029781314 -0.016826054
0.024359891 0.01695603 -0.047773283 -0.038307562 0.02458467 0.048804034 -0.0041931686 -0.030627683
-0.03874049 -0.022161543 -0.016998578 -0.041097265 0.025030911 -0.004843016 0.012742756 0.00092940836
-0.022609627 0.0035197064 0.0044630114 0.020467736 0.04716443 0.010934991 0.009367247 0.049131047
-0.006090862 0.024446173 0.0043047536 -0.021989223 0.009506194 -0.026008002 0.026129274 0.037735987
-0.008371462 0.02112185 0.0063369623 -0.031911325 0.045452196 0.043790415 0.0048362943 -0.026682518
-0.01996041 -0.031100068 -0.025998171 -0.0078211175 -0.009643878 -0.033017267 -0.006174886 0.026900103
-0.033842515 0.027765546 -0.0040047397 0.03924783 0.013611615 -0.04386046 0.008988747 0.06531064
0.01743682 -0.02659616 0.010577365 0.03122412 -0.014915464 0.026884513 0.04478627 -0.05313806
0.017907724 -0.033886474 -0.017449638 0.039007 -0.033044517 0.0022306142 0.011547756 -0.010028338
-0.042334557 0.0543888 -0.007143293 -0.019195488 0.06114824 -0.03149914 0.03709636 -0.02891494
0.0022089537 0.010980458 0.015358532 0.009188202 -0.02505772 0.029525248 0.023807613 -0.02883796
-0.00080570305 0.0160675 0.035292078 0.0059065577 0.03336726 0.027168524 0.0007258166 0.024855085
0.03926 -0.0028676805 0.016016938 0.02252484 0.018036127 0.031449765 -0.0014275756 0.010393528

bn1.weight f4 [128]
00000000: 5360 813f d964 803f cd76 7e3f 4da6 803f
00000010: 3e10 813f 84a8 7e3f c838 7f3f ecdb 823f
00000020: c1c4 813f c558 7f3f ee7b 7e3f 3cce 813f
00000030: 4c76 7d3f a7dc 803f a94e 803f 5fe1 823f
00000040: 86d9 7f3f 362f 813f 37bc 803f 3389 7f3f
00000050: 277c 7d3f 35ea 7e3f 332b 833f b37f 7a3f
00000060: 650d 803f c028 813f 5856 7e3f 1cce 803f
00000070: 8176 803f 98ca 7f3f a1ec 803f aa36 803f
00000080: 11db 803f 26af 7f3f 8023 7f3f 2eb9 7f3f
00000090: 0aac 803f ba06 803f 807b 7f3f aa08 7f3f
000000a0: 1c02 823f 2444 7f3f 0b20 803f dffd 7f3f
000000b0: 1b48 803f 5937 803f 027e 803f 7803 7d3f
000000c0: 39b9 7d3f 0de3 803f 2517 803f e215 803f
000000d0: 81c6 7e3f 963f 823f 5e38 813f ba39 7e3f
000000e0: e1ae 7e3f d13b 7c3f 442e 803f 4a21 803f
000000f0: bb75 7f3f 9fb1 7f3f 3d04 813f 4029 7e3f
00000100: 513b 823f 9cf7 7a3f e3d2 7d3f 870b 803f
00000110: 3b6b 7e3f 4404 823f c6ea 7f3f 6b9a 7e3f
00000120: 0f22 813f da29 803f caa7 7e3f 1f75 7f3f
00000130: c74a 823f 0d91 813f f589 803f d913 7e3f
00000140: 7b90 803f a9cf 803f 7563 7f3f 6c60 803f
00000150: 4c1e 793f 90a5 813f 9cf1 833f d38d 803f
00000160: 7b65 7f3f 4103 803f a9fa 7e3f cc66 7e3f
00000170: d670 813f dcd5 803f 7191 7c3f 2ef3 7e3f
00000180: 8ec1 813f 2395 7d3f 1124 803f 2c64 803f
00000190: 5d2e 803f f851 7f3f e0ce 7b3f 4639 7e3f
000001a0: c96e 7e3f 39c4 813f 7f78 803f 33b4 803f
000001b0: 72c3 7f3f 0509 7e3f 2dfa 7f3f b6d8 7e3f
000001c0: 5abd 803f d0ea 7e3f a29d 803f 447d 7f3f
000001d0: f69a 7d3f 51e9 803f 295b 803f 2392 7f3f
000001e0: e014 813f f87b 7d3f 3a0b 813f 2588 7e3f
000001f0: f82f 823f 5600 803f feb7 7d3f 48e0 803f
1.0107521 1.0030776 0.99400026 1.0050751 1.0083082 0.99475884 0.99696016 1.0223365
1.013817 0.99744827 0.9940785 1.0141063 0.9900863 1.0067338 1.0024005 1.0225028
0.9994129 1.0092533 1.0057439 0.99818724 0.99017566 0.9957612 1.0247558 0.97851104
1.0004088 1.0090561 0.993505 1.00629 1.0036165 0.9991851 1.0072213 1.0016682
1.0066854 0.9987663 0.99663544 0.99891937 1.0052502 1.0002053 0.9979782 0.99622595
1.0156894 0.9971335 1.0009779 0.9999675 1.0022005 1.0016891 1.0038455 0.9883342
0.9911075 1.006929 1.0007063 1.0006678 0.9952164 1.0175655 1.0095327 0.99306834
0.99485594 0.9852877 1.0014119 1.0010159 0.9978902 0.99880403 1.0079418 0.9928169
1.0174352 0.9803407 0.9914991 1.0003518 0.9938237 1.0157552 0.9996761 0.99454373
1.0088519 1.0012772 0.99474776 0.9978809 1.017907 1.0122391 1.0042101 0.99249035
1.0044092 1.0063373 0.99761134 1.0029426 0.97311854 1.0128651 1.0308108 1.0043281
0.9976422 1.0000993 0.9960123 0.99375606 1.011256 1.0065265 0.98659426 0.9958981
1.0137193 0.9905569 1.0011007 1.003057 1.0014149 0.9973445 0.9836254 0.9930614
0.99387795 1.0138007 1.0036772 1.0054992 0.999076 0.9923251 0.9999111 0.99549425
1.0057786 0.99577045 1.0048106 0.99800515 0.99064577 1.0071203 1.002782 0.9983236
1.0084496 0.99017286 1.0081551 0.9942649 1.0170889 1.0000103 0.99108875 1.0068445

bn1.bias f4 [128]
00000000: 6668 b2b9 9428 973c 110a a3bc 2447 a5bb
00000010: cab9 9ab8 ff0d eb3a e8e6 343a 3192 b73b
00000020: fd3a 36bc 56e7 e539 a197 28bc 8638 173c
00000030: 9084 bc3b eaf7 af3b e943 46bb 8362 a03b
00000040: c14e 6f3a 3b71 74bc 811e 983b f877 4dbc
00000050: 74c3 a8bb b49e 96bb 102a 1e3c cf15 34bc
00000060: cf29 ee3a cbbc e83b 979a 1dbc 3261 eebb
00000070: f10e 69bc 07cf 863b 418d 14bc 612c f3bb
00000080: 6e9a a43a 85be 4fbc 7a6a bcbb 656b 84bc
00000090: 2d90 78bb ed2f 35bc 1f6c 28bc e4de 81bc
000000a0: 148f e1bb 700e 04bc 3318 4abc d345 0a3b
000000b0: 357b 44bc e691 8ebb e523 fcba c868 52bc
000000c0: 5b67 21bc 7a79 153b 17d5 ddb9 a60b a0bc
000000d0: 3fc5 7abb 0ae4 39bc 8a33 0abc fe0a febb
000000e0: 98ec 523c 77e4 9ebc 76e7 67bc 138f a8bc
000000f0: 166c b8bc 0418 babb 49f4 eabb db5c 77bc
00000100: 4aae 78bc a07c 81bb 7a8d 98bb bbe1 27bc
00000110: 9a8c 4bbb ab5d ce39 c182 f2bb cf52 ccbb
00000120: dffc 29bc 6fb3 b8bb 8c59 73bc 4911 4fbc
00000130: 19e4 93bb ece0 423c 5d11 99bb fd6d 45bc
00000140: 5c20 223a 8a02 6bbb 39ca 55bb f16d 1cbb
00000150: f39e 60bc 7eb7 8fbc db29 533c 0009 10b5
00000160: 6dda 0d3c 0701 6c3b ae53 77bb d5d6 57bb
00000170: 97c9 bcbb 897b 4b3c 7e57 46bc 4a2c bcb9
00000180: b834 93bb 6b96 cfbb b8a0 343a 86fd c9bb
00000190: fee8 1cbc 6cbd 5abc 844c 10bc b6d2 c5ba
000001a0: dd10 a5bb cd14 fc38 2f87 f1bc 2b65 ea3b
000001b0: 52d7 03bb 05b6 9ebb b427 07bb e117 acbb
000001c0: cf3d 173b fd60 e6bb 34eb 39bc c907 c03b
000001d0: a226 b8bb 2d07 4fbc 1d20 8bbc e363 713b
000001e0: 0e7a 3a3b a0e8 86bb aee3 993b 6eaa 90bc
000001f0: 60b3 27bc 8e60 10bc efc0 50bc 6e68 d1bb
-0.0003402859 0.018451966 -0.019902261 -0.005043881 -7.377898e-05 0.0017933248 0.0006900863 0.005602144
-0.011122462 0.00043850642 -0.010290057 0.009229785 0.0057531074 0.00537013 -0.003025288 0.004894556
0.0009128862 -0.014919574 0.004642308 -0.01254081 -0.005150253 -0.0045965556 0.009653583 -0.010991528
0.0018170419 0.007102584 -0.009619377 -0.00727477 -0.014224754 0.004114035 -0.009066881 -0.007421062
0.0012558231 -0.012679701 -0.0057499977 -0.016164491 -0.0037927732 -0.01105879 -0.010279684 -0.015853353
-0.0068835113 -0.008060083 -0.012334871 0.0021098747 -0.0119922655 -0.0043508885 -0.0019236772 -0.012842365
-0.009851302 0.0022808001 -0.0004231117 -0.019536804 -0.003826454 -0.011345873 -0.008435139 -0.007752775
0.012873791 -0.01939605 -0.014154306 -0.020576036 -0.022512477 -0.0056791324 -0.0071702343 -0.015097822
-0.0151782725 -0.003951624 -0.004655537 -0.010246689 -0.0031059147 0.0003936117 -0.007400841 -0.0062354575
-0.010375231 -0.0056366245 -0.014852893 -0.012638398 -0.0045132753 0.011894446 -0.0046712593 -0.012050149
0.00061846315 -0.0035859668 -0.0032621755 -0.002386924 -0.013709771 -0.01754355 0.012888397 -5.3657277e-07
0.008658034 0.0036011355 -0.0037739086 -0.0032934446 -0.005761336 0.01241959 -0.012105821 -0.00035891152
-0.0044923685 -0.00633507 0.0006890404 -0.0061642556 -0.009577034 -0.013350826 -0.008807305 -0.0015092704
-0.0050374107 0.00012020171 -0.029483406 0.0071531734 -0.0020117355 -0.0048434758 -0.002062303 -0.00525187
0.0023077612 -0.007030605 -0.011347581 0.005860303 -0.0056198398 -0.012635988 -0.016983086 0.0036833219
0.0028454098 -0.0041170865 0.004696331 -0.017659392 -0.010235637 -0.008812083 -0.012741311 -0.006390623

bn1.running_mean f4 [128]
00000000: a3da bb3b 13da c13c be8e f23a 23d2 04bd
00000010: 1512 713d 269a 83bc 1de7 583d 56f2 08bd
00000020: 6ec2 983c 7ddc 27bd c809 773c 0030 b73c
00000030: 5b3c 27bd d340 373d c05e 01bb 3e3d 37bd
00000040: 1fd8 823d 93ce 9abb 1020 36bd 9bf5 2d3b
00000050: 73e3 593c 791a 70bb 7db3 ae3c 1387 4fba
00000060: aa75 053d e1de c13b c981 94bd 4218 01bd
00000070: a6a1 db3c f82b bd3c 88cf 59bb c05f 28bd
00000080: c5fc 45bd 864d abbc 055e 81bc 98bb 6bbd
00000090: 23ef c23c aa5a 8d3a 9a3b 12bc 0d3e afbb
000000a0: b4a0 a2bc 903d 59bc 899c 39bc a56b bc3c
000000b0: 06f5 0b3d 9ba2 613c 447e 40bc 57a2 8b3d
000000c0: bc74 efbc 080d f23b 17d8 30bc d014 aabc
000000d0: 0d10 423c bb22 2ebd 0396 37bb ed5c c83c
000000e0: c290 47bc bda0 fd3c 4f0e 5cbb 48f5 0dbd
000000f0: 7f72 d73c 7efd 443d 8f03 c2ba 7b4c c2bc
00000100: 1899 e5bc 1371 0cbc e0ee 23bd 1a4c deba
00000110: 3e53 a2bb ac71 0dbd 2eda 32bb 7703 853b
00000120: 1851 01bd def9 6e3b 5e1b bbbc bc0d a53c
00000130: 9e2b c63b 1214 34bd 05ea c83b 5989 623d
00000140: 6515 d13c f419 29bd 7d5a 3f3c b68f be3c
00000150: f4e2 2ebc 362a b13c 32b4 383d bf72 4fbd
00000160: 548b 9abb d604 38bd 1d44 e0bc fea2 003d
00000170: 8391 1bbd 41d5 a9bb 9fe0 d63c ae78 c5bb
00000180: 29c2 45bd 06a8 973d 1a51 75bc 1ff5 a9bc
00000190: 5309 843d 7366 06bd 6da4 673d 5b08 0dbd
000001a0: 3ef6 353b 0cc4 c33c e797 483c a5bd 933b
000001b0: 6dcd fbbc 4da1 393d 78e4 7e3c 4624 fdbc
000001c0: 96f7 31bc 7d72 3c3c 7e2d ad3c 62dc 6cbc
000001d0: bdfe 2a3d ee99 a13c 3730 3cbc c068 123d
000001e0: 101a 3a3d 83e6 91bc abf7 813b ea6e c03c
000001f0: 7222 a53c 2d3c ed3c 0c6a c83b 1c7a c33b
0.0057328506 0.023663556 0.0018505675 -0.032426964 0.058855135 -0.016064715 0.05295478 -0.033434235
0.018647399 -0.04098176 0.015078016 0.022361755 -0.040829044 0.044739556 -0.0019740313 -0.04473614
0.06388878 -0.0047243326 -0.04446417 0.0026544097 0.013298857 -0.0036636873 0.021325821 -0.0007916551
0.032582916 0.005916462 -0.07251317 -0.031517275 0.026810478 0.023092255 -0.003323527 -0.04110694
-0.048336763 -0.02091099 -0.015791902 -0.05755195 0.02379567 0.0010784466 -0.008925343 -0.005347973
-0.01985202 -0.013259307 -0.011328825 0.023000548 0.03416922 0.013771678 -0.011748854 0.06818073
-0.029230468 0.0073868074 -0.010793707 -0.020761877 0.011844647 -0.04251359 -0.0028012998 0.024458373
-0.012180509 0.030960435 -0.0033577865 -0.034657747 0.026299713 0.04809331 -0.0014802086 -0.02371811
-0.028027102 -0.008571881 -0.04002273 -0.0016959936 -0.004953771 -0.034532234 -0.002729069 0.004059251
-0.031571478 0.003646485 -0.022840198 0.02014815 0.00604768 -0.043964453 0.006131413 0.055306766
0.025522897 -0.041284516 0.011679289 0.023261886 -0.010674227 0.021626573 0.045093723 -0.05064654
-0.0047163162 -0.044926487 -0.027376229 0.03140544 -0.037980568 -0.0051828925 0.026230155 -0.006026349
-0.04828087 0.07405095 -0.014972949 -0.020746766 0.06447091 -0.032812547 0.056553293 -0.034431797
0.002776518 0.023897193 0.012243248 0.0045086914 -0.030737603 0.045319844 0.015557401 -0.030901086
-0.010862252 0.0115019055 0.021139856 -0.01445684 0.041746844 0.01972672 -0.011486105 0.03574443
0.04543501 -0.017810112 0.003966292 0.023490388 0.020158026 0.028959358 0.0061161574 0.0059654843

bn1.running_var f4 [128]
00000000: 412f 603b 97f7 c03b e828 923b 9026 813b
00000010: aaff 873b 5b8a 283c d26b 553b fee5 0f3b
00000020: 2c24 323b eabe 283b f27a 793b 3d55 553b
00000030: 5334 e83b 2897 593b 2e9a 4a3b c236 5e3b
00000040: 375c 323b dbcd 2c3b 9f34 ac3b 3d39 7c3b
00000050: d2fc 2a3b 6fbf 853b 5060 223b cbc4 833b
00000060: 4635 523b 6769 5f3b 3cce c93b a34d 4c3b
00000070: 7462 343b 6add b13b 9ad1 373b 09b6 3f3b
00000080: 915c 6e3b 9b39 543b a5f2 4d3b f4e9 9c3b
00000090: c303 f63a 8f4a 1f3b 5f63 9b3b 3223 2d3b
000000a0: 684a 083b c763 9c3b c260 653b e663 1f3b
000000b0: 8745 8b3b ba5e db3a db5a a53b 4256 953b
000000c0: 9b1e 9d3b 9127 833b 50df 913b 7d77 0d3b
000000d0: c350 263b eedc 8b3b 61bb 063c 0e22 843b
000000e0: ad57 8a3b 53c6 1e3b c1f2 613b 7920 5a3b
000000f0: c7b5 843b 7bbf 833b a786 1e3b 2ef9 1f3b
00000100: d191 2d3b 1f58 9a3b ff0b 5c3b 7420 313b
00000110: 1cb7 2b3b 6252 343b 89fa 0e3b 3e12 c43b
00000120: 6f2a 123b 02ca e43b d7e0 b13b bcf6 9f3b
00000130: 84e8 3d3b c4b4 0a3b f5be 343b abd8 3e3b
00000140: bc7a 793b 7323 463b 31f5 743b 7a9a 923b
00000150: e2ea 163b 77bd 653b 2838 013b 6553 1d3b
00000160: a071 b33b 8981 673b dd56 393b 9a59 3e3b
00000170: 50aa 193b 4172 8f3b 1c1a 743b 073e 383b
00000180: 0396 343b 8675 973b 7c28 403b 4129 443b
00000190: 914f 523b 5806 1e3b e5c2 a23b 6ee6 4c3b
000001a0: 50ca 163b 9133 3e3b 8b1d e63a cd06 333b
000001b0: d91c 083b 8c09 893b 3ad8 503b d599 3c3b
000001c0: 4a6b 423b a8e8 233b 5006 983b 2d93 963b
000001d0: 2dfb 693b ef01 333b 8f7c 703b f12a 8c3b
000001e0: f380 fa3a d4ef 9e3b 81e2 5d3b a61f 4a3b
000001f0: c97d 2e3b 4224 313b 2ae4 893b 49b2 523b
0.0034207853 0.00588889 0.004460443 0.0039413646 0.0041503506 0.010286893 0.0032565487 0.0021957154
0.0027182205 0.002574856 0.0038067666 0.0032552027 0.0070863157 0.0033201668 0.0030914652 0.003390715
0.002721561 0.0026367817 0.0052552964 0.0038486265 0.0026090634 0.0040816586 0.0024776645 0.0040212623
0.003207521 0.0034089924 0.0061586183 0.0031174205 0.0027524503 0.005428006 0.0028048516 0.0029252789
0.0036371092 0.0032382968 0.0031425145 0.0047886316 0.0018769432 0.0024305915 0.0047420706 0.0026418683
0.0020796303 0.0047726366 0.00350003 0.0024321019 0.0042502317 0.0016736605 0.005046231 0.004557402
0.004794908 0.0040025194 0.0044516698 0.0021586113 0.0025377728 0.00426828 0.008223386 0.00403238
0.0042218775 0.0024227097 0.0034476968 0.0033283515 0.00404999 0.004020629 0.0024189146 0.0024409997
0.0026484618 0.004710212 0.0033576486 0.00270274 0.002620167 0.0027514924 0.002181681 0.00598362
0.0022303124 0.006982089 0.0054284143 0.004881708 0.0028977701 0.0021164874 0.002757964 0.0029120843
0.003806754 0.0030233532 0.003737759 0.0044739814 0.0023028185 0.0035055557 0.001971731 0.0024006006
0.0054761916 0.0035325012 0.0028280534 0.0029045106 0.0023447461 0.004377634 0.0037247008 0.0028113143
0.0027555234 0.004622164 0.0029321006 0.0029931816 0.0032090882 0.0024112668 0.004967081 0.0031265276
0.0023008771 0.0029022435 0.0017556412 0.0027317286 0.0020769148 0.0041820463 0.0031867162 0.0028778214
0.0029666 0.00250105 0.0046394244 0.0045951814 0.003570269 0.0027314385 0.0036695336 0.00427758
0.0019111916 0.004850367 0.003385693 0.0030841618 0.0026625267 0.0027029668 0.0042081075 0.0032149723

conv2.weight f4 [64, 128, 11, 1]
00000000: 7c60 a33c 1231 033d 2b73 043b 7b19 21bc
00000010: 4e92 213c 4d1c a93c 2419 1f3c bcca b5bc
00000020: f380 1bbc 13bf 8abc ad94 54bc f558 bf3c
00000030: 8b2e 863c a06d cdbb 06de ebbc f1f5 863c
00000040: 62fa a93c ba58 aebc 890d ad3c b6d8 1abb
00000050: 3515 9fbc 51c6 78bc 7ea0 833a ac04 9ebc
00000060: b527 ad3c 762a 9e3c 302e d83b 907f 46bc
00000070: 989c 28bc c0f1 583c 90a9 fdbb ba9a 3c3c
00000080: c835 9cbc 4184 9d3c a5f1 b83b be0d 17bc
00000090: b0f0 aa3c 8412 9d3c a376 413b 4a59 a33c
000000a0: 1d61 ad3a f424 debc 02a8 e63c abb9 e13c
000000b0: c548 2fbb 1325 7abc 0947 f53c 6322 2a3d
000000c0: df77 1dbc b4e9 c73c be20 b63a 1198 0c3d
000000d0: 3075 1bba 1fc2 1c3d 8dc6 473b 86f4 bcbb
000000e0: c97f 8ebc 1276 04bd c1cb c3bb 6107 d43b
000000f0: baf8 8bbc ac2a a33c 970c 6a3c 73b0 f9bb
00000100: e7ce 613c 16b8 883b 18bd 94bc 1628 993c
00000110: fadc 673c 8bf6 683c d194 733c 53c0 5739
00000120: 4262 94bc 74ca aebc 0074 bf3b 1be7 f4bb
00000130: fa74 b13c bee1 563b 3539 0c3c 33e2 9abc
00000140: 1c33 7c3c 117e 1a3c 4b9e 7b3c 628d 10bc
00000150: df69 d23c 66d0 2fbc 9861 353c 0a35 833c
00000160: b2c8 3a3d 1abe 0f3c 0aad 04bb e411 693c
00000170: f1a7 843c d71a 053d c4cb fb3b 5ee9 d5bb
00000180: ca04 5fbb b707 c43a 638b 8d3c c4dc 893c
00000190: 5ab2 383b 7a64 fabc f192 a93b e825 40bc
000001a0: bbea 77bc 0279 e1bc ddda f7bc 77b2 4fbc
000001b0: 0d31 f13b 4fb3 f4bb ecf8 853c 5933 bd3b
000001c0: eadf babc 780d e0bb 9e74 b43b 2f06 fdbb
000001d0: 8b3f 623c 642e b3bc ed7b 623c 3e87 5f3c
000001e0: 1de1 323c 65c7 4c3c 7b18 11bc b9b5 803a
000001f0: 17b7 343d fab8 783c cc37 ed3c b1b8 463c
00000200: 39cb a13c 16af 87bc cc28 d33b 0c42 823c
00000210: f11c b7bc dd82 8bbc 0947 a43c 68da ecbc
00000220: 757d 67bc 340d 66bc 3590 6ebc 9b3b 643c
00000230: 130d d53c 8ce4 b13c 2764 fb3c 23f1 a73c
00000240: f300 703b ac2a 633c 1381 39bc c010 19bc
00000250: 5f04 833c 95cb 65ba b0a3 64bc f780 d33c
00000260: 0187 623c 44ee babc 105c 073d d900 043d
00000270: 7692 e53c 3e32 f03c 0a92 afbc 7d8b 75bc
00000280: 5e10 eebb 7fe3 08bb 4393 e9bb cebc 9f3c
00000290: 343f 943c 5b3a 84bb 4db9 02bd bbda afbc
000002a0: df2a 743c 0305 fcbc b2d9 4bbb 218e 993c
000002b0: 770b e1bb ce99 af3c 6905 2a3d 8472 0e3d
000002c0: 460b a4bb 1890 84bb a397 4eb9 9722 eebb
000002d0: 1982 2cbc db0e 9bbc 985c a6bc f917 2cbb
000002e0: 58dc 24bc 0f4a de3b 2244 933b beca 95ba
000002f0: 81e3 61bc 6859 08bc 216e 3bbb f163 093d
00000300: 2bef 783c 9e09 76ba ddc3 3b3c 546f 5c3c
00000310: 9ce0 763c e9a5 0dbd 5759 483c db61 d73c
00000320: 4cb7 2bbc 868c 163c d1f3 b4bb 7532 3bbc
00000330: 72a3 db3c 4773 8d3c 8bc1 edbb 077a dbbc
00000340: ea64 cfbc 98ff 24bb a88c cbbc 6b7d 48bc
00000350: f62d bcbc e9ca febc e209 fabc ee31 12bc
00000360: 391f 4b3c 981a 10bc 6b54 3dbc 92b5 bc3c
00000370: c02c a53a 48fe 903c 633f b2bb a1a1 843c
00000380: 458d 10bc 693b de3b b102 63bc 0d18 333c
00000390: c158 563b e386 85b9 b345 7bbc eabb 91bb
000003a0: 3f76 91bc 8cd1 8dbc ec4b ffbc 9648 e9bc
000003b0: 3d11 a53c 6519 1bbc fc1c 99bb a0c9 3f3c
000003c0: 708e 47bc cc56 2abb 204b eb3c 2dde e73c
000003d0: 2827 a3bb ca27 b23c b89a 993c d83c febb
000003e0: 209f 98bc 1b25 883c 6650 ee3c 2911 a53b
000003f0: fb9e ae3c 7134 68bc ebab 92bb 5787 153c
0.019943468 0.03202922 0.0020210247 -0.009832735 0.009861542 0.020643378 0.009710584 -0.022191398
-0.009491193 -0.016936814 -0.0129749 0.023357848 0.016379615 -0.006269172 -0.028792392 0.016474696
0.020749275 -0.021282542 0.021124618 -0.0023627705 -0.019419292 -0.015184001 0.0010042337 -0.019289337
0.021137098 0.019307356 0.006597303 -0.012115374 -0.010291241 0.013241231 -0.0077411607 0.011511499
-0.019068614 0.019228103 0.0056440406 -0.009219585 0.020866722 0.019173868 0.0029520176 0.019940037
0.0013227795 -0.02711723 0.028156284 0.027554354 -0.0026746255 -0.015267628 0.029941099 0.0415367
-0.009611099 0.02440343 0.0013895256 0.03432471 -0.0005930243 0.038271066 0.0030483336 -0.005766454
-0.017394917 -0.032339163 -0.005975217 0.006470606 -0.017086376 0.019917808 0.014285228 -0.0076199113
0.0137822395 0.0041723354 -0.018156573 0.018695872 0.014151806 0.014218937 0.014867024 0.00020575644
-0.01811326 -0.021336772 0.0058426857 -0.007473839 0.021662224 0.0032788361 0.008558561 -0.018906688
0.015393045 0.009429471 0.015357564 -0.008822771 0.025685249 -0.010730838 0.011070631 0.016016502
0.045601554 0.008773351 -0.002024474 0.014225457 0.016193362 0.0324963 0.007684203 -0.0065280637
-0.0034029954 0.0014955912 0.017278379 0.016828902 0.0028182478 -0.03056549 0.0051749875 -0.011727788
-0.015131648 -0.027523521 -0.03025573 -0.012676827 0.0073605836 -0.0074676643 0.016354047 0.0057739434
-0.022811849 -0.006837543 0.005507066 -0.0077216844 0.013809095 -0.021872707 0.0138234915 0.013643084
0.010917929 0.012498711 -0.008855934 0.0009819783 0.04411992 0.015180821 0.02895727 0.012128995
0.019750224 -0.01656298 0.0064440724 0.015900634 -0.022352668 -0.017030174 0.020053403 -0.028912738
-0.014129032 -0.014041234 -0.014560749 0.013930227 0.02600721 0.021715425 0.030687405 0.020500725
0.003662166 0.013865154 -0.011322278 -0.009342372 0.015993295 -0.0008765993 -0.013955042 0.025818331
0.013826133 -0.022818692 0.033046782 0.03222737 0.02802394 0.029320832 -0.021431942 -0.01498687
-0.0072651347 -0.0020887551 -0.0071281507 0.019499209 0.018096544 -0.004035277 -0.031914998 -0.021466604
0.014902799 -0.030764109 -0.0031105098 0.01874453 -0.006867822 0.021435644 0.041509066 0.03477718
-0.0050062267 -0.0040454976 -0.0001970218 -0.007267307 -0.010529065 -0.018927982 -0.020307824 -0.0026259406
-0.0100623 0.006783731 0.004494206 -0.001142822 -0.013787151 -0.008322097 -0.0028599577 0.033542577
0.015193741 -0.00093855883 0.011460272 0.013454277 0.0150681995 -0.034582052 0.0122283315 0.026291778
-0.010480713 0.009188777 -0.0055222292 -0.011425604 0.026811335 0.017266883 -0.007255738 -0.026791586
-0.025316674 -0.002517676 -0.024847344 -0.012236933 -0.022971135 -0.031102614 -0.03052229 -0.008923037
0.012397581 -0.008795403 -0.011555771 0.023035798 0.0012601838 0.017699376 -0.005439685 0.016190352
-0.008822744 0.0067819846 -0.013855622 0.010931027 0.003270671 -0.00025468235 -0.015336442 -0.00444745
-0.01775658 -0.017311834 -0.031164132 -0.028476994 0.020149821 -0.009466504 -0.0046726447 0.011705786
-0.012179956 -0.0025991676 0.028722346 0.028304184 -0.004979033 0.021747489 0.018750533 -0.007758718
-0.018630564 0.016619256 0.029091071 0.005037446 0.021316042 -0.014172659 -0.0044760606 0.009126506

conv2.bias f4 [64]
00000000: 0e48 093c 0870 a2bb d307 42bc aec7 193c
00000010: 9f99 97bc 8804 a4bc a0e1 70bc bd40 8e3a
00000020: b3d9 4cbc 37f4 303c cbc0 a03b 4c7f 94bc
00000030: e524 893c 8b17 cdbc 0888 243c 9d3a ba3c
00000040: 4809 ca3c 9cb5 8dbc 480d b73b 64df 2c3c
00000050: 7689 0d3c faa9 2cbc a61c 8cbc 0e3b 60bc
00000060: b564 81bc c725 acbc f781 d63b c344 17bb
00000070: 4d87 30bc f49b 6ebc 8e42 313c 49c8 c3bb
00000080: 8345 11bb e8c3 a9bc ddf8 00bc b3ba f03b
00000090: 351d a8bc 564a cc3c 9627 0f3b 978f a13b
000000a0: 7efd e6bb 06b2 70bb 2a5b cdbc 8e3b 123c
000000b0: d351 503c e8a5 c83c 78a7 01bb de50 91bb
000000c0: 64cf 0a3d 80c3 48bc 4c7a e73c 1961 7f3c
000000d0: 6e2a ea3c 5519 c23c bb1b db3c 6474 063a
000000e0: af9c bebb eb76 3b3c 203f adbc 06a9 bb3c
000000f0: d5ac a7bc 8cee a4bc 302d 19bb 2deb 7d3c
0.008378996 -0.004957203 -0.011842686 0.009385986 -0.01850587 -0.020021692 -0.014702231 0.0010853034
-0.012503075 0.010800413 0.004905795 -0.018127106 0.016741225 -0.02503564 0.010042198 0.022733027
0.024662629 -0.017298512 0.0055863 0.010551307 0.00863873 -0.010538572 -0.017103504 -0.013685955
-0.015795091 -0.021014107 0.0065462547 -0.0023081757 -0.010774446 -0.014563549 0.0108190905 -0.0059748036
-0.0022166676 -0.020723298 -0.007871834 0.007346475 -0.02052174 0.02493779 0.0021843663 0.0049304473
-0.0070492616 -0.0036727204 -0.025067884 0.008925332 0.012714821 0.024493173 -0.0019783657 -0.004434689
0.03388919 -0.012253642 0.028256558 0.015587115 0.028584685 0.02369372 0.026746621 0.0005129038
-0.005817018 0.0114419265 -0.021148264 0.022907745 -0.020468155 -0.02013328 -0.002337288 0.015497965

bn2.weight f4 [64]
00000000: 422c 803f e847 803f 8c02 7e3f d07d 803f
00000010: 299d 803f af8d 7c3f aee3 7d3f 6d76 7e3f
00000020: 7d29 813f 7633 7e3f b4c4 803f 12c9 803f
00000030: f42c 7c3f 7410 813f 690a 803f 975f 7d3f
00000040: 28c6 7e3f 7c40 803f 2b1c 803f 7b74 7f3f
00000050: 8d4e 7e3f 4bcc 813f d13e 803f 3965 7d3f
00000060: a8f8 803f 22e7 7b3f 9222 7f3f a54a 7e3f
00000070: a679 7e3f 9167 7d3f f53f 813f 6d76 7e3f
00000080: 0507 7e3f 3517 803f a68f 7d3f b275 7e3f
00000090: cd4b 7e3f f8da 813f 17fb 7d3f 8bf9 803f
000000a0: ef0c 803f 7276 7e3f 75b4 7f3f 6e76 7e3f
000000b0: de4c 803f d586 803f 5c74 7e3f 34c8 803f
000000c0: 412c 823f c7bd 803f c817 803f 4a52 803f
000000d0: 3fe1 7d3f 65f3 803f a434 813f 22db 7d3f
000000e0: a1ba 7f3f 0bf2 7d3f ea1c 813f e38a 7e3f
000000f0: 6c8b 7f3f 2377 7e3f 701b 813f 1b8b 7d3f
1.0013506 1.0021944 0.99222636 1.0038395 1.0047961 0.9865369 0.99175537 0.99399453
1.0090786 0.99297273 1.0060029 1.0061362 0.98506093 1.0083146 1.0003177 0.98973984
0.9952111 1.0019679 1.0008596 0.9978711 0.9933861 1.014047 1.001917 0.9898258
1.0075884 0.98399556 0.99662125 0.9933265 0.9940437 0.98986155 1.0097643 0.99399453
0.9922946 1.0007082 0.99047315 0.9939834 0.9933441 1.0144949 0.9921126 1.0076154
1.0003947 0.99399483 0.9988473 0.9939946 1.0023458 1.0041147 0.993963 1.0061097
1.0169755 1.0057915 1.0007257 1.0025113 0.99171823 1.0074278 1.009419 0.99162495
0.9989415 0.99197453 1.0086949 0.99430674 0.99822116 0.9940054 1.0086498 0.99040383

bn2.bias f4 [64]
00000000: f31d 293b 0cab bf3b 88f6 acbb 2f9b 3b3b
00000010: 260c b43b 5d71 22bc 228a 06bb 7ef9 c4bb
00000020: 8d20 613c 27ca c43b 6cc5 c43b fb79 e23b
00000030: 2f40 eebb b79b fe3b 18a1 7b3b 1ca9 0a3a
00000040: fe40 afbb 9cc7 c43b d6e0 acba 4b72 a5bb
00000050: 7608 fb3b 9398 243c 0ca6 52ba 7274 1dba
00000060: 4d3f c83a eea9 40bb 3d70 92bb 3830 b7bb
00000070: 285c b53b d062 c1bb 094c a2bc dcc9 c43b
00000080: 9be8 073c b8d5 643b 30c6 c43b 6d55 c6bb
00000090: f514 9bb9 61c1 4dbb 3a1a 4fbc f499 31bc
000000a0: c178 c43b 70c4 c4bb 1b0b d2ba fac7 c43b
000000b0: 2fc2 c43b 70ec 8a3a a1c9 c4bb 9db0 ba3b
000000c0: ff33 803c a869 d0bb cbba 8bbc 6046 0ebd
000000d0: c551 86bb 92b0 76ba d246 39bc 060a 51ba
000000e0: 3f8e 94bb 4e59 eabb 1896 f0bc 7dcd 9e3b
000000f0: 393b 1ebb fde2 c43b b8fe 5cbc 6a80 de3b
0.0025805205 0.005849248 -0.0052784123 0.0028626432 0.0054946123 -0.009914723 -0.002052911 -0.006011187
0.013740671 0.0060055437 0.00600498 0.006911514 -0.007270835 0.0077700275 0.003839558 0.00052894815
-0.005348324 0.0060052406 -0.0013189565 -0.005049025 0.0076609207 0.010046142 -0.0008035607 -0.00060064264
0.0015277654 -0.002939816 -0.0044689463 -0.005590465 0.0055346675 -0.005901672 -0.019811647 0.006005509
0.008295204 0.0034917425 0.006005071 -0.006052664 -0.00029579518 -0.003139578 -0.01264053 -0.010839928
0.0059958403 -0.0060048625 -0.0016025038 0.0060052844 0.006004594 0.0010599028 -0.0060054814 0.0056973235
0.015649794 -0.0063602515 -0.017056843 -0.034735084 -0.004099103 -0.00094104663 -0.011308389 -0.0007974211
-0.0045335586 -0.007151759 -0.029368445 0.0048462735 -0.0024144186 0.0060085044 -0.013488464 0.0067902105

bn2.running_mean f4 [64]
00000000: f270 2d3f f3c0 e9bf f9f9 33bf 3ae9 0d3f
00000010: 9218 91bf 8a31 813f d045 293f ebd9 62bf
00000020: 3b09 04be f7d0 8f3f 24d5 aabf c028 70bf
00000030: 87ea 813e 522e f5bc b9b0 8a3f e855 733f
00000040: 3b6b c33e 1d58 01bf 1d88 6ebf 3adc fc3e
00000050: bf6c 7fbf 6e8c 9e3e 9fb1 173e 6bda a53f
00000060: 48e7 6abf f037 bf3e 58d5 96bf e66c 78bf
00000070: 4b98 e5bf 9e95 073f f16b cf3e b14c e5bf
00000080: 9f3d acbf e4e0 3e3f 8c53 d0bf 67ab bfbf
00000090: 077c 2a3f 3fa2 9f3e 6920 c83e 856b fb3e
000000a0: d70f b83f 0be4 cebf ba21 efbe 071b e1bf
000000b0: b3b8 3a3f b245 9a3e 8147 b4bf 8538 40bf
000000c0: a987 a73c f7e9 59bf 544f a3be 6050 d2ba
000000d0: 8cad 82bf 7929 1b3f a1f5 883f 7858 803f
000000e0: 4305 6e3e ba65 763f 3b71 b13e da47 e33e
000000f0: 58b3 673f 1c65 dcbf 1670 823f 0dc8 3abf
0.67750466 -1.8262008 -0.70303303 0.55434 -1.1335623 1.0093243 0.6612215 -0.88613766
-0.12894146 1.1235646 -1.3346295 -0.9381218 0.25374243 -0.029929314 1.0835181 0.9505296
0.38167748 -0.50525075 -0.9317644 0.4938677 -0.9977531 0.30966514 0.14813851 1.2957281
-0.9175916 0.37347364 -1.1783857 -0.97041166 -1.7937101 0.5296267 0.4051204 -1.7914029
-1.3456305 0.74561906 -1.6275496 -1.4974183 0.665955 0.3117847 0.39087227 0.49105468
1.4379834 -1.6163343 -0.4670542 -1.7586373 0.7293808 0.30131298 -1.4084321 -0.7508624
0.02045043 -0.8512263 -0.3189646 -0.0016045682 -1.0209212 0.6061016 1.069996 1.0026999
0.23244195 0.9624897 0.346567 0.44390756 0.9050803 -1.7218356 1.0190456 -0.72961503

bn2.running_var f4 [64]
00000000: f00c d53f 1748 dc40 e92f 1c40 b8ce fa3f
00000010: 3a18 1d40 a4c7 1540 8f0b 3240 21b9 2b40
00000020: 518a d03e 5f7d 5d40 b96b 8240 3294 3a40
00000030: cccf c33f 41e4 7e3f 6b53 9040 ed11 2f40
00000040: cb4b d93f 70bf 1440 b1c8 4540 201d 9c3f
00000050: bdb9 4840 b37b 353f 67ee 4b3f 12a1 4a40
00000060: 4f05 5540 388d 333f dafb 8f40 3835 2c40
00000070: 306c ae40 cf37 0140 98af ee3e 00a5 ae40
00000080: 147c 1340 c00d e23f 220c 9d40 a010 c540
00000090: 9442 743f 8ca3 213f 1e1c 313f 7adf 6b3f
000000a0: c534 bb40 4135 8d40 912f 873e fb83 bc40
000000b0: 5087 c13f c496 e83e eab2 9240 6c5e 0340
000000c0: 1411 873e fa8f ea3f baa6 bf3f ddea 6d3e
000000d0: 6f41 1340 1e4e 2c3f 49b3 3340 6081 6140
000000e0: 75f4 643f 8816 2c40 259c 263f 1dcd 413f
000000f0: 17e7 0a40 e543 c140 191a 1040 e3a7 1440
1.6644573 6.8838 2.4404242 1.9594336 2.4546037 2.34031 2.7819555 2.6831744
0.40730527 3.460777 4.0756497 2.9152951 1.529779 0.9956704 4.510183 2.735469
1.6976255 2.3241844 3.0903742 1.2196388 3.1363366 0.70891875 0.7966065 3.166081
3.328449 0.7013736 4.4994936 2.6907482 5.4507065 2.0190313 0.46618342 5.4576416
2.3044481 1.7660446 4.907731 6.1582794 0.9541409 0.6314018 0.6918353 0.92137873
5.8501916 4.4127507 0.26403478 5.891111 1.5119419 0.45427525 4.58434 2.052638
0.26380217 1.8325188 1.4972756 0.23234124 2.3008687 0.673067 2.8078177 3.5235214
0.8943551 2.6888752 0.6508201 0.75703603 2.1703546 6.039538 2.2515929 2.322747

fc1.weight f4 [96, 64]
00000000: 6b7c 86bd 32ff bbbd 7265 5c3d e495 0a3c
00000010: 1d8f aebd 2e68 91bc 1b4a 193d 1341 3bbb
00000020: cae2 e9bd baed e13c ba8c d03d c151 9fba
00000030: 1b2f b13d 34ab bf3d 7a2a a5bd d820 00bc
00000040: fc40 e2bd f65a debb 685f f53b b264 983d
00000050: 6d3f 2c3c c0bc e8bd 7c14 333c a22c 9bbd
00000060: 2cbf 53bd 8363 11bd 8cb2 5bbd 217f 75bd
00000070: 577a c33d d6c7 53bd a8d0 1f39 d2fc 063d
00000080: 9460 bdbd c875 6fbb 6be6 573d e9dd e23d
00000090: 4fa8 fbbc a6d6 b1bc 245b f4bd 55e7 373d
000000a0: c095 03bd 2548 893c 7c1c 2bbd 9304 00bd
000000b0: 8e4c 563d c401 1a3e dc7b 4abc a29c 7abd
000000c0: 2044 85bd 97ca 6dbb 94f9 19ba 84c8 583c
000000d0: 3cd8 413d cb43 803c 1cd2 d03c 4004 84bd
000000e0: 5884 813d 91bc 8fbd c26a 6e3d 51b0 9c3d
000000f0: af3f 90bd 194a c03c 7b22 89bd 678d 813d
00000100: 2b65 debd fae5 6cbc 075a 3d3c 16eb be3d
00000110: 2c1f dd3d 881d 073d 350f fbbd 8213 c1bc
00000120: 4b6c 483d 0712 97bd 80a9 b0bd 257e a23d
00000130: ac53 fc3d bb0f dc3d ea6c 38bd d103 463c
00000140: b53d 973d cfcc d5bd 3bee a1bd 2f00 b43d
00000150: 1ca4 82bd 42b2 77bd 32b5 c6bd 55c7 9f3c
00000160: ea43 26bb 0470 3dbd 3f53 3a3d 90af d2bc
00000170: c607 c83d 5d9c 3f3d 0e51 c0b9 92b4 f23b
00000180: 0e74 d53c 0cc9 b6bd bd4d 05be 9b86 c63d
00000190: 3cb9 6e3d 7022 ba3d 969f 1dbd c5d4 ddbd
000001a0: 424a d2bd c4a2 cdbd 9da0 cc3d 8b8d 9fbd
000001b0: fe48 b6bd 0d63 babd b080 69bb f5f1 633c
000001c0: fe0d e63d f16a 033d 1cf4 fbbd 45cf 963d
000001d0: e52e f4bc dec4 b83d 2a6f d8bd cc41 b03d
000001e0: 9851 28bd a238 9c3d 55f9 473c 244d c43d
000001f0: ff18 bd3c c469 1c3d 8118 ba3d 2458 61bd
00000200: e252 503d 213f a93d 80bf 16bd ab9d f0bd
00000210: 9f40 cb3d 7a5d b1bc 4a9d 9f3d 0b02 893d
00000220: ad8f 253d 6a56 75bd d6f9 d73d b783 97bd
00000230: 57d3 b83c eaee aa3d 5ff3 e33d f6a0 c93d
00000240: d146 16bd 5265 afbc 5a4d cdbd a75c 82bd
00000250: 32ac b93d c39e a0bd 7e75 813d 188f da3d
00000260: 37c4 b6bd 2a29 b23d f84c f63d 3247 e63d
00000270: 5306 debd 5236 67bd b3c7 a33c 010b 8c3c
00000280: b3a9 a1bd d007 88bc 98b9 853d 5185 193d
00000290: 6367 5d3c a1ce afbd ab9e 50bd d413 763c
000002a0: 26c8 553d 822b 80bd 6d14 3abd 68e6 303d
000002b0: 8535 96bd 17a1 98bd aa00 8c3d 5897 473d
000002c0: d51b 8e3d 8e1c 88bd b45d 97bb f767 8ebd
000002d0: 3707 24bc b783 57bd 1f0a cc3c fc33 53bd
000002e0: e9cf 54bd 3909 9b3d aafb e23d dff7 92bd
000002f0: 0b04 893d f83a ff3d 7b11 37bd f90f 023d
00000300: f7ea 0fbd 7aa3 b9bc b2e9 b8bd a2e8 ccbc
00000310: 455b ac3c faef ea3d 6b2c 083d 28b7 893d
00000320: 8d01 efbd 13c5 843d 2a90 53bd 29c3 da3d
00000330: 7779 b1bc 9cd2 8c3d 4d47 ca3d f15f 8a3d
00000340: 619d a4bd ae74 c93d 98e9 70bd 5543 bcbd
00000350: 3873 853d a57a fcbc bd02 003e c9bb 79bc
00000360: 2bf7 d13d 8e35 95bb 4a84 81bd b843 5abd
00000370: 56e1 ab3d b6b9 893b 78ee f9bd 2ac4 c63d
00000380: 3544 e63c 93c3 0cbd 21bc e23d 6b2b 6ebc
00000390: 58bd c23d 111d dfbc 2249 1abd 5935 bcbd
000003a0: c789 c9bc 045e 893c 9941 cfbd cb4d efbc
000003b0: 377a 7c3d 1855 2cbd fe7e 8f3d 564f 86bd
000003c0: a5e7 86bc f96c 56bc 7f94 ddbd d144 cc3d
000003d0: 4e1d 493d c1c0 66bd 0227 af3d 347e d1bd
000003e0: 7ed8 dd3c f9fe 85bb ed87 98bb c1eb cf3d
000003f0: fddf 1abd 63d7 a03d 0345 36bc 7566 d9bd
-0.065666996 -0.09179534 0.053807683 0.008458588 -0.085233904 -0.017749872 0.037424188 -0.0028572723
-0.1142021 0.027579177 0.101830915 -0.0012155102 0.08651563 0.09358826 -0.080647424 -0.007820331
-0.11047551 -0.0067857457 0.00748818 0.07441081 0.010513169 -0.11364126 0.010930177 -0.075768724
-0.051695988 -0.035495292 -0.053637072 -0.059935693 0.09544819 -0.05170425 0.00015241152 0.032955952
-0.092469364 -0.003653871 0.052709978 0.11077482 -0.030719904 -0.021708798 -0.11931446 0.04489835
-0.032125235 0.016758034 -0.04177521 -0.031254362 0.052319102 0.15039736 -0.012358632 -0.061184533
-0.065071344 -0.0036284083 -0.0005873677 0.0132314 0.047325358 0.015657326 0.025490813 -0.06446123
0.06324071 -0.07018388 0.05820728 0.07650817 -0.07043397 0.023472833 -0.0669603 0.063257985
-0.1085914 -0.014459128 0.011557109 0.09322183 0.10796961 0.032987148 -0.1225876 -0.023568872
0.0489314 -0.07376485 -0.086260796 0.079342164 0.12320647 0.10745188 -0.045025744 0.012085871
0.073848166 -0.10439455 -0.07906767 0.087890975 -0.06378958 -0.060472734 -0.09702529 0.019504229
-0.002537007 -0.046249405 0.045489546 -0.02571848 0.09767108 0.04677998 -0.00036681484 0.0074067796
0.026056316 -0.089250654 -0.13017936 0.09693643 0.058282122 0.090886 -0.03848227 -0.10831598
-0.1026807 -0.10040811 0.09991572 -0.07790669 -0.08900641 -0.09100924 -0.0035629682 0.0139126675
0.112331375 0.03208441 -0.123024195 0.07363752 -0.029807517 0.090219244 -0.10568078 0.086063
-0.04109344 0.07627989 0.0122054415 0.09585026 0.023083208 0.038186803 0.09086705 -0.055015698
0.050860293 0.08263994 -0.036803722 -0.11748823 0.09924435 -0.021651018 0.077936724 0.06689843
0.040420223 -0.059896864 0.10545699 -0.073981695 0.022561712 0.083463505 0.11130404 0.09845154
-0.03668863 -0.021410618 -0.10024519 -0.06365328 0.09066047 -0.078427814 0.06321238 0.10671824
-0.08924144 0.08699258 0.120263994 0.11244048 -0.1084105 -0.05644829 0.019992685 0.01709509
-0.07893696 -0.016605288 0.0652954 0.037480656 0.013513419 -0.08584333 -0.050932568 0.015019376
0.05219283 -0.062582985 -0.045429636 0.043188483 -0.07334427 -0.074526004 0.06836064 0.048728317
0.06938902 -0.066460714 -0.0046193246 -0.069534235 -0.010011486 -0.052615847 0.02490717 -0.051563248
-0.05195609 0.075701185 0.11083157 -0.07176184 0.06690224 0.12462419 -0.044694405 0.031753514
-0.03513619 -0.02266096 -0.09028949 -0.025013272 0.021039614 0.11471553 0.033245485 0.067243874
-0.11670218 0.064829014 -0.051651157 0.10681755 -0.021664364 0.06876108 0.09876881 0.067565806
-0.0803783 0.09836708 -0.058816522 -0.0919253 0.06516117 -0.0308202 0.12501045 -0.015242525
0.10252222 -0.0045535034 -0.0632406 -0.053287238 0.08392589 0.0042030467 -0.122036874 0.09705384
0.028108696 -0.0343662 0.11071039 -0.014536719 0.09508771 -0.02723554 -0.0376674 -0.09189863
-0.02460183 0.016768463 -0.10119934 -0.0292119 0.06163999 -0.04207334 0.07006644 -0.06558101
-0.016467879 -0.013087505 -0.10819339 0.09974063 0.049100213 -0.05633617 0.08552362 -0.102291495
0.02708077 -0.004089233 -0.0046548755 0.10152388 -0.037811268 0.07853582 -0.011124852 -0.10615245

fc1.bias f4 [96]
00000000: 206d 68bd eccb 3ebd 9937 ec3d e6b2 c2bd
00000010: ce4e c6bd 7c27 e5bd 44e1 363d 6698 98bc
00000020: 04e6 743d 1e85 72bd ffcf c8bb a69e e73c
00000030: 862f db3d fe59 bdbd 43fe a43d 371e 933c
00000040: d897 cb3c 6503 1c3b a2b9 f5bd 4d27 afbd
00000050: a620 3abc 4699 1e3c bd36 cd3d 396c f1bc
00000060: 6ba5 46bd 937a 85bd d9df faba b7b3 a1bd
00000070: c974 e43d cf32 ab3d 6636 af3d 3d5c a3bd
00000080: 20ed 97bd 0918 9ebd e524 143d 619b fbbd
00000090: 45c4 65bd 23c7 da3d afda 7cbc dbcf 1fbd
000000a0: 9323 e0bd e980 9b3d 9ddd ec3c d7ac 953d
000000b0: 0674 d8bd 2123 ec3c e744 4cbc c9d2 a53d
000000c0: 212b 313d 6fda 013d 9680 47bd 7e58 e03c
000000d0: 3245 323d 1b34 fbbc 7871 f83d 4ffe 873c
000000e0: adc3 f6bd 3dcb 89bd fda1 d43d 6f28 a13d
000000f0: 96da a5bd 8564 c93b e83f c93d b686 fb3d
00000100: b7a9 70bd d966 d5bd a4ed 8d3c 026c e4bb
00000110: b37c e03c a119 73bd 959c f13c 04e5 5fbd
00000120: 4e1b deba 4ff7 94bb 4b7c 69bd 265b 14bd
00000130: 2005 9fbd 176a be3d c08f de3d 5e11 e83d
00000140: a1d6 513d 9fa6 c0bd 0f6e 3fbd 5b01 7cbd
00000150: 5545 e73d 5611 7a3d a772 48bd 1f14 cbbd
00000160: 31df b8bd b546 dc3d db12 e03d 4904 61bd
00000170: 1ff1 843c 3e7c f53c 08e6 37bd ca2a 8fbc
-0.056744695 -0.046581194 0.11534042 -0.095067784 -0.096829996 -0.11189172 0.044648424 -0.018627357
0.059789672 -0.05920898 -0.0061283107 0.028273892 0.10702424 -0.0924568 0.08056309 0.017958743
0.024852678 0.0023805734 -0.11998297 -0.08552418 -0.011360323 0.009680098 0.10020206 -0.02947055
-0.0484976 -0.0651752 -0.0019140198 -0.07895606 0.111550875 0.083593 0.085552976 -0.079765774
-0.07418275 -0.07719428 0.036167998 -0.122854955 -0.05609538 0.106825136 -0.015432998 -0.039016586
-0.10944285 0.07592947 0.028914267 0.07308357 -0.10569005 0.028825345 -0.0124675995 0.08096845
0.04325402 0.031702455 -0.048706613 0.027385946 0.04352302 -0.030664494 0.121310174 0.016600756
-0.12049041 -0.06728218 0.10382459 0.0786904 -0.080983326 0.006146016 0.09826642 0.122815534
-0.058755603 -0.10420007 0.01732523 -0.0069708833 0.027403211 -0.059350614 0.02949361 -0.054661766
-0.0016945393 -0.004546083 -0.0570033 -0.03621974 -0.077646494 0.09297579 0.10867262 0.113314375
0.051230077 -0.094067805 -0.04673582 -0.06152473 0.11292521 0.06105169 -0.048937466 -0.09915947
-0.090269454 0.10755674 0.109410964 -0.054935727 0.016228257 0.02996647 -0.04489711 -0.017476458

fc2.weight f4 [2, 96]
00000000: cebf de3c 41d5 2abd f153 2f3e 3901 2b3c
00000010: b1e9 f93d 4cce 133e 4a27 11bc 58a8 1e3e
00000020: 5b43 af3d 6b84 b7bd 2cf4 c73c 6a15 743c
00000030: ce23 0c3e bdd1 a1bb 0543 86bc d48d 76bb
00000040: 4e4b 1dbc 74de db3d 53a2 cf3d 726b 56bd
00000050: 05fe 01bd 4a31 a83c da0d 13bc 2a45 cf3d
00000060: 47f8 b0bd 05e6 b03d 8014 9fbd 6a01 69bd
00000070: b238 bc3c ffcd 05bc 8a6a 523d 89c9 b33d
00000080: f6be 29bd 7a8b 9bbd 8171 573d 122a 0c3e
00000090: cef5 823d 9d63 333d 464e e3bd b821 c33c
000000a0: 8384 e73c 2859 ad3d ffab 0e3e 25d3 38bd
000000b0: bb10 adbd c7ac 913d 796d c039 0f51 073e
000000c0: ce54 a33b 958a af3d 0d12 05bd 6397 5fbd
000000d0: 1611 083d 317a 3a3c f688 aa3d 8d1c bd3d
000000e0: 6b9d abbd 2355 073e 9a4f 093e af52 9e3c
000000f0: 0bbc b63d 63d0 bf3d 6824 663c ae05 c2bd
00000100: 646c c93c b817 773d dbb4 cbbd c060 d6bd
00000110: ba5f e93c 7dba a13d 7fb8 093e 3004 dabc
00000120: c1b6 5abd 3481 1b3b b5cb 203e 9b28 c33d
00000130: c8a1 95bc 3057 bd3c 8d27 b1bd 2d4e 9ebc
00000140: 25ac 043e 633f 963d 2db6 023e 6d13 053e
00000150: 9144 d4bd 7e45 98bd a7c8 8fbd 3be1 aa3d
00000160: 2ac6 fc3d f35e ce3b 6da9 8a3c f728 923c
00000170: ec30 523d b02f b93d 3848 243d e03f 3d3d
00000180: 6314 863d 87e7 93bd 6d2a ccbd c475 d33d
00000190: 8ec3 8dbd dd38 20bd 9d0b 803d a52a c73b
000001a0: 505e b8bc 3b5d e0bc 06d2 00be 5e17 abbd
000001b0: 675e debd 9d63 393d a5fc cf3b 57a8 0c3b
000001c0: 88ec 7abd 1fb7 ef3c cb46 5abc b706 c43d
000001d0: 5159 783c 9521 ccbd 46f7 893c a585 b0bd
000001e0: f1a9 b63d c165 adbd 6069 95bd 70ea c43d
000001f0: 19ca 963d de88 08be 724e e13d 0859 fcbb
00000200: 425d 7dbb 720c 243b 713b 323d 9f27 1e3d
00000210: 26e1 dcbd 072e 68bd e199 7b3d 095d 9ebd
00000220: 0146 8e3d 26b1 eebd 2f64 16bd 43dc b6bd
00000230: a741 c73d 9276 99bd 2598 c3bd 88c7 c83c
00000240: 14ec 283d 92b7 98bd 62ec 17be 676a d1bd
00000250: 28a3 7abd a6c6 413d 197d 473c f0df b8bd
00000260: bc27 5f3d d581 193d aa8e c7bc dcb7 8fbd
00000270: ad4a d1bd 8630 f9bd 144f 8cbd fa3a d43d
00000280: ef65 f23d 1c75 07bd a2ad 833b 076a ec3d
00000290: 8cf3 febd e5aa 11be 9fe1 b63b 9aaa a8bd
000002a0: 3d0c ed3c f24e 13be d9b8 e7bd 1a49 19be
000002b0: c559 b13d eafd eabd 748f 843d 21f7 cabd
000002c0: f3d8 66bd 357e 803c 2941 26be 0916 edbd
000002d0: faf8 dfbc c927 b1bc 875a b03d 7a04 50bd
000002e0: 08b7 aebd 4f04 783c 647a b93d 388f f6bd
000002f0: 82ff 14be f3c3 8abc 0c00 9bbd c92f 13be
0.027191069 -0.04170728 0.17121865 0.010437303 0.12202776 0.14434165 -0.008859465 0.15493906
0.08557769 -0.089608036 0.024408422 0.014897684 0.13685533 -0.004938333 -0.01638938 -0.0037621157
-0.009600474 0.10735789 0.10138383 -0.05234856 -0.031736393 0.020531315 -0.00897547 0.10120614
-0.08641105 0.08637623 -0.07767582 -0.056886114 0.022976253 -0.008166789 0.051371135 0.08778674
-0.04144188 -0.075949624 0.05259848 0.13687924 0.0639454 0.04379617 -0.11098914 0.02381979
0.028261429 0.08464271 0.13932799 -0.045123238 -0.08450457 0.07113033 0.00036702657 0.13214515
0.0049844747 0.08571354 -0.032487918 -0.054587733 0.03321942 0.011381672 0.083269045 0.09233961
-0.083796345 0.13216071 0.13409272 0.019326536 0.08922585 0.093659185 0.014046766 -0.094737396
0.024587817 0.060325354 -0.09946605 -0.10467672 0.028488029 0.07896898 0.13449286 -0.026613325
-0.053396944 0.0023728134 0.15702708 0.09529229 -0.01826562 0.023112863 -0.08650122 -0.019324386
0.12956293 0.07336309 0.12764807 0.12995692 -0.103646405 -0.074351296 -0.07020693 0.083437406
0.12342484 0.00629794 0.016926492 0.0178418 0.051316187 0.09042299 0.040107936 0.046203494
0.06546857 -0.07221895 -0.099690296 0.103251964 -0.06922065 -0.03911673 0.06252215 0.0060780817
-0.02250591 -0.027388206 -0.12580118 -0.08354066 -0.108578496 0.045261014 0.0063472562 0.0021462643
-0.06126073 0.029262124 -0.013322542 0.09571593 0.015158013 -0.09967343 0.016841542 -0.08619241
0.089191325 -0.08466674 -0.07295489 0.09615028 0.07362766 -0.1333346 0.110012904 -0.007701043
-0.0038660322 0.0025031832 0.04351372 0.038612004 -0.10785131 -0.05668452 0.061426047 -0.07732589
0.06946946 -0.11654882 -0.036716636 -0.0892873 0.09729319 -0.074933186 -0.09550504 0.024509206
0.041240767 -0.07456888 -0.14836267 -0.10225373 -0.061190754 0.047308587 0.012175822 -0.09027088
0.054481253 0.037477333 -0.02436002 -0.0701749 -0.102193214 -0.12167458 -0.068510205 0.103628114
0.118358485 -0.03307067 0.0040185014 0.115436606 -0.12448797 -0.14225347 0.0055810953 -0.08235665
0.0289365 -0.14385584 -0.11314554 -0.14969292 0.086597 -0.114742115 0.06472674 -0.09910417
-0.056359243 0.01568518 -0.16235794 -0.115764685 -0.027340401 -0.021625416 0.08611017 -0.05078552
-0.08531004 0.015137746 0.09056547 -0.120390356 -0.14550593 -0.016939139 -0.07568368 -0.14373697

fc2.bias f4 [2]
00000000: b96d ae3c 426b 82bd
0.021292554 -0.06368114
