input/05_cnn_qsar/01_featurize/01_featurize_fda_world/02_CNN/run_files_0.1/model_9.pth (torch, 634400 bytes, 20 tensors)

conv1.weight f4 [128, 1, 11, 42]
00000000: de31 3bbc f1a3 d63b c8f8 17bd a810 83bc
00000010: d318 67bc 170a bf3c 3ef9 153c 4fa4 d73c
00000020: fb02 aa3c eb57 a6bb 796c 1f3d c56e 19bd
00000030: a96a c7bb 5368 4e3d bded 29bd 4b72 1c3d
00000040: 24b1 84bc 422a 95b9 2c4b 6bbb 2a47 febc
00000050: fdd7 c73c 8e20 0d3c 4a84 a9bb a047 a23c
00000060: cc31 38bd 2f82 e63c 2fb1 a23c ca47 20bd
00000070: 509f e3bc ce1e 22bd b8e6 e33c 1b0c 9ebc
00000080: c4fa 9abc eceb c53c d14a 29bd 72af 59ba
00000090: d7c8 8d3c e04d 273d 900f b1bb 3e5f 03bd
000000a0: 2e4a 0f3d fbd3 f7bb 8e82 cc3c 10d8 2c3d
000000b0: 6b17 c3bc 6995 14bc 976a fbbc 7092 acbc
000000c0: 314a c93c 947a fbbc 6ab3 f83c 690e 21bd
000000d0: dcee e0bc 1cc5 16bd 0881 133d 18bc 2ebd
000000e0: feef 0e3d 3ce1 263d b45c 2bbd 3350 a1bc
000000f0: e55a f4bc 5661 b93c 08a3 f43c 3c34 a6ba
00000100: ae5b 1fbd a5f1 95bb bce9 f7bc f844 0ebc
00000110: d1a0 28bd aa99 07bd c864 fcbc 7bfa 193d
00000120: f819 c5bc a5a9 17bd 0722 d43c 7aa0 95bc
00000130: 6b04 853c 91ed 473b f8f8 193d 9557 9b3c
00000140: bd42 3d3d 7c09 e73a fb5d debc 76bb 0bbd
00000150: 84e8 9e3c 9b16 95bc 0751 89bc e42e d53c
00000160: 3ec8 4fbc a0b9 03bd 6f24 473d db60 c9bc
00000170: 3e28 3c3d 5699 07bc c0d0 aa3c 3026 413c
00000180: c8d0 79bc f025 0ebd 0dab fe3c a070 c23c
00000190: bb35 8a3c 27f2 1d3d fb43 fcba 2d3d a4bc
000001a0: 808b ccbc 98f5 dc3c 01ff c8bc fbe9 2c3d
000001b0: d69b d43c c3fb a23c bacd 14bd 72c9 0ebd
000001c0: 0b3f 3b3d 12aa 6fbc 1164 22bc 3909 f63c
000001d0: afe7 c3bc f7e7 193d a540 b63c f4f7 303d
000001e0: c795 a73c 7642 5abc 4cb6 d4bc 6951 1cbd
000001f0: 4236 56bd c06b 803b 171f 003d 75a9 e2bc
00000200: d4a3 babc c352 1f3d 6843 023a c015 b23c
00000210: 3ee6 b33c 528f dfbc a466 8c3c e693 e0bc
00000220: e118 5d3c b91b 0dbb aecd 983c 753e 663d
00000230: d465 ca3c 5fb7 b93c ca1b d1bc 98d1 9e3c
00000240: 3cd9 0bbd 47a9 08bc 1047 89bc e60c 17bc
00000250: 8b4d a3bc 4817 2f3d 4ed0 66bc 070d 82bc
00000260: ae15 1d3d 8e53 03bd f6b1 5a3d 412e 153d
00000270: 8157 47bd 9d34 2bbd b897 50bc 0e8f e03c
00000280: 08f2 193d f17e 053c 7274 69bc 4883 483c
00000290: a473 bebc 8cbc 783c f8b3 293c 028e 173d
000002a0: 79d4 953b d1f7 f4bc 9d89 283c 95db 6c3c
000002b0: 11c0 94bb 9bc5 1ebb f202 2fbd f07e e7bc
000002c0: acb8 923c 0058 28bd 42ac b9bc 8e91 333d
000002d0: afac 39bd 5dc7 293d a537 163d dfa3 19bd
000002e0: a381 75bc bb96 9b3c 89c0 eb3c 4c44 62bc
000002f0: 5c94 26bd 1ec7 3abd b8bd 273d b597 59bd
00000300: 9cea a33b 9489 3c3d edf8 b33b f26d 853c
00000310: effa 2d3c ffb3 05bd 8b2d 21bd b876 f9ba
00000320: 1bd1 bcbc 4ee9 ea3c 6185 a9bc 7718 6c3c
00000330: 665d dc3c ccca f83c dae0 c9bc f98f dabb
00000340: 6b7b 9f3c e216 09bd 04ae b2bc 19dd 223a
00000350: a975 623b 3ba1 f8bc 1e04 f83c dde9 013c
00000360: 16bc 80bc db43 c7bc c082 8cbc 91e5 163d
00000370: 5ab7 3f3b e9a1 bd3c 78e5 7fbc 773e 0ebd
00000380: 9161 a63b 0ecc c63c 4ad5 52bd 6083 04bc
00000390: 95d9 ca3c 4a3c 91bc efbf 1e3d 19ed 45bd
000003a0: 2cf6 92bc 2f2e 86bb d32e dfbc 6ec7 013c
000003b0: 3a47 363b 9bab b7bb c8e1 c9bc 10e6 433c
000003c0: 354d 503b 33fe 273d cabd a1bc 563d 933a
000003d0: ede2 eebc e313 b83c 1196 25bd 8361 8d3b
000003e0: 0514 933c 63ee 38bb 6c2d 0a3d d86c 203c
000003f0: 91c1 b1bc c1b1 6abc 9195 14bd 41fc 113c
-0.0114254635 0.006550305 -0.03710249 -0.015999153 -0.01410504 0.02332024 0.009153662 0.026323466
0.020753374 -0.0050763986 0.038921807 -0.037459154 -0.006085713 0.05039246 -0.04148649 0.038194936
-0.016197748 -0.0002845098 -0.003590296 -0.031039793 0.024394983 0.008613719 -0.005173241 0.019809544
-0.044969365 0.028138248 0.019859878 -0.039130963 -0.027785927 -0.03958016 0.027819976 -0.019292882
-0.018918402 0.024160348 -0.041331116 -0.00083040365 0.017307682 0.04084575 -0.0054034665 -0.032073252
0.034982853 -0.007563112 0.024964597 0.04219824 -0.023814877 -0.009068825 -0.030690474 -0.02106592
0.02457151 -0.030698098 0.030358989 -0.039320383 -0.027457647 -0.036809072 0.036011726 -0.04265985
0.034896843 0.040742144 -0.041836455 -0.019691562 -0.029828498 0.022629421 0.029862896 -0.0012680362
-0.038905792 -0.0045759254 -0.03026282 -0.008683436 -0.04116899 -0.03310553 -0.030809775 0.037592392
-0.024060234 -0.03702702 0.025895132 -0.018264998 0.016237458 0.003050659 0.03759095 0.01896266
0.046206225 0.0017626728 -0.027144423 -0.034114324 0.019397981 -0.018199256 -0.01676227 0.026023336
-0.012682019 -0.032159448 0.04861873 -0.024582317 0.045936815 -0.008276304 0.020851493 0.01178889
-0.015247531 -0.03470415 0.031087423 0.023735344 0.016871324 0.038561013 -0.0019246334 -0.020048702
-0.024968863 0.026972577 -0.024535658 0.04221533 0.025953215 0.01989544 -0.03632901 -0.034860082
0.04571442 -0.01462795 -0.009911553 0.030033695 -0.023914186 0.037574735 0.022247622 0.043205217
0.020457162 -0.01332151 -0.025965832 -0.038163576 -0.052297838 0.003919095 0.03127965 -0.027668694
-0.022783197 0.038897287 0.0004969151 0.021738887 0.021960374 -0.02729002 0.017138787 -0.027414273
0.013494701 -0.0021531417 0.018652763 0.056211907 0.024706759 0.022670446 -0.025525946 0.019387051
-0.034142718 -0.00834114 -0.016757518 -0.009219384 -0.019934436 0.042746812 -0.01408775 -0.015875353
0.038350753 -0.032062106 0.053392373 0.036421064 -0.048667435 -0.041798223 -0.012731485 0.027411964
0.037584335 0.008147941 -0.014248954 0.012238331 -0.023248501 0.015181672 0.010357849 0.037000664
0.004572448 -0.029903324 0.010286716 0.014456649 -0.0045394977 -0.0024226669 -0.04272742 -0.02825877
0.017910324 -0.04109955 -0.022665147 0.043839984 -0.0453307 0.041449893 0.03667416 -0.037509795
-0.014984521 0.018992772 0.028778331 -0.013810229 -0.04066883 -0.04560005 0.040952414 -0.053123195
0.005002333 0.046029642 0.0054923207 0.016287778 0.010618909 -0.03264236 -0.039350074 -0.0019032573
-0.023048928 0.028675701 -0.020693483 0.01441013 0.026900005 0.030370139 -0.02464335 -0.006669995
0.01946803 -0.03346909 -0.021811493 0.00062127557 0.0034554994 -0.030350318 0.0302754 0.0079292925
-0.015714686 -0.024324348 -0.01715219 0.036840025 0.0029253573 0.023148494 -0.015618674 -0.03472754
0.005077549 0.024267223 -0.05147294 -0.008087963 0.024761954 -0.017728943 0.03875726 -0.048321817
-0.01793965 -0.004094861 -0.027244007 0.007921083 0.002781345 -0.0056051738 -0.024643794 0.011956707
0.00317843 0.041013908 -0.019743819 0.001123349 -0.029160941 0.02247042 -0.040426318 0.004314603
0.017953882 -0.0028218261 0.033734724 0.009791575 -0.021698745 -0.014324606 -0.03627545 0.00891024

conv1.bias f4 [128]
00000000: 7bdc f8bb 59db 303d 6915 87bc 7c93 7dbc
00000010: 3556 a6bc a57f 233d f8a9 cebc 4f4c 97bc
00000020: 34b3 4bbc a1b7 07bd 0f30 ba3c e52f cebb
00000030: eb7c d73c d882 09bd c98e 093c cd7f 3fbc
00000040: b99f 083d bf67 063d c775 0f3c c900 f73c
00000050: fd35 b9bc c13b e03b cde5 45bd a839 bd3c
00000060: 0e4e a238 efdb 503d 65fb 273d 87fb 1b3d
00000070: 634f 0e3d a327 463d 91a4 353d ed8b cbbb
00000080: ddb2 01bd e634 fd3b f42b 33bc 09a3 4a3d
00000090: 5452 343c 4a99 b13c 8337 16bd c373 9e3b
000000a0: b443 d0bc a36d d23c 0b9c 323d 4bcc ad3b
000000b0: f593 273c 86b2 213c a2d3 563c 24f2 cabc
000000c0: f624 713c f220 9bbc 1c99 18bc cdce 19bd
000000d0: febf cb3c c869 283d f850 a6bc f8d9 183b
000000e0: 1131 0c3d 27aa 06bd 314d 27bd a6ae 273c
000000f0: a305 403c 5cb7 aebc a15c f7bc e228 fd3c
00000100: 4e1d f2bc fa43 18bd 837b af3b 64d5 cabc
00000110: 06b0 0ebd 8d66 54bc e1c9 b3bc 1b77 513c
00000120: b93f 04bd 2b40 1f3d 70e4 193b 0c7a 33bc
00000130: c77e 8ebb 11d4 5d3c 58f6 87bc dacb dbbc
00000140: fe49 aabc cfe6 39bd a48b 243d 6bad edbb
00000150: 515f efbc 4a45 573c 2fb3 77bc 4134 ee3b
00000160: c71f c0bc 015d c93c c65c ebbc 2ad0 afbb
00000170: c48e 013d 28f0 c9bc 4eb0 c8bc d89b 183d
00000180: 0d6e 07bd dfd4 f4bb 06ef c03c 126f 3ebd
00000190: 79a0 febc ff08 04bd f230 e93c 68f0 0bbc
000001a0: 825b 67bb 1acb 433d d67d 373d aef8 e2bc
000001b0: 05a2 09bd d727 f6bc d634 673c bbbd 2f3d
000001c0: 597f 1f3d ef37 14bd 0594 a6bc 95a7 10bc
000001d0: ded5 1e3d 73d5 ba3c a108 dd3b 4505 5bbb
000001e0: 60a8 d13c ad54 49bd c6f0 023d 9abb 483c
000001f0: 76d4 15bc 8a66 d3bc 6d74 edbb 56c0 d4bc
-0.0075946427 0.043177936 -0.016489701 -0.015477058 -0.020304779 0.039916653 -0.025227532 -0.018469004
-0.012432862 -0.033134107 0.022727994 -0.0062923306 0.026304683 -0.033572048 0.008395859 -0.011688185
0.03335545 0.032813784 0.008756108 0.030151742 -0.022608751 0.0068430607 -0.04831486 0.023098782
7.739301e-05 0.050990995 0.041011233 0.038081672 0.034743678 0.048377644 0.044346396 -0.006211749
-0.031664718 0.0077272533 -0.010935772 0.04947189 0.011005957 0.02167954 -0.036674034 0.004835577
-0.025422908 0.025687044 0.043605845 0.0053038946 0.010228147 0.009869223 0.013111981 -0.024773665
0.014718285 -0.018936608 -0.009313848 -0.037550736 0.024871822 0.041116506 -0.02030228 0.002332328
0.03422648 -0.032877114 -0.0408451 0.0102345105 0.011720094 -0.021327667 -0.030195536 0.030903284
-0.02955499 -0.037174203 0.0053553 -0.024759956 -0.034835838 -0.012963903 -0.02194685 0.012784745
-0.032287333 0.038879555 0.0023482107 -0.010954391 -0.004348609 0.01353933 -0.016596958 -0.026830602
-0.020787235 -0.04538613 0.040172234 -0.007253339 -0.029220255 0.013139078 -0.015118404 0.0072694127
-0.023452653 0.02458048 -0.028730761 -0.0053653913 0.031630293 -0.024650648 -0.024498131 0.037258
-0.033063937 -0.0074716653 0.023551475 -0.046492644 -0.031082379 -0.03223514 0.028465722 -0.008541204
-0.0035302346 0.047801115 0.04479774 -0.02770647 -0.03360178 -0.030048294 0.014111718 0.04290555
0.038939808 -0.036186155 -0.020334253 -0.008829017 0.03877818 0.022806859 0.0067454134 -0.003341989
0.025592983 -0.04915302 0.0319679 0.012251759 -0.009144893 -0.02580573 -0.007246545 -0.02597062

bn1.weight f4 [128]
00000000: f71d 7f3f a2c7 803f 9088 803f 9452 803f
00000010: 7685 803f 6b5c 7e3f b789 7e3f 6b6e 7f3f
00000020: f8f2 7e3f aff6 803f 3856 803f 4337 7e3f
00000030: cd16 7f3f ea29 7f3f 6d7b 803f 4e0a 813f
00000040: 531d 803f 8338 7f3f b5d4 803f d618 803f
00000050: 08e2 7d3f a10a 803f 8e0f 803f da8f 7e3f
00000060: 3439 7f3f 7a1a 813f 5f7e 803f e2f0 803f
00000070: de99 803f d114 7f3f b459 7f3f 8a8f 7e3f
00000080: 4116 7f3f 9290 803f fd3a 7f3f 8053 7e3f
00000090: cb5c 7e3f a2a0 7f3f 9f2f 7d3f d741 7e3f
000000a0: e7ed 7e3f fbe1 7e3f a42b 7f3f 5d0a 7f3f
000000b0: 46b5 7f3f 9db5 7f3f a13e 803f 513e 803f
000000c0: 8ad9 7f3f 23c1 803f cfab 7f3f e5cf 7f3f
000000d0: fde7 803f 3e2e 813f cc08 7f3f 9ed7 803f
000000e0: 73f3 7f3f 0bc6 7f3f 670a 803f bd5d 7d3f
000000f0: 485b 803f 5293 803f a305 7f3f 9902 813f
00000100: c0dd 803f 1d38 813f cf45 803f 60e4 7e3f
00000110: 93f4 7f3f 5985 803f 116d 803f 66f1 7e3f
00000120: d06e 7e3f 8b6b 813f 9e66 7f3f d266 803f
00000130: 2b9f 7f3f 0e22 803f ad8a 7e3f 10c9 7e3f
00000140: b54e 7e3f c38b 803f a663 803f 0d99 803f
00000150: e13e 803f ff94 803f f674 7f3f d3e5 7f3f
00000160: cb7c 803f 626e 803f 5958 803f c8a0 803f
00000170: cacb 7e3f 6612 7e3f 6310 803f 4a82 803f
00000180: 22bc 7e3f 111b 803f 829c 7f3f 68f6 7f3f
00000190: 07b7 7e3f 2d42 803f fcff 7f3f bfa9 803f
000001a0: f44c 803f 9412 813f dfb5 803f 23cb 803f
000001b0: fbd1 7e3f f0fe 7f3f 897c 803f c222 7f3f
000001c0: c7da 7f3f 3e86 803f 2e1c 7f3f d798 7f3f
000001d0: bd22 7f3f e01e 803f a218 803f ddc2 7e3f
000001e0: c0c4 7e3f 8234 803f 54c3 803f 5406 813f
000001f0: 325c 7f3f f7d2 803f e989 803f 0fa5 7d3f
0.996551 1.0060923 1.0041676 1.0025201 1.0040729 0.9935977 0.99428886 0.9977786
0.9958949 1.0075282 1.0026312 0.9930307 0.99644166 0.9967333 1.0037667 1.008127
1.0008949 0.99695605 1.0064913 1.0007579 0.9917302 1.0003244 1.0004747 0.9943825
0.9969666 1.0086205 1.0038565 1.0073512 1.0046957 0.9964114 0.9974625 0.99437773
0.9964333 1.0044119 0.99699384 0.9934616 0.9936034 0.9985448 0.9890079 0.99319214
0.9958176 0.9956357 0.99675965 0.9962519 0.99885976 0.99886495 1.0019113 1.0019017
0.99941313 1.0058941 0.99871534 0.99926597 1.0070797 1.0092237 0.996228 1.0065801
0.9998085 0.99911565 1.0003175 0.9897116 1.0027857 1.0044959 0.99617976 1.0078918
1.0067673 1.009525 1.0021304 0.9956722 0.99982566 1.0040694 1.0033284 0.99587095
0.99387836 1.0110945 0.99765956 1.0031378 0.99852246 1.0010393 0.9943035 0.9952555
0.9933885 1.0042652 1.003041 1.0046707 1.0019189 1.004547 0.99787843 0.9996006
1.0038084 1.0033686 1.0026962 1.0049067 0.9952971 0.99246824 1.0005001 1.0039761
0.9950582 1.000826 0.99848187 0.9998536 0.9949803 1.0020195 0.99999976 1.0051802
1.0023484 1.0083795 1.0055503 1.0061992 0.99539155 0.9999838 1.0038005 0.9966241
0.999432 1.0040967 0.99652374 0.9984259 0.9966238 1.0009422 1.0007517 0.9951609
0.99518967 1.0016024 1.005961 1.0080056 0.99750054 1.0064381 1.0042087 0.99079984

bn1.bias f4 [128]
00000000: 420c bcba e186 7dba 4a1e f73b 2bb7 793a
00000010: 01f3 f2bb 8d37 563b f53f b43b 2202 5e3b
00000020: d8cb b3bb 8c12 19bb df62 23ba bca6 00bc
00000030: 184d 26bc 5463 2e3c 7138 1c3b 9de7 a13b
00000040: 8cfb 32bb 312d a7bb 0a5c b03b 4523 7abb
00000050: ad3a 0d3b e711 9abb ad98 e43b c8b1 233b
00000060: d863 0b3b c25e eb3b 786e 443a bdbd 133c
00000070: 8789 88bb ba50 0abb 0f17 aabb ccd8 1eb9
00000080: 6992 f13b 4e37 4f3b e346 2b3b 6e4b 8738
00000090: cd5f c039 9851 cabb 1f10 18bc 6e7e 5fbb
000000a0: 8179 1fba cd3e d53b 6900 b5bb bb0d 7ebb
000000b0: 0fae cd3a 6fcd 1e3a 16e9 193b e2eb 473b
000000c0: 2e0f 503b 3fe4 603b 2d94 ffb8 04f7 a93b
000000d0: 690a cf3b 6763 e7b8 093a 143b 91af 083c
000000e0: 7bc6 e13b 869b 41bb 9fd7 8a3b 2b7d 32bc
000000f0: 4243 dcbb 6fe4 e03b 3a76 94bb a4ca 0e3c
00000100: 245b 593b 8cc5 e43b e6ca 9ebb 9087 8fbb
00000110: cde3 abbb a240 093b 6a1c cfbb 37e4 19bb
00000120: 70c5 e5bb 217c ce3b b0d4 04bb 7db2 033c
00000130: cfdf 65bb f249 7d3b 13ab 80bb 0f0f 0ebb
00000140: b72e 0bbc c2a2 ca3a ebb7 3f3b 2e25 193c
00000150: ba78 d63a 4421 3dba ba83 87bb a9f7 ee3b
00000160: d14a a7ba 5b79 8f3b 50cd f13b 8d35 bd3a
00000170: 38f6 32bb 942a 3abb 70c9 3fbb 30be b33b
00000180: d208 9dbb 769d 503b 4e50 f639 72a6 043b
00000190: e9e1 81bb 889f 1f3b 9ec0 6fbb 823d df3b
000001a0: 2fbc 303b 031e 58bb 23bd 083b 2aa5 953b
000001b0: 3e44 c1bb d3d7 90bb a8fa b5bb 28fd 8fba
000001c0: 34bf 65ba c5c6 dcbb ff13 2cbb 0dc8 b1ba
000001d0: ec52 8e3b 122f 863a 56df 93ba df05 06bc
000001e0: 21df ccbb d0f0 5c3b 2afd a9bb 68d0 343b
000001f0: 4dbc 72bb db4d e53b 8c18 e63b 1e46 aabb
-0.0014346915 -0.00096712826 0.0075414525 0.00095258903 -0.007414222 0.003268692 0.0055007883 0.0033875783
-0.0054869466 -0.0023357002 -0.00062326895 -0.007852253 -0.0101502165 0.010643799 0.0023837353 0.0049409405
-0.0027310578 -0.005101823 0.0053820657 -0.0038167995 0.0021549866 -0.004701841 0.006976208 0.0024977792
0.0021269228 0.007182927 0.0007493268 0.009017405 -0.004166785 -0.0021105246 -0.005190737 -0.00015148817
0.00737219 0.0031618658 0.002613478 6.4513515e-05 0.0003669247 -0.0061742775 -0.009281187 -0.0034102458
-0.0006083474 0.0065077306 -0.0055237305 -0.0038765508 0.0015692132 0.00060578337 0.0023484877 0.0030505587
0.003174733 0.0034315733 -0.000121869474 0.0051869173 0.0063183797 -0.000110334535 0.00226176 0.00834264
0.006890116 -0.0029542162 0.00423713 -0.0108941 -0.006721885 0.006863169 -0.0045306953 0.0087153055
0.0033165896 0.0069815572 -0.0048459647 -0.004380174 -0.005245662 0.0020943065 -0.006320526 -0.0023481974
-0.007012062 0.0063014184 -0.0020268373 0.00803816 -0.0035076027 0.0038648811 -0.0039266436 -0.0021676456
-0.008495024 0.0015459883 0.002925391 0.009347243 0.0016362884 -0.0007214735 -0.004135576 0.007292707
-0.0012763386 0.0043784804 0.0073792115 0.0014435515 -0.0027307402 -0.0028406726 -0.0029264353 0.0054853186
-0.004792311 0.0031832135 0.00046980608 0.002024081 -0.003963698 0.0024356563 -0.0036583315 0.006812752
0.0026967635 -0.0032976873 0.0020864687 0.004566808 -0.0058980277 -0.0044202595 -0.005553562 -0.0010985481
-0.0008764148 -0.0067375624 -0.0026257036 -0.0013563648 0.004343381 0.0010237417 -0.0011281769 -0.008180111
-0.006252185 0.0033712871 -0.00518765 0.002759004 -0.0037038506 0.0069978065 0.007021969 -0.005196347

bn1.running_mean f4 [128]
00000000: b0fd 21bc 0cfb 233d 3c5f debc ff25 deba
00000010: 40ad 5ebc f834 543c 42d5 00bd 4af8 0abd
00000020: 036b df3a fede e4bc b250 943c 146a 7cbb
00000030: da1c 103d f4b1 1dbd c5d0 463c dc53 acbb
00000040: ccc4 b63c f9f0 223d dfec 873c cfb1 ca3c
00000050: caa1 d8bc 5a2c c03a 7d09 24bd 21a4 3e3c
00000060: fe02 723c 6df3 6c3d c5e5 463d ff66 2d3d
00000070: 3863 053d 02c2 243d d27f 573d 3664 0ebb
00000080: fe13 e7bc 7765 443c d408 6c3a aded 2c3d
00000090: e6d3 f13b 0ac2 313c e90a edbc 1198 f4bb
000000a0: 71b0 fdbc b9a0 cb3b 4ec0 3c3d 539a aebb
000000b0: d4bb 233c f12d 553b bbd7 b23c 7f5d 06bc
000000c0: 81a8 7b3b bb00 41bc f3db 5cbb 8a25 f6bc
000000d0: 707f 133d 0036 153d 0561 fcbc 1e5d f7bb
000000e0: eb19 b73c 344b e5bc 1b83 21bd 4034 1e3c
000000f0: 157f 173c 7093 9dbb 1ae5 fcbc f8d4 1c3d
00000100: 52c1 93bc 8a34 dabc 9b3c 5f3a 3cfd 50bc
00000110: 6972 01bd 843a c4ba d1fb 60bc bf10 113c
00000120: 8e60 f8bc 4748 033d dc93 d9bb 7ca7 b3bc
00000130: b33b b0bb 444a 233c ba5c 2ebc ed40 97bc
00000140: 8659 a3bc 6bd3 1dbd 4c1a 3f3d dd3a babb
00000150: b51b 9cbc d0d7 1f3c e7c6 5ebc d195 46bb
00000160: 1a59 a2bc 2e1b e63c f232 fdbc 0251 2bbc
00000170: 11ec e03c 0960 00bd ce95 6abc 49d5 173d
00000180: e88e a7bc 2759 af3b f9dd a03c c5c7 48bd
00000190: 3835 14bd bf81 cabc 8c82 823c b4fe 953b
000001a0: c5a8 8fbb 6a31 003d d304 193d 86a6 3cbc
000001b0: 86d4 d0bc cbfe a1bc 44c9 863c 44be 2a3d
000001c0: 6c61 4f3c 852a e3bc e72c b0bc fe64 b4bb
000001d0: 9b01 843c a652 c33c 4396 8a3b bffd 8bbc
000001e0: f4b8 c03c 1cdd 42bd 5ac4 ed3c 32e9 7c3c
000001f0: bbcb 17bc 0ae3 7bbc 0cf7 803b 642c c1bc
-0.009887144 0.04003434 -0.02714502 -0.001694858 -0.013591111 0.012952082 -0.03145338 -0.033928193
0.0017045442 -0.027938362 0.018104885 -0.0038515376 0.035183765 -0.038499787 0.0121347355 -0.0052590203
0.022310637 0.03978059 0.016592441 0.024742989 -0.026444335 0.0014661655 -0.04004811 0.011635811
0.014771221 0.057849336 0.04855897 0.042334553 0.032565325 0.040224083 0.052612133 -0.002172721
-0.028207775 0.011987082 0.0009004001 0.042218853 0.0073799966 0.010849485 -0.028935866 -0.007464417
-0.030967923 0.006214228 0.046081834 -0.0053284555 0.009993512 0.0032528604 0.021831384 -0.008201002
0.0038399997 -0.011779959 -0.0033700436 -0.030047197 0.036010206 0.03642845 -0.030807981 -0.007548942
0.022351226 -0.027989961 -0.039431673 0.009656012 0.009246607 -0.0048088357 -0.030870963 0.03828904
-0.018036518 -0.02663638 0.0008515806 -0.012755688 -0.03160325 -0.0014971052 -0.013731913 0.00885409
-0.030319478 0.03205135 -0.0066399407 -0.021930449 -0.0053782105 0.009966437 -0.010642225 -0.018463576
-0.019940149 -0.038531702 0.046655938 -0.0056832866 -0.01905618 0.009756044 -0.013597227 -0.00303017
-0.019817878 0.028089132 -0.030908082 -0.0104563255 0.027456315 -0.031341586 -0.014317943 0.03706864
-0.020453885 0.005351204 0.019637095 -0.04901864 -0.036183566 -0.02472007 0.01593139 0.004577482
-0.0043841326 0.031297125 0.037358116 -0.011514312 -0.025491964 -0.019774815 0.016453393 0.041685358
0.0126575045 -0.027730236 -0.021505786 -0.0055052033 0.016114047 0.02384312 0.0042293384 -0.017088769
0.023525693 -0.047574148 0.029024292 0.0154364575 -0.009264882 -0.015373955 0.0039357003 -0.023580737

bn1.running_var f4 [128]
00000000: 054e 3f3e e29f 3f3e 4650 413e 8d75 403e
00000010: 8bd9 3f3e b413 433e 74ae 403e de0c 423e
00000020: 3f80 403e 0b55 3f3e fe95 3f3e 2fa6 3f3e
00000030: 52e6 403e 0105 403e d579 3f3e 8b69 3f3e
00000040: 9d7f 3f3e c8cc 403e 6413 403e 50db 3f3e
00000050: e927 403e 54bf 3f3e dad8 3f3e 977a 3f3e
00000060: b673 403e 214e 413e 8e0d 413e 1cbd 403e
00000070: a2a3 3f3e 7afb 3f3e 1b6a 413e 2579 3f3e
00000080: e09f 3f3e 9ab5 3f3e eb3c 403e 2cea 3f3e
00000090: c0f8 3f3e 7135 403e 4422 403e 87db 403e
000000a0: 084d 403e f54e 413e ec1a 403e 1973 403e
000000b0: 86a4 3f3e 3d79 403e 2ae7 3f3e 336a 413e
000000c0: f192 3f3e 4c36 403e 1ac9 3f3e c70c 403e
000000d0: d352 423e 0edf 3f3e b7cf 413e 2326 403e
000000e0: e9c4 3f3e 9afd 3f3e 6260 403e 6690 3f3e
000000f0: 00a3 3f3e aef3 403e 60b3 3f3e 713c 413e
00000100: d97f 3f3e 2e36 403e 0cad 3f3e fa84 3f3e
00000110: 22f7 3f3e b93a 413e b3e2 3f3e 324a 3f3e
00000120: ad32 403e 525b 403e 92de 3f3e 51ca 403e
00000130: 53de 3f3e c8a9 3f3e 7546 403e acdb 3f3e
00000140: 15ed 3f3e c68d 3f3e b33b 413e 79ee 3f3e
00000150: e257 3f3e 25ce 3f3e b887 3f3e c039 403e
00000160: b1ed 3f3e bfa0 403e 57a8 403e 86ca 3f3e
00000170: 0e74 3f3e d2f6 3f3e 6e08 403e daf2 3f3e
00000180: e0f9 3f3e f80d 413e 6d9c 3f3e 3505 413e
00000190: 2df2 403e 73e7 3f3e 0785 3f3e 5831 413e
000001a0: 64ce 3f3e 6cbb 3f3e 0a7f 3f3e 4cf0 403e
000001b0: b8ac 3f3e 1b42 403e a6fd 3e3e 3ed9 3f3e
000001c0: 7df7 413e 1b41 3f3e 6dbe 3f3e 0941 3f3e
000001d0: 173e 413e 207b 403e 8eee 3f3e 3843 423e
000001e0: adbc 3f3e 53c0 403e edbf 3f3e d2b5 3f3e
000001f0: 54b5 3f3e 415d 3f3e e82c 403e a17c 3f3e
0.18682106 0.18713334 0.18878278 0.18794842 0.1873533 0.19050485 0.18816549 0.18950221
0.18798922 0.18684785 0.18709561 0.18715738 0.1883786 0.18751909 0.18698819 0.18692605
0.18701024 0.18828118 0.18757397 0.18736005 0.18765225 0.1872533 0.18735066 0.18699108
0.1879414 0.1887746 0.18852827 0.1882214 0.18714765 0.18748274 0.18888132 0.18698557
0.18713331 0.18721619 0.18773238 0.18741673 0.18747234 0.18770386 0.18763071 0.18833743
0.18779385 0.18877776 0.1876027 0.18793906 0.18715104 0.18796249 0.18740526 0.18888168
0.18708397 0.18770713 0.18729058 0.18754874 0.18976907 0.18737432 0.18926893 0.18764548
0.18727459 0.18749085 0.18786767 0.18707427 0.18714523 0.18842956 0.1872077 0.18870713
0.18701114 0.18770668 0.18718356 0.1870307 0.18746617 0.18870057 0.18738823 0.18680647
0.18769331 0.18784836 0.18737248 0.18827178 0.18737154 0.1871711 0.18776877 0.18736142
0.18742783 0.18706426 0.1887043 0.18743314 0.18685868 0.18730982 0.18704116 0.1877203
0.18743016 0.1881132 0.18814217 0.187296 0.18696615 0.18746498 0.18753216 0.18744984
0.18747663 0.18852985 0.18712015 0.18849643 0.18842383 0.18740635 0.1870309 0.1886648
0.18731076 0.1872384 0.18700805 0.18841666 0.1871823 0.18775217 0.18651447 0.18735215
0.18942066 0.1867718 0.18724985 0.18677153 0.18871342 0.18796968 0.18743345 0.18970954
0.18724318 0.18823366 0.18725558 0.18721703 0.18721515 0.18687917 0.1876713 0.18699886

conv2.weight f4 [64, 128, 11, 1]
00000000: 494b acbc fc72 8ebc 7bbd 993c 9f1a ba3a
00000010: 707d 84bb 2305 9b3a df66 b0bc 87c6 a4bb
00000020: 3452 aa3c 596c 8c3b 3315 eb3c da32 d33c
00000030: 7467 aabb c4bd cb3b c6fe 37bc 0db2 0b3d
00000040: ed95 cb3c ee44 013c dd1b 0b3b 4f21 05bc
00000050: fc22 7fbc e14d db3b 2272 e4bb 5637 ae3b
00000060: 5a9f a43c f50f e5bb 093c 643b bab7 debb
00000070: 79b1 13bb 86e4 3b38 83f5 83bc 5961 a23c
00000080: 8d7c 0a3c a035 bd3b 1825 2abc e72b 033d
00000090: 08cf 34bc 4d50 02bb 042f abbb 2481 e8ba
000000a0: b453 8abc cdae fd39 99df 4bbc 1845 a6bb
000000b0: dff3 b63c 0c72 be3c fb44 50bc f393 3f3c
000000c0: be7d 253b 165a cabc c0ae 7bb7 c5dd afbc
000000d0: 71cd 623c 8cc7 6ebc 3ed9 d4bc f2c6 573c
000000e0: 0a50 033c 5ec7 c9bc e5f4 f5bb 7e83 073c
000000f0: d4cb 95bc ed7b 41bc af57 9f3c be4f b7bc
00000100: 547c a73c 3207 303c d84d 0d3c caea 793c
00000110: 2fe4 46bc 7a4b b2bc 37dc babc bcfc 9c3c
00000120: 2b9a 96bb dc9e 7dbb 3e25 3e3c 2313 f23c
00000130: a4d8 903c a802 83bc 00b5 05bc 4d82 b63c
00000140: 3700 a5bc 51fa 2cbc 2dd0 2b3c ded4 b1bb
00000150: e695 ad3c 33c6 c03c 7b93 d23c 87eb 92bb
00000160: aef9 793b 6f2d 903c 1aa9 f13c 0e8e 38bc
00000170: cc7e b03c 322e 003d 4ec2 e8bb b668 79bc
00000180: 4697 503c eb03 ab3c 3082 d93c f529 5d39
00000190: eb1e 7fbc 9945 b9bc 7c90 023b 8e13 5e3c
000001a0: 4f14 89bc 3dfb 863c c06e 75b7 1aa3 b1bc
000001b0: 0b6d 9fbc 4bcf 9dbc 5e56 9fbc 09cf 543b
000001c0: 4d35 033d 8dc1 77bc e020 dcbb 3447 1cbc
000001d0: 018d a33c 192b bc3c fcde 313c 968b c53c
000001e0: 4230 953b e04e 0a3c 3f90 283c 9f4a 803c
000001f0: 2493 c3bc 48fe 4abc 487f f4bb c820 d73c
00000200: f1b8 a0bb ff9f ab3c c186 8cbc 7e70 ce3c
00000210: 0209 a3bb d02b da38 f667 593b 9e42 93bc
00000220: 3599 a23c 24df b5bb bfd7 57bc 21e4 3fbb
00000230: b7b0 ba3b ee2b 98bc 7eae 8c3c 4121 91bc
00000240: de12 77bc 327e 56bc 44a8 8d3b 046c 47bc
00000250: 1b7f c1bb bf45 86bc e423 843c 66bc 943c
00000260: f8ca a2bc 8f62 cc3c f6cf 20bb 1e91 9e3c
00000270: 4d54 9e3b 6391 9dbc ee46 643a 5b79 b3bc
00000280: 0095 e8bc 0205 b53c 75f4 ddbc 1496 cb3b
00000290: e726 c33c 69b3 713c 986f 5c3c b18a 03bc
000002a0: 2008 36bc 105c a9bc 07f2 8ebc 9c71 043c
000002b0: e6bf e83c dbf0 d73c d987 663b 9b50 ee3c
000002c0: c977 59bc 9af9 9cbc ff71 373c 8069 c13c
000002d0: 7e8b 453c d1e6 6bbc 623d e1ba 018b c33b
000002e0: 502f 83bb 5c0f 5abb e806 193c f407 88bc
000002f0: a652 c63c f939 e1bb 88d6 003c 902f 04bc
00000300: f38a 963c 7b10 d03c 4cd8 58bc 9e94 e93c
00000310: 1939 aabc 4d63 ae3c c87c 923c 6ad3 e23a
00000320: 5ca6 f93b 0a42 c63c 31ab df3a 2726 903c
00000330: 9b1f 4bbb ffe5 643c f218 b3bc 2205 653c
00000340: 3ea0 833b e8eb c23c 0819 e5bb f818 033c
00000350: 1325 16bc d210 b23c e07a 223c 9c13 73bc
00000360: e904 6abc 281a fd39 402c ab3c 1344 603c
00000370: 2ccf cbbc 8cb5 8c3c 703a a23c e453 6ebc
00000380: c813 4d3b a6bc 503c 54e4 6b3c 09dd 38bb
00000390: af79 943c 175b 0e3c d0cf 35bc 28a9 a53c
000003a0: 9342 3f3b 989c 24bb 2860 e73b e555 b1bb
000003b0: f91a d1bc 6418 f0bc 22fb fabc b8b2 cc3c
000003c0: f0a1 153c 32b8 05bc 78e1 d2bb 8e57 8a3c
000003d0: 1281 bb3c edda b0bb 609a 30ba a9b5 ea3c
000003e0: 1ba8 b93c 546c c03c 9389 653c 3961 a93c
000003f0: ac08 48bc c553 163c 950b 8abc e738 80bc
-0.021031993 -0.017388813 0.01876711 0.0014198608 -0.0040432736 0.0011827092 -0.021533428 -0.005028549
0.02079115 0.004285377 0.028696632 0.025781084 -0.005200321 0.00621769 -0.011230176 0.03410535
0.024851764 0.007889969 0.0021226325 -0.008125617 -0.015572306 0.0066926335 -0.0069716135 0.005316655
0.020095516 -0.0069904276 0.0034825823 -0.0067968043 -0.0022536202 4.4797103e-05 -0.01610828 0.01982181
0.008452547 0.005774215 -0.01038482 0.03202429 -0.011035688 -0.0019884289 -0.0052241106 -0.0017738682
-0.016885616 0.00048386157 -0.012443447 -0.0050741546 0.022333084 0.023247741 -0.012711759 0.011692989
0.002525195 -0.02470116 -1.5001453e-05 -0.021468053 0.013842926 -0.014573943 -0.025982495 0.013169991
0.008014688 -0.024631198 -0.0075060003 0.008271096 -0.01828567 -0.011809331 0.01945099 -0.022376891
0.020445026 0.010743903 0.008624516 0.015253732 -0.012139364 -0.021764506 -0.022810085 0.019163482
-0.004596015 -0.0038699424 0.011605559 0.02955014 0.017681427 -0.015992478 -0.00816083 0.02227893
-0.020141704 -0.010557727 0.010486645 -0.005426987 0.021189641 0.023532009 0.02570509 -0.0044836435
0.0038143205 0.01759979 0.02949958 -0.011264337 0.021544836 0.031294055 -0.007103241 -0.015222719
0.012731379 0.020875892 0.026551336 0.00021091833 -0.015571336 -0.022616195 0.0019922545 0.013554467
-0.016733317 0.016477222 -1.4628924e-05 -0.021684218 -0.019461175 -0.019263884 -0.019450363 0.0032472035
0.032033253 -0.01512183 -0.006717786 -0.0095384605 0.019964697 0.02296977 0.010856386 0.024114411
0.004552872 0.008441657 0.010288297 0.015660582 -0.023873873 -0.012389727 -0.007461462 0.026260749
-0.0049048592 0.020950316 -0.0171541 0.025200125 -0.004975439 0.00010403211 0.0033173538 -0.017976101
0.019848445 -0.005550282 -0.0131739965 -0.0029280263 0.0056973356 -0.018575635 0.017173048 -0.017716052
-0.015080182 -0.013091611 0.0043230373 -0.012171749 -0.0059050447 -0.01639068 0.016130395 0.018156242
-0.019872174 0.02494934 -0.0024538017 0.019356307 0.004831827 -0.019234365 0.0008708079 -0.021908453
-0.028391361 0.022097114 -0.027094105 0.006212959 0.023822261 0.014752247 0.01345434 -0.008028672
-0.011110336 -0.020673782 -0.017449392 0.008083727 0.028411817 0.026359966 0.0035176186 0.02909117
-0.013273188 -0.019161988 0.011196612 0.023609877 0.012057183 -0.014398293 -0.0017184431 0.0059674983
-0.004003443 -0.0033273315 0.0093400255 -0.016605355 0.024209332 -0.006873366 0.007863648 -0.00806798
0.018376803 0.025398483 -0.013235163 0.028513249 -0.02077918 0.021287585 0.017881766 0.0017305438
0.0076187085 0.024201412 0.0017064569 0.017596317 -0.003099418 0.013970851 -0.02186248 0.013978275
0.004016905 0.02379413 -0.0069915093 0.0080015585 -0.009164113 0.021736536 0.009916991 -0.014836218
-0.014283397 0.00048275408 0.020895123 0.013688105 -0.02487906 0.017176412 0.019803256 -0.014546368
0.0031292308 0.01274029 0.014397699 -0.002820792 0.01812443 0.00868871 -0.01109691 0.020222262
0.0029183968 -0.0025117751 0.0070610233 -0.0054118508 -0.025525557 -0.029308505 -0.030637328 0.024987563
0.009132847 -0.008161591 -0.0064355694 0.016887452 0.022888694 -0.0053971917 -0.0006736871 0.028651075
0.022663167 0.023489155 0.014009851 0.020676242 -0.012209099 0.009175246 -0.016851226 -0.015652133

conv2.bias f4 [64]
00000000: 9aac 183b 06c5 8b3c 633b c13c 7ce6 3a3c
00000010: 25f8 1d3c e65e 933c 4fda 123b 7d3d 853c
00000020: 1a17 9e3b cc89 3d3c 1b5d 2fbc c37d 873c
00000030: b980 8cbb 2153 aa3c fac1 dc3c f2a3 87bc
00000040: c214 30ba f024 ffbb 7427 a9bc b8c5 00bc
00000050: f445 ffbc 06a7 5dbb 55e6 033c 702c c4bc
00000060: 6879 9abb 8243 92bc ffac 813c 77b4 a1bc
00000070: a2da c33c 4a61 9c3c c557 9ebc 7601 a0bc
00000080: c3d1 033b d424 80bc 0264 81bb 8ff4 ebbb
00000090: 2cf0 b63c 4879 e8bc 5258 6b3c 6980 c0bc
000000a0: 9a4a cabb d69a c0bc d844 00bd ad6b 183c
000000b0: 020f af3c c816 833c 4e8e 833c 69f1 87ba
000000c0: 194d b13b 47fd 803c e99c 2cbc 61c2 103c
000000d0: 5247 82bc 0477 8f3c 36b5 b33c f499 7cbc
000000e0: b815 e4bc 987e bf3c c28e 8dbc def6 6c3c
000000f0: b4d7 f4bb f042 a0bb b256 45bb 0b3d 98bc
0.0023296238 0.017061722 0.023587888 0.011407491 0.009641682 0.017989587 0.0022407954 0.016264671
0.0048245313 0.011568498 -0.01070335 0.01653946 -0.004287806 0.020791592 0.026947964 -0.016557667
-0.00067169603 -0.0077863857 -0.020648696 -0.00785964 -0.031161286 -0.0033821478 0.008050521 -0.02394697
-0.00471418 -0.017854456 0.015829561 -0.019739373 0.023907963 0.01908936 -0.019328961 -0.019531947
0.0020114041 -0.015642561 -0.0039486894 -0.0072007845 0.02233132 -0.028378144 0.014364319 -0.02349873
-0.006173444 -0.023511332 -0.031315655 0.009303016 0.021369461 0.016002074 0.016059067 -0.0010371628
0.005410802 0.015745772 -0.010535457 0.008835406 -0.015903149 0.017512806 0.021936994 -0.015417565
-0.027842388 0.023375794 -0.017279986 0.014463155 -0.007472003 -0.004890792 -0.003011149 -0.018583795

bn2.weight f4 [64]
00000000: 951a 7f3f 5a82 7f3f 5068 7f3f 77b9 7e3f
00000010: d603 803f 3f29 803f aa85 7f3f d4b4 7e3f
00000020: 8c89 803f 232f 803f 77b9 7e3f 7115 813f
00000030: 18c8 7f3f 3325 7f3f 5211 7e3f f3bb 7e3f
00000040: fb77 803f fe46 803f d429 7d3f 1c1a 7f3f
00000050: 00d6 803f fc60 803f 76b9 7e3f 1ada 7f3f
00000060: cdc0 7e3f 8d1c 7f3f 5146 803f 23a5 803f
00000070: f50c 7e3f f2af 803f 3dbc 803f 7af0 7c3f
00000080: 048c 7f3f cf20 813f 76b9 7e3f 2c0d 813f
00000090: ed0b 803f 8344 7f3f 8288 7f3f 6cb6 7e3f
000000a0: ee96 803f c198 803f e802 803f 1539 803f
000000b0: f208 7f3f 4043 803f 9a08 813f 267c 7e3f
000000c0: 1e3a 803f 3a18 7f3f a3b9 7e3f 3134 803f
000000d0: b9b1 7e3f 78b9 7e3f 06a9 7f3f 0b78 7d3f
000000e0: ff77 803f e554 803f 21a5 7f3f 9c2d 803f
000000f0: 17af 7f3f 64db 7f3f 9cad 7e3f fbb9 7e3f
0.99649936 0.99808276 0.99768543 0.99501747 1.0001171 1.0012587 0.9981333 0.9949467
1.0041976 1.0014385 0.99501747 1.0084668 0.99914694 0.99666137 0.9924518 0.9950554
1.0036615 1.0021665 0.9889195 0.99649215 1.0065308 1.0029597 0.9950174 0.9994217
0.9951294 0.9965294 1.0021459 1.0050396 0.9923852 1.0053694 1.0057446 0.9880444
0.9982302 1.0088137 0.9950174 1.0082145 1.000364 0.99713916 0.9981767 0.99497104
1.004606 1.0046617 1.0000887 1.001742 0.99623024 1.0020523 1.008075 0.99408185
1.0017736 0.9964634 0.9950201 1.0015928 0.99489933 0.9950175 0.99867284 0.99011296
1.003662 1.0025908 0.9986134 1.0013919 0.9987654 0.9994414 0.99483657 0.99502534

bn2.bias f4 [64]
00000000: 754b 803a af90 39bb 418b 223b b52c 9dbb
00000010: 0bc2 433a 1807 4bbb 3502 9bb9 9f43 a33b
00000020: 6144 a33b 52a8 b2b9 3c93 c4b9 ea6d 883a
00000030: 7ae3 913b 1d58 313b f941 a3bb a642 a33b
00000040: eac5 e83b dfce aeba 9ee9 a33a 073e a3bb
00000050: 5016 a3ba e4cf 9f3a 1843 a3bb d7d2 33ba
00000060: 9e5a a23b a5fc 413b b243 a33b 3416 c3bb
00000070: 68a1 5db7 5706 003c 7083 b23b cf39 a3bb
00000080: 3536 b6bb 5351 963b a944 a33b 0718 043b
00000090: 38fd bf3b 1c36 ab3a d540 a33b 6b43 a3bb
000000a0: 3200 8f3b 8bb7 ac3b cee2 893b 54f9 f6bb
000000b0: e652 e63a 784f 82ba 5c80 94bb 1154 11b9
000000c0: ad34 a3bb deea 2e39 c59e 2f39 f643 a33b
000000d0: cee0 97bb 5b43 a3bb 1df6 e73a c30f 833b
000000e0: 7e7c 553b 0143 a3bb 4692 e33b d714 e03a
000000f0: ee22 a2bb 7302 8bba 2d44 a33b bb5f b1ba
0.0009788113 -0.0028314998 0.002480224 -0.0047965893 0.00074675743 -0.003097957 -0.00029565548 0.0049824263
0.0049825166 -0.00034076214 -0.0003749373 0.0010408734 0.004452166 0.0027060576 -0.00498223 0.0049823103
0.0071036713 -0.0013336799 0.0012505536 -0.0049817595 -0.0012442563 0.0012192694 -0.0049823634 -0.00068597257
0.00495465 0.002960005 0.004982435 -0.0059535746 -1.3210207e-05 0.007814012 0.0054477975 -0.0049812566
-0.005560661 0.0045873313 0.00498255 0.0020155923 0.0058590434 0.001306239 0.004982094 -0.004982402
0.004364037 0.0052709035 0.0042079454 -0.0075370464 0.0017572313 -0.0009941896 -0.004531903 -0.00013859595
-0.0049806447 0.00016681428 0.00016748447 0.004982467 -0.004634953 -0.0049823946 0.0017697249 0.0039996817
0.0032575424 -0.0049823527 0.0069449274 0.0017096055 -0.0049480116 -0.0010605588 0.0049824924 -0.0013532558

bn2.running_mean f4 [64]
00000000: 75e0 633e ed8a b9be 5ea8 f2be 5317 d1be
00000010: e81f a93e 06ba bf3d 288a 213f 6af3 31bf
00000020: 03ae 3e3e 0077 aabe 92a1 44bf a78d 733c
00000030: 0f0a 703e 52d6 e2bd 81c7 0f3f cfae 3bbf
00000040: 0481 09bd 65af 103e 5618 cb3e e840 4e3c
00000050: 39ae 843e ff60 1c3f 2f38 0bbf c428 aa3d
00000060: baa5 57bf e35a cb3e 0eb8 bcbe 8736 efbe
00000070: 028b 043f ffc7 fcbc cc72 203d a25c e83e
00000080: 50f6 c23e bad2 a6bd e65a 72bf 2064 573b
00000090: 87f6 e7be 9337 4f3d 9794 173f 4087 71bf
000000a0: 4327 fd3d d9a5 433f 43c0 30bf cca3 c23c
000000b0: 0544 bcbe 7221 783e 82ce 1c3f 6bd5 38bf
000000c0: f1f9 273f 58f7 043e cbbe 74bf 17c7 643f
000000d0: 4af0 5abf ef07 1bbf 72c3 45be a618 cc3e
000000e0: 7cc9 8dbe f4ea c33e ca16 0fbd 7563 893d
000000f0: b133 38be b333 683e 0e44 2f3f a895 363e
0.22253592 -0.36238804 -0.4739408 -0.40838107 0.33032155 0.09361653 0.63101435 -0.69512045
0.18621068 -0.33293915 -0.76809037 0.0148653155 0.23441337 -0.110760346 0.56163794 -0.7331361
-0.033570305 0.14129408 0.39667004 0.012588717 0.2591417 0.61085504 -0.54382604 0.08308557
-0.84237254 0.3971778 -0.36859173 -0.4672129 0.5177461 -0.030857084 0.03917198 0.45383173
0.38078547 -0.08145662 -0.9466995 0.0032866076 -0.45305273 0.05059011 0.59211105 -0.94347
0.12361004 0.7642494 -0.6904337 0.023759745 -0.36770645 0.24231508 0.61252606 -0.7220065
0.65615755 0.12984979 -0.95603627 0.89366287 -0.855229 -0.6055898 -0.19312838 0.39862555
-0.27692783 0.38265193 -0.034933843 0.06708423 -0.17988469 0.22675972 0.6846322 0.17830527

bn2.running_var f4 [64]
00000000: d43d 473f ec49 e33f 814e 0440 fbb8 bf3f
00000010: c57a 663f d43d 003f f9b8 2440 4e8d 2440
00000020: 5fb8 cc3e 6e77 593f f799 3440 2446 ec3e
00000030: bff8 2e3f 1875 9e3e 75e3 ca3f 1761 4c40
00000040: eb5b fb3e 0703 d63e 29ca ca3f 1f44 c33e
00000050: baa2 db3e 14fc 0f40 168b 0640 c27b 2c3f
00000060: 92ac 6040 4fde 323f 945c bf3f 6358 fc3f
00000070: 4a76 c63f f426 8b3e e727 e83e a850 be3f
00000080: e2d8 2c3f c55b bf3e a719 7e40 d01d e53e
00000090: 5e4d d43f 5e7f 863e f9db 1340 9dcd 7240
000000a0: e6de ad3e b43d 0040 f1c4 2b40 9ff2 823e
000000b0: 8353 ca3f 7e39 2c3f b9c5 d33f f87d 3c40
000000c0: fc91 c23f b710 a43e 1881 4c40 9876 4040
000000d0: f3ef 3040 f10a a03f 4fa8 593f 7115 1440
000000e0: 5829 133f 41d3 a93f 5a00 cb3e 8136 3c3f
000000f0: 06da d03e d9d2 a23e 8f6e 4b40 b277 943e
0.7782872 1.7756934 2.0672915 1.4978327 0.9003108 0.5009434 2.5737898 2.5711246
0.39984414 0.8494786 2.8218973 0.46147263 0.68348306 0.3094871 1.5850664 3.193426
0.49093565 0.41799185 1.5842944 0.3813791 0.42897588 2.2497606 2.1022391 0.6737634
3.5105329 0.69870466 1.4950128 1.9714473 1.5504849 0.27178156 0.45342943 1.4868364
0.67518437 0.37374702 3.9703157 0.44749308 1.658611 0.26269048 2.310301 3.7937996
0.3395912 2.003766 2.6838953 0.2557573 1.5806736 0.67275226 1.6544715 2.9451885
1.5200801 0.32044002 3.1953793 3.0072384 2.7646453 1.2503339 0.85022444 2.3138087
0.5748496 1.3267595 0.39648706 0.73520666 0.4079134 0.3180149 3.178623 0.2899757

fc1.weight f4 [96, 64]
00000000: cdf1 68bd 9164 5c3d 7633 04be 319f e03c
00000010: 374a de3d 8393 593b 5580 bb3d 5c3d 843d
00000020: 31e0 f0bc 1156 bb3d 5ad3 96bc a768 063e
00000030: fdfd d4bd 3fd0 b73d 87a3 df3c 3c86 633d
00000040: dcd3 ee3d 18a7 5abd d8c0 693d 733e 72bd
00000050: f470 ce3d c3df 973b 3a4a 573d 417b 893d
00000060: fab2 163d 1634 84bc 1e13 f9bd b785 233d
00000070: 813c ac3c a9ec 51bc b9b0 e53c 7726 e83d
00000080: 9d11 1f3d 64f0 913d a0ee 61bd 5bfd 673d
00000090: 30a7 9ebd 650b 3dbd be06 d5bd 5e45 f0b9
000000a0: d15d 953d faf8 f93d a147 193d 34d8 d2bd
000000b0: a3aa f4bd 3e83 fbbd cfd1 c3bc c832 21bb
000000c0: 4b71 f8bd bfb0 b93d 4c8a 03be 5440 20bc
000000d0: e2db f13d 1a87 c0bd 399c 82bd a988 94bc
000000e0: 1de2 643b e24d 28bd ac28 9fbd 2a7e 3fbc
000000f0: f5f7 41bd 9e87 dbbb 5fff 403d 5298 1e3d
00000100: 6b7d 88bd ffcb f6bd 33cb 9a3d 0f0a 08bd
00000110: 1d16 f53d 67a8 d43c 9f78 efbd 3c63 d8bd
00000120: 5867 2b3d d090 c9bc 7a8d f8bc eb66 823d
00000130: bc31 bdbd 0523 a23b a3d1 153b ac3e 273d
00000140: 4ddd ae3b 537a 49bd ad96 453d 8f40 ca3d
00000150: 0a32 64bd 1652 6dbd ce28 633d eb90 03be
00000160: 5492 b9bc faf8 0b3d 7e97 c9bd bab2 9fbc
00000170: a953 9a3b 0e8a cdbd d28d 94bb c9ad 363d
00000180: d90e 793d 4c04 a43d 9220 c5bb 65e4 c4bd
00000190: ef30 83bd fd6f 653c eede b03d a494 993d
000001a0: f938 a4bd 2499 1cbd 96d5 35bd a3ac bc3d
000001b0: 252f f23d f809 02be 6a12 04be eee3 c8bd
000001c0: 135b 8b3d 978f b03d f782 7a3d 5c5c 96bd
000001d0: b76a 123c c04d 163d f347 1c3d f11d 9c3d
000001e0: 2016 58bc fe62 e6bc 7510 de3d 3cae 4d3d
000001f0: 043a eabd 11d6 783c 04ac 4bbb 13c2 4ebd
00000200: 5131 113d 8d55 b8bc dee9 033d 8b19 053e
00000210: e2e2 c23c f673 9b3b e35f a7bd a8f2 87bd
00000220: 0a0f f73d a6bb 343d c215 9f3d c192 53bd
00000230: 1895 22ba 8758 23bd 2525 c8bd bb87 d0bc
00000240: 64e8 043e 4b2c 2d3d 845c 73bd a1ea 273d
00000250: 812c 5d3d cd5d fdbd afa7 b23d 5828 3fbd
00000260: cb3f 18bd 356e 09bc 7d19 58bd 3983 98bd
00000270: 2043 5fbd 1993 83bd 7d7b c5bb 17ab a23d
00000280: 825f d9bd a658 b13d 00d3 cbbc 00c9 ee3d
00000290: 16c2 cf3d e0d4 723c 6b3c e23d 86b9 423c
000002a0: 5322 8bbc 76a3 7abd f5e8 a13c 0e49 c2bd
000002b0: a1c4 af3d 7bfc e03d 1d93 bfbc 70ea 27bd
000002c0: 6df2 b63d cce3 b4bc 0d09 e13d eaf8 dd3d
000002d0: 1cdd 9b3d e5ae e4bd fc0b ac3d 9afb 963d
000002e0: 1401 5c3d 74ad 4ebd 2731 a93c 3cec b33b
000002f0: d334 663d f0f3 9e3d 68d7 d73d 3365 aebd
00000300: 9e6a 41bd 9cd6 a6bd 228a a83d 94c6 ddbd
00000310: 861a 9cbd dbdb 0cbd 133c af3c 5d00 bebc
00000320: 06d6 85bd 729c e43c bb0b 35bc 1706 9ebd
00000330: b76f d73b cb5c 033d 49d0 cabc 05e8 f03d
00000340: 7f3a 03be cfdb ca3d 45cd 053e c6a6 72bd
00000350: 5e27 d1bd 4650 58bc b150 efbc f2bf f8bd
00000360: c896 aabc 7271 9bbd a69a a2bd 64b1 b73c
00000370: 5aba 4dbd b1ab 783b a19e 7abd ce89 8bbd
00000380: c5ea 06bd 9da5 1ebd 44f3 c73d 79df f1bd
00000390: 279d 0abd bdcc a3bd 31a5 c9bc 695e a1bb
000003a0: f4bb 1fbd 6be9 1a3d 5b30 1fbd a4ea d6bd
000003b0: 4e0e 9f3d 2461 4c3d 9f3d 11bd 0f69 7bbd
000003c0: 268d e6bd c252 883d 6e1d f33c 2bb9 aebc
000003d0: ca98 c6bd 2fde efbc 3c26 5dbc 6363 cdbd
000003e0: f01e 8e3d e46f 6c3d e6dd 76bd bdc9 fcbd
000003f0: aa6f d3bd 85eb 84bd aff1 fdbd 71aa 8a3d
-0.056871224 0.053806845 -0.12910256 0.027419658 0.10853999 0.0033199496 0.09155337 0.06457016
-0.029403778 0.09147275 -0.018411327 0.13125859 -0.10400007 0.08975267 0.027299656 0.055547938
0.11661503 -0.05338201 0.057068676 -0.059141587 0.10080138 0.004634829 0.052561022 0.06712962
0.03679178 -0.016138118 -0.121618494 0.039922442 0.021024944 -0.012812772 0.02803837 0.113354616
0.038835157 0.07125929 -0.05515921 0.056638103 -0.07746732 -0.046153445 -0.104016766 -0.0004582805
0.07293285 0.12205692 0.037421826 -0.10295144 -0.11946609 -0.12280892 -0.023903755 -0.0024596918
-0.12130984 0.09066915 -0.12845725 -0.009780962 0.118095174 -0.094007686 -0.06377453 -0.01813157
0.0034924813 -0.0410899 -0.077714294 -0.011687795 -0.04735561 -0.0066995164 0.04711854 0.038719483
-0.066645466 -0.12050628 0.075582884 -0.033212718 0.119671084 0.025959207 -0.116929285 -0.105658025
0.041846603 -0.024605185 -0.030340899 0.06367286 -0.09238002 0.0049480223 0.002286055 0.040831253
0.0053364397 -0.049188923 0.0482394 0.09875595 -0.055711783 -0.05793961 0.055458836 -0.1284825
-0.022652782 0.03417299 -0.09843348 -0.019494403 0.00470968 -0.100360975 -0.004533508 0.04459933
0.060805175 0.08008632 -0.0060158456 -0.09613875 -0.06405818 0.014003751 0.086362705 0.07499054
-0.08018679 -0.038231984 -0.044393145 0.09212615 0.11825398 -0.12699115 -0.1289765 -0.09809099
0.068044804 0.086211376 0.061160054 -0.07341835 0.008936576 0.036695242 0.038154554 0.07622898
-0.013188869 -0.028123375 0.10842983 0.05021499 -0.11436847 0.015187756 -0.003107787 -0.050478052
0.035447422 -0.022501731 0.032205455 0.12998025 0.023789827 0.004744048 -0.08172586 -0.0663808
0.12063415 0.044124268 0.07767822 -0.051653627 -0.0006202026 -0.039879348 -0.0977271 -0.025455346
0.12979275 0.04227857 -0.0594144 0.040995244 0.05399752 -0.12371407 0.08723389 -0.046669334
-0.037170213 -0.008388092 -0.052758683 -0.07446904 -0.054507375 -0.06424541 -0.006026684 0.07942789
-0.1061392 0.086594865 -0.024880886 0.116594315 0.10144441 0.014821261 0.1104668 0.011885053
-0.01698414 -0.061191045 0.019764403 -0.0948659 0.08582426 0.10985657 -0.023385579 -0.04099506
0.08932958 -0.022081278 0.109880544 0.10838492 0.07610533 -0.11166171 0.08400723 0.07372208
0.053711966 -0.050458387 0.02065332 0.005490808 0.05620272 0.07761371 0.10539132 -0.08515396
-0.04722082 -0.08146402 0.08229472 -0.108288914 -0.076222464 -0.034389358 0.02139095 -0.023193533
-0.06534962 0.02790663 -0.01105016 -0.07716005 0.0065745967 0.032070916 -0.024757521 0.11763004
-0.12815283 0.099052064 0.13066585 -0.05924108 -0.10212587 -0.013202732 -0.029213281 -0.12145986
-0.020823851 -0.07589997 -0.07939653 0.022423454 -0.050226547 0.0037944133 -0.061186437 -0.068133935
-0.032938737 -0.03873216 0.09763196 -0.11810202 -0.03384128 -0.07998035 -0.024614902 -0.0049245846
-0.038997605 0.03782026 -0.038864475 -0.10493973 0.077664 0.049897328 -0.035459157 -0.06137949
-0.11257391 0.0665641 0.02967712 -0.02132853 -0.09697111 -0.02928075 -0.013497885 -0.10028722
0.069394946 0.057723895 -0.060270213 -0.12343166 -0.103240326 -0.06490234 -0.12399613 0.0677079

fc1.bias f4 [96]
00000000: b4bc dabd 9b64 f83d db0a 59bd c239 4e3d
00000010: e8c8 7dbd 6edc e5bb be3d a83d 2a47 62bc
00000020: 42a3 c03d 6dd1 653d 9456 2e3d d29f b63d
00000030: 2aec 8cbd 90aa b5bd 260f 9dbc dfb6 913b
00000040: 1ceb 9f3d ee48 6fbd 9329 e33c d0c8 8f3d
00000050: 43a4 5c3d 7915 d93d 45aa 56bd e74e cc3d
00000060: babb cbbd e76b 983b e776 a0bc 2cf8 903d
00000070: ab29 45bc 8671 74bd 76fe f63d 46a5 3b3c
00000080: bca7 93bd c8ca 80bd e4ca d9bb 5ecd 24bd
00000090: 4e92 c8bd 7ddf 753d b769 93bc e708 8ebb
000000a0: 4752 973d 6568 71bc aac3 5dbd 29d6 41bd
000000b0: 2ec2 dabc 817e e73d a2fb 0abc 384a ef3d
000000c0: 0cc2 283d 0345 a7bb e2d1 97bd a197 9a3d
000000d0: 8027 9d3d f7e7 7abd 289f 51bd ffc6 403c
000000e0: fdaf a43d 478c d2bd 8b78 35bd d106 833d
000000f0: 1e86 fb3c 070b c7bd 613d c7bd c874 f3bd
00000100: 7ff3 eabd 1062 cabd ca67 04bd 032f b4bc
00000110: 754b dbbd 2773 f03d 7ec4 bbbc dbb7 9e3c
00000120: 1c31 7ebd 7477 ddbd 0748 e6bd b426 ebbc
00000130: 60b6 e83d 1597 f2bd 869d bfbc 5b72 9fbd
00000140: d0ae 7ebd 3691 813d c8b3 3b3d f299 013e
00000150: b2de c63c ff39 dbbd eded 45bd dbbd b13d
00000160: d818 753d 0e04 15bd fdf2 93bd 0080 f3bd
00000170: 7dee 88bd 2372 d9bc a807 7e3d bde5 88bd
-0.106805235 0.12128564 -0.05298887 0.05034805 -0.061959177 -0.0070148027 0.082149014 -0.013810912
0.09406139 0.056107927 0.042563036 0.08917202 -0.06880982 -0.08870423 -0.019172262 0.0044468488
0.078085154 -0.05841916 0.027729785 0.07020724 0.05386759 0.10599799 -0.052408475 0.09975987
-0.099479154 0.004651535 -0.019587947 0.07078585 -0.01203386 -0.059678577 0.12060253 0.0114529785
-0.07209727 -0.062886775 -0.006646501 -0.040234916 -0.097935304 0.06002759 -0.017994745 -0.0043345573
0.0738874 -0.014734362 -0.054141678 -0.04732338 -0.02670392 0.113034256 -0.0084828455 0.11684078
0.041200683 -0.0051046624 -0.07413079 0.07548452 0.0767355 -0.061256375 -0.051177174 0.011766194
0.080413796 -0.10280662 -0.04430441 0.063977845 0.0307036 -0.097189 -0.09728504 -0.11887509
-0.114722244 -0.09881985 -0.032325543 -0.021995073 -0.10707752 0.117407136 -0.022920843 0.019374778
-0.062058553 -0.108137995 -0.11244207 -0.028704979 0.1136291 -0.11845223 -0.023390543 -0.077854834
-0.062178433 0.06326525 0.04582575 0.12656382 0.024276111 -0.10704421 -0.048322607 0.0867879
0.059838146 -0.03638082 -0.07224081 -0.118896484 -0.06686113 -0.026543682 0.06201902 -0.06684444

fc2.weight f4 [2, 96]
00000000: 3d86 74bd 2bfd b8bd 09c2 8c3b 3c55 bc3a
00000010: a3fd 133d c6a1 3cbd cfd1 01bd 67cc aabc
00000020: 5216 eb3a 08cc b7bc 3451 bdbd d07b 42bd
00000030: 27bc ab3d f3bf b33d c30a b43b 8784 42bd
00000040: abf8 773d 435f 1a3d 6ca2 be3c f836 063d
00000050: eba6 f53b 4cdb 8e3d 0702 e8bc c65b 313d
00000060: 1aa5 81bd 9200 963d 12f3 563d 2370 aabc
00000070: b005 d63d 916b 5cbd 9bf3 c63d 15a2 323d
00000080: 2115 783c e230 90bd b859 453d b9c4 4bbd
00000090: f628 58bd d305 6dbd 9294 a73c 84f9 37bd
000000a0: 3abe ab3d f255 8f3d 696f 053d 2246 853d
000000b0: 66d6 123d 583e b63d 63f2 513d a523 adbc
000000c0: 993f 473d fed3 5b3d 139b e2bc 88ad 58bd
000000d0: 51cd 54bd 0cce 61bd 388f 1d3d b9c7 663d
000000e0: f060 97bd 03d2 a4bc 4b77 91bd 89da feba
000000f0: 30ee 113c 8748 983d fbf6 9c3d c512 8dbd
00000100: 811f 8c3d 3020 8abd 6e0a 183d 8843 32bd
00000110: b3b6 343d 09bf c6bd 2c9f 69bd 4c54 9abc
00000120: c695 acbb 8e08 4d3c 1d2b 833d aae0 4ebd
00000130: 42be 92bd 8ff2 8bbc f74d c13c 3b04 91ba
00000140: 9a29 ba3d be72 89bd 37d4 aabd b749 b4bd
00000150: bcbc 9dbc 63eb 34bc 9d44 0c3c a125 c73d
00000160: 735f 593d 9869 13bd 07e2 0e3d 3fea 093d
00000170: 82de 34bd ae3a 393c 70cf b3bd d42a 053c
00000180: ab7d 453c 246c 57bd d4d3 a2bd ecf1 0bbd
00000190: ce63 d6bc 966b c73c b4ba dfbb d484 23bd
000001a0: 1df3 6e3d 050e 383d aebb 373d f769 913d
000001b0: 09bc c3bc 1ed3 16bd ca28 8ebd ba97 43bd
000001c0: d8c3 073d bf5c a03d 4c7d 5ebd 55f6 623d
000001d0: fec8 6d3d 3d31 bdbd 6b01 ba3c 3e19 6f3c
000001e0: 83e9 afbd 4e22 c43d 768b 8fbd 9807 423d
000001f0: 3153 ddbd 72da ab3b 3dbf dd3b 36fb dc3b
00000200: 3937 89bd 12b4 20bd 902c ccbd 77e2 55bd
00000210: 6770 473d 97c2 bcbd d418 143d 16e3 99bd
00000220: 630b 42bc a4da 833c 118e 443d 4401 8d3b
00000230: 16b7 483c 7370 a83d 3967 91bd c06c 6ebd
00000240: 2bec 813d 7de3 643d 6efb a43d ce83 56bd
00000250: 5f73 113d a4f0 86bd 0e91 ea3b 8f4a ce3d
00000260: 9465 ae3d a7d6 423c 1cf3 6ebd 4a55 a43d
00000270: 281a 68bd 7108 863d 9f15 cabd 4f2d 41bc
00000280: 3f28 89bd cb09 b8bd b14c 433d 6807 af3d
00000290: 0b03 b53d 5caf 033d ea12 f0bb 3d86 fe3c
000002a0: 00c0 2b3c 1f9f ae3d 3e18 a1bd ccdb 38bc
000002b0: 1438 9dbd 42b6 a33d 3f10 ac3d be12 85bb
000002c0: 8fa9 89bd d185 74bd c97d c4bc d054 2d3c
000002d0: de50 e9bc ad71 783c 6118 cebd c2fe 80bd
000002e0: fad0 0339 5947 8ebd 13e2 293c d5f7 8dbd
000002f0: 599f a2bd 8ad1 68bd b50e b2bd 9b79 003d
-0.059698332 -0.09032663 0.0042955917 0.0014368664 0.03613056 -0.046052717 -0.03169423 -0.02084942
0.0017935729 -0.022436157 -0.09244004 -0.047481358 0.083854966 0.08776846 0.005494447 -0.04748967
0.060539883 0.037688505 0.023270808 0.032767266 0.007496705 0.06975421 -0.02832128 0.043300413
-0.06330319 0.073243275 0.052477904 -0.020805424 0.104503036 -0.05381352 0.09714433 0.043611605
0.015141756 -0.07040574 0.048181266 -0.049748156 -0.05277344 -0.057866883 0.020456586 -0.04491569
0.08385892 0.06998815 0.032576952 0.065075174 0.035848998 0.0889861 0.05125655 -0.02113516
0.048644636 0.05366897 -0.027661836 -0.052899867 -0.051953617 -0.055128142 0.038466662 0.056342814
-0.07391536 -0.020119673 -0.071028315 -0.0019443791 0.008906886 0.074357085 0.07664295 -0.06888346
0.068419464 -0.067444205 0.03711932 -0.043521434 0.044119548 -0.09704406 -0.057036564 -0.018839024
-0.005266878 0.012514247 0.064047076 -0.050507225 -0.07165195 -0.017083434 0.023596747 -0.0011063883
0.09089966 -0.067113385 -0.08341258 -0.088031225 -0.019255035 -0.011042449 0.008561281 0.09723974
0.053069543 -0.035989374 0.034883525 0.03367066 -0.044157512 0.011305494 -0.087798 0.008127887
0.012053887 -0.052593365 -0.07950559 -0.03416626 -0.026170637 0.024343293 -0.0068276767 -0.039921597
0.05833732 0.044935245 0.04485672 0.07100289 -0.023893373 -0.03682243 -0.06941374 -0.04775212
0.033145756 0.0783019 -0.05431871 0.0554107 0.05805301 -0.09237907 0.022705754 0.014593421
-0.08589461 0.095768556 -0.07009022 0.047370523 -0.10806883 0.0052445466 0.006767182 0.006743814
-0.06699986 -0.03923423 -0.09969437 -0.052217927 0.04869118 -0.092168026 0.03615649 -0.07514016
-0.011843535 0.016095467 0.047987048 0.0043031294 0.012250682 0.08224573 -0.07099766 -0.05820918
0.063438736 0.055881012 0.08055769 -0.052371792 0.035510417 -0.06588867 0.007158405 0.10072815
0.08515468 0.011891997 -0.058337316 0.0802408 -0.05666557 0.06544579 -0.09867405 -0.011790588
-0.066971295 -0.08986243 0.04768056 0.085463345 0.08838471 0.032149658 -0.0073264735 0.03106987
0.010482788 0.08526444 -0.07865952 -0.011282872 -0.07676712 0.07993747 0.08401536 -0.004061072
-0.06721794 -0.05969793 -0.02398576 0.010579303 -0.028480943 0.015163821 -0.10063244 -0.06298591
0.00012570983 -0.06947202 0.010368842 -0.06932036 -0.079405494 -0.056840457 -0.086942114 0.031365972

fc2.bias f4 [2]
00000000: 917c 19bd 5225 f53c
-0.03747231 0.029925022
