input/05_cnn_qsar/01_featurize/01_featurize_fda_world/02_CNN/run_files_0.1/model_2.pth (torch, 634400 bytes, 20 tensors)

conv1.weight f4 [128, 1, 11, 42]
000000 00 22 0c 3d ea 2c c1 b8 17 47 f2 3b 43 a1 33 bd
       0.034212112 -9.211323e-05 0.0073937285 -0.043854963
000010 a6 68 00 bd 1a 37 9c bc 94 3e f5 3a dd eb 96 bc
       -0.0313498 -0.019069243 0.0018710666 -0.018423015
000020 bd 2b 7f ba 90 14 f6 bc 5d e4 81 bc fd 8b f9 bc
       -0.00097339955 -0.030039102 -0.015855962 -0.03046226
000030 f1 20 0e bd 5f 30 2e 3d d5 ec c6 bc 85 de 1e 3d
       -0.034699384 0.0425266 -0.024282852 0.03878643
000040 82 9b 7f bc 4e dd 15 3c ed 32 3b bd 62 a9 1b bb
       -0.015601041 0.009147001 -0.045702863 -0.0023752083
000050 c7 7c e0 3c 63 ea fc bc 08 d0 fb bc 7f 74 11 bd
       0.027403248 -0.030873483 -0.030738845 -0.03551149
000060 5e 17 10 3d b5 2e d1 bc 65 15 14 bd 03 fa f1 bb
       0.035178535 -0.025534967 -0.036153216 -0.00738454
000070 0d 7d 14 bd a5 05 32 3d 12 8e f1 bc 2f a7 80 3c
       -0.03625207 0.043462414 -0.02948669 0.01570472
000080 2e 4d 44 bd 7e f3 f3 3c b1 6f 9b 3b 75 1b 2b bd
       -0.047925167 0.029779192 0.0047435393 -0.041774232
000090 af d5 8b 3c e8 e7 d4 bc 87 9f 02 bd 6f e7 9f bc
       0.017069666 -0.025989488 -0.03189042 -0.019519536
0000a0 c6 b4 fb bc cb cd d8 3c 0e 49 e6 3c 1f c6 0f 3c
       -0.030725848 0.026465317 0.028111007 0.008775263
0000b0 57 18 3a bc c9 6f 86 bb 31 24 8a 3d b6 e8 2a 3c
       -0.011358342 -0.0041026813 0.06745184 0.010431459
0000c0 7e 30 50 bb 4e 22 25 bd 0f 0b 28 bd 2b e2 b7 3c
       -0.0031767185 -0.04031592 -0.04102617 0.022446712
0000d0 3c 5e c2 3c 14 17 58 3c f7 9a 23 3d 79 9d 9e 3c
       0.023726575 0.013189096 0.039942708 0.019362198
0000e0 57 e4 2a 3d 74 02 3e bd fc dd 3b 3c 2d 8a a0 bc
       0.041721668 -0.04638906 0.011466499 -0.019597137
0000f0 b5 9e 2c bd 99 4a fb 3c 62 89 2f bd ad 44 5a 3c
       -0.042143542 0.03067522 -0.042855628 0.013322038
000100 28 af 56 3a f7 f9 67 3c f4 9a 14 ba f7 1f d7 3c
       0.00081895525 0.014158717 -0.0005668842 0.02626036
000110 96 b7 db bc 2f 0d 47 3d 83 93 f0 3c 70 31 b2 3c
       -0.026820939 0.048596557 0.029367214 0.02175209
000120 dc d2 d4 bc 98 d9 c0 3c 23 d2 5b 3d 7b 42 d2 3b
       -0.025979452 0.023541257 0.0536672 0.0064166165
000130 d3 08 3c 3d a5 d6 3c 3d 2e 6e 8b bc 54 a0 d3 3c
       0.045906853 0.04610314 -0.017020311 0.025833286
000140 2b fb fa 3c 37 a3 21 3d 8f 2c 32 bd e1 1e bb bc
       0.030637344 0.039462294 -0.043499526 -0.022841873
000150 d6 31 4d 3c e0 28 93 bb ac e4 b5 bc 9c 11 3f 3c
       0.012524089 -0.0044909567 -0.022203766 0.011661913
000160 61 a4 92 bb 68 a6 13 3c 98 53 87 bc 0f 3d 09 bd
       -0.004475162 0.009011842 -0.016519353 -0.033505496
000170 10 8b db bc 8a b8 23 3b 47 e4 cb 3c 53 2e 13 bd
       -0.026799709 0.002498182 0.024889125 -0.03593285
000180 4f 04 cc 3c 40 19 6c bc f2 ac d4 3c 0a 87 5b 3c
       0.024904398 -0.014410317 0.025961373 0.013398895
000190 7c f2 f1 bc 35 1e 23 3d 58 9e b5 bc a1 2e 47 3b
       -0.02953457 0.03982373 -0.02217023 0.0030392783
0001a0 26 62 0e 3d 55 7a 57 bc 59 92 40 3c 01 c6 51 ba
       0.03476157 -0.013151725 0.011753642 -0.0008002222
0001b0 fa 68 10 3d 51 39 09 bb 3a ce ba 3c 5c 9b 2a 3d
       0.035256363 -0.0020938704 0.022803415 0.04165207
0001c0 4e f0 0f 3d 2a 15 00 bd c5 22 ac bc 80 3f ad bc
       0.03514128 -0.031270184 -0.021012673 -0.021148443
0001d0 00 dc 9e bc 0a 59 6b 3c 14 bd 81 3c d5 de 20 bd
       -0.019392014 0.01436449 0.01583723 -0.03927501
0001e0 f4 e8 24 3c 32 5f 4e bc db 3b 98 bc 2c 6e c5 3c
       0.010065306 -0.0125959385 -0.018583229 0.024100386
0001f0 a3 2f 9d 3c e7 cd f8 3c b9 30 d0 3c 7f 7e 9d 3c
       0.019187754 0.03037162 0.025413858 0.019225357
000200 29 b3 e8 3b 32 a0 20 3d 27 5c d7 3c c8 d2 2d 3d
       0.0071014357 0.039215274 0.026289059 0.042437345
000210 88 70 ed bc 9e ae db 3c 57 50 92 bc 02 7e 86 bb
       -0.028984323 0.026816662 -0.017860575 -0.004104377
000220 82 1b 3f 3c 60 23 ec bb 5f 2b 0d bd ea 36 e4 3c
       0.011664273 -0.0072063655 -0.03446519 0.027858216
000230 58 cc 4a bc 53 c4 13 bd c2 ee 10 3d 7e d9 35 3c
       -0.012377821 -0.0360759 0.035383947 0.011099217
000240 43 bc d7 3c b8 4c 07 3d ab d3 29 3c e2 b5 3b bc
       0.026334887 0.03303215 0.010365407 -0.011456938
000250 a3 93 a0 bc 50 1a 1c bd 28 4e 02 3d 68 38 2d bd
       -0.019601649 -0.03811103 0.031812817 -0.04229012
000260 1e 60 87 bc 83 0f 23 3d c2 e7 37 3d a2 b7 72 3d
       -0.016525324 0.039809715 0.044898756 0.059257157
000270 f0 4c 4b bd 9d 93 1f bd 41 5d 3e 3d fa 1d fc 3b
       -0.04963392 -0.038959134 0.046475653 0.007694003
000280 56 c9 02 3c 77 94 d1 39 28 50 d2 bc f8 45 fe bc
       0.007982573 0.000399742 -0.025672987 -0.031039223
000290 6d eb 05 bd 9e a2 f0 3b 32 70 15 bc 1e 6a 7b bc
       -0.032695223 0.007343604 -0.009120988 -0.0153451245
0002a0 62 a7 db bc bc a9 0f bd ee 7b 09 3d f7 f0 a9 bc
       -0.026813213 -0.03507398 0.033565454 -0.020744784
0002b0 2a 21 19 bd da 9a 10 3c 9f c0 5e 3c bc ef 3a 3c
       -0.037385143 0.008825982 0.013595729 0.011409696
0002c0 a9 88 6d 3c f0 f9 07 bc 0f 64 98 38 16 5d 6d ba
       0.014497914 -0.008299336 7.266562e-05 -0.00090547034
0002d0 18 2e 34 bd 7b 95 7b bd 3e b3 a3 3c 8d 73 d2 bc
       -0.04398927 -0.061421853 0.01998293 -0.025689865
0002e0 1e 2e e2 3c 47 2a 6a 3c d7 f9 f1 3b b3 e2 4d bc
       0.027609881 0.014292306 0.0073845196 -0.012566256
0002f0 35 06 02 bd 99 d7 61 bc 38 65 1c 3d 9c 8f 56 bd
       -0.0317442 -0.013784313 0.038182467 -0.05238305
000300 54 af 0d 3c aa 9e 3d 3c 5a 38 a0 3b 8d f1 05 3d
       0.0086477585 0.011573473 0.00488953 0.032701064
000310 30 3f 35 bc b7 51 85 3d 5e dd ea bc e0 ab ad bc
       -0.011062428 0.065097265 -0.02867001 -0.02120012
000320 f6 30 c6 3b 1f a3 f3 3c 61 16 5c bc 1d 37 d2 bc
       0.006048317 0.029740868 -0.01343307 -0.025661046
000330 b6 2f 82 3a 0a 06 18 3c 07 ac 91 bc c5 f7 08 3d
       0.0009932432 0.009278784 -0.017782224 0.033439416
000340 75 a4 3c bc 63 93 db bc 9f c7 d6 bc a3 5a d3 bc
       -0.011513819 -0.026803678 -0.026218234 -0.025800055
000350 84 6f 68 3d d9 86 65 3d 54 6e e1 3c d7 76 23 3d
       0.056746975 0.056036804 0.027518429 0.039908256
000360 77 50 a5 3c dd 4c 13 bc d2 e0 2b bc 0b e4 37 bd
       0.02017997 -0.008990494 -0.010490613 -0.044895213
000370 51 bf 53 bc a2 3a 3b bd ba 1f 98 3c ed ad 0a 3d
       -0.012924031 -0.045710213 0.018569816 0.033857275
000380 15 6f 1c 3d e6 4c 67 bc 29 96 1d bd 2d 38 c6 3b
       0.038191874 -0.014117455 -0.038473282 0.006049177
000390 08 aa 6f 3b ae 8c 83 bc 95 b5 1e 3d 47 ef 93 bc
       0.0036569852 -0.016058292 0.03874739 -0.018058432
0003a0 34 b8 1c bc 4a ea 11 3a 83 7b 0c bb 50 38 ce bc
       -0.009565402 0.0005566223 -0.0021435923 -0.025173336
0003b0 13 92 df 3c 30 e5 95 3c b4 c0 e3 3c f2 cf 12 bd
       0.027291333 0.018297762 0.027801849 -0.035842843
0003c0 00 49 af 3c 31 a2 18 bc cf 51 14 3d 81 c2 df bc
       0.021397114 -0.009316013 0.03621083 -0.027314426
0003d0 4d cf 9b 3c c3 bb 3a 3d b8 95 d3 bb c1 b7 33 3d
       0.019019747 0.04558922 -0.006457057 0.043876413
0003e0 da f5 bf 3a 96 34 98 bb e2 c9 f7 3c f4 57 0e bd
       0.0014645413 -0.0046449406 0.030247632 -0.034751847
0003f0 91 84 75 bd cc 81 02 3d cf 71 e6 3c 5e 07 b2 3b
       -0.05994088 0.031862065 0.02813044 0.005433007

conv1.bias f4 [128]
000000 b7 65 10 3d 4f 5c ed bc 09 c0 50 bd af a2 3e 3d
       0.035253253 -0.02897468 -0.05096439 0.046541866
000010 70 0e 7d bc b7 95 df 3b 23 72 e2 3b 4c af 6b bd
       -0.015445337 0.0068232673 0.006910579 -0.057540223
000020 bd fe 28 bc f4 31 49 3d 23 ed 0d 3d 01 c8 8d 3b
       -0.010314641 0.049119905 0.03464998 0.004326821
000030 fe 69 7a bb 79 f1 a5 bb 44 d9 9f bb 42 84 4c bd
       -0.003821015 -0.005064186 -0.004878195 -0.04993082
000040 79 8d a0 3c ad af 52 3c ca 58 95 bc 3b a7 01 3d
       0.01959871 0.012859267 -0.018230814 0.031653624
000050 e1 07 10 bd 31 31 83 bc 5c f6 fa 3c e1 6d 40 bc
       -0.035163764 -0.016014667 0.030635051 -0.011744947
000060 ea df 91 bb b7 5a 83 3c 36 e2 72 3c 99 92 14 3d
       -0.0044517415 0.016034467 0.014824441 0.03627262
000070 c6 74 1f bd 38 c2 fa bc bc 16 6a 3b 91 86 91 3c
       -0.038929723 -0.030610189 0.0035719117 0.017764362
000080 9d c9 ee bc 04 e7 65 3d 13 66 12 3b cb 2f 89 bc
       -0.029148871 0.056128517 0.0022338673 -0.016746422
000090 f7 a9 27 3c 0c 98 a5 3c cc bc 7d bc 5b 50 04 bd
       0.010233394 0.020214103 -0.015486907 -0.032303195
0000a0 4a 9d 08 3d 4f 16 07 3c d8 8a 4b 3c d9 3a 10 3d
       0.033353128 0.008245065 0.01242324 0.03521237
0000b0 bc 91 0c 3c 6b a9 09 3b a7 8c 11 bc b9 09 0a bd
       0.008579668 0.0021005522 -0.008883632 -0.03370068
0000c0 e8 ab 19 bc ac df ac bc 0b 6d 1a 3d 1c cd 0e 3d
       -0.009379365 -0.021102749 0.037701648 0.034863576
0000d0 0d 88 cb bc 34 aa 8d bc 4d cd bf bb 91 57 25 3d
       -0.024845148 -0.017293073 -0.005853331 0.040366713
0000e0 e5 77 c7 bc b7 d1 ce 3c 48 8b 83 3a f3 57 7b 3c
       -0.024349162 0.025246484 0.0010036016 0.015340793
0000f0 17 8f b9 bc 29 53 4d bd 42 4b 59 bb 36 7e 1a bd
       -0.022651238 -0.050128136 -0.003315643 -0.03771802
000100 fa 60 84 bb 5e b1 88 bc da 1f 26 bd 4a cd 12 3d
       -0.004039881 -0.016686138 -0.04055772 0.03584031
000110 09 58 3c 3c b4 15 c0 3c b1 7e 80 3c 95 e1 be 3c
       0.011495599 0.023447849 0.015685411 0.023300925
000120 92 1e 15 3d 0f 68 be bc d9 9e 0b bd 78 19 eb bc
       0.036406107 -0.023242978 -0.034087036 -0.028698668
000130 3c 99 01 bd 9c 0f 77 3a 96 a6 c0 3b 2d 37 65 3c
       -0.031640276 0.0009424628 0.0058792336 0.013990206
000140 af a1 36 3d e7 57 ca 3b b1 08 01 3d bd 60 be 3c
       0.044587787 0.0061750296 0.03150243 0.023239488
000150 5f 77 ba 3c b9 1b f5 bc 49 b8 bb 3c 66 50 93 bc
       0.022761999 -0.029920446 0.022915022 -0.017982673
000160 c0 6c 18 3d 72 ec 46 bd ba a6 b7 bb 0a 00 d4 3c
       0.037213087 -0.048565336 -0.005604592 0.025878925
000170 5e 0d 4c bc 3f 64 22 3c 48 dc 06 3d 64 c0 35 bc
       -0.012454359 0.009911596 0.03292492 -0.011093233
000180 73 c6 44 3c a3 a4 c0 3c 7b 9d 43 3c c9 ea 29 3d
       0.012010205 0.023516005 0.011939402 0.041483674
000190 06 d8 42 bd bc f3 5b bc 96 89 88 3c 63 73 13 3d
       -0.047569297 -0.01342481 0.016667169 0.035998713
0001a0 46 77 68 bd b4 84 27 3d 5b 39 92 3d dc 17 0a 3d
       -0.056754373 0.04089804 0.07139846 0.03371416
0001b0 90 ca ab bc d2 04 c5 3b 19 b2 3b 3d 13 ce c2 bc
       -0.020970613 0.0060125375 0.045824144 -0.023779904
0001c0 00 d2 f3 bb 46 4b 27 3d 62 1f a1 3b b2 a9 27 bd
       -0.0074408054 0.04084327 0.004917071 -0.04093332
0001d0 b3 12 67 bb 4c 94 0c 3d 4c 2d 0c 3d 95 ae 0a 3c
       -0.0035258948 0.034321114 0.034222886 0.008464475
0001e0 85 bd 4a ba 67 74 aa ba 23 26 01 3d 25 8b 17 3d
       -0.0007733929 -0.0013004661 0.03153051 0.036997933
0001f0 ac d7 ba 3c 37 68 c4 bc 57 f2 91 bc 71 54 21 bd
       0.022807918 -0.023975475 -0.017815752 -0.03938717

bn1.weight f4 [128]
000000 7b 80 81 3f 17 a5 80 3f 5b 57 7c 3f cf 34 7f 3f
       1.0117334 1.0050381 0.98570794 0.99689955
000010 c3 22 80 3f 26 2b 80 3f 88 2c 82 3f da 5e 7f 3f
       1.0010608 1.0013168 1.016984 0.99754107
000020 87 5c 7e 3f 68 2a 80 3f 58 b2 81 3f ea 66 7f 3f
       0.99359936 1.0012941 1.0132551 0.9976641
000030 d6 b3 7e 3f c7 41 82 3f 28 75 80 3f 3a 7f 7e 3f
       0.9949316 1.0176324 1.0035753 0.9941288
000040 ac 08 83 3f 21 90 80 3f b6 71 80 3f 08 49 7d 3f
       1.0237021 1.0043985 1.0034702 0.9893956
000050 82 ab 80 3f 83 e8 7c 3f 06 19 81 3f 26 8e 80 3f
       1.005234 0.98792285 1.0085762 1.004338
000060 8d 6d 80 3f e2 0a 80 3f 7d 58 82 3f 6a 55 7e 3f
       1.0033432 1.0003321 1.0183254 0.9934908
000070 dc 7a 7e 3f 15 dc 80 3f 1b bd 7f 3f 1a d0 7e 3f
       0.9940622 1.0067164 0.9989793 0.9953629
000080 cd 6c 7f 3f ef ad 80 3f b6 7a 81 3f 4d bd 7f 3f
       0.9977539 1.005308 1.0115573 0.99898225
000090 c3 7d 80 3f b0 b6 80 3f 06 e0 7f 3f bd bc 80 3f
       1.003838 1.0055752 0.9995121 1.0057598
0000a0 f7 28 80 3f fd a6 7e 3f da a4 80 3f f4 74 7e 3f
       1.0012501 0.99473554 1.0050309 0.99397206
0000b0 39 38 80 3f ba 93 80 3f ac 65 7e 3f 6d fa 7e 3f
       1.0017158 1.0045083 0.9937389 0.9960087
0000c0 de df 7e 3f 62 f1 80 3f ac e7 80 3f 03 15 81 3f
       0.99560344 1.0073664 1.0070701 1.0084537
0000d0 b9 35 7e 3f 7a a1 7d 3f 60 67 81 3f f5 dd 7e 3f
       0.99300724 0.9907452 1.0109673 0.9955743
0000e0 b0 e1 7e 3f a0 22 81 3f b6 0e 7f 3f df be 7b 3f
       0.9956312 1.0088692 0.9963182 0.9833812
0000f0 eb 32 80 3f 48 0b 7d 3f 37 fc 7e 3f 14 cd 80 3f
       1.0015539 0.9884534 0.996036 1.0062585
000100 d6 88 80 3f ff 58 80 3f 7e f9 7c 3f 12 02 7f 3f
       1.0041759 1.002716 0.98818195 0.99612534
000110 9d c8 7e 3f 23 2d 82 3f 87 11 7e 3f 06 41 81 3f
       0.9952486 1.0170025 0.99245495 1.0097969
000120 8b 55 7f 3f 1c e0 80 3f 19 83 7f 3f da fc 80 3f
       0.99739903 1.0068393 0.99809414 1.0077164
000130 ea 75 7d 3f dc 32 80 3f a5 8a 7d 3f f4 33 81 3f
       0.9900805 1.0015521 0.9903968 1.009398
000140 c0 c5 7d 3f a6 25 80 3f 47 9d 80 3f 85 f6 80 3f
       0.9912987 1.0011489 1.0047997 1.0075232
000150 c3 49 80 3f 72 67 81 3f 42 14 80 3f 1d d6 7e 3f
       1.002251 1.0109694 1.0006182 0.9954546
000160 30 41 7f 3f 72 4a 80 3f e0 e9 81 3f 4b 32 82 3f
       0.99708843 1.0022719 1.0149498 1.0171598
000170 51 ff 7d 3f c9 9e 80 3f 81 8e 7e 3f 18 d8 81 3f
       0.99217707 1.0048457 0.99436194 1.0144072
000180 9d bc 80 3f f1 45 80 3f 6d 6a 81 3f 22 f4 7f 3f
       1.005756 1.0021344 1.0110604 0.9998189
000190 53 20 80 3f 0b 4f 7e 3f e9 f8 80 3f 57 35 7f 3f
       1.0009865 0.9933936 1.0075961 0.99690765
0001a0 16 76 7f 3f c9 f3 7e 3f d9 11 82 3f 56 97 81 3f
       0.9978956 0.99590737 1.0161697 1.0124309
0001b0 75 2e 7f 3f 0a 37 7e 3f f2 1b 83 3f 4f d3 7e 3f
       0.9968026 0.9930273 1.0242903 0.9954118
0001c0 79 81 7f 3f 26 af 7f 3f 0d 3a 7e 3f fe 88 7c 3f
       0.99806935 0.9987663 0.9930733 0.98646533
0001d0 75 b6 7f 3f 3f 33 80 3f 56 5e 81 3f 9c 0f 7f 3f
       0.9988778 1.0015639 1.0106914 0.99633193
0001e0 a6 5d 80 3f b1 38 80 3f d7 77 7f 3f cc c1 80 3f
       1.0028579 1.0017301 0.99792236 1.0059142
0001f0 37 12 80 3f 4b 82 82 3f e6 ca 7f 3f 87 d1 7f 3f
       1.0005559 1.0196012 0.99918973 0.9992909

bn1.bias f4 [128]
000000 7e 3c 25 3a a6 14 ca bb 91 96 5e bc d6 fa 55 bc
       0.00063032645 -0.0061670123 -0.0135857025 -0.013060292
000010 cd 9d 73 bb c6 8b 23 bc 60 51 38 3c 82 c5 43 bc
       -0.0037172914 -0.009982055 0.01124987 -0.011948945
000020 7e 81 1b bc 7c 51 8d ba 45 2a 14 3c 49 b9 cd bb
       -0.009491323 -0.001078173 0.009043281 -0.006278191
000030 ea 33 29 bc 08 02 59 3a be d0 e4 bb d9 d6 13 3b
       -0.010327319 0.0008278196 -0.006982892 0.002255848
000040 ba 5a b4 bb a3 bf c7 bb 6a de 1a b9 b0 8b 8c bb
       -0.0055039795 -0.006095843 -0.0001476944 -0.004289113
000050 c1 0b a2 3b 80 3b a2 3a 7d 45 d6 3b 6b b2 bc b9
       0.004945249 0.0012377352 0.0065390454 -0.00035991086
000060 03 e3 9b bb 78 6e b1 3b bf d9 f6 3a 68 3c 98 b8
       -0.0047572865 0.00541478 0.0018833204 -7.259176e-05
000070 8e 93 8e bc 48 bd 9f 3b 71 d8 d3 3b b0 a7 db bb
       -0.017404344 0.004874859 0.006465011 -0.0067033395
000080 52 a6 27 ba dc 79 8f 3a ef d1 9f 3b 9e 7e b0 bb
       -0.0006395328 0.0010946351 0.004877321 -0.0053861877
000090 4c df 04 3b b6 35 95 bb a5 67 cf bc fe e3 58 3b
       0.0020274697 -0.004553522 -0.025317976 0.0033094878
0000a0 50 68 af ba 65 a8 30 bc 5a 08 6c bc a5 a1 7a bc
       -0.0013382528 -0.010782336 -0.014406288 -0.015297328
0000b0 89 7b 6b ba ce 55 ee 3a 13 49 5c ba 77 0a 01 bc
       -0.0008982947 0.0018183531 -0.0008403223 -0.00787603
0000c0 ac 90 0d bb b9 74 1f bc 0b d9 1d 3b 6a 81 08 3b
       -0.0021601124 -0.009732419 0.0024085667 0.002082909
0000d0 de 09 3f bc b1 f8 b2 ba b3 a5 b4 3b 78 c1 10 bc
       -0.011660067 -0.0013654438 0.005512917 -0.008835189
0000e0 6d 84 a2 b9 ca 20 bc 39 69 e5 c4 bb 87 0d 8a bc
       -0.00030997713 0.00035882584 -0.006008793 -0.016852153
0000f0 41 eb 59 3b 6b 25 a8 bb c5 04 09 bb 12 36 d8 3b
       0.0033251795 -0.0051314137 -0.0020907384 0.0065982426
000100 d1 be 62 bb 43 da 88 bb 35 cf 15 3b bf b5 94 bb
       -0.0034598599 -0.0041764094 0.00228591 -0.0045382674
000110 ae 55 93 bb 14 18 c0 b9 a6 01 05 bc ec 76 ba bb
       -0.004496298 -0.00036639033 -0.008118069 -0.005690446
000120 bc d8 4e bc 92 0f 1e bc 38 73 30 bc 89 76 28 3b
       -0.012624916 -0.009647267 -0.010769658 0.0025705418
000130 8d 9c 7c bc f0 5d 12 37 95 b9 a0 bb 42 fd 26 bb
       -0.015418184 8.72415e-06 -0.0049049356 -0.0025480543
000140 b5 5d d0 bb e6 3d 6e bc 98 1f 26 b9 b9 35 62 3c
       -0.006358827 -0.014541125 -0.00015842763 0.013806754
000150 fc c9 4d bb ec a0 32 39 6a bb f3 3a 80 0f b5 bc
       -0.003140091 0.00017035351 0.0018595282 -0.022102118
000160 33 b7 1b bc 46 3b 35 bc 43 0b 1b 3c dc 6f aa bb
       -0.009504127 -0.011061495 0.009463134 -0.005201323
000170 9e 2c c7 3b ec 59 b0 3b 22 98 73 3a df 6e 4c 3c
       0.006078317 0.0053818133 0.0009292384 0.012477606
000180 55 5e ea bb 90 d0 89 3b 05 63 63 3c 9b 65 44 3b
       -0.0071523585 0.004205771 0.013878589 0.0029967788
000190 00 d5 31 3c 83 59 76 ba 4a 2c a0 bb 76 52 48 bc
       0.010854006 -0.00093974936 -0.004888092 -0.0122266915
0001a0 8a 77 58 3a cc de 6e bb 9a 78 22 bc d7 a8 a3 3c
       0.0008257559 -0.0036448715 -0.009916449 0.01997797
0001b0 6c e0 0f 3c 06 c9 7d ba 48 15 ae 3c f5 0d e3 bb
       0.008781534 -0.0009681139 0.021250382 -0.006929154
0001c0 61 5b 49 bc 44 b4 80 bc 31 48 af bb cb 35 eb bb
       -0.012289853 -0.015710957 -0.005349182 -0.0071780435
0001d0 b6 a1 28 3b 13 83 d7 3a f1 58 38 3c b8 62 78 3b
       0.0025731153 0.0016442261 0.011251674 0.0037900638
0001e0 9e c1 26 bc 8f d6 84 bb b6 51 9e 3c c5 26 11 3b
       -0.010177998 -0.0040538977 0.019326072 0.0022148353
0001f0 6f 9d 0c bc 21 3b 15 bb ec 32 b3 bb b4 93 a1 3a
       -0.008582457 -0.002277084 -0.005468717 0.0012327344

bn1.running_mean f4 [128]
000000 a0 ca 11 3d 73 f6 10 bd 69 d8 7e bd 2b ea 30 3d
       0.03559363 -0.035391282 -0.062218104 0.04319207
000010 9b 5f c2 bc d6 de 94 3b 83 be 30 3c ec df 6f bd
       -0.023727229 0.0045431657 0.010787609 -0.058563158
000020 cd 75 bc 3b 59 ba 2c 3d d2 3e 9d 3c 83 54 da 3a
       0.0057513476 0.042169902 0.019194994 0.0016657267
000030 ae 44 e3 bb b1 1e cb bb 9d 1f 8b bc cc 29 09 bd
       -0.0069356775 -0.006198727 -0.016982848 -0.033487126
000040 e6 aa 23 3c be 80 02 3c 32 95 19 bc 18 db 4c 3d
       0.009989476 0.007965265 -0.00937395 0.05001363
000050 42 76 fb bc 7f 9c 74 bd aa d5 9e 3c 5c 5e d5 bc
       -0.030696038 -0.05971956 0.019388992 -0.02604597
000060 7e 38 ac bc 4b 04 18 3d b3 f2 88 3c a7 a5 54 3c
       -0.021023031 0.03711347 0.01671729 0.012978948
000070 ca 71 02 bd 76 d1 1c bd 4f b7 7d bc de 21 a5 3c
       -0.0318468 -0.038285695 -0.015485599 0.02015775
000080 7e 31 df bc a8 d7 24 3d a3 e1 8a 39 dc 23 24 bd
       -0.02724528 0.04024473 0.00026489524 -0.04007326
000090 8c 9c 0e 3b b9 39 8a 3c 27 be 0d bd 64 90 41 bd
       0.002176079 0.016873227 -0.03460517 -0.047256842
0000a0 22 9f b7 3c aa 9e 59 3c f4 46 07 3c 28 68 cc 3c
       0.022414748 0.013282457 0.008256663 0.02495201
0000b0 ae e5 97 bb 48 1f 3a 3c d8 ff 0e bd 4a c4 3d bd
       -0.0046355342 0.011359997 -0.03491196 -0.046329774
0000c0 b4 a2 04 38 00 ab 81 bc ee 2f 06 3d 7a c2 f9 3c
       3.162278e-05 -0.01582861 0.032760553 0.030488241
0000d0 4b da 1d bd 94 03 1c bd f3 56 c4 bc ef 5d 3e 3d
       -0.03853826 -0.03808935 -0.023967242 0.0464763
0000e0 27 f7 b4 bc 9b 7f e3 3c a9 1f 22 3b 28 c9 9a 3c
       -0.022090508 0.027770808 0.002473811 0.018894747
0000f0 0a 31 ec bc 67 ba 61 bd 69 7b 16 bd b2 21 e8 bc
       -0.028831977 -0.055109408 -0.036738787 -0.02833638
000100 c8 6d 4b bc 85 11 35 bc 87 09 4e bc 89 69 42 3d
       -0.012416311 -0.01105154 -0.012575514 0.047463927
000110 af fa d7 3c 86 b4 b2 3c 0d d2 11 3c b9 36 a5 3c
       0.026364652 0.021814596 0.008900178 0.020167695
000120 42 db f5 3c c6 ab 20 bd 82 2a 37 bd 6b 87 c6 bc
       0.030011777 -0.039226316 -0.044718273 -0.024234494
000130 32 58 ff bb 73 d4 9d 3a d7 01 0f 3c 59 33 80 3c
       -0.007792496 0.0012041464 0.008728466 0.015649484
000140 e0 2a 65 3d 30 2d 2f 3c 54 1a 25 3d 3a 08 19 3c
       0.055949092 0.010691926 0.04030831 0.00934034
000150 3d 00 42 3d 95 fa f3 bc e4 b0 f6 3b b9 f4 36 bc
       0.04736351 -0.029782573 0.007528411 -0.011166745
000160 66 35 19 3d b9 91 37 bd 33 03 75 38 0d 1a 75 3c
       0.03740444 -0.044816706 5.841553e-05 0.014959824
000170 87 2e 38 bc 44 94 db 3c eb 3c 1e 3d a7 f4 d5 bb
       -0.011241562 0.026804097 0.038632315 -0.006529409
000180 5a eb 9a 3b e5 fa ec 3c 80 f4 86 3b 69 df 47 3d
       0.004727763 0.02892823 0.004118502 0.048797045
000190 9d 8a 11 bd 44 30 da 3b 7b 1c b3 3c 3a 39 00 3d
       -0.035532583 0.0066585857 0.021864166 0.031304576
0001a0 86 f9 8b bd 1d 0d e7 3c 04 e8 96 3d 4b 34 e9 3c
       -0.06834702 0.028204495 0.07368472 0.028467318
0001b0 7c b2 02 bd b7 e3 71 3c 99 95 d2 3c 52 e9 18 bd
       -0.031908497 0.014763764 0.0257061 -0.037331887
0001c0 7f 37 ba bb 44 ef 19 3d a0 3f 68 bb fb 7e 2a bd
       -0.005682885 0.037581697 -0.0035438314 -0.041625004
0001d0 c5 85 8e bc 29 2b a9 3c 5a 77 d5 3c 6c 62 8a 3b
       -0.01739777 0.020650463 0.026057888 0.0042231586
0001e0 39 9e e9 3b 2e 1b 31 bc d6 42 d8 3c b4 fa df 3c
       0.0071294573 -0.010809703 0.026399057 0.027341224
0001f0 9f 84 ad 3c e7 cf 30 bd ab 01 29 bd 09 82 3e bd
       0.021181403 -0.04316702 -0.041261356 -0.04651073

bn1.running_var f4 [128]
000000 26 55 27 3b 5c 9f 1b 3b df d4 41 3b de d9 d4 3a
       0.002553293 0.0023746109 0.0029576344 0.0016239246
000010 8f 38 07 3b 1b a4 24 3b d9 cf 66 3b ec 6a 59 3b
       0.0020633077 0.0025122229 0.0035219102 0.0033175303
000020 3d 18 6b 3b 86 cd 29 3b 91 cd 88 3b 2c 3e 0a 3b
       0.0035872601 0.0025909855 0.004174896 0.0021094186
000030 7e 3d 10 3b f6 9b 04 3b da 6a 78 3b 00 fd 4e 3b
       0.0022009308 0.0020234562 0.0037905485 0.0031583905
000040 00 f2 40 3b 8b 6e 39 3b 79 a2 20 3b 6e 67 8c 3b
       0.0029441118 0.0028294649 0.0024510904 0.0042847907
000050 c2 6c 5e 3b c5 e3 50 3c c6 b2 4a 3b 96 50 85 3b
       0.0033939336 0.012749617 0.0030929311 0.0040684445
000060 2d 1e bf 3b a0 2e a4 3b d1 b1 32 3b 2b b3 a4 3b
       0.0058324547 0.005010441 0.0027266631 0.0050262413
000070 04 b3 41 3b 5d c6 3c 3b b1 08 91 3b e7 2a 69 3b
       0.0029556165 0.0028804757 0.004426085 0.003557855
000080 a8 ea 1a 3b 67 c1 8f 3b df 26 40 3b 48 1c c0 3b
       0.0023638401 0.004387069 0.0029320044 0.0058627464
000090 ba 56 61 3b 95 79 2e 3b e1 d4 91 3b 49 4d 67 3b
       0.0034383968 0.0026622762 0.004450426 0.0035293868
0000a0 80 8b 60 3b 8c eb 20 3b c6 97 1b 3b c1 2f 5b 3b
       0.0034262836 0.002455446 0.0023741587 0.0033445212
0000b0 f8 08 80 3b 1a 06 12 3b 86 5d d0 3b 2c 11 58 3b
       0.003907319 0.002228147 0.006358805 0.003296922
0000c0 ce 91 3b 3b 2a 95 36 3b 93 a2 1f 3b 17 1e 0d 3b
       0.0028620842 0.0027859905 0.0024358376 0.0021532828
0000d0 46 80 63 3b 82 bb a2 3b 01 6f 8d 3b 54 4e 60 3b
       0.0034713908 0.0049662003 0.004316211 0.0034226375
0000e0 ad 9d 3c 3b 7d c3 5b 3b 61 49 fc 3a 54 f7 1e 3b
       0.0028780506 0.0033533268 0.0019247943 0.0024256306
0000f0 d7 db 6f 3b ef 2f 3d 3b f7 d3 18 3c 6f cc 4d 3b
       0.003659954 0.0028867682 0.00932788 0.003140237
000100 3c 54 4c 3b 03 fa 2a 3b f4 b7 c7 3b 8e c4 74 3b
       0.0031178137 0.002608896 0.006094927 0.00373486
000110 a5 95 57 3b a9 2c dc 3a ab aa 46 3b 0c 81 15 3b
       0.0032895592 0.0016797978 0.0030314128 0.0022812514
000120 f5 0d 51 3b 84 dd 87 3b f1 90 5d 3b 87 5c 69 3b
       0.0031899188 0.0041462798 0.0033808316 0.003560813
000130 79 28 d0 3b 2e f5 65 3b ce 0b 4d 3b c8 a2 1d 3b
       0.006352481 0.0035088765 0.0031287554 0.0024053324
000140 d0 8c 87 3b 35 9f 1d 3b 5b af 28 3b 2c e1 89 3b
       0.004136659 0.0024051194 0.0025739286 0.004207751
000150 96 e5 b6 3b c0 52 26 3b 98 73 7e 3b f6 f5 39 3b
       0.005581568 0.0025378913 0.0038826223 0.0028375364
000160 bd 4a 35 3b a7 2a 3f 3b 8b a9 e9 3a 13 95 45 3b
       0.0027662956 0.002916971 0.0017827017 0.003014867
000170 63 7c 4c 3b e3 56 71 3b d0 63 fa 3a 17 8f 2d 3b
       0.003120207 0.003682547 0.0019103233 0.0026482993
000180 03 5f 3b 3b 50 dc 29 3b 63 5e 36 3b 50 90 29 3b
       0.0028590567 0.002591867 0.0027827255 0.002587337
000190 3f ee 68 3b 2d f2 a4 3b b7 5a 65 3b fc 68 1a 3b
       0.0035542396 0.0050337524 0.0034996697 0.002356111
0001a0 fd 2f 52 3b 40 40 61 3b e7 9e 3b 3b c1 76 3f 3b
       0.003207206 0.0034370571 0.0028628649 0.002921507
0001b0 02 73 2e 3b 98 20 45 3b 5d 5a ac 3b b4 56 48 3b
       0.0026618843 0.0030079242 0.0052597956 0.0030569257
0001c0 1c 68 47 3b 91 8b 4b 3b 16 c7 24 3b 59 ee 1d 3b
       0.0030427044 0.003105853 0.0025143079 0.0024098365
0001d0 14 97 4d 3b 4a 50 a6 3b 51 22 87 3b a6 87 56 3b
       0.0031370567 0.005075489 0.004123964 0.0032734661
0001e0 b7 c4 47 3b 0e 35 7f 3b d3 12 5a 3b c5 8e 74 3b
       0.0030482241 0.0038941535 0.003327538 0.0037316543
0001f0 a9 ae 6f 3b 7c 97 93 3b 07 e8 b7 3b 84 2f 29 3b
       0.0036572611 0.0045041423 0.0056123766 0.0025815675

conv2.weight f4 [64, 128, 11, 1]
000000 5b a1 30 3c e1 cb 41 bc a8 0f dd 3c de 60 9b 3b
       0.010780658 -0.011828394 0.026985005 0.004741772
000010 ba be 69 bc 2f 4f 36 3c dd c3 ca 3c ba 76 bc 3c
       -0.014266664 0.011127277 0.024751598 0.023005832
000020 0f af bd bc 19 5a 85 3c af e9 8c bc 35 b6 8c 3a
       -0.023154764 0.016278313 -0.017201273 0.0010735454
000030 35 4d 09 bb ba 3d 00 bd ad 45 09 3c bf 89 af bb
       -0.002095056 -0.031308867 0.008378428 -0.005356997
000040 b4 b2 bd bb 02 a5 51 bc 09 69 02 bc 43 8d 12 3d
       -0.0057891253 -0.012795689 -0.007959613 0.03577925
000050 6d 81 9f ba c1 e8 0d 3d 43 6f 61 ba e6 26 6e bc
       -0.0012169309 0.0346458 -0.0008599648 -0.014535641
000060 94 aa f3 bc 24 0a 93 3c f4 15 ae bc 62 22 a1 bc
       -0.029744424 0.017949171 -0.021250702 -0.019669715
000070 9c e6 02 3c 09 69 6e bc 87 f4 de 3c b8 a6 71 3c
       0.007989552 -0.0145514095 0.02721621 0.0147492215
000080 6b 8a 8c 3c 3f 30 98 3c d1 43 8c 3a 82 a6 6c bc
       0.017155847 0.018577693 0.0010701363 -0.014443995
000090 c8 8a 8f 3c 0b 12 eb 3a 27 4c d0 3c c0 25 80 bc
       0.01752223 0.0017934454 0.025426937 -0.015643
0000a0 ca 93 04 3d 15 14 6c 3b 32 ba c4 3c f3 0d 9b 3b
       0.032367505 0.0036022712 0.024014566 0.0047318875
0000b0 c7 b5 e9 b9 64 e6 3f 3c 78 f6 32 3c e0 d3 97 bc
       -0.00044576658 0.011712644 0.010923021 -0.018533647
0000c0 a2 80 47 bc 5c d8 d3 3c 4b 67 31 bb 9a ce a4 3b
       -0.012176665 0.025860004 -0.0027069624 0.0050295116
0000d0 3d 48 e9 3c d5 74 c1 bb 40 92 ce bc 73 4f 04 bc
       0.028476829 -0.00590382 -0.025216222 -0.008075583
0000e0 62 7d e1 3c 3d c4 f0 3b e9 18 79 3c 30 dd 98 bc
       0.027525607 0.007347612 0.015203693 -0.018660158
0000f0 b6 9e c7 3c 0c 87 85 bc 95 34 1c bc ba fc 07 bd
       0.024367671 -0.016299747 -0.009534021 -0.033200003
000100 6d 4a 33 3c 65 f4 a5 bc 28 82 ed bc d4 64 51 bb
       0.010943037 -0.020258138 -0.028992727 -0.0031950967
000110 29 8d a9 bc 5c 12 aa bc 7d bc a4 3b 05 79 8c 3c
       -0.020697193 -0.020760708 0.0050273524 0.01714755
000120 56 b3 e8 bb 2a 26 22 3c d7 db 02 3c e0 39 06 3d
       -0.0071014566 0.009896794 0.007986984 0.032770038
000130 33 56 07 bc fd af 9e bc 20 c8 c0 bb c6 fe 5b 3c
       -0.008260298 -0.019371027 -0.0058832318 0.013427442
000140 6e a2 93 bc 04 43 6c 3c 73 0f 7f 3c 3a f6 47 3b
       -0.018021788 0.014420275 0.015567648 0.0030511753
000150 a5 53 1a 3b 35 00 96 3b 0c d3 21 3c bf d7 0d 3d
       0.0023548391 0.0045776614 0.009876978 0.03462958
000160 1d fb be bb f4 b5 74 b8 c8 67 66 3c 81 ff 3e bc
       -0.005828275 -5.834359e-05 0.014062829 -0.011657597
000170 a4 76 5b bc ce 74 25 3c 33 26 e6 3c 97 72 11 39
       -0.013394985 0.010098649 0.028094387 0.00013870966
000180 11 51 a2 bc 96 a5 a6 3c 7a fe 98 3b 65 ae 93 3c
       -0.019814046 0.02034263 0.004669008 0.018027494
000190 df cd a9 3c 0a 52 d6 3c b9 87 10 3c eb 1d 42 bc
       0.02072805 0.026162166 0.008821421 -0.011847953
0001a0 a4 dd f1 3c 6d b5 6c 3c cf 6a bd 3c 04 79 f1 3a
       0.029524632 0.014447552 0.02312222 0.0018422906
0001b0 a1 df b6 bb 49 26 65 bc 08 73 c6 bb 3b c7 65 bc
       -0.005580858 -0.013986179 -0.0060561933 -0.014024551
0001c0 7d 7c cd bc 08 f7 5f 3b 44 b6 52 3c 6f 25 71 3c
       -0.025083775 0.0034174342 0.012860838 0.0147183975
0001d0 6c 17 e8 3c 1d be 93 3c 84 18 97 bc 17 c3 f9 3c
       0.02833148 0.018034989 -0.018444307 0.030488534
0001e0 2d 10 9b bc 73 07 d9 3b 3d 48 b7 bc b8 16 71 3c
       -0.018928612 0.0066232025 -0.022373313 0.014714889
0001f0 c4 a0 91 bc f6 40 63 3c 36 bd c4 3c 2d 82 29 bc
       -0.017776854 0.013870468 0.024016004 -0.010345978
000200 74 01 fe 3b 49 bc a8 3c 94 f5 11 ba 57 47 0c bb
       0.007751638 0.020597594 -0.0005567905 -0.0021404827
000210 6c 3a 9f bb 20 14 81 bc 98 ff 23 3c 95 22 68 3c
       -0.0048592594 -0.015756667 0.010009669 0.014168401
000220 d4 57 62 bc 4b 51 95 bc 5e 32 0d 3c 3a d4 94 3c
       -0.013814885 -0.01822724 0.0086179655 0.018167604
000230 9b ef d1 bc 59 d5 7d bc b9 80 6d 3c ee e2 8d 3c
       -0.025626948 -0.015492761 0.014496022 0.017320123
000240 a3 33 ef 3c 4d 65 2b bc 52 47 aa 3c 10 95 31 3d
       0.029199427 -0.010461164 0.020785961 0.043355048
000250 06 e1 cc 3c 66 2a 11 bc d9 07 49 bb 9b 09 96 bb
       0.025009643 -0.008860206 -0.0030674844 -0.004578782
000260 50 89 b7 3c 6f a1 b6 ba 0f 1b 52 3c 5c ed 5b 3c
       0.022404343 -0.0013933609 0.012823834 0.01342329
000270 df 24 bc 3c fb dc ee 3c 21 4b 45 bc c1 5c 03 3d
       0.0229668 0.029158106 -0.012041838 0.03207088
000280 fd 69 93 3c 09 21 12 3d 77 c6 84 3c 5c 86 5b 3d
       0.017994875 0.035676036 0.016207917 0.053594932
000290 42 82 1d 3d 2a d4 03 3c 80 ff b1 bc 6c 43 84 3c
       0.0384543 0.008046189 -0.021728277 0.01614543
0002a0 4e b2 95 bc f2 b8 4c bb 0d 4e 0b 3d 5a 2a c7 3c
       -0.018273499 -0.0031238166 0.034009982 0.024312187
0002b0 6f e8 a1 3b 3d 9b 8c 3b c5 f6 30 bc 15 01 83 3c
       0.0049410383 0.004290967 -0.010801022 0.015991727
0002c0 d7 68 91 3b 68 fb af ba 45 5b 4a 3c dc 20 42 3c
       0.0044375467 -0.0013426365 0.012350862 0.011848655
0002d0 03 40 de bc e8 fd 87 ba 2a 6c bd 3b db 72 8b 3c
       -0.027130133 -0.0010375353 0.0057807164 0.01702254
0002e0 c2 bb e4 bb bf b4 28 bb d7 31 e7 3c c9 47 04 3c
       -0.0069803903 -0.0025742499 0.028222008 0.008073756
0002f0 fd 2d 0e 3c 71 a8 11 bb b2 17 c9 3a 55 50 86 3c
       0.008677957 -0.0022225643 0.0015342145 0.016395727
000300 83 01 5e 39 42 aa 78 bc 28 18 6a b9 60 64 84 3c
       0.00021172133 -0.015177311 -0.00022324978 0.016161144
000310 93 77 bd 3c 75 3e 86 3b cf df 24 3c b2 4c 0c 3c
       0.023128306 0.004096801 0.010063126 0.008563207
000320 c7 fe 4b b9 84 da 33 3b 3c 06 93 3c e4 3b aa bc
       -0.000194545 0.0027443478 0.017947309 -0.020780511
000330 bf b6 22 bc b6 61 b4 3b 5b e4 77 3b c2 59 d0 bb
       -0.009931265 0.005504812 0.003782532 -0.006358356
000340 be 99 92 bc d7 1c b9 3c c0 93 28 3c 14 47 82 bb
       -0.017895576 0.02259676 0.010289133 -0.0039757583
000350 ce af bd 3c ff 30 1c 3a 3c 6f 4b 3c bb 1d 90 bc
       0.02315512 0.0005958229 0.012416657 -0.017592302
000360 17 2e d3 bb 3f a5 f0 3c 14 25 da 3c bf b7 cc 3c
       -0.0064447033 0.02937567 0.026629008 0.02498996
000370 ba 42 72 3c 7f 92 af bc 03 d6 3d bc 17 32 45 bc
       0.014786417 -0.02143216 -0.011586669 -0.012035868
000380 38 c0 0f 3c 3a 1f a8 3c 71 e8 97 3c 6a 30 98 3c
       0.008773856 0.020522702 0.018543454 0.018577773
000390 f8 be c6 3a b5 58 9a 3c 0d e3 2a 3c 54 ab 12 3c
       0.0015163114 0.018841127 0.01043011 0.008951981
0003a0 0d 88 85 3c 12 9a 13 bb fd 71 03 bc bb db 2d 3c
       0.016300226 -0.0022522253 -0.008022782 0.01061147
0003b0 65 01 b4 3c c3 ac 87 3c b4 ba 70 3c 95 38 52 3c
       0.021973321 0.016561871 0.014692951 0.012830873
0003c0 10 2d 1c 3b 7c 34 c8 bc 6c 83 05 3b df 57 f4 bb
       0.002383057 -0.024439089 0.0020372523 -0.007456764
0003d0 28 68 ea 3c 57 c7 9f 3c e8 86 df 3c 43 1f 9b 3b
       0.028614119 0.019504232 0.027286008 0.0047339513
0003e0 eb 3e 67 3c 5d 59 4d 3c 62 3d ba 3c e0 78 71 bb
       0.014114122 0.012533513 0.022734348 -0.0036845729
0003f0 72 53 92 3c b4 4d 66 3c 92 f3 aa bc d9 4b 07 3b
       0.017862055 0.014056612 -0.020868097 0.0020644574

conv2.bias f4 [64]
000000 e6 7e 2d bd d7 a0 8d bc ff 84 fe 3b 09 35 c6 bc
       -0.042357348 -0.017288608 0.007767319 -0.024195211
000010 d4 27 3e 3c 58 fe 92 bc 1a 17 5b 3c fd 5e fd ba
       0.011606175 -0.017943546 0.013372207 -0.0019330677
000020 a0 ff 02 bb 98 50 20 3c fb 27 af bc 43 fa 4d 3c
       -0.001998879 0.00978484 -0.021381369 0.012571874
000030 80 30 8a bc 7f 28 b4 bc 55 28 a9 bc 47 9d 99 bc
       -0.01686883 -0.021991966 -0.020649115 -0.018751753
000040 09 86 42 3b 81 a3 51 3c 50 ab 01 3c 8d ab af bc
       0.0029681942 0.01279533 0.007914379 -0.021444106
000050 52 e2 ac 3c 1b 2a 1c bd ef 42 77 3c 2d ad 31 ba
       0.021104012 -0.038126092 0.015091642 -0.00067778194
000060 d9 34 09 3d a1 68 4c bc 81 e9 75 3c 00 0f e4 bc
       0.033497665 -0.012476117 0.015009285 -0.027839184
000070 6e 64 dd 3c 2e 75 a0 3c ff 3e eb 3c 30 15 b7 bc
       0.027025428 0.019587126 0.028716562 -0.02234897
000080 81 84 ec 3b 9d 35 98 bc 2c 58 71 3c f1 3b 06 bd
       0.007217944 -0.018580252 0.0147304945 -0.03277201
000090 09 da 07 bd f0 87 b5 3c 02 76 ac 39 4d e2 91 3c
       -0.03316692 0.022159547 0.0003289432 0.017808104
0000a0 5e a1 14 3b e0 97 81 b9 01 ec 70 3c d1 b3 e5 bb
       0.002267919 -0.00024717953 0.014704705 -0.007009961
0000b0 ee 0f 22 bd 89 ed e5 3c 60 0f 50 3c fa 8b 03 bb
       -0.039565973 0.028067367 0.012698978 -0.0020072446
0000c0 5c 24 01 bb 67 bd 93 3c 7b 44 59 bb b8 3a 85 bc
       -0.001970551 0.01803465 -0.003315239 -0.01626335
0000d0 23 e0 97 bc be 85 be 3c 0c b5 22 bc 91 96 a1 3c
       -0.018539494 0.023257133 -0.00993086 0.019725116
0000e0 1a 45 fa 3c 8f a9 a5 bc 11 97 1e bb 89 81 a6 bc
       0.030550528 -0.020222453 -0.002419893 -0.020325439
0000f0 33 7e ae 3c ac 7d 46 3c ef 50 e4 3c 29 d3 70 bb
       0.02130041 0.012114923 0.027870623 -0.0036746955

bn2.weight f4 [64]
000000 5f 06 80 3f 00 d7 7e 3f 92 b9 7e 3f 3a ac 7f 3f
       1.0001944 0.99546814 0.9950191 0.9987217
000010 98 86 80 3f db 76 7e 3f 0f 92 7d 3f 1e b4 7d 3f
       1.0041075 0.9940011 0.9905099 0.9910296
000020 b5 29 7c 3f 09 83 7d 3f c2 fc 82 3f c1 1f 80 3f
       0.9850114 0.9902807 1.0233386 1.000969
000030 e7 ca 7f 3f ed bf 7f 3f e7 27 81 3f fd b1 81 3f
       0.9991898 0.9990223 1.0090302 1.0132443
000040 35 0f 81 3f f5 39 80 3f d1 07 7d 3f 12 2d 83 3f
       1.0082766 1.0017687 0.9884005 1.0248129
000050 25 e2 80 3f 4b 07 80 3f 09 a2 81 3f 03 79 7e 3f
       1.0069014 1.0002226 1.0127574 0.994034
000060 36 09 7d 3f aa 8d 83 3f 6f 76 7e 3f 89 ae 80 3f
       0.9884218 1.0277607 0.99399465 1.0053264
000070 ed 74 7e 3f cd 3c 80 3f 3f 03 7b 3f 5b d1 80 3f
       0.99397165 1.0018555 0.9805183 1.006389
000080 57 1e 80 3f e1 85 7d 3f fe e6 7e 3f 65 63 7e 3f
       1.0009259 0.9903241 0.99571216 0.99370414
000090 0a bb 7d 3f a8 31 7e 3f 2e 1a 81 3f 53 a7 81 3f
       0.99113524 0.9929452 1.0086114 1.0129188
0000a0 6a 09 7d 3f 6d 3f 80 3f 7f 4b 7e 3f 6d 76 7e 3f
       0.9884249 1.0019356 0.9933395 0.99399453
0000b0 fd ee 7e 3f 74 1f 7b 3f 95 6b 81 3f b3 2c 7e 3f
       0.9958342 0.9809487 1.0110956 0.99286956
0000c0 3a cd 81 3f 82 76 7e 3f 89 b6 83 3f b1 7b 7c 3f
       1.0140755 0.9939958 1.029008 0.9862624
0000d0 f0 de 7e 3f a2 60 80 3f 72 80 7e 3f 18 88 7d 3f
       0.99558926 1.002949 0.9941474 0.9903579
0000e0 5c 5c 7e 3f de 4c 7c 3f c3 f5 7e 3f 6a c1 7c 3f
       0.9935968 0.9855479 0.9959375 0.98732626
0000f0 d5 d6 7b 3f db ab 80 3f 7f d8 7f 3f d8 86 7f 3f
       0.9837468 1.0052446 0.9993972 0.9981513

bn2.bias f4 [64]
000000 27 9a 25 bc a7 00 c7 bb b6 f5 d4 bb b5 48 d7 3a
       -0.010107554 -0.006073076 -0.0064990176 0.0016424867
000010 53 ca c4 bb ef bf c4 bb f7 bd ae b8 dc c6 c4 bb
       -0.0060055642 -0.0060043256 -8.33235e-05 -0.006005151
000020 14 cd c4 bb ca 69 c4 bb ac fe 76 ba bb d4 93 3b
       -0.0060058925 -0.0059940564 -0.00094221043 0.0045114434
000030 dc 58 a9 bb fd a7 40 bb 7f de 31 3c 2e ed eb 3a
       -0.0051680636 -0.0029397004 0.01085627 0.0017999762
000040 4a f9 33 ba 57 7f 2a 3a 42 ed 0b bc a0 c9 c4 3b
       -0.0006865455 0.00065039605 -0.008540453 0.006005481
000050 a6 c2 c4 3b f7 6c 88 b9 91 5d b1 ba 5d cb c4 bb
       0.006004649 -0.00026021127 -0.0013531913 -0.006005688
000060 94 0f 9c bb 13 5f cb 3b 0e c2 c4 3b a2 7f bf bb
       -0.0047625992 0.006206402 0.0060045784 -0.0058440724
000070 8b c9 c4 bb 47 98 9b 3c 20 36 b6 bc 01 28 25 bc
       -0.006005471 0.01899351 -0.022242606 -0.010080338
000080 5d 30 b0 3b ca 99 d6 ba bc 6e c4 bb 91 b5 e3 b9
       0.005376859 -0.0016372737 -0.005994646 -0.00043432091
000090 21 f1 b1 3b f6 28 b1 bb 11 41 00 3c d7 cf 88 3b
       0.005430356 -0.0054064943 0.007828013 0.004175167
0000a0 1b 9b 8c bb 1f b8 c4 3b 8a be 0c 3c 8d c5 c4 3b
       -0.004290951 0.0060033943 0.00859035 0.006004995
0000b0 02 df bc 3b f1 30 5c 3b 19 22 39 3b a0 a9 9e 3b
       0.0057638893 0.0033598507 0.0028249084 0.004841998
0000c0 78 69 0a bc eb c9 c4 bb 75 4e 6b 3b 4b 9a 2c b9
       -0.008447997 -0.006005516 0.0035904918 -0.00016460677
0000d0 8a c9 c4 3b 8b c7 26 3b 60 9c 8a 3b df 07 70 3a
       0.0060054706 0.0025448527 0.004230067 0.00091564463
0000e0 b9 d1 35 3b 38 2c c3 bb ba 56 67 bb 4b ca c4 bb
       0.0027743413 -0.005956199 -0.0035299496 -0.0060055605
0000f0 93 75 1a 3a a0 9c bc 3b 04 87 87 bb e9 53 c6 3b
       0.0005892154 0.005755976 -0.004135968 0.0060524833

bn2.running_mean f4 [64]
000000 2c 6f a4 3e b6 d7 bb bf 59 37 54 3f b0 1d 8c bf
       0.32116067 -1.4675205 0.82896954 -1.094656
000010 d9 12 c2 bf 2e ae 3f bf 1c 87 ca bf d3 2e 98 3f
       -1.5162002 -0.7487515 -1.5822482 1.188929
000020 b6 7f ab 3f 20 2c 40 3f 75 cb 83 3e 16 8d 14 3f
       1.3398349 0.7506733 0.25741163 0.5802778
000030 9b 5c ca 3e 86 c5 ac bf 4f a8 43 bf 55 12 fc 3e
       0.39523777 -1.3497779 -0.76428694 0.49232736
000040 70 9b 4b bf f4 b9 95 3e fd 5f 86 3e fd f9 23 3f
       -0.79534054 0.29243433 0.26245108 0.64053327
000050 51 d6 68 bf 23 9c db be 7a 6d 55 3f 68 09 83 bf
       -0.9095202 -0.4289256 0.8337017 -1.0237246
000060 5a 10 8d bf 20 4b 3d 3e 7c d3 dd bf e0 2e 54 bf
       -1.1020615 0.18485689 -1.7330165 -0.82884026
000070 1c 52 d2 bf b0 d1 a1 3e 4a 96 13 be f2 43 35 bf
       -1.6431308 0.3160529 -0.144128 -0.708068
000080 5e 29 3e 3f 5a 71 d3 bf 28 2c 00 3f 6c 26 25 bf
       0.7428187 -1.6518967 0.5006738 -0.6451175
000090 64 ac 99 be b2 c3 95 bf 24 f3 e1 3e 5e 4e a6 3e
       -0.30014336 -1.1700346 0.44130814 0.32481664
0000a0 26 31 ab 3f fb ce 7e be b6 6c 3f 3f 34 a3 c3 bf
       1.3374374 -0.24883644 0.74775255 -1.5284181
0000b0 bd b0 32 3f 2f 41 a7 3f e6 3a 62 3f eb 58 67 3f
       0.6980093 1.3066767 0.8837112 0.90370053
0000c0 aa cf a8 3e 6d 08 d7 bf 88 4e a3 3d ed f5 88 3f
       0.32970935 -1.6799446 0.07973963 1.070005
0000d0 9e 91 ba bf f3 c3 05 3f 4c 78 41 3f 9e ca 5f 3f
       -1.4575689 0.5225212 0.75574183 0.87418544
0000e0 e7 f0 7f bf 55 7b 83 3f 19 07 72 bf b4 bc d7 3f
       -0.9997696 1.0272013 -0.9454208 1.6854463
0000f0 27 7e 6d 3d 7d e7 9a bf b7 d7 09 3f 55 ac 82 3f
       0.057981636 -1.2101895 0.5384478 1.0208842

bn2.running_var f4 [64]
000000 71 8b 8b 3e 5f fb 8e 40 89 59 18 40 07 8b 3f 40
       0.27254823 4.468185 2.3804648 2.9928606
000010 aa 89 ab 40 3e a6 ca 3f 2d 83 a4 40 53 7e 8a 40
       5.3605547 1.5831983 5.1410127 4.3279204
000020 90 3a 88 40 42 f8 20 40 dd fe 4c 3e 0a 37 b3 3e
       4.2571487 2.5151525 0.20019098 0.3500293
000030 7b e1 37 3f e3 4b 97 40 a4 8e ba 3f cd d7 26 3f
       0.7182843 4.7280135 1.457478 0.65173036
000040 fe 5b 31 40 d9 73 a9 3f df 40 2d 3f 46 d5 c5 3f
       2.7712398 1.3238479 0.6767711 1.5455711
000050 a2 fc 1b 40 9a b2 c3 3f dc 17 c7 3f 29 4b ec 3f
       2.4372945 1.528888 1.5554156 1.8460437
000060 90 73 90 40 b1 0b 68 3e 19 83 da 40 ff 99 7a 40
       4.5141068 0.2266071 6.828503 3.9156492
000070 19 6c b2 40 b2 fc 84 3f ca 6c 0c 3f 30 cf 4c 40
       5.5756955 1.0389616 0.548535 3.2001457
000080 d3 2d c0 3f fb aa 03 41 00 2c 80 3f 15 35 29 40
       1.5013984 8.229243 1.0013428 2.6438649
000090 6f f5 cb 3f 4b 20 58 40 d0 67 47 3f b9 d6 b4 3e
       1.5934275 3.376971 0.7789278 0.3532007
0000a0 b8 10 9a 40 06 55 88 3f 32 29 df 3f d7 23 cb 40
       4.814541 1.0650947 1.7434447 6.348125
0000b0 f4 92 76 3f 54 bc 71 40 cb 9c ab 3f 71 c3 2f 40
       0.9631798 3.7771196 1.3407224 2.7463038
0000c0 d3 0b 69 3e 58 94 c5 40 9e 2e e8 3e ad cd 16 40
       0.22758417 6.1743584 0.45348066 2.3563035
0000d0 2e e0 74 40 9d f1 13 3f 2e ba 72 3f 13 a6 10 40
       3.8261828 0.5779055 0.9481534 2.2601364
0000e0 03 cc 78 40 68 66 3f 40 f4 33 1c 40 d5 47 c9 40
       3.887452 2.9906254 2.440671 6.2900186
0000f0 8c c9 22 3f 4d 17 a5 40 b6 bc 1e 3f 36 3f 67 40
       0.63588786 5.1590943 0.620067 3.613233

fc1.weight f4 [96, 64]
000000 dc 55 3b bd fb 65 96 bd ba 6d 91 bb f2 b7 46 bd
       -0.04573618 -0.0734367 -0.0044381293 -0.048515268
000010 b0 9f c3 3c a1 01 2e bd bf 4c a3 3d b0 55 4f 3d
       0.023879856 -0.042482022 0.079736225 0.050618827
000020 3c a5 f1 3d 3d 67 91 3c b8 7f 0c 3d 95 e2 ae bc
       0.11799094 0.017749423 0.03430149 -0.021348277
000030 e6 be a1 3d 18 f4 65 bd b9 e4 6d bc 30 bc 90 3d
       0.07897739 -0.05614099 -0.014519864 0.07067144
000040 33 93 dd bd 15 f4 f4 3d e1 20 15 bd f1 47 b5 bd
       -0.10819092 0.119606175 -0.03640831 -0.08851612
000050 40 a4 30 bd 14 61 c5 bd a8 59 11 3c 71 21 7d bd
       -0.04312539 -0.09637657 0.008871473 -0.06179947
000060 fc 97 dd bd da 3b c9 3b c9 b0 d5 b8 f0 67 8c bd
       -0.10820004 0.006141168 -0.0001018956 -0.06855762
000070 68 25 04 be b7 d4 5a 3c 27 9b 02 3e 98 c1 5e bd
       -0.12904894 0.013356379 0.12754498 -0.054383844
000080 10 25 a3 bd 5f 2d c2 3d bb 18 ba 3d f5 52 c1 3d
       -0.079660535 0.0948131 0.09086748 0.09439651
000090 27 91 6f 3d f3 e5 b1 3d 6e 0e ca bd 37 e4 80 3d
       0.058488037 0.086864375 -0.098660335 0.062935285
0000a0 73 9a 62 3d a5 0b 9c bd ab 19 9e bd 3f a1 c3 bc
       0.055323076 -0.076194085 -0.077197395 -0.023880599
0000b0 f3 68 0d bd c4 f6 68 3b 40 43 12 3d 3f 12 85 3d
       -0.034523915 0.0035547474 0.035708666 0.06497621
0000c0 02 b7 c1 39 88 39 b5 3c d4 bd 28 bd 95 f5 fd 3d
       0.0003694818 0.02212216 -0.04119666 0.12400357
0000d0 c9 d3 e0 3d e7 ae e6 bd bb d6 9c 3c 0c f1 e0 3c
       0.10977895 -0.11263829 0.01914536 0.02745869
0000e0 fc 71 4e bd 35 3c 9f 3d 6e 40 af 3c 15 35 ee 3d
       -0.050401673 0.077751555 0.021393027 0.11631218
0000f0 aa f7 ed 3d 83 cd a5 bd ba af 90 bd 21 0d b9 3d
       0.11619504 -0.08095839 -0.07064767 0.09035707
000100 a6 c6 2c bd 77 ca 4a bb 1e 79 93 3d 26 2d bc bc
       -0.042181633 -0.0030943432 0.07200836 -0.022970747
000110 e8 ee 93 3d 77 ac f1 bd c8 26 51 bd 4c 43 ef bd
       0.07223302 -0.11800473 -0.051062375 -0.11682758
000120 60 2c ef bd 46 54 7f bd 05 4d b5 3d 6e c1 07 be
       -0.11678386 -0.06233623 0.08852581 -0.13257381
000130 44 58 03 3d 44 39 9f bd 5d fb 83 3d 98 00 63 bd
       0.0320666 -0.077745944 0.06444428 -0.055420488
000140 ad 28 8d 3c d0 87 ad 3d 82 98 8f bd d7 43 94 bd
       0.01723131 0.0847317 -0.070115104 -0.07239502
000150 c6 7c 9d 3d 3a 93 db bc b1 5d df bc 0a fb ce 3c
       0.07689814 -0.026803602 -0.027266355 0.02526619
000160 5a b6 1f bd 7f 27 c8 bd 24 33 f1 bd 18 a3 13 3c
       -0.038992263 -0.09773158 -0.117773324 0.009011053
000170 cc ba 52 bc 57 8c e0 bd 6b 87 f6 3c bc 00 28 bd
       -0.012861919 -0.10964268 0.03009387 -0.041016325
000180 3c 94 f5 bd 51 5d 99 3b 33 81 8e bc ae ed 6d 3d
       -0.11991164 0.0046803136 -0.017395591 0.058087997
000190 8e 0a 96 bc 80 b2 8b 3d 85 00 16 be 6a 8d ab bd
       -0.01831558 0.068211555 -0.14648636 -0.08376582
0001a0 16 ae a1 3d 75 df b4 bd 71 4a be 3d bb 9f 85 3d
       0.078945324 -0.088316835 0.09291542 0.06524607
0001b0 46 fa c7 3d 6e ff c2 3d 59 01 db 3c b5 2e a4 3d
       0.09764533 0.095213756 0.026734041 0.08016721
0001c0 d4 c5 8f bd c0 65 93 bd a8 7a 37 3d 33 d0 82 3d
       -0.070201546 -0.07197142 0.04479471 0.06387367
0001d0 6f 8f 16 bd 40 cb 46 bd 0e 97 84 bd f9 be a7 3d
       -0.036757883 -0.048533678 -0.06474124 0.08190722
0001e0 9e 57 83 bd 77 be da bc f0 25 22 3c a8 ce a9 bd
       -0.06413196 -0.026702149 0.00989674 -0.0829137
0001f0 af 32 f7 bd 7d 2c c3 bd dd 0e d0 3d 7d 8c 98 bc
       -0.12070214 -0.0952997 0.10159085 -0.018621678
000200 ac f0 03 be 0b c3 a9 3d 23 b0 a2 3c 56 8b 6e bc
       -0.12884778 0.082891546 0.01985938 -0.014559587
000210 29 f8 b1 3d 5e 15 cf bd b7 d9 fc 3d 56 13 8e bd
       0.08689911 -0.10111497 0.12346213 -0.06937282
000220 e1 fe 02 3d 1e f7 93 3d 25 71 98 3d 92 ec d6 3d
       0.031981353 0.07224868 0.074434556 0.10494341
000230 d1 bd 6d bd 28 42 db 3d 3e 3b 80 3d 0b 25 63 3d
       -0.05804235 0.10705978 0.062612996 0.05545525
000240 94 af a1 bd 91 89 d7 3d 8b bb ba 3a cd 9f dd 3d
       -0.07894817 0.105242856 0.0014246566 0.10821495
000250 26 59 8c 3d fb 65 e9 bd 3e bd ac bd 10 37 b5 bd
       0.06852941 -0.11396404 -0.084345326 -0.08848393
000260 50 32 86 3d 66 01 07 3d 12 68 97 3d 73 d5 a6 bd
       0.06552565 0.032960318 0.07392897 -0.08146181
000270 d3 15 88 3d 23 d9 0d 3e 20 13 fb bd ff 6e d3 bd
       0.06644788 0.13852362 -0.12259507 -0.10323905
000280 0f 86 71 bc 44 5d 9c bd f6 9e d0 bd 05 d1 da bd
       -0.014741435 -0.076349765 -0.101865694 -0.106843986
000290 32 ab 00 3e 30 64 d3 3d d3 14 37 3b 4f 64 33 3d
       0.12565306 0.103218436 0.0027935996 0.043796834
0002a0 24 09 39 bd fa 15 8a bd 2e 37 24 bd f2 3b b3 3c
       -0.045174733 -0.06742473 -0.040091686 0.02187917
0002b0 cc 6f 26 bb 01 e7 e8 3b 6e af 72 3d 40 ee 99 bd
       -0.0025396226 0.007107616 0.059249334 -0.07516146
0002c0 b7 c9 e6 bd 38 8c 09 bd 63 d8 67 bc ab f8 3a bc
       -0.11268943 -0.03358099 -0.014150712 -0.011411826
0002d0 30 05 7e 3d 39 53 be 3d 51 5e de bd 76 73 df bd
       0.062016666 0.09293217 -0.10857833 -0.10910694
0002e0 0b 5d eb bd 7f 81 1d bd b1 9f ad 3d 8e a8 40 3d
       -0.11492356 -0.038453575 0.08477724 0.047035746
0002f0 ff 75 3a 3d 8f c6 4f 3d 1b f4 8d 3b 8c 42 56 3d
       0.045522686 0.05072647 0.004332078 0.052309558
000300 ea 91 c9 3c bf 82 9e 3d 01 2b 06 bd 49 58 2d 3d
       0.02460571 0.077397816 -0.032755855 0.042320523
000310 61 07 0d 3d 24 1b e2 bd d5 0b f5 3d 16 48 a1 3d
       0.034430865 -0.11040333 0.119651474 0.078750774
000320 df ec 1a 3d ff 8a 21 3c e6 d7 e2 bc 34 6c 42 3c
       0.037823554 0.009859799 -0.027690839 0.011866618
000330 b7 2b 77 3c 7c 9b 08 bd f8 e0 46 bd 7f dd 10 be
       0.015086106 -0.033351406 -0.04855439 -0.14146994
000340 56 08 04 be 63 22 98 bc 20 11 cf bd be eb fd bd
       -0.12893805 -0.018571084 -0.10110688 -0.1239848
000350 33 e3 c8 bd c3 57 c7 3d 3a 73 63 bc 22 58 37 bd
       -0.0980896 0.09733536 -0.013882453 -0.044761784
000360 80 8f f9 3c 3e 38 bd bd 9b fa 6e bd 3a 04 a7 bb
       0.030463934 -0.09239243 -0.058344465 -0.0050969394
000370 4b 5c a4 bd fc ad 11 3d 7b 96 95 3d 9c b4 cd bd
       -0.08025416 0.035566315 0.073040925 -0.10044214
000380 1e b1 f4 3c 0a 8d 68 3d ff 80 46 bd 01 18 a2 3d
       0.029869612 0.05677513 -0.048462864 0.07914735
000390 58 2e 87 bd 64 f2 74 bd bf 3b 17 bd 08 92 13 bd
       -0.06600636 -0.059801474 -0.036922213 -0.036027938
0003a0 06 95 ae bd a2 cf 79 3d b6 db 15 bc 23 b6 13 bd
       -0.08524518 0.06098903 -0.009146621 -0.03606237
0003b0 d0 c3 a0 bd f3 ae c6 3c cd e6 db bd 06 ca 62 3b
       -0.07849848 0.024253344 -0.10737381 0.0034605279
0003c0 fc 09 ef bd 1d a2 82 3d 28 50 c3 3d d1 1f f4 bc
       -0.11671826 0.06378577 0.09536773 -0.029800327
0003d0 7f 1e 3d 3d 0a 23 cf 3d af 31 aa bd 98 49 0a bb
       0.04617166 0.10114105 -0.08310258 -0.0021100994
0003e0 d5 d1 ac bd 28 59 a2 bd 8d 35 48 3d 3d b0 ef 3c
       -0.0843846 -0.079271615 0.048879195 0.029258842
0003f0 a9 ce 97 bd e6 91 e8 3d 5d 31 59 3d a9 8a b3 3d
       -0.07412464 0.11355953 0.053025592 0.08766682
