input/05_cnn_qsar/01_featurize/01_featurize_fda_world/02_CNN/run_files_0.1/model_0.pth (torch, 634400 bytes, 20 tensors)

conv1.weight f4 [128, 1, 11, 42]
0.033675518 -0.02779616 0.021753047 0.0042052604 0.040572967 -0.004814897 -0.014574948 -0.056546703
0.03543665 0.028029166 -0.03830625 0.009176358 0.032617122 -0.03510318 0.017029855 -0.02431283
0.05904762 -0.018601093 0.01701205 0.04204498 0.04390492 -0.040013127 0.0059797363 -0.014920904
0.0456703 0.03873836 0.032851722 0.021980762 -0.006322235 0.0020761895 0.008280987 -0.00746012
-0.041231915 0.03985857 -0.045401983 0.037820484 -0.013551391 0.008748092 -0.021999361 -0.03074362
-0.0025528444 0.057236716 -0.052470274 0.039542966 -0.032514956 0.026154853 0.03280469 -0.040249594
-0.03543836 -0.04301672 0.013732015 -0.029707106 -0.04221936 0.03010382 0.044512615 -0.01247533
0.0014100894 -0.043500822 0.02320974 -0.01698581 0.023726415 -0.0009366839 -0.0126442285 0.045224003
-0.046949536 -0.012814858 -0.029534759 -0.041616328 -0.018232875 0.026394833 -0.0021734023 -0.003624133
0.015232427 -0.012297812 0.016294705 -0.01382382 0.042290438 0.024525655 -0.011606595 -0.018749513
-0.007099758 -0.0146627715 0.013583686 -0.021519475 0.049338315 -0.015529805 -0.009633657 -0.003860178
0.005401409 0.04133955 -0.05768934 -0.048977353 0.014583936 -0.015813239 -0.011413508 0.014727451
-0.004710801 -0.045534857 -0.027621321 0.027809035 0.018607024 -0.037122924 0.035233267 -0.024283124
-0.0019303375 -0.05386742 0.047280543 -0.035058346 -0.00062634866 0.020254862 -0.043906294 -0.04222101
0.037279084 0.0016878535 0.0036938083 -0.025710564 -0.020708801 0.0080304155 0.00089902576 -0.04575636
0.022804702 -0.034102604 -0.010261788 -0.02095363 0.040237054 0.03713569 -0.02284154 -0.00841408
-0.04149228 -0.00539116 0.0020762715 -0.041821655 -0.02749581 0.024426794 -0.015172957 -0.04897992
-0.019841302 0.02087591 0.02846253 -0.04675874 -0.028552597 -0.029731093 -0.0004382179 -0.014397564
0.01894862 -0.0453638 0.009429416 -0.023151064 0.024012962 0.033239823 -0.022907639 0.039198864
-0.00038801198 -0.011268025 0.05064854 0.04428276 -0.020026071 -0.03535978 -0.009992042 0.019297322
-0.033012465 0.015771441 -0.014037464 0.010710691 0.008773171 -0.022904342 0.022439545 0.045815773
0.030474544 -0.014510009 0.035144705 -0.028621798 0.0034365214 0.033332054 -0.024979897 0.0075762444
0.033285335 -0.023438739 0.024836252 -0.024493922 0.037275083 0.021403937 -0.0015427415 -0.026629925
0.0061132987 0.0045635607 0.021404136 0.023575228 0.015440782 -0.022620074 -0.020874381 0.014290884
-0.04301948 0.043018077 -0.042019334 0.011194387 0.04833566 0.016932305 -0.02512809 0.028624116
0.008911387 0.0006566644 0.019932227 -0.030501422 0.03914386 0.04210429 -0.02286466 -0.007137277
-0.039998498 -0.025195505 -0.027401626 0.036620963 -0.043202758 0.009524863 0.03221745 -0.03759945
0.012714084 -0.046327375 0.025804454 -0.00903091 -0.028467827 -0.043145146 0.046655234 -0.011050251
-0.045053322 -0.033772636 -0.022885479 0.020376123 0.02776025 -0.0200715 -0.04290793 0.0012726007
-0.039271574 -0.005569734 0.04722111 -0.0046176757 -0.033896465 0.016897643 0.056557175 0.035499763
-0.042545013 -0.03872178 -0.00879699 -0.026855795 0.008635561 0.029490834 -0.006637217 0.0012221482
0.005193413 -0.019561674 -0.0048940466 -0.046345178 0.017631019 0.03866243 -0.030659921 -0.0098891
00000000: 57ef 093d c6b4 e3bc 7233 b23c 48cc 893b
00000010: d72f 263d 49c6 9dbb c3cb 6ebc 849d 67bd
00000020: 0526 113d 6c9d e53c 04e7 1cbd 6f58 163c
00000030: 8899 053d 5ac8 0fbd 3282 8b3c b32b c7bc
00000040: ebdb 713d 5261 98bc db5c 8b3c 5b37 2c3d
00000050: a5d5 333d cee4 23bd aaf1 c33b cf76 74bc
00000060: c810 3b3d 1dac 1e3d 878f 063d 0011 b43c
00000070: c02a cfbb ae10 083b faac 073c 0674 f4bb
00000080: cce2 28bd bd42 233d 6ef7 39bd a7e9 1a3d
00000090: a706 5ebc 2854 0f3c 0138 b4bc 0bda fbbc
000000a0: 9f4d 27bb 0c71 6a3d 12eb 56bd cef7 213d
000000b0: 672e 05bd b442 d63c 365e 063d c2dc 24bd
000000c0: d027 11bd 4d32 30bd 3ffc 603c 515c f3bc
000000d0: 35ee 2cbd 499c f63c dc52 363d 5465 4cbc
000000e0: c0d2 b83a eb2d 32bd 5a22 be3c d325 8bbc
000000f0: e65d c23c cb8b 75ba bd29 4fbc ce3c 393d
00000100: 284e 40bd 69f5 51bc e1f2 f1bc e275 2abd
00000110: 1c5d 95bc fa39 d83c a46f 0ebb dd82 6dbb
00000120: 6e91 793c c37c 49bc 797c 853c 4e7d 62bc
00000130: bd38 2d3d 07ea c83c 9629 3ebc 9498 99bc
00000140: 16a5 e8bb 1f3c 70bc 1c8e 5e3c 9c49 b0bc
00000150: f916 4a3d b970 7ebc 7cd6 1dbc 0afb 7cbb
00000160: 4efe b03b a953 293d a84b 6cbd 7a9c 48bd
00000170: 76f1 6e3c c48a 81bc b9ff 3abc 684b 713c
00000180: 105d 9abb c282 3abd 1c46 e2bc c6cf e33c
00000190: c26d 983c 350e 18bd c250 103d 67ed c6bc
000001a0: 6103 fdba 15a4 5cbd 3ea9 413d 5799 0fbd
000001b0: 8c31 24ba 86ed a53c 16d7 33bd f0ef 2cbd
000001c0: f4b1 183d f73a dd3a d213 723b f69e d2bc
000001d0: 81a5 a9bc 0192 033c 99ac 6b3a 056b 3bbd
000001e0: edd0 ba3c 2caf 0bbd 0f21 28bc f2a6 abbc
000001f0: 9ccf 243d 981b 183d 2e1e bbbc 36db 09bc
00000200: cff3 29bd 54a8 b0bb 0e12 083b 2f4d 2bbd
00000210: e53e e1bc b31a c83c ff97 78bc 2b9f 48bd
00000220: 3a8a a2bc f503 ab3c 402a e93c 1886 3fbd
00000230: 23e7 e9bc 9f8e f3bc 9cc0 e5b9 c3e3 6bbc
00000240: 233a 9b3c 64cf 39bd d67d 1a3c 4da7 bdbc
00000250: d5b6 c43c 7b26 083d cda8 bbbc fd8e 203d
00000260: 166e cbb9 869d 38bc d874 4f3d d761 353d
00000270: b70d a4bc 6bd5 10bd a9b5 23bc 6b15 9e3c
00000280: 1438 07bd 1c33 813c 64fd 65bc e57b 2f3c
00000290: 59bd 0f3c e3a1 bbbc 23d3 b73c 52a9 3b3d
000002a0: c0a5 f93c 64bb 6dbc e5f3 0f3d 4378 eabc
000002b0: 4337 613b 3187 083d a4a2 ccbc 2542 f83b
000002c0: 3456 083d 9902 c0bc 6575 cb3c 7aa7 c8bc
000002d0: c2ad 183d 4f57 af3c d135 caba 0027 dabc
000002e0: 1152 c83b ec89 953b ba57 af3c d620 c13c
000002f0: 55fb 7c3c bc4d b9bc c000 abbc 5024 6a3c
00000300: 3235 30bd b933 303d 771c 2cbd aa68 373c
00000310: 9dfb 453d 9eb5 8a3c 6dd9 cdbc 1f7d ea3c
00000320: 1101 123c 0024 2c3a e948 a33c 1ede f9bc
00000330: 5055 203d 8c75 2c3d ab4e bbbc d2df e9bb
00000340: 77d5 23bd ce66 cebc 6079 e0bc ddff 153d
00000350: 60f5 30bd 2c0e 1c3c 72f6 033d e201 1abd
00000360: bc4e 503c c6c1 3dbd dd63 d33c 62f6 13bc
00000370: 5c35 e9bc f7b8 30bd 8f19 3f3d 1d0c 35bc
00000380: d589 38bd 2d55 0abd 547a bbbc d4eb a63c
00000390: 7769 e33c fd6c a4bc 3ac0 2fbd 65cd a63a
000003a0: 3bdb 20bd 5182 b6bb ec6a 413d df4f 97bb
000003b0: 05d7 0abd ed6c 8a3c 7fa8 673d 3368 113d
000003c0: ae43 2ebd bb9a 1ebd 4021 10bc af00 dcbc
000003d0: 2b7c 0d3c c396 f13c 037d d9bb 7d30 a03a
000003e0: 812d aa3b ce3f a0bc 3d5e a0bb 71d4 3dbd
000003f0: ed6e 903c 7f5c 1e3d 842a fbbc e405 22bc

conv1.bias f4 [128]
0.034027193 -0.034090284 -0.03822018 0.044120472 -0.02079766 -0.025459697 0.024923595 -0.03731122
-0.015061618 -0.020282337 0.020662596 -0.05742241 0.0002563886 0.010639413 -0.035074197 0.04576648
0.03675074 0.023931224 -0.034752436 0.033996522 0.015622498 -0.009305041 -0.025713269 -0.05370616
-0.001555832 0.04557452 0.015783835 -0.058965087 -0.003847376 -0.0048551722 -0.028350955 0.039305795
0.08930025 -0.050629403 -0.009496637 0.028606221 0.00086940674 -0.035022292 0.03369213 -0.03621336
-0.002418837 -0.015041323 -0.008275465 -0.010094788 -0.018188462 0.037109885 -0.027722854 -0.04428186
0.03582402 0.007761172 -0.007796518 -0.02505258 0.00048244 -0.018287534 0.023640143 -0.03031429
0.019434568 0.010977778 0.035760082 -0.039884362 0.0063140495 0.015896088 -0.039115597 -0.0016979186
-0.031322833 0.0251243 0.039700788 -0.027997317 0.0041177 0.010825889 0.014290257 0.054968994
-0.012870499 0.06417745 -0.009773323 0.038434155 -0.042779054 0.037210662 0.036227416 -0.013209743
-0.0046460154 0.021988625 -0.03897776 0.023285666 -0.04246795 -0.04892803 -0.06934515 0.03785965
-0.05976913 -0.061291974 -0.019437002 -0.024928685 0.030014558 0.045559462 0.0065532587 0.042531595
0.040901124 -0.0062828185 -0.0016495925 -0.028537495 0.045941718 -0.033126816 -0.00097630534 0.01580339
0.03215062 -0.0015547874 -0.020271959 -0.016606621 -0.002863841 -0.0150616225 -0.021331323 0.0242533
-0.033944383 0.00082481414 0.0248345 0.05316936 -0.00089824275 -0.031193899 -0.04032293 -0.034813147
-0.03317935 -0.023334777 -0.020519767 -0.024582272 -0.012333137 0.049418528 -0.02291365 -0.00619761
00000000: 1960 0b3d 41a2 0bbd c38c 1cbd abb7 343d
00000010: db5f aabc db90 d0bc 912c cc3c a6d3 18bd
00000020: 01c5 76bc 2527 a6bc 9b44 a93c c333 6bbd
00000030: e56b 8639 ef50 2e3c f6a9 0fbd a275 3b3d
00000040: f287 163d 6a0b c43c 9258 0ebd f03f 0b3d
00000050: 81f5 7f3c 2c74 18bc a2a4 d2bc fefa 5bbd
00000060: 0fed cbba 59ac 3a3d 1a4d 813c 6085 71bd
00000070: 4224 7cbb 2318 9fbb 4340 e8bc 1dff 203d
00000080: 0de3 b63d c760 4fbd c897 1bbc 9857 ea3c
00000090: e6e8 633a 8973 0fbd c200 0a3d 7654 14bd
000000a0: 5a85 1ebb e26f 76bc d195 07bc 9c64 25bc
000000b0: f8ff 94bc 8900 183d 0a1b e3bc e560 35bd
000000c0: 35bc 123d 6e51 fe3b ef79 ffbb 113b cdbc
000000d0: 00f0 fc39 bdcf 95bc f9a8 c13c ad55 f8bc
000000e0: 3e35 9f3c 23dc 333c 2a79 123d c95d 23bd
000000f0: 16e6 ce3b 8338 823c ad37 20bd b28c deba
00000100: 5f4c 00bd 7ad1 cd3c 4b9d 223d a15a e5bc
00000110: c5ed 863b 125f 313c af21 6a3c 2b27 613d
00000120: c9de 52bc 786f 833d 4a20 20bc 226d 1d3d
00000130: 1739 2fbd 356a 183d 3363 143d ae6d 58bc
00000140: 9a3d 98bb 7d21 b43c 25a7 1fbd 95c1 be3c
00000150: e0f2 2dbd c268 48bd d404 8ebd b812 1b3d
00000160: 7ad0 74bd 4b0d 7bbd 593a 9fbc 3e37 ccbc
00000170: 17e1 f53c 8f9c 3a3d b8bc d63b 9c35 2e3d
00000180: f087 273d 1ae0 cdbb 2437 d8ba 77c7 e9bc
00000190: 622d 3c3d fcaf 07bd beee 7fba 1c76 813c
000001a0: 5eb0 033d 02ca cbba 6111 a6bc 9c0a 88bc
000001b0: 47af 3bbb 06c5 76bc 07bf aebc dbae c63c
000001c0: 4409 0bbd 5738 583a b971 cb3c 1dc8 593d
000001d0: 0d78 6bba 598a ffbc a829 25bd 3b98 0ebd
000001e0: 12e7 07bd 9328 bfbc 1219 a8bc c360 c9bc
000001f0: ed10 4abc 156b 4a3d 68b5 bbbc 5215 cbbb

bn1.weight f4 [128]
0.99291146 1.00253 1.0053108 1.0021813 0.9980472 1.0076337 1.0239189 0.99392706
0.98566777 0.99873674 1.008395 0.99427545 0.9978062 0.9972385 1.0021055 1.0021065
1.0199788 0.99951905 1.0106976 1.005111 0.99654025 1.0036895 1.0075731 0.9909116
1.0049549 0.99216366 1.0164742 1.0036732 0.97905993 1.0027962 0.9975051 1.0020657
1.036681 0.9952594 0.98953015 1.0081751 0.97482324 0.9955583 1.0126541 0.9910498
0.99550444 1.0134367 1.0130095 0.9926972 0.9898985 0.9931971 1.007759 0.9904991
1.0075389 0.9973996 1.0034697 1.0107639 0.9867262 1.0206184 0.99022985 0.97341216
1.0000592 1.0080578 0.9917869 0.99597174 0.99881995 1.0008055 1.0194243 0.9868486
1.0115376 0.99936116 1.006882 1.0151811 0.99490345 0.9978711 0.9996378 1.0022451
1.0188067 0.9951713 1.0038526 0.99873537 0.9885398 1.0094237 1.0042984 1.0013658
0.9972749 0.9979311 0.98509794 1.0309919 1.009064 1.0152627 0.9994304 1.0061232
1.0150725 0.9872565 0.99161834 0.9966648 1.0083929 0.98954695 1.0005229 1.0039803
0.9912501 1.0240804 0.9956421 0.9991254 1.0026572 1.0063361 0.9954408 1.0012966
0.99447453 1.0092722 0.9914345 1.0091254 1.0036442 0.99920624 1.0008208 0.9913775
1.018023 1.0038105 1.0218371 1.0013605 0.9928504 1.007582 1.0055608 0.99549073
0.99156666 1.0008876 1.0107541 0.9866458 1.0051128 1.0008894 0.99047 0.99345523
00000000: 722f 7e3f e752 803f 06ae 803f 7a47 803f
00000010: 0580 7f3f 24fa 803f c60f 833f 0172 7e3f
00000020: b954 7c3f 36ad 7f3f 1613 813f d688 7e3f
00000030: 3a70 7f3f 064b 7f3f fe44 803f 0745 803f
00000040: aa8e 823f 7be0 7f3f 8a5e 813f 7aa7 803f
00000050: 431d 7f3f e678 803f 28f8 803f 62ac 7d3f
00000060: 5da2 803f 70fe 7d3f d41b 823f 5d78 803f
00000070: aca3 7a3f a05b 803f 7f5c 7f3f b043 803f
00000080: f7b1 843f 52c9 7e3f d951 7d3f e20b 813f
00000090: 048e 793f e9dc 7e3f a69e 813f 71b5 7d3f
000000a0: 61d9 7e3f 4bb8 813f 4caa 813f 6721 7e3f
000000b0: fd69 7d3f 2a42 7e3f 3ffe 803f 5991 7d3f
000000c0: 09f7 803f 9555 7f3f b271 803f b660 813f
000000d0: 179a 7c3f a0a3 823f b47f 7d3f 8a31 793f
000000e0: f101 803f 0a08 813f bfe5 7d3f 01f8 7e3f
000000f0: aab2 7f3f 651a 803f 7f7c 823f 1ca2 7c3f
00000100: 107a 813f 22d6 7f3f 82e1 803f 74f1 813f
00000110: feb1 7e3f 7b74 7f3f 43e8 7f3f 9149 803f
00000120: 4268 823f 8cc3 7e3f 3e7e 803f 1fad 7f3f
00000130: f210 7d3f cc34 813f da8c 803f c12c 803f
00000140: 684d 7f3f 6a78 7f3f 612f 7c3f 8bf7 833f
00000150: 0229 813f 21f4 813f acda 7f3f a5c8 803f
00000160: e5ed 813f d8bc 7c3f b3da 7d3f 6d25 7f3f
00000170: 0513 813f f352 7d3f 2211 803f 6d82 803f
00000180: 91c2 7d3f 1115 833f 67e2 7e3f afc6 7f3f
00000190: 1257 803f 9fcf 803f 35d5 7e3f 7d2a 803f
000001a0: e295 7e3f d52f 813f a7ce 7d3f 052b 813f
000001b0: 6a77 803f fbcb 7f3f e51a 803f eaca 7d3f
000001c0: 944e 823f dd7c 803f 8fcb 823f 952c 803f
000001d0: 722b 7e3f 72f8 803f 37b6 803f 7bd8 7e3f
000001e0: 50d7 7d3f 161d 803f 6460 813f d294 7c3f
000001f0: 89a7 803f 251d 803f 718f 7d3f 1553 7e3f

bn1.bias f4 [128]
-0.011286132 0.0060712774 -0.009356351 -0.009454277 0.0012260453 -0.00058515975 0.0021266679 -0.008944935
-0.015067538 -0.0017909519 -0.0046241954 -0.008712495 -0.016129253 0.0040288577 0.0025786269 0.0018388368
0.015434856 -0.004924023 -0.009043519 -0.010032268 0.004417357 -0.015717614 -0.015103555 -0.008425899
-0.009593324 -0.013292298 -0.0049637635 -0.011224329 -0.02121271 -0.009226578 -0.007075547 0.01082727
0.016372357 0.0014049136 -0.0007050319 -0.008441039 -0.009983621 -0.022897061 -0.0027789762 -0.005581089
-0.0012932899 0.00068199134 -0.012914753 -0.016700896 0.009737952 -0.019881941 0.011187505 -0.017624654
0.002203411 -0.0072559193 -0.0077292086 -0.013449198 -0.017220914 -0.0014457157 -0.012232728 -0.0017536627
-0.0006617883 0.0035027983 -0.0063113775 -0.0038028026 -0.019454893 -0.009745091 -0.00083297066 -0.017185818
0.01080061 -0.0076690256 -0.0010644664 -0.004925628 -0.0037972906 -0.00095120014 -0.0103000915 -0.019668752
0.005765795 0.00599618 -0.002042252 -0.027836477 -0.004080232 -0.010207764 0.012249448 -0.018787514
-0.013427626 0.0013462055 -0.009078746 0.0022061276 0.0043106647 -0.0025535438 -0.019865263 0.003268022
-0.002646912 -0.028652139 -0.01850966 0.004134536 0.0040650335 -0.003997914 -0.0055383686 0.0096064005
-0.00055564975 -0.020023985 -0.015517102 -0.0032778308 0.0035263083 -0.013908327 -0.0036396421 -0.0111528095
-0.007347307 -0.018875362 -0.008403305 0.006146629 -0.006827187 -0.0029750515 -0.016410971 -0.00029864206
0.003729679 -0.008987822 -0.013410972 -0.0027616315 -0.0048368922 -0.006866677 -0.0014236305 -0.0055881706
-0.0015037524 0.004361099 -0.008745015 -0.0026060387 -0.015314493 -0.014434331 -0.008522615 -0.008621388
00000000: 78e9 38bc 91f1 c63b 614b 19bc 1de6 1abc
00000010: 41b3 a03a 6865 19ba 915f 0b3b c78d 12bc
00000020: d6dd 76bc 60be eaba 9086 97bb dabe 0ebc
00000030: 7f21 84bc 8204 843b 2efe 283b 2005 f13a
00000040: 7ae2 7c3c b359 a1bb 452b 14bc 625e 24bc
00000050: 7abf 903b 3ac2 80bc e774 77bc c80c 0abc
00000060: 512d 1dbc f0c7 59bc 11a7 a2bb 3fe6 37bc
00000070: 47c6 adbc 132b 17bc fdd9 e7bb dd64 313c
00000080: 521f 863c 1425 b83a e4d1 38ba 494c 0abc
00000090: 5792 23bc 9e92 bbbc 7c1f 36bb 91e1 b6bb
000000a0: 9c83 a9ba aac7 323a 6698 53bc 51d0 88bc
000000b0: ee8b 1f3c 74df a2bc cc4b 373c 9461 90bc
000000c0: 1a67 103b 10c3 edbb 4d45 fdbb 065a 5cbc
000000d0: e012 8dbc 2b7e bdba c86b 48bc 28db e5ba
000000e0: dc7b 2dba 348f 653b accf cebb 7138 79bb
000000f0: de5f 9fbc e0a9 1fbc b75b 5aba 46c9 8cbc
00000100: 0bf5 303c 734c fbbb 9185 8bba 2a67 a1bb
00000110: f7db 78bb f659 79ba b7c1 28bc 5d20 a1bc
00000120: feee bc3b 9b7b c43b 4ed7 05bb 5309 e4bc
00000130: 78b3 85bb 773e 27bc e9b1 483c 46e8 99bc
00000140: 8cff 5bbc 2973 b03a 05bf 14bc ae94 103b
00000150: 7a40 8d3b 5b59 27bb 7abc a2bc 502c 563b
00000160: d077 2dbb e4b7 eabc 92a1 97bc 007b 873b
00000170: f933 853b ef00 83bb 347b b5bb 2a64 1d3c
00000180: 06a9 11ba 5709 a4bc 713b 7ebc e0d0 56bb
00000190: a319 673b c0df 63bc 1087 6ebb 46ba 36bc
000001a0: aec1 f0bb 81a0 9abc 04ae 09bc a969 c93b
000001b0: 98b6 dfbb 15f9 42bb 4d70 86bc 0f93 9cb9
000001c0: a16d 743b a841 13bc b2b9 5bbc 7dfc 34bb
000001d0: cb7e 9ebb dd01 e1bb 1d99 baba f91c b7bb
000001e0: 8f19 c5ba 8de7 8e3b 4047 0fbc 13ca 2abb
000001f0: a4e9 7abc f97d 6cbc 70a2 0bbc b940 0dbc

bn1.running_mean f4 [128]
0.016447952 -0.04216051 -0.03961978 0.043623116 -0.025387563 -0.025992215 0.016556453 -0.040478833
-0.04519882 -0.03839979 0.016046327 -0.07293622 -0.016528502 -0.0010063531 -0.062682465 0.048636194
0.025514476 0.014735991 -0.042237997 0.021360895 -0.0010229372 -0.009859404 -0.022806183 -0.0661974
-0.019846916 0.047102764 0.013969404 -0.06514962 -0.009326687 -0.018624973 -0.069831625 0.021536645
0.08782005 -0.070103765 0.0064753443 0.0072644986 0.029677952 -0.040570855 0.028007273 -0.057264186
-0.013539074 -0.007730497 -0.018218089 -0.004763743 -0.021560876 0.033587847 -0.041681733 -0.043479
0.019807253 0.00044964318 -0.0063474104 -0.053575836 -0.010086227 -0.023822911 0.04553182 -0.03784541
0.0060880356 0.003019064 0.016195022 -0.035840515 -0.0043103583 0.02010766 -0.04061272 -0.0018410019
-0.043537475 0.024295723 0.023750367 -0.03628941 -0.016482525 -0.0045062876 0.010693807 0.056327257
-0.0065612 0.051463086 -0.0021373536 0.03864838 -0.021678066 0.034528214 0.04846919 -0.014316921
-0.02703226 0.038807888 -0.03495848 0.019214723 -0.054830395 -0.04747944 -0.092655234 0.03423483
-0.07329946 -0.056887172 -0.015828725 -0.03278904 0.012032283 0.06324973 -0.008106052 0.031544648
0.0098798415 -0.006592197 -0.015122229 -0.03535137 0.030339865 -0.052362204 -0.021496104 0.009891095
0.031804062 -0.010368417 -0.05011111 -0.02140781 -0.00452012 -0.026969485 -0.021409705 0.013504738
-0.063032985 -0.007353862 0.0076067485 0.0637956 -0.020279773 -0.0382206 -0.050014112 -0.043386657
-0.04695552 -0.020949243 -0.0322175 -0.0352959 -0.029097 0.048540395 -0.042628363 -0.02486126
00000000: dbbd 863c 80b0 2cbd 5a48 22bd 27ae 323d
00000010: 94f9 cfbc a0ed d4bc 66a1 873c 22cd 25bd
00000020: 6622 39bd 1949 1dbd 9673 833c 965f 95bd
00000030: c866 87bc 9be7 83ba aa5f 80bd bf36 473d
00000040: bc03 d13c 3a6f 713c c001 2dbd 0bfd ae3c
00000050: 1414 86ba 5689 21bc 08d4 babc 8192 87bd
00000060: 0096 a2bc d4ee 403d eddf 643c 2a6d 85bd
00000070: f6ce 18bc 6693 98bc e203 8fbd 9e6d b03c
00000080: 00db b33d 9092 8fbd 202f d43b 080b ee3b
00000090: 2d1f f33c a02d 26bd 826f e53c da8d 6abd
000000a0: fed2 5dbc 1c50 fdbb 1a3e 95bc 2c19 9cbb
000000b0: 6fa0 b0bc 6993 093d 77ba 2abd 0917 32bd
000000c0: d242 a23c 16be eb39 f0fd cfbb 5672 5bbd
000000d0: b440 25bc 4428 c3bc 937f 3a3d ca03 1bbd
000000e0: 257e c73b 7ddb 453b 6cab 843c 81cd 12bd
000000f0: e83d 8dbb d2b8 a43c 8659 26bd c64d f1ba
00000100: 5a54 32bd d307 c73c 2190 c23c 34a4 14bd
00000110: 5c06 87bc 7ba9 93bb 1435 2f3c 69b7 663d
00000120: 56ff d6bb f5ca 523d d812 0cbb c44d 1e3d
00000130: 3396 b1bc 756d 0d3d a187 463d 8591 6abc
00000140: c272 ddbc 05f5 1e3d a030 0fbd 3268 9d3c
00000150: d695 60bd cd79 42bd 07c2 bdbd d239 0c3d
00000160: 071e 96bd 8602 69bd 3eab 81bc cd4d 06bd
00000170: 0d23 453c 1389 813d 3fcf 04bc f634 013d
00000180: 0fdf 213c 5b03 d8bb 3ac3 77bc 99cc 10bd
00000190: 4f8b f83c c079 56bd 9918 b0bc 420e 223c
000001a0: fa44 023d 4be0 29bc 4f41 4dbd 6e5f afbc
000001b0: 841d 94bb 1cef dcbc 6863 afbc fa42 5d3c
000001c0: 7017 81bd aaf8 f0bb 0842 f93b 44a7 823d
000001d0: c421 a6bc 348d 1cbd 99db 4cbd 35b6 31bd
000001e0: 6e54 40bd bf9d abbc 7ff6 03bd 6f92 10bd
000001f0: d55c eebc 4bd2 463d 149b 2ebd d7a9 cbbc

bn1.running_var f4 [128]
0.0047384487 0.0036341576 0.0029304216 0.0029548358 0.0020815358 0.0026069123 0.0029308184 0.0025386058
0.007900352 0.004694897 0.0029128722 0.003323147 0.005918422 0.0043999553 0.008935247 0.004392837
0.0038566282 0.0037166276 0.0033429654 0.0037586328 0.0044558016 0.0027367002 0.002296436 0.004459417
0.0053207055 0.0050963988 0.0026507622 0.0031481169 0.0038814414 0.0037438688 0.012332413 0.0048075775
0.002739114 0.00511173 0.003624836 0.005289044 0.00827802 0.0032108743 0.0025921816 0.00480236
0.0037733673 0.0020719818 0.0026549061 0.0031606946 0.0026584289 0.0030590862 0.003706598 0.0037469086
0.0033274943 0.003607932 0.0026090879 0.0090329945 0.00369271 0.0025196155 0.0053686197 0.002891223
0.00410727 0.0028624085 0.005047914 0.002539363 0.0032288185 0.0022968492 0.0028217707 0.0038061086
0.003512342 0.0034794994 0.0037862172 0.0042671934 0.005012186 0.0036258874 0.0037221317 0.001993737
0.0022104695 0.003273606 0.002718875 0.0030163769 0.005402041 0.0029174571 0.0035278732 0.001691216
0.0058881147 0.0037791047 0.0036434368 0.0026684285 0.0038109496 0.0025559578 0.0058727064 0.0026956669
0.0035068977 0.0034500554 0.002915478 0.0034079023 0.0042441413 0.004174774 0.00407502 0.0030046126
0.007585333 0.0024129115 0.0038275248 0.0019298587 0.0034697799 0.004803075 0.005214829 0.0029297597
0.0020303775 0.0035238925 0.007189734 0.0034452735 0.002354113 0.0040111 0.0031604348 0.0032079567
0.008622818 0.0027034516 0.004817054 0.0035220739 0.004331628 0.003211009 0.0042617316 0.0032940055
0.0035908408 0.0028073024 0.0038947144 0.0024430044 0.0044014165 0.0027749117 0.0048330375 0.005495727
00000000: fd44 9b3b 0c2b 6e3b 510c 403b eba5 413b
00000010: 606a 083b bbd8 2a3b f912 403b bd5e 263b
00000020: 7a70 013c a7d7 993b e3e5 3e3b 28c9 593b
00000030: 52ef c13b 802d 903b 2465 123c caf1 8f3b
00000040: 7cbf 7c3b aa92 733b a715 5b3b 6553 763b
00000050: f901 923b 365a 333b ce7f 163b 4d20 923b
00000060: 5059 ae3b b1ff a63b 69b8 2d3b a350 4e3b
00000070: c85f 7e3b b25b 753b e40d 4a3c e288 9d3b
00000080: b582 333b 4d80 a73b a88e 6d3b b84f ad3b
00000090: 88a0 073c 886d 523b 97e1 293b 1e5d 9d3b
000000a0: 994a 773b 16ca 073b effd 2d3b a823 4f3b
000000b0: 0939 2e3b f37a 483b 65ea 723b b28e 753b
000000c0: 1712 5a3b 0e73 6c3b 3bfd 2a3b 20ff 133c
000000d0: 6501 723b 2220 253b 3feb af3b ac7a 3d3b
000000e0: 4796 863b 3f97 3b3b f968 a53b 716b 263b
000000f0: 969a 533b bc86 163b 75ed 383b e86f 793b
00000100: 522f 663b 5008 643b 2f22 783b d0d3 8b3b
00000110: 433d a43b 4ca0 6d3b 02ef 733b 5ba9 023b
00000120: 86dd 103b ff89 563b 272f 323b 68ae 453b
00000130: 9b03 b13b cf32 3f3b e433 673b cbab dd3a
00000140: 16f1 c03b dbaa 773b bac6 6e3b cde0 2e3b
00000150: 20c1 793b db81 273b d56f c03b c9a9 303b
00000160: fbd3 653b 531a 623b 9b11 3f3b 1d57 5f3b
00000170: 7012 8b3b 8bcc 883b bf87 853b 09e9 443b
00000180: 638e f83b f021 1e3b 36d7 7a3b 50f3 fc3a
00000190: 3f65 633b 1d63 9d3b 28e1 aa3b 3601 403b
000001a0: 1510 053b 1bf1 663b dc97 eb3b 19ca 613b
000001b0: 7647 1a3b 8c6f 833b 4c1f 4f3b 953c 523b
000001c0: b846 0d3c 642c 313b 61d8 9d3b 98d2 663b
000001d0: 54f0 8d3b cb6f 523b ffa5 8b3b 3ee0 573b
000001e0: 5054 6b3b b8fa 373b 773e 7f3b d01a 203b
000001f0: c239 903b 4bdb 353b 755e 9e3b 8015 b43b

conv2.weight f4 [64, 128, 11, 1]
-0.02131911 -0.022318004 0.018066686 0.004035702 -0.030828688 0.018048503 0.007392118 -0.022811716
-0.025260776 -0.025862513 0.00092470343 0.02508736 0.026132384 -0.013597795 -0.022782225 0.016080216
0.002976161 0.009549691 -0.031419612 -0.027150648 0.0010706263 -0.015348421 -0.012266844 -0.025935091
-0.03060081 0.004007981 -0.0027314832 0.0041953204 -0.010165926 -0.0010949983 -0.0016090693 -0.01866638
-0.027410412 -0.013678626 -0.018923052 -0.001392426 -0.014442116 -0.011697185 -0.023726247 -0.0017291142
0.010365539 0.018309187 -0.005256808 -0.029030737 0.01640237 0.0075877635 -0.0074320994 -0.015869668
-0.0038792514 -0.018956162 -0.018320074 0.030079532 -0.008541074 0.0031072435 -0.0031784298 -0.018511958
-0.003083575 -0.009396892 0.014459591 0.0011657055 0.0001609291 -0.015151607 0.001560257 -0.012235404
0.027456913 0.014839693 -0.018201413 0.0056307227 -0.028526489 0.010624848 -0.0004706841 0.0068693827
0.01966156 -0.025007756 -0.02149488 -0.004949063 0.0051194355 0.022036877 -0.008711376 0.013088023
-0.008151498 -0.017554907 -0.0036060854 -0.029895987 0.012979728 -0.0054162475 -0.03126101 -0.0260542
0.002180153 -0.018997917 -0.020357702 -0.010450054 0.010636554 -4.449299e-05 -0.018184224 0.019196095
-0.021810012 -0.0007425038 -0.026802907 -0.012174738 -0.013654563 0.011278826 -0.028711783 0.004312371
0.004668272 0.016724875 0.006566981 0.012283998 -0.031531934 -0.025083626 0.0032736154 0.008589022
0.016764551 -0.033617485 0.017396973 -0.017628528 0.0029156525 -0.027672384 -0.023961551 -0.014083312
0.0046059606 0.0029410645 -0.004615323 0.019099638 -0.009542453 -0.028906608 -0.012502991 -0.024151193
-0.014904357 0.013614074 0.0009418821 -0.026389794 -0.027243039 0.012062454 -0.015606626 -0.029424645
0.011519605 0.013854456 -0.00031805458 -0.018510075 -0.013451656 -0.003715826 -0.028624296 -0.027810302
-0.010723708 -0.009189647 0.019576874 0.01925675 0.018203443 0.026509712 0.02448103 0.026561929
-0.013682834 -0.0029967688 0.027036281 0.0036412003 0.014819812 -0.009745924 0.00024287634 -0.0037892351
-0.0039692167 0.007834428 -0.010181412 -0.008354635 0.01953559 -0.023748161 -0.029804906 0.009870948
-0.015800593 -0.02081646 -0.0133030545 0.013795209 0.018077869 -0.011822742 -0.026710534 -0.028748317
-0.018628791 -0.02095922 -0.009707014 0.011892638 -0.027112134 0.01926254 0.0010032172 -0.005859442
-0.0096427305 0.017711082 -0.01495795 -0.033997457 0.01044986 0.008309404 0.008747689 -0.029069586
0.002481837 0.0015814493 -0.017896112 -0.016689263 -0.003282954 0.0050828494 0.024123559 0.020263134
-0.008274279 -0.02150763 0.010519604 0.0016215957 0.011981405 0.015888844 0.012047955 -0.0027502528
-0.0065427064 -0.004515705 -0.011982121 -0.026326297 0.014256138 -0.0036695767 0.0065850406 -0.0049304627
0.0064150887 0.009315431 0.01098164 -0.015522263 -0.012144608 0.014231105 -0.0049704127 0.020858202
0.024406414 0.0037545154 -0.00063521974 0.029548835 -0.010601308 -0.008467484 -0.002408451 0.006043297
0.010640282 -0.0061413306 0.020654917 -0.0040270663 -0.021312319 -0.033374555 -0.0076701795 0.017720254
0.015102178 -0.01776901 5.3020995e-05 0.022129642 -0.007870406 -0.022257362 -0.029177627 -0.024943618
-0.008033404 0.0075030816 0.019364273 -0.015501936 -0.002661895 -0.014402002 0.008205852 0.0016684992
00000000: 6aa5 aebc 3fd4 b6bc 9600 943c ec3d 843b
00000010: 728c fcbc 74da 933c 9539 f23b a3df babc
00000020: b0ef cebc 9fdd d3bc cc67 723a 0284 cd3c
00000030: 9513 d63c 49c9 5ebc caa1 babc a8ba 833c
00000040: b20b 433b 4f76 1c3c dab1 00bd 096b debc
00000050: 4254 8c3a f277 7bbc dffa 48bc d475 d4bc
00000060: 8dae fabc 6255 833b af02 33bb e678 893b
00000070: fc8e 26bc 0c86 8fba 68e7 d2ba 3cea 98bc
00000080: cd8b e0bc 511c 60bc 8404 9bbc 1082 b6ba
00000090: a09e 6cbc 8da5 3fbc 8c5d c2bc 72a3 e2ba
000000a0: 39d4 293c 26fd 953c 4d41 acbb ded1 edbc
000000b0: 435e 863c c6a2 f83b f888 f3bb 1b01 82bc
000000c0: 0a3b 7ebb f449 9bbc fb13 96bc 5a69 f63c
000000d0: dcef 0bbc e5a2 4b3b 344d 50bb 64a6 97bc
000000e0: ce15 4abb 6cf5 19bc ece7 6c3c 96ca 983a
000000f0: 14bf 2839 723e 78bc 8a81 cc3a 0177 48bc
00000100: 52ed e03c 2f22 733c 211b 95bc ed81 b83b
00000110: 62b0 e9bc d813 2e3c 27c6 f6b9 8f18 e13b
00000120: 4811 a13c 11dd ccbc 0816 b0bc c02b a2bb
00000130: f0c0 a73b ae86 b43c 29ba 0ebc 266f 563c
00000140: dc8d 05bc 4fcf 8fbc 1354 6cbb 6ee8 f4bc
00000150: eda8 543c c77a b1bb 8b0b 00bd 9e6f d5bc
00000160: e6e0 0e3b 85a1 9bbc 32c5 a6bc b436 2bbc
00000170: f144 2e3c fc9d 3ab8 15f7 94bc 2141 9d3c
00000180: e9aa b2bc 96a4 42ba c591 dbbc 8d78 47bc
00000190: 63b7 5fbc d3ca 383c f934 ebbc ca4e 8d3b
000001a0: 4ef8 983b 9b02 893c d42f d73b d242 493c
000001b0: a127 01bd 2d7c cdbc 278a 563b f8b8 0c3c
000001c0: d055 893c 7db2 09bd 1984 8e3c b469 90bc
000001d0: 8814 3f3b 32b1 e2bc 044b c4bc b1bd 66bc
000001e0: 99ed 963b e0be 403b 233c 97bb d876 9c3c
000001f0: f357 1cbc 8dcd ecbc 58d9 4cbc b9d8 c5bc
00000200: 6731 74bc 910d 5f3c a3e8 763a 692f d8bc
00000210: cb2c dfbc 99a1 453c efb2 7fbc f40b f1bc
00000220: babc 3c3c cdfd 623c 90c0 a6b9 71a2 97bc
00000230: 5664 5cbc 3785 73bb 807d eabc 6ed2 e3bc
00000240: 7eb2 2fbc 2c90 16bc ae5f a03c 55c0 9d3c
00000250: 631f 953c e52a d93c 718c c83c 6798 d93c
00000260: f72d 60bc 7065 44bb 317b dd3c 34a1 6e3b
00000270: ccce 723c 5ead 1fbc 9fac 7e39 d154 78bb
00000280: 3410 82bb f95b 003c f0cf 26bc e1e1 08bc
00000290: 1a09 a03c 818b c2bc 6b29 f4bc c2b9 213c
000002a0: 3f70 81bc 4887 aabc 0ef5 59bc 4d05 623c
000002b0: 0a18 943c 2db4 41bc 0dd0 dabc 9781 ebbc
000002c0: 689b 98bc acb2 abbc 2b0a 1fbc 57d9 423c
000002d0: 441a debc 79cc 9d3c 627e 833a 9000 c0bb
000002e0: 8bfc 1dbc d516 913c 3112 75bc eb40 0bbd
000002f0: e435 2b3c 2b24 083c 7852 0f3c 5723 eebc
00000300: 51a6 223b a248 cf3a de9a 92bc ecb7 88bc
00000310: d426 57bb 088e a63b c59e c53c dffe a53c
00000320: d790 07bc c530 b0bc 6b5a 2c3c b98b d43a
00000330: a84d 443c 5229 823c c964 453c 963d 34bb
00000340: 3364 d6bb 7bf8 93bb a850 44bc 3faa d7bc
00000350: 9492 693c 487d 70bb 53c7 d73b b88f a1bb
00000360: aa35 d23b c09f 183c 56ec 333c 1751 7ebc
00000370: 2efa 46bc 9529 693c d8de a2bb d2de aa3c
00000380: f6ef c73c 510e 763b e084 26ba 6610 f23c
00000390: 1cb1 2dbc 34bb 0abc 1ad7 1dbb d906 c63b
000003a0: 9454 2e3c 373d c9bb 8034 a93c 7bf5 83bb
000003b0: 2c97 aebc c2b3 08bd 2156 fbbb 112a 913c
000003c0: 206f 773c 5190 91bc dc62 5e38 3949 b53c
000003d0: e0f2 00bc 1255 b6bc eb05 efbc 8f56 ccbc
000003e0: 8a9e 03bc 69dc f53b d3a1 9e3c d5fb 7dbc
000003f0: 3073 2ebb 60f6 6bbc d671 063c 8bb1 da3a

conv2.bias f4 [64]
-0.0026506062 0.021659523 0.00268588 0.017324604 0.016386444 -0.0016759159 0.00078250957 -0.0054580504
-0.003983736 0.010204713 -0.02868838 0.0034551148 -0.012404413 0.037196822 -0.0026506938 -0.012674597
-0.02218467 -0.0052938755 -0.011829623 -0.020398019 0.0022306046 0.010524038 0.010376628 -0.0038078022
-0.009779646 0.014794328 -0.01440226 0.022448594 -0.008316185 0.0064835623 -0.014251756 -0.023619827
0.025210446 0.02369678 -0.01577911 -0.006824977 0.005914562 0.0073604854 0.007028545 0.00241696
0.021818286 0.022079024 -0.0064750547 -0.0005570585 -0.027084187 0.030625243 -0.025594996 -0.02177194
-0.02832308 0.012816046 0.014989067 0.015733887 -0.010771245 0.013810355 0.0016359518 -0.016770002
0.0039807437 0.0020437636 -0.019920738 -0.005465408 -0.0060822484 0.030311681 0.027194923 -0.03082555
00000000: cbb5 2dbb 506f b13c 9705 303b 54ec 8d3c
00000010: dd3c 863c 68aa dbba 5421 4d3a 72d9 b2bb
00000020: 008a 82bb ab31 273c e503 ebbc 356f 623b
00000030: e13b 4bbc b25b 183d 43b7 2dbb 1da9 4fbc
00000040: a0bc b5bc 3f78 adbb 09d1 41bc bf19 a7bc
00000050: 562f 123b 046d 2c3c bb02 2a3c 528c 79bb
00000060: cf3a 20bc e963 723c 75f7 6bbc 1de6 b73c
00000070: 9c40 08bc 1074 d43b 3280 69bc 5e7e c1bc
00000080: 2386 ce3c c01f c23c 3143 81bc 0fa4 dfbb
00000090: f1ce c13b 3a30 f13b b54f e63b dc65 1e3b
000000a0: 43bc b23c 12df b43c b22c d4bb 9007 12ba
000000b0: a8df ddbc cae1 fa3c 99ac d1bc 115b b2bc
000000c0: ce05 e8bc 65fa 513c b494 753c 5ae4 803c
000000d0: e079 30bc d444 623c 6f6d d63a 3e61 89bc
000000e0: e670 823b aaf0 053b d130 a3bc 2a17 b3bb
000000f0: 994d c7bb 3450 f83c e3c7 de3c dd85 fcbc

bn2.weight f4 [64]
0.99389786 1.0070465 0.98903805 0.99996656 0.99399453 0.9855839 1.0074906 0.997897
0.9939947 1.0099999 1.0133502 1.0371591 1.0032303 1.0131038 1.006792 0.9920507
0.9936702 0.9832873 0.98895866 0.99965197 0.9950326 1.0020485 1.0114067 0.99940515
1.0050169 0.99892277 0.994112 0.9921029 0.9780988 0.9889195 0.9890983 0.9987261
1.0071238 0.9921553 0.9936294 1.0136597 0.9967055 1.0107278 0.9974136 0.9939945
0.99157804 0.99913704 1.002076 0.99394697 0.99309546 1.0001183 1.0203028 1.0067917
0.9924905 0.9978419 0.9905329 0.9935272 0.9921872 1.0034903 1.0057513 0.9938452
1.0005003 0.9939753 0.9920988 0.9939793 0.98438567 0.9945349 1.0118839 0.99263984
00000000: 1770 7e3f e6e6 803f 9931 7d3f cffd 7f3f
00000010: 6d76 7e3f 3a4f 7c3f 74f5 803f 2e76 7f3f
00000020: 7076 7e3f ad47 813f 76b5 813f a1c1 843f
00000030: da69 803f 63ad 813f 8fde 803f 09f7 7d3f
00000040: 2c61 7e3f b7b8 7b3f 652c 7d3f 31e9 7f3f
00000050: 75ba 7e3f 2043 803f c675 813f 04d9 7f3f
00000060: 65a4 803f 67b9 7f3f 207e 7e3f 75fa 7d3f
00000070: af64 7a3f d429 7d3f 8c35 7d3f 84ac 7f3f
00000080: 6fe9 803f e4fd 7d3f 7f5e 7e3f 9abf 813f
00000090: 1728 7f3f 875f 813f 7f56 7f3f 6c76 7e3f
000000a0: 0fd8 7d3f 72c7 7f3f 0744 803f 4f73 7e3f
000000b0: 813b 7e3f e003 803f 4899 823f 8dde 803f
000000c0: db13 7e3f 9172 7f3f 9093 7d3f cc57 7e3f
000000d0: fbff 7d3f 5f72 803f 75bc 803f a46c 7e3f
000000e0: 6510 803f 2a75 7e3f 30fa 7d3f 6d75 7e3f
000000f0: b300 7c3f d799 7e3f 6985 813f a51d 7e3f

bn2.bias f4 [64]
-0.008085422 -0.0053892257 0.005326521 -0.005757192 0.0060057435 -0.0070597637 -0.0040125404 0.005854381
0.006005023 0.0082542775 -0.010759768 0.021034958 0.006783999 -0.0118071195 -0.012102124 0.011228876
0.0074834186 -0.002478165 0.0074689896 0.0032834911 -0.001925266 1.2307832e-05 0.0065538054 0.0059163547
0.007963582 0.0011689574 0.00600505 -0.00032747976 -0.0032806224 -0.0014661774 -0.005753968 -0.0026999877
-0.0006640407 0.0039832545 0.0033360226 0.0030788202 0.0028703515 -0.01021715 -0.006851044 0.0060060387
-0.0080607 0.00086996873 -0.012912485 0.0055890908 0.006004664 0.0044638533 0.0018035382 -0.005415917
-0.0053559053 -0.0007646981 0.015525319 -0.0060012517 -0.006237535 -0.009707592 -0.0025984747 0.006275712
0.0004698069 -0.0060054045 -0.0020668136 0.0060053985 -0.0011368626 0.006004394 0.0186693 0.0070876707
00000000: b878 04bc 1a98 b0bb 198a ae3b d4a6 bcbb
00000010: d4cb c43b 9755 e7bb a17b 83bb 1bd6 bf3b
00000020: c9c5 c43b f33c 073c bd49 30bc 8151 ac3c
00000030: 4f4c de3b a672 41bc fd47 46bc 52f9 373c
00000040: 7737 f53b b668 22bb 6dbe f43b d72f 573b
00000050: 3559 fcba bc7d 4e37 4ec1 d63b fbdd c13b
00000060: af79 023c b437 993a 03c6 c43b 97b1 abb9
00000070: b6ff 56bb c02c c0ba c88b bcbb 47f2 30bb
00000080: 0413 2eba f685 823b 2ca1 5a3b 08c6 493b
00000090: 821c 3c3b d565 27bc b97e e0bb 4ece c43b
000000a0: 0711 04bc 9d0e 643a e38e 53bc b124 b73b
000000b0: c6c2 c43b 8445 923b b364 ec3a 0178 b1bb
000000c0: 9780 afbb 0576 48ba e85d 7e3c 26a6 c4bb
000000d0: 3c64 ccbb 980c 1fbc 2c4b 2abb 7da4 cd3b
000000e0: 6a50 f639 fcc8 c4bb 6173 07bb efc8 c43b
000000f0: c702 95ba 82c0 c43b 5cf0 983c b13f e83b

bn2.running_mean f4 [64]
-1.199876 -0.9933832 -0.19661672 0.5635567 -1.5149906 -0.8927104 0.30693927 -0.81954247
-1.879546 0.4609638 0.7108439 0.15479477 -1.6490866 -0.322189 -0.06258871 -1.8986143
0.29480463 1.3145167 0.95781004 0.20540373 0.96349376 1.0004121 0.8313787 0.29027718
0.49018046 0.60359985 0.7162522 1.0373775 1.2434002 0.9609331 1.0579766 -0.41613784
0.0017811712 -0.38288584 -1.0188475 -0.14538987 -1.6229309 0.69236743 0.8673252 -1.5028279
-1.0798737 0.8201862 1.1454389 -0.95118177 1.1976668 0.89629066 0.47401634 -0.7928742
0.62809545 0.7401221 -0.97748566 1.1632861 -0.6172258 0.12544338 -0.86717886 -0.89671266
-0.44898027 -1.5583036 0.28066957 -1.6215678 -1.6879299 -1.5734926 0.6008663 -1.3967513
00000000: 8995 99bf 5d4e 7ebf e555 49be 4045 103f
00000010: 36eb c1bf ab88 64bf 2527 9d3e 89cd 51bf
00000020: f794 f0bf 7203 ec3e def9 353f 8582 1e3e
00000030: 4515 d3bf f5f5 a4be 822e 80bd cb05 f3bf
00000040: a2f0 963e 1542 a83f 0a33 753f 5b55 523e
00000050: 87a7 763f 810d 803f 3cd5 543f 369f 943e
00000060: eff8 fa3e 8585 1a3f 4e5c 373f c9c8 843f
00000070: bd27 9f3f b6ff 753f c76b 873f 0510 d5be
00000080: 3076 e93a 9d09 c4be 9869 82bf 15e1 14be
00000090: 33bc cfbf fe3e 313f 0609 5e3f aa5c c0bf
000000a0: 4d39 8abf b9f7 513f be9d 923f a680 73bf
000000b0: 254d 993f 4e73 653f 45b2 f23e cef9 4abf
000000c0: ddca 203f a478 3d3f 803c 7abf 8fe6 943f
000000d0: 8302 1ebf 3b74 003e 6fff 5dbf f68e 65bf
000000e0: bee0 e5be 7e76 c7bf ecb3 8f3e 898f cfbf
000000f0: 160e d8bf 3568 c9bf 60d2 193f bfc8 b2bf

bn2.running_var f4 [64]
1.7169063 0.8870353 0.66751087 0.6738282 2.5709918 0.76013047 0.12586403 1.7410766
2.7603083 2.156492 0.6457373 0.44853395 3.4239376 0.14922695 0.22535369 7.774739
0.6116311 2.2722754 1.3476112 0.49398944 1.6046858 1.6316811 0.8719241 0.74254876
1.0039902 0.710959 1.2858489 2.4071286 1.5638152 1.796586 1.6025033 0.7763637
0.4257586 0.85024315 0.92976975 0.3475626 2.5512917 0.6156992 2.216127 3.261773
0.9209272 1.1405543 1.3404593 1.6462493 1.4713124 0.9475931 0.16569638 1.1141788
0.3062981 1.527677 1.7436686 1.3845403 1.7146186 0.65249884 2.9266047 0.96724176
0.27500364 3.2269545 1.0487982 3.7852213 6.0756273 2.7901409 0.80071443 2.5633254
00000000: 96c3 db3f bf14 633f fee1 2a3f 0180 2c3f
00000010: 218b 2440 e997 423f 80e2 003e 99db de3f
00000020: e4a8 3040 f703 0a40 0a4f 253f 3ea6 e53e
00000030: cb21 5b40 f3ce 183e 1ec3 663e a9ca f840
00000040: db93 1c3f f66c 1140 867e ac3f 2fec fc3e
00000050: 5866 cd3f edda d03f 6b36 5f3f ad17 3e3f
00000060: c082 803f 6901 363f b296 a43f 650e 1a40
00000070: 192b c83f 88f6 e53f d41e cd3f c5bf 463f
00000080: 08fd d93e 89a9 593f 6405 6e3f baf3 b13e
00000090: 5d48 2340 769e 1d3f 06d5 0d40 e4c0 5040
000000a0: e3c1 6b3f affd 913f 2c94 ab3f 4cb8 d23f
000000b0: f753 bc3f 7695 723f 50ac 293e 699d 8e3f
000000c0: 1bd3 9c3e ec8a c33f 8830 df3f 9e38 b13f
000000d0: 9f78 db3f 2a0a 273f 7e4d 3b40 289d 773f
000000e0: 47cd 8c3e 6c86 4e40 053f 863f 1141 7240
000000f0: 8a6b c240 ab91 3240 9ffb 4c3f 860d 2440

fc1.weight f4 [96, 64]
0.10675999 0.096739806 -0.062280357 0.0031984865 -0.017456189 -0.09542983 0.11292887 -0.04012662
0.066121966 0.13050953 0.018687716 -0.099696025 0.105046526 0.037534285 0.0969676 -0.031404752
-0.005187084 -0.12614217 -0.08568027 0.022411173 -0.046399247 -0.10763146 -0.031091755 -0.02011452
0.028840214 0.10693583 -0.110090986 0.0037751077 -0.02291926 0.089423776 -0.04820751 -0.018972732
-0.012007866 -0.05810037 -0.06284149 -0.03165788 0.0046877195 -0.047399487 -0.10553883 0.1084729
-0.10223798 -0.09329448 -0.10698446 -0.06725075 -0.030297084 0.11033101 -0.003169836 0.07732092
-0.037776522 0.04948063 0.05233901 0.048849672 -0.109866045 0.1011629 -0.08760452 -0.059098884
0.05567417 0.043358754 -0.023810027 0.114590004 -0.026788505 -0.076879114 0.026174342 0.04305597
0.00512999 0.038122315 0.02721427 -0.12292615 0.033863008 0.11340808 -0.14716752 0.106351115
0.044481322 -0.08342833 -0.095782764 0.026179159 -0.044814847 -0.03397665 -0.1279646 -0.093480825
0.05811413 0.0823186 -0.088194445 -0.018298889 0.0968947 0.078411415 -0.06484187 0.006137269
0.028483262 0.01767796 0.043029588 -0.014735552 0.10170064 -0.08058422 0.11702378 -0.045729835
0.06760276 -0.005588537 0.08723318 0.087598026 0.123545475 0.052210025 -0.088455185 -0.07716305
0.08008365 -0.12038713 0.004973421 -0.09790859 0.010494955 -0.08317065 -0.12034924 -0.031754162
0.0023407075 -0.08803597 0.06937192 -0.11359783 0.021061419 -0.11465692 -0.07551316 -0.019332966
0.06878605 0.057153136 0.052313227 0.023498671 0.036782846 0.052213684 -0.089822404 0.0015741346
0.072599106 -0.058483735 0.09755529 0.09154432 -0.12972316 0.047725417 -0.052241314 0.04722841
-0.13028774 -0.08540559 0.050607014 -0.07161182 -0.11779982 0.009534847 0.14583468 0.11874934
-0.048395388 -0.02029316 0.08091599 -0.05111882 0.050788302 0.059189823 -0.01940411 -0.0061348206
0.0400646 0.11878445 -0.058559366 -0.06363213 -0.00912924 0.09845478 0.0033733537 0.037730556
-0.06089799 -0.019895421 -0.06297751 0.033783656 0.022787107 0.059374563 -0.0056588007 -0.09262319
-0.05134638 -0.09054772 -0.0601005 0.069860555 -0.06406559 0.010839021 -0.050819743 -0.03919942
-0.08847035 0.043836072 -0.09107851 0.12030922 -0.0750759 0.109918565 0.03594109 0.11084774
-0.002183178 -0.03659812 -0.027703812 -0.03767661 -0.0740404 -0.11387208 0.14702304 0.061597757
0.00804268 -0.05788541 -0.027021598 -0.060857054 0.104733825 0.06646049 -0.023936901 0.106978446
0.09642527 0.017923832 -0.0072246306 -0.100662105 -0.0936281 0.020729462 -0.014046376 -0.08102133
0.05959538 -0.120146506 0.060092747 -0.10279431 0.08111563 -0.12984689 -0.023173116 0.096799396
0.023177506 -0.028603842 -0.05866505 -0.01882368 0.10115988 0.09880447 0.0084493635 -0.06496326
0.0015069474 -0.061438512 -0.013096184 0.06926044 0.06538437 0.06594171 -0.027246946 0.0141514465
-0.09926665 -0.04927503 0.054188 0.04854132 0.02540822 -0.04240801 -0.013803381 0.00071674
-0.116774864 0.111967064 -0.09206705 0.10743119 -0.05168878 -0.073285386 -0.050466873 -0.1065144
0.02331937 0.11197631 -0.096971385 -0.106793284 0.008409751 0.041114956 -0.03673388 0.06390839
00000000: fba4 da3d 851f c63d b019 7fbd b39d 513b
00000010: 4800 8fbc b770 c3bd 4047 e73d d05b 24bd
00000020: f46a 873d 4aa4 053e fb16 993c 6e2d ccbd
00000030: a222 d73d 8dbd 193d f396 c63d 45a2 00bd
00000040: 6af8 a9bb 6a2b 01be 2379 afbd a397 b73c
00000050: 230d 3ebd e26d dcbd 23b4 febc 35c7 a4bc
00000060: 5042 ec3c 2c01 db3d 6277 e1bd cc67 773b
00000070: 2cc1 bbbc d023 b73d 3d75 45bd b46c 9bbc
00000080: a4bc 44bc a7fa 6dbd 0ab3 80bd b1ab 01bd
00000090: 719b 993b f725 42bd be24 d8bd 0a27 de3d
000000a0: 2562 d1bd 2d11 bfbd ab1a dbbd c3ba 89bd
000000b0: 9731 f8bc 39f5 e13d 06bd 4fbb 6e5a 9e3d
000000c0: 8ebb 1abd 33ac 4a3d 6e61 563d 9816 483d
000000d0: 7301 e1bd 7f2e cf3d 006a b3bd ac11 72bd
000000e0: 990a 643d f398 313d 3f0d c3bc 2aae ea3d
000000f0: 9173 dbbc cc72 9dbd 936b d63c 755b 303d
00000100: 7a19 a83b 2526 1c3d 76f0 de3c b5c0 fbbd
00000110: f0b3 0a3d 7f42 e83d 15b3 16be 9dce d93d
00000120: 0c32 363d 79dc aabd c129 c4bd ad75 d63c
00000130: c68f 37bd 1a2b 0bbd 2709 03be e072 bfbd
00000140: 1509 6e3d a796 a83d 4a9f b4bd 8de7 95bc
00000150: ba70 c63d 2a96 a03d d0cb 84bd 251b c93b
00000160: bb55 e93c 5fd1 903c cb3f 303d 626d 71bc
00000170: 6d48 d03d 5709 a5bd 2aaa ef3d 354f 3bbd
00000180: 5173 8a3d 0c20 b7bb 4fa7 b23d 9866 b33d
00000190: 6905 fd3d 2eda 553d fe27 b5bd a907 9ebd
000001a0: e602 a43d 878d f6bd 14f8 a23b 4d84 c8bd
000001b0: 08f3 2b3c 6055 aabd aa79 f6bd a710 02bd
000001c0: 8e66 193b 344c b4bd dd12 8e3d fba5 e8bd
000001d0: ff88 ac3c 3fd1 eabd a5a6 9abd 2b60 9ebc
000001e0: b3df 8c3d 6819 6a3d 6546 563d 4980 c03c
000001f0: 9ca9 163d 04de 553d cff4 b7bd 3153 ce3a
00000200: d7ae 943d a48c 6fbd 11cb c73d 977b bb3d
00000210: 26d6 04be ba7b 433d fdfa 55bd 9472 413d
00000220: 266a 05be 20e9 aebd 4d49 4f3d 38a9 92bd
00000230: 0841 f1bd 0c38 1c3c b055 153e db32 f33d
00000240: 3e3a 46bd d73d a6bc 48b7 a53d f861 51bd
00000250: 6507 503d 0771 723d 5ef5 9ebc 9b06 c9bb
00000260: c71a 243d 4345 f33d f2db 6fbd 9051 82bd
00000270: cf92 15bc a9a2 c93d 7c13 5d3b 5b8b 1a3d
00000280: 2c70 79bd b9fb a2bc 5afa 80bd bb60 0a3d
00000290: 07ac ba3c be32 733d 766d b9bb 3ab1 bdbd
000002a0: 9550 52bd 1571 b9bd f12b 76bd 0d13 8f3d
000002b0: d234 83bd 2696 313c 5d28 50bd 928f 20bd
000002c0: f12f b5bd 748d 333d 5f87 babd ae64 f63d
000002d0: 65c1 99bd fc1c e13d f736 133d 2404 e33d
000002e0: a613 0fbb e9e7 15bd 1bf3 e2bc ca52 1abd
000002f0: 7ea2 97bd c435 e9bd 358d 163e ee4d 7c3d
00000300: 72c5 033c 4019 6dbd 665c ddbc 3f45 79bd
00000310: b07e d63d 701c 883d 5217 c4bc 8417 db3d
00000320: 9d7a c53d 00d5 923c 98bc ecbb ef27 cebd
00000330: 17c0 bfbd d5d0 a93c c522 66bc 83ee a5bd
00000340: 491a 743d 5f0f f6bd d023 763d d385 d2bd
00000350: f41f a63d 95f6 04be 8cd5 bdbc c33e c63d
00000360: c1de bd3c 9b52 eabc c34a 70bd 1e34 9abc
00000370: e92c cf3d ff59 ca3d 336f 0a3c 750b 85bd
00000380: c484 c53a f3a6 7bbd 6091 56bc 6bd8 8d3d
00000390: 3ee8 853d 720c 873d fd34 dfbc 78db 673c
000003a0: 504c cbbd 9dd4 49bd 3cf4 5d3d 43d3 463d
000003b0: e624 d03c 06b4 2dbd 9327 62bc 9be3 3b3a
000003c0: a927 efbd fd4e e53d a68d bcbd e204 dc3d
000003d0: 9db7 53bd a616 96bd 5ab6 4ebd 3924 dabd
000003e0: 4308 bf3c d653 e53d ef98 c6bd 70b6 dabd
000003f0: 0dc9 093c 2868 283d 4476 16bd 67e2 823d

fc1.bias f4 [96]
0.06294258 0.11006363 -0.10742563 0.050062407 0.04400794 0.0997539 -0.025202814 -0.0006895241
0.020981614 0.08885105 0.09542267 -0.105964355 0.03742815 -0.03038934 -0.05510669 0.025675448
-0.012059421 -0.09167291 -0.11930098 -0.06937134 0.08640127 0.08452666 -0.107050456 -0.088788375
0.021250872 0.03457124 -0.06860535 0.03989721 -0.10052641 0.091429465 -0.018527094 -0.07596914
0.009543135 -0.053591404 -0.006998025 -0.011435093 0.035876207 -0.108857304 0.075291306 -0.006844253
0.019492941 0.00027945105 0.030235523 0.012001364 -0.061229866 0.118317895 -0.121117115 -0.006636739
0.03934813 -0.03490292 -0.065049574 -0.07441666 -0.08357748 0.0352262 0.0008255074 -0.0009846382
0.11783456 0.038109694 -0.03226732 0.061031688 0.11699753 -0.03726648 0.09181606 0.04570984
0.02782374 -0.075039804 -0.10480441 0.06866383 -0.013357317 -0.09356728 -0.052224524 0.08435451
0.014915169 0.07839024 0.11107233 -0.08960953 0.046025366 -0.10333262 -0.118154496 -0.029764885
0.044204112 0.040447693 -0.09209543 -0.0012058623 -0.0706424 0.109556906 -0.03787702 -0.1194742
0.08415018 -0.089253984 0.103263415 -0.022827856 -0.08189859 0.0069547333 -0.029566864 -0.1130061
00000000: 0ae8 803d 0a69 e13d f801 dcbd 3d0e 4d3d
00000010: ab41 343d c64b cc3d 2276 cebc 2ec1 34ba
00000020: a2e1 ab3c 8af7 b53d f66c c33d d703 d9bd
00000030: 434e 193d 11f3 f8bc 8db7 61bd 5155 d23c
00000040: e194 45bc 02bf bbbd 1254 f4bd 9012 8ebd
00000050: 26f3 b03d 501c ad3d 453d dbbd aed6 b5bd
00000060: 4f16 ae3c 939a 0d3d f680 8cbd 426b 233d
00000070: cae0 cdbd 5f3f bb3d 22c6 97bc b595 9bbd
00000080: cf5a 1c3c a982 5bbd b04f e5bb 425a 3bbc
00000090: eef2 123d 94f0 debd 5432 9a3d c145 e0bb
000000a0: a9af 9f3c 4983 9239 7db0 f73c 5ea1 443c
000000b0: 2bcc 7abd a750 f23d 400c f8bd 0079 d9bb
000000c0: 812b 213d 5df6 0ebd b638 85bd c367 98bd
000000d0: ab2a abbd 5949 103d dd66 583a fa0e 81ba
000000e0: 3f53 f13d e918 1c3d bd2a 04bd 5dfc 793d
000000f0: 679c ef3d bda4 18bd 0f0a bc3d 3e3a 3b3d
00000100: 9dee e33c 78ae 99bd b2a3 d6bd 9f9f 8c3d
00000110: a6d8 5abc 34a0 bfbd 62e9 55bd 0fc2 ac3d
00000120: c15e 743c 108b a03d e479 e33d 3485 b7bd
00000130: 1885 3c3d 0da0 d3bd fcfa f1bd 7dd5 f3bc
00000140: 5f0f 353d 7bac 253d 879c bcbd 060e 9eba
00000150: f6ac 90bd 5f5f e03d ef24 1bbd e4ae f4bd
00000160: ee56 ac3d cbca b6bd c57b d33d 7c01 bbbc
00000170: 73ba a7bd 88e4 e33b 3536 f2bc be6f e7bd

fc2.weight f4 [2, 96]
0.08979974 -0.09304197 0.10393839 -0.09591689 0.067103595 -0.035988986 0.012727291 0.04683147
0.15281077 -0.075450465 -0.02455451 0.08018351 -0.0478221 -0.017432217 0.097993106 -0.027298361
0.16457689 0.13772339 0.10933284 -0.10502616 0.059825055 -0.0045799175 -0.08947481 0.10563728
0.06512612 0.13061696 0.1467851 0.07355073 -0.017821932 0.14300379 0.010978657 0.1223754
0.13355169 0.043344002 -0.02553614 0.08329512 -0.12929325 0.09628028 0.029699817 0.014824057
0.03434934 0.17977162 0.12656453 0.055484466 0.022958029 -0.054955617 -0.05501925 0.05481686
-0.015427749 -0.0020044607 -0.0024078914 0.011398563 0.07606888 -0.09098277 -0.039303925 0.010242397
0.085069306 -0.048086554 0.106456466 -0.026367437 0.13723852 -0.059270795 0.14356743 0.019934328
0.11557072 0.0070395796 -0.056921277 -0.007004397 0.09431148 0.106809564 -0.10499175 0.16915192
-0.11394321 0.1148089 0.14362259 0.08335972 -0.01914173 -0.028558683 0.024983305 0.053409815
-0.0306791 0.088078424 0.13736422 0.046919037 0.0017193966 -0.027710065 0.12184798 0.05397671
0.012259998 0.10493197 -0.08160698 0.011645943 0.04657072 -0.04078007 -0.041106403 0.01383064
0.040869363 0.100348465 0.0058974894 0.08107141 -0.12387395 -0.007952675 0.102912344 -0.07897146
-0.15538733 0.103720866 -0.0024627522 -0.098342136 -0.013826945 0.010306934 -0.072968364 0.11668711
-0.03529491 -0.017696656 -0.024767857 0.110327825 -0.013459574 -0.10317537 -0.037670434 -0.16177589
-0.13526694 0.045362752 -0.034231525 -0.13298328 -0.13832328 -0.10402009 -0.110156946 -0.14544679
-0.08800565 -0.13109808 0.08298116 -0.09217321 -0.033171885 -0.08055885 0.06580656 0.086713165
0.043574225 -0.1429814 -0.11214673 -0.031855967 0.08681514 -0.028237958 0.07858587 -0.065967396
0.03761268 0.0341546 0.096794546 -0.0645772 0.025654374 0.044203185 0.021729736 -0.054448787
-0.06290874 -0.043741234 -0.015409549 0.10463328 0.0057541537 0.02211554 -0.174026 0.08150481
-0.046719823 0.024972593 0.08442754 -0.080109924 -0.07542125 -0.051627204 0.013892778 -0.084120706
0.0255249 0.03599775 -0.028109357 -0.047376815 0.052663974 -0.14768665 -0.011442344 -0.086473316
-0.052388784 -0.10013651 0.0017696881 0.01927549 -0.034767922 0.046886053 0.052852843 -0.14816459
-0.097396314 0.05323256 0.021419259 0.11014364 -0.112337075 0.04432755 -0.111757755 -0.059409514
00000000: ede8 b73d ca8c bebd a7dd d43d 1370 c4bd
00000010: 9c6d 893d 3069 13bd 2186 503c 5bd2 3f3d
00000020: 6d7a 1c3e c685 9abd 8a26 c9bc 4137 a43d
00000030: 1be1 43bd 02ce 8ebc 9cb0 c83d d0a0 dfbc
00000040: d886 283e 5c07 0d3e e5e9 df3d f517 d7bd
00000050: 1e0b 753d 2213 96bb 923e b7bd 5c58 d83d
00000060: d860 853d 74c0 053e d54e 163e c4a1 963d
00000070: 4dff 91bc 966f 123e d3df 333c f49f fa3d
00000080: c6c1 083e 7b89 313d 2b31 d1bc a296 aa3d
00000090: 7365 04be 982e c53d 084d f33c 9ae0 723c
000000a0: e5b1 0c3d 0d16 383e 229a 013e ae43 633d
000000b0: 7a12 bc3c 2419 61bd dd5b 61bd a587 603d
000000c0: abc4 7cbc 455d 03bb b7cd 1dbb 0ac1 3a3c
000000d0: 00ca 9b3d 2d55 babd 27fd 20bd bacf 273c
000000e0: d138 ae3d 68f6 44bd d905 da3d 8600 d8bc
000000f0: 4188 0c3e efc5 72bd 5703 133e 514d a33c
00000100: 57b0 ec3d 46ac e63b 4926 69bd 2485 e5bb
00000110: 6126 c13d f9be da3d ea05 d7bd 2936 2d3e
00000120: 0f5b e9bd ee20 eb3d cd11 133e 80b8 aa3d
00000130: 1ecf 9cbc e6f3 e9bc caa9 cc3c 40c4 5a3d
00000140: bc52 fbbc 7662 b43d 35a9 0c3e 2d2e 403d
00000150: 605d e13a 3800 e3bc 6f8b f93d af16 5d3d
00000160: 29de 483c 93e6 d63d 8f21 a7bd a0ce 3e3c
00000170: f0c0 3e3d 0109 27bd 305f 28bd e999 623c
00000180: a266 273d 7f83 cd3d ba3f c13b c408 a63d
00000190: a0b1 fdbd f04b 02bc b5c3 d23d cabb a1bd
000001a0: db1d 1fbe 9b6b d43d 2066 21bb 9a67 c9bd
000001b0: 698a 62bc 6ade 283c 7070 95bd a7f9 ee3d
000001c0: 6591 10bd 94f8 90bc f6e5 cabc 8ef3 e13d
000001d0: 8c85 5cbc 9c4d d3bd 504c 1abd 94a8 25be
000001e0: 6b83 0abe 4bce 393d 5b36 0cbd c52c 08be
000001f0: 9ea4 0dbe 7c08 d5bd f799 e1bd 01f0 14be
00000200: 4e3c b4bd 933e 06be 07f2 a93d 4fc5 bcbd
00000210: 3edf 07bd 0afc a4bd 97c5 863d ac96 b13d
00000220: e37a 323d b769 12be 2fad e5bd 677b 02bd
00000230: 23cc b13d 4a53 e7bc a1f1 a03d ea19 87bd
00000240: c10f 1a3d b2e5 0b3d 383c c63d 0d41 84bd
00000250: 1f29 d23c 660e 353d 8f02 b23c b105 5fbd
00000260: 4cd6 80bd 022a 33bd 5578 7cbc f949 d63d
00000270: 578d bc3b a62b b53c df33 32be feeb a63d
00000280: 495d 3fbd 5393 cc3c 59e8 ac3d ac10 a4bd
00000290: 7576 9abd 0c77 53bd 899e 633c 7a47 acbd
000002a0: 9819 d13c 6072 133d 9845 e6bc 310e 42bd
000002b0: 2eb6 573d 2b3b 17be ab78 3bbc ec18 b1bd
000002c0: 9f95 56bd 5f14 cdbd e1f4 e73a a2e7 9d3c
000002d0: cf68 0ebd 970b 403d 397c 583d 75b8 17be
000002e0: b877 c7bd 630a 5a3d 7177 af3c fd92 e13d
000002f0: fb10 e6bd ce90 353d 40e1 e4bd 6457 73bd

fc2.bias f4 [2]
0.09308746 -0.009454247
00000000: a3a4 be3d fce5 1abc
