input/05_cnn_qsar/01_featurize/01_featurize_fda_world/02_CNN/run_files_0.1/model_0.pth (torch, 634400 bytes, 20 tensors)

conv1.weight f4 [128, 1, 11, 42]
000000 03 95 21 3d f4 5e 02 bd f8 ae aa 3c fe 38 4c 3c
       0.03944875 -0.031828836 0.020835385 0.01246476
000010 8d 55 22 3d 85 09 ad bb 2b dd 73 bc 97 18 38 bd
       0.03963237 -0.005280676 -0.0148842735 -0.044945326
000020 8c 6e 11 3d c7 8d ff 3c f2 a5 09 bd 6f 58 16 3c
       0.035505816 0.031195534 -0.033605523 0.009176358
000030 f7 ea 0c 3d 3e 27 02 bd 32 82 8b 3c b3 2b c7 bc
       0.034403767 -0.031775706 0.017029855 -0.02431283
000040 45 52 50 3d 45 09 9a bc 5c b3 90 3c 5b 37 2c 3d
       0.05085971 -0.018803248 0.01766365 0.04204498
000050 a5 d5 33 3d be a4 fd bc 67 39 3d 3b cc 69 ee bb
       0.04390492 -0.030962344 0.0028873326 -0.0072757956
000060 1a 58 3c 3d 1d ac 1e 3d 87 8f 06 3d c6 40 05 3c
       0.045982458 0.03873836 0.032851722 0.008133119
000070 83 ce 9e bb 84 93 6a bc eb d5 71 3c 60 51 0f bc
       -0.0048463955 -0.014317397 0.014760475 -0.008747429
000080 cd 0b 13 bd 8b bf 36 3d 6e f7 39 bd a7 e9 1a 3d
       -0.035899926 0.044616263 -0.045401983 0.037820484
000090 a7 06 5e bc 28 54 0f 3c 01 38 b4 bc 0b da fb bc
       -0.013551391 0.008748092 -0.021999361 -0.03074362
0000a0 e3 a0 15 3c cc ad 49 3d 61 0e 47 bd a7 81 14 3d
       0.009132597 0.04923801 -0.048597697 0.03625646
0000b0 43 0f 26 bd ff fb f1 3c 82 d5 0c 3d 2e 23 0f bd
       -0.0405419 0.029539106 0.034383304 -0.03494566
0000c0 d4 4c 12 bd fe e6 1f bd 93 94 39 3c 15 88 03 bd
       -0.0357178 -0.03903865 0.011326927 -0.0321122
0000d0 7e 67 4a bd 49 9c f6 3c 62 fa 49 3d 2d a0 e5 bb
       -0.049415104 0.03010382 0.04931105 -0.00700762
0000e0 c0 d2 b8 3a eb 2d 32 bd 55 4a af 3c a2 ac f4 bc
       0.0014100894 -0.043500822 0.021397749 -0.029867474
0000f0 b0 05 ff 3c cb 8b 75 ba bd 29 4f bc d2 44 22 3d
       0.031130642 -0.0009366839 -0.0126442285 0.039616413
000100 ff 01 0f bd 1f 8d 78 bc 1e 98 90 bc e2 75 2a bd
       -0.034914013 -0.015170365 -0.01765066 -0.041616328
000110 1c 5d 95 bc f7 fe f9 3c 9c f5 97 bc c9 42 89 bb
       -0.018232875 0.030517085 -0.018549733 -0.0041888696
000120 60 7a 8f 3c 40 3f 8d bc 1a 07 16 3d 4d be 57 bc
       0.017514408 -0.017242074 0.036627866 -0.01316793
000130 bd 38 2d 3d 07 ea c8 3c 96 29 3e bc 94 98 99 bc
       0.042290438 0.024525655 -0.011606595 -0.018749513
000140 16 a5 e8 bb 1f 3c 70 bc a0 0f 52 3c 3e 32 aa bc
       -0.007099758 -0.0146627715 0.012821108 -0.02077591
000150 2a 53 37 3d 2c fc 5b bc dd 9a 10 3a 9f 03 24 bc
       0.044757046 -0.013426822 0.00055162405 -0.010010629
000160 c5 ff 92 3c cd 02 16 3d 6b 7e 5e bd 4c 9c 31 bd
       0.017944226 0.036623765 -0.05431978 -0.043361947
000170 d2 5d 99 3c 86 da 1b bc 6c 0f 8f bb 68 4b 71 3c
       0.018721495 -0.009512549 -0.004365852 0.014727451
000180 a4 69 72 ba 54 bb 38 bd 1c 46 e2 bc c6 cf e3 3c
       -0.0009247309 -0.045100525 -0.027621321 0.027809035
000190 39 a8 55 bb 46 cb 0d bd 82 2b 26 3d 67 ed c6 bc
       -0.003260149 -0.034617685 0.040568836 -0.024283124
0001a0 61 03 fd ba 1b 3a 4c bd 1e 30 3b 3d da 9b 00 bd
       -0.0019303375 -0.0498601 0.045700185 -0.03139863
0001b0 be 15 8a 3c 86 ed a5 3c 16 d7 33 bd 04 5a 1f bd
       0.01685607 0.020254862 -0.043906294 -0.038904205
0001c0 26 2d d8 3c 11 e1 a1 3b 83 0d 0e bc 15 47 99 bc
       0.026388716 0.00494016 -0.008670214 -0.018710652
0001d0 ea 42 c3 bc 76 7b a7 3c 99 ac 6b 3a 05 6b 3b bd
       -0.023835618 0.020444613 0.00089902576 -0.04575636
0001e0 ed d0 ba 3c 2c af 0b bd 0f 21 28 bc f2 a6 ab bc
       0.022804702 -0.034102604 -0.010261788 -0.02095363
0001f0 86 c1 1d 3d d4 dc 12 3d b8 00 0d bc 03 bd 39 bc
       0.038514636 0.03585513 -0.008606128 -0.011336568
000200 50 df 13 bd aa a8 ad 3a 91 cc 10 bb 1f 40 33 bd
       -0.03610164 0.0013249118 -0.0022094587 -0.043762323
000210 e0 f3 dd bc 80 60 0b 3d f3 6a 64 bc af 7c 49 bd
       -0.027093828 0.034027576 -0.013941514 -0.049191173
000220 23 d4 66 bc f5 03 ab 3c f3 5c db 3c 48 23 28 bd
       -0.014088663 0.02087591 0.02677772 -0.04104927
000230 23 e7 e9 bc 9f 8e f3 bc b7 46 0d bc 78 70 30 bc
       -0.028552597 -0.029731093 -0.008622817 -0.010769002
000240 3a 6e 90 3c 64 cf 39 bd d6 7d 1a 3c bc 7f 46 bc
       0.017630685 -0.0453638 0.009429416 -0.012115415
000250 e2 7b c5 3c 54 44 0a 3d c7 d6 ec bc fd 8e 20 3d
       0.024106923 0.03375657 -0.028911008 0.039198864
000260 16 6e cb b9 93 72 2b bc 95 08 ea 3c c2 64 24 3d
       -0.00038801198 -0.010464328 0.028568545 0.040135153
000270 ff 25 00 bd 50 82 1e bd 83 67 b8 3a ee 4c 4d 3c
       -0.031286236 -0.038698494 0.0014068935 0.0125305485
000280 14 38 07 bd 1c 33 81 3c 64 fd 65 bc e5 7b 2f 3c
       -0.033012465 0.015771441 -0.014037464 0.010710691
000290 59 bd 0f 3c e3 a1 bb bc 84 55 e5 3c b0 73 43 3d
       0.008773171 -0.022904342 0.027994879 0.04771775
0002a0 e6 31 e0 3c cb 59 91 bc 9d 9d 31 3d b8 b6 f2 bc
       0.027367543 -0.017743012 0.043363202 -0.029628143
0002b0 81 9c 8c 3b 52 80 ec 3c c3 bb de bc f2 86 0b 3c
       0.0042911177 0.028869782 -0.027189141 0.00851606
0002c0 38 19 fe 3c 13 1c c7 bc ca f4 bd 3c 7a a7 c8 bc
       0.031017885 -0.024305379 0.023188014 -0.024493922
0002d0 b1 0d 26 3d ed ff d2 3c d1 35 ca ba 00 27 da bc
       0.0405404 0.0257568 -0.0015427415 -0.026629925
0002e0 1a 33 5d bc f9 43 af 3b a4 f8 a7 3c d6 20 c1 3c
       -0.013500953 0.005348679 0.020504303 0.023575228
0002f0 55 fb 7c 3c c0 63 ce bc 53 60 49 bc ca 4f 82 3c
       0.015440782 -0.025194049 -0.012291032 0.015907187
000300 78 51 01 bd b9 33 30 3d 77 1c 2c bd 54 95 81 3c
       -0.031571835 0.043018077 -0.042019334 0.015818276
000310 3d ee 3d 3d 4c 0f 97 3c fe d3 fe bc d8 87 fd 3c
       0.04636978 0.018439911 -0.031106945 0.030948564
000320 fb fb 6b 3c af 95 ad ba e9 48 a3 3c 1e de f9 bc
       0.014403339 -0.0013243462 0.019932227 -0.030501422
000330 50 55 20 3d 8c 75 2c 3d ab 4e bb bc d2 df e9 bb
       0.03914386 0.04210429 -0.02286466 -0.007137277
000340 25 70 1f bd bf 14 cd bc 9e d1 b9 bc a3 47 16 3d
       -0.03892531 -0.025034307 -0.022682961 0.03668941
000350 20 1a 17 bd fa 45 9a 3b 2a ca ca 3c f7 1a 21 bd
       -0.03689015 0.004708049 0.024754602 -0.039332356
000360 bc 0e 55 3c 9d 5b 32 bd 70 2f d0 3c 32 7f 50 bc
       0.013004001 -0.0435444 0.025413245 -0.012725638
000370 27 29 f8 bc f7 b8 30 bd c1 5e 44 3d a3 4d 89 3a
       -0.03029306 -0.043145146 0.047941927 0.0010475408
000380 d5 89 38 bd 2d 55 0a bd 13 14 eb bc 83 c0 92 3c
       -0.045053322 -0.033772636 -0.028696096 0.017914062
000390 d8 f1 ef 3c fd 6c a4 bc 3a c0 2f bd 5c c2 1e 3c
       0.029290125 -0.0200715 -0.04290793 0.009689894
0003a0 95 92 25 bd 25 07 60 ba e2 7b 34 3d df 4f 97 bb
       -0.040422995 -0.00085459865 0.044063456 -0.0046176757
0003b0 05 d7 0a bd 68 92 86 3c 9e 50 50 3d 55 0b 24 3d
       -0.033896465 0.016427234 0.050858133 0.04004987
0003c0 6c 1a 2c bd 4b b2 1f bd ee 65 08 bc 56 13 dd bc
       -0.042017385 -0.038988393 -0.008325083 -0.02698676
0003d0 2b 7c 0d 3c c3 96 f1 3c 03 7d d9 bb 7d 30 a0 3a
       0.008635561 0.029490834 -0.006637217 0.0012221482
0003e0 81 2d aa 3b ce 3f a0 bc 94 68 5d bb 5f cc 24 bd
       0.005193413 -0.019561674 -0.0033784257 -0.040233966
0003f0 2e bf 6c 3c b9 fe 1d 3d 00 3c d1 bc 66 72 10 bc
       0.014449878 0.038573 -0.025541306 -0.008816337

conv1.bias f4 [128]
000000 e2 f0 f9 3c 3f 95 c5 bc cb b7 21 bd 63 43 22 3d
       0.03051037 -0.024119018 -0.03948192 0.039615046
000010 11 de c0 bc ab 5b e7 bc 9d a1 b2 3c bf 14 1b bd
       -0.02354339 -0.028241953 0.021805579 -0.037861582
000020 04 2a 13 bc ae c8 bc bc ab 02 88 3c 28 35 4e bd
       -0.008982185 -0.02304491 0.016602835 -0.050343663
000030 38 90 90 bb fd 6b 1e bc d4 3c 28 bd 1d 1b 25 3d
       -0.0044117235 -0.009669301 -0.041073635 0.04030906
000040 3b ab 07 3d 48 c9 88 3c a0 6a 11 bd 98 a5 01 3d
       0.033122282 0.01669754 -0.035502076 0.031652063
000050 8f 94 58 3c 6f a2 6f bb 64 92 e3 bc 16 d8 2f bd
       0.013219013 -0.0036565324 -0.027779765 -0.042930685
000060 8e 56 4d bb 9b 96 18 3d 27 3b e3 3c 6a 08 2f bd
       -0.0031332108 0.037253004 0.027738167 -0.042732634
000070 e8 28 3e bc 28 50 2c bc 14 ab fc bc b4 1f dd 3c
       -0.0116064325 -0.010517158 -0.030843295 0.026992656
000080 b5 eb 39 3d a9 c9 19 bd 61 69 02 bd 8d dc 74 3c
       0.045390803 -0.037545834 -0.03183878 0.0149451615
000090 30 1f 6c 3b a0 22 33 bd 28 79 2d 3d d1 c6 21 bd
       0.0036029331 -0.043734193 0.04235187 -0.039496247
0000a0 d0 52 29 37 20 cd 1e bc 3e 30 28 3b d3 88 8a bc
       1.0092466e-05 -0.00969246 0.002566352 -0.016910946
0000b0 e7 85 9a bc 76 40 0d 3d ff 76 1e bd 2d 4d 34 bd
       -0.018862678 0.034485303 -0.038687702 -0.044018913
0000c0 99 6a 03 3d 6b 2f 6b 3c 0c 72 9a bb b7 25 9f bc
       0.03208408 0.014354567 -0.0047133025 -0.019427164
0000d0 bf bd ed bb ab 57 17 bc 8a 24 c5 3c e7 97 c4 bc
       -0.0072552855 -0.00923721 0.024065275 -0.023998214
0000e0 b4 6c 57 3c 09 3e 8c 3c a3 3c ce 3c 9c b4 13 bd
       0.013148475 0.017119424 0.025175398 -0.036060914
0000f0 5f 19 92 3c 17 17 b5 3c 68 98 d0 bb 35 f2 33 bc
       0.017834364 0.022105737 -0.0063658245 -0.01098304
000100 af 35 81 bc bb 65 de 3c 6b dd a5 3c fc aa ad bc
       -0.015772669 0.027148118 0.020247182 -0.021199696
000110 fa 97 44 3c ba f7 2c 3c 3f 76 a5 3c 21 67 28 3d
       0.011999125 0.0105571095 0.020197986 0.041113976
000120 51 2e 34 bd 45 67 2e 3d ee e6 6b bc d3 7b 28 3d
       -0.043989483 0.042578954 -0.01439832 0.041133713
000130 ba d3 f0 bc 24 44 40 3d aa d8 ef 3c ce 2e 86 bc
       -0.029397834 0.046939984 0.029278118 -0.01637974
000140 50 51 26 bc 75 b7 01 3d c5 e6 0d bd 56 07 16 3d
       -0.010151222 0.0316691 -0.034643907 0.03662809
000150 30 ef 2d bd dd b0 05 bd a5 4f 46 bd 47 6f 0f 3d
       -0.042464435 -0.032639373 -0.0484158 0.03501823
000160 51 fa 22 bd f5 a6 4f bd 35 2a 99 bc 93 24 8f bc
       -0.0397895 -0.050696332 -0.018696884 -0.017473495
000170 c0 36 16 3d 74 c9 9a 3c 94 f7 bc bb db fe 21 3d
       0.036673307 0.018894888 -0.0057668183 0.03954969
000180 d4 8c 11 3d 94 02 f4 3b a4 6b 9c 3b f4 d4 ef bc
       0.035534695 0.0074465964 0.004773574 -0.029276349
000190 48 d7 0c 3d 98 cf 7e bc e9 ed 78 3b 43 79 79 3c
       0.034384996 -0.015552424 0.0037983602 0.015226665
0001a0 e6 2e dd 3c 9a 86 8a 3b cb 3e 78 bc 14 87 30 bc
       0.026999902 0.0042274715 -0.01515169 -0.010774393
0001b0 2f d2 9c 3b bd ee 80 bc da 78 ca bc 9f 0f a3 3c
       0.004785798 -0.01573884 -0.02471583 0.01990491
0001c0 72 f5 1f bd 05 11 83 bb 52 53 ad 3c aa f6 4d 3d
       -0.039052434 -0.0039998316 0.021157894 0.050284065
0001d0 c8 0f 05 3b 3e f6 01 bd 6b d3 af bc 62 43 15 bd
       0.0020303596 -0.031728975 -0.021463117 -0.036441214
0001e0 ed bd e3 bc 65 b8 c1 bc 6c 81 f0 bc 83 c7 a4 bc
       -0.027800525 -0.023647496 -0.029358588 -0.020114666
0001f0 89 35 29 bc 2f 59 2f 3d 22 8d 91 bb c5 3f 20 bc
       -0.010327705 0.04280966 -0.004441873 -0.009780829

bn1.weight f4 [128]
000000 d9 39 7e 3f 00 d9 80 3f ca 7d 80 3f e5 e3 80 3f
       0.9930702 1.0066223 1.0038388 1.0069548
000010 06 1e 7e 3f 4b ba 80 3f b4 ec 80 3f d2 63 7f 3f
       0.9926456 1.0056852 1.0072236 0.9976169
000020 c7 6d 7d 3f a3 1e 80 3f 7b 8c 7f 3f e6 51 7e 3f
       0.9899563 1.000935 0.9982373 0.9934372
000030 f0 14 80 3f a8 32 80 3f c6 52 80 3f cc 89 80 3f
       1.000639 1.0015459 1.002526 1.0042052
000040 ce 31 80 3f b5 dc 7e 3f f5 11 80 3f 83 d5 7f 3f
       1.0015199 0.9955552 1.000548 0.9993517
000050 2e 77 7e 3f 10 74 80 3f 1c ee 80 3f a5 5e 7e 3f
       0.99400604 1.003542 1.0072665 0.99363166
000060 eb 82 7f 3f 25 84 7f 3f 8d 8d 80 3f 38 4a 80 3f
       0.9980914 0.9981101 1.0043198 1.002265
000070 49 bf 7d 3f 5f 59 7e 3f 17 74 80 3f 55 8d 7e 3f
       0.99120003 0.9935512 1.0035428 0.99434406
000080 6c 4a 81 3f 39 d5 80 3f fe b2 7e 3f 83 ba 7e 3f
       1.0100837 1.006507 0.9949187 0.99503344
000090 d2 46 7e 3f bd 1a 7e 3f 9d ab 80 3f 87 cd 7d 3f
       0.99326813 0.9925955 1.0052372 0.99141735
0000a0 b2 24 7e 3f 08 76 80 3f f6 93 7f 3f 50 65 80 3f
       0.9927474 1.003602 0.99835145 1.0030918
0000b0 c3 20 7f 3f 6e 10 81 3f 0e 22 80 3f b2 bf 7d 3f
       0.99659365 1.0083139 1.0010393 0.9912063
0000c0 3e 71 80 3f d8 37 80 3f 48 fa 80 3f e4 11 7f 3f
       1.0034559 1.0017042 1.007638 0.99636674
0000d0 55 7d 7e 3f e0 ee 80 3f bc 77 80 3f 67 a4 7d 3f
       0.9940999 1.0072899 1.003654 0.99078983
0000e0 8d e1 7f 3f 87 07 80 3f f0 ed 7f 3f 82 59 80 3f
       0.9995354 1.0002297 0.9997244 1.0027316
0000f0 d4 07 80 3f 93 fa 7f 3f 99 7c 80 3f f9 f6 7e 3f
       1.0002389 0.9999172 1.0038024 0.995956
000100 d5 c9 80 3f b5 04 80 3f ce 1f 80 3f 81 da 7d 3f
       1.0061594 1.0001436 1.0009706 0.99161536
000110 5b ee 7e 3f 50 0d 7f 3f 41 30 80 3f 91 2a 80 3f
       0.9958245 0.9962969 1.0014726 1.001299
000120 b2 28 81 3f e9 95 7f 3f 60 55 80 3f ac 6f 80 3f
       1.0090544 0.9983812 1.0026054 1.003408
000130 41 95 80 3f e6 54 81 3f be 6f 80 3f 86 13 80 3f
       1.0045549 1.0104034 1.0034101 1.0005958
000140 f5 1b 7e 3f 81 d3 80 3f a9 af 7e 3f 43 a1 80 3f
       0.9926141 1.0064546 0.99486786 1.0049213
000150 e9 60 7e 3f 0e 07 80 3f 70 7a 7e 3f 0e de 7e 3f
       0.99366623 1.0002153 0.99405575 0.9955758
000160 1c 64 80 3f 70 66 7f 3f 8d c6 7f 3f 8a 13 80 3f
       1.0030551 0.9976568 0.9991234 1.0005963
000170 da 6b 7f 3f d2 a0 80 3f b5 f3 80 3f b8 54 7f 3f
       0.99773943 1.0049078 1.0074373 0.99738646
000180 a0 82 7e 3f 8c 3f 80 3f dc 18 80 3f dd ae 80 3f
       0.9941807 1.0019393 1.0007586 1.0053364
000190 5d e1 7e 3f fb 29 7f 3f 97 9a 80 3f 1a d7 80 3f
       0.9956263 0.9967343 1.0047177 1.0065644
0001a0 34 bd 7f 3f c3 4f 80 3f 8b 8f 7e 3f f0 7a 80 3f
       0.99898076 1.0024341 0.9943778 1.0037518
0001b0 6a 69 80 3f 15 ee 80 3f 9a c5 80 3f 4b da 7f 3f
       1.003217 1.0072657 1.0060303 0.99942464
0001c0 42 d6 80 3f 25 6d 80 3f 80 b9 7f 3f 1e b6 80 3f
       1.0065386 1.0033308 0.99892426 1.0055578
0001d0 89 90 7d 3f dd 2a 7f 3f b6 65 7f 3f d8 68 80 3f
       0.9904867 0.9967478 0.99764574 1.0031996
0001e0 c3 0b 7f 3f 5e 8f 80 3f 5a 2a 80 3f 7e a0 7e 3f
       0.9962732 1.0043752 1.0012925 0.9946364
0001f0 76 af 7f 3f 83 60 80 3f 60 d9 7e 3f 7b e5 7e 3f
       0.9987711 1.0029453 0.9955044 0.9956891

bn1.bias f4 [128]
000000 a0 9a ae bb 1d e7 03 3b 54 cf 10 ba f2 fb f1 3b
       -0.0053284913 0.0020126768 -0.00055240584 0.0073847705
000010 fe 1d 00 3a 34 c0 67 3b 2b 15 54 bb 6f 0c 6d 3a
       0.00048872817 0.0035362365 -0.003236125 0.0009042685
000020 65 66 c4 bb b3 46 70 3b a9 50 d6 3b 33 35 ca bb
       -0.0059936517 0.0036663234 0.006540377 -0.0061708926
000030 71 fb 2c bc ef 4b b4 3b c0 89 b5 3b 0d 63 82 bb
       -0.010557995 0.005502216 0.0055401027 -0.003979093
000040 8b f0 25 3c ef 55 da bb d6 49 cd bb 77 39 d6 b9
       0.010128151 -0.006663076 -0.0062649054 -0.00040860075
000050 93 82 bc 3b e6 f1 7c bb 30 1f 8f 3b 09 6b da bb
       0.0057528703 -0.003859633 0.0043677315 -0.0066655916
000060 39 08 48 bb 58 f0 93 bb a5 3c 41 bb 8e 44 d0 bb
       -0.003052248 -0.004514735 -0.002948561 -0.0063558286
000070 49 7d ef ba 17 1c de bb 60 6a 44 3b c4 2d 90 3b
       -0.0018271591 -0.006778251 0.002997063 0.004399987
000080 23 f9 c6 3b 4c eb 3b ba ef cc f1 3b 13 7a ae bb
       0.00607218 -0.0007168546 0.0073791663 -0.005324611
000090 4d 05 b4 3b 63 35 d4 bb 23 a8 a7 3b 90 20 a0 bb
       0.005493796 -0.0064760908 0.005116479 -0.0048866943
0000a0 30 61 6a 3b e3 48 21 3a 2b 15 a7 bb 4e a1 da bb
       0.0035763495 0.00061525236 -0.005098959 -0.006672061
0000b0 6b af 9d 3b bf ca a6 bb 42 8a 18 bb 05 e7 12 bb
       0.004812171 -0.005090087 -0.0023275767 -0.002241553
0000c0 74 80 14 bb e6 a1 a4 3a 4c 0f f0 39 78 43 e9 b9
       -0.0022659572 0.0012560457 0.00045787764 -0.0004449149
0000d0 d4 18 bd bb 79 78 38 3b aa ce c0 3a 01 7c 0a 3b
       -0.005770782 0.002814798 0.0014710028 0.002113104
0000e0 94 d3 f5 37 95 6c 01 3c 1f 4e c3 bb 9d d5 23 3b
       2.93048e-05 0.007899423 -0.0059602405 0.002499915
0000f0 98 22 21 bc b7 27 c6 bb a4 06 0c 3a 94 de c2 bb
       -0.009834908 -0.006047215 0.00053415657 -0.0059469435
000100 d3 45 99 3b 03 e6 f8 ba 33 0f 91 3b ca e2 d7 bb
       0.004677513 -0.0018989447 0.0044268607 -0.0065883147
000110 3f 85 68 bb e1 8c 26 bb 97 84 5d bb 82 72 3a bb
       -0.0035479811 -0.002541356 -0.0033800954 -0.00284496
000120 db e0 08 3c c2 c2 38 3b 8e 2f 8d 3b 1a cc 0a bb
       0.008354391 0.0028192257 0.0043086475 -0.0021178783
000130 52 32 09 3c 3a 31 e4 3b ec 78 c9 3b 19 82 97 bb
       0.008373814 0.006963876 0.006148448 -0.004623663
000140 b8 17 8d ba cf 74 d2 3b 6c cf b0 bb 6c 15 50 bb
       -0.0010764515 0.006422616 -0.0053958204 -0.003175105
000150 d1 bd 3f bb 88 b6 14 3b 57 6f 8f bb 69 06 98 ba
       -0.0029257427 0.0022691805 -0.0043772864 -0.001159859
000160 6c 5d c0 b9 84 aa 5a ba d9 d9 c0 39 6d 32 27 3b
       -0.00036690698 -0.0008341449 0.00036783403 0.0025512234
000170 24 c3 2d 3b 5f 20 da 3b 38 c1 81 ba 5c ba b5 3b
       0.0026514018 0.006656691 -0.0009899503 0.0055458974
000180 b5 3c e9 3b 31 ac f0 ba 42 95 30 bc 91 c8 c4 ba
       0.0071178325 -0.0018361864 -0.010777773 -0.0015013387
000190 5b f7 c1 3b 66 94 71 bb e1 82 7a 3b e1 3b 6f 3b
       0.0059193796 -0.0036862134 0.0038224983 0.0036504196
0001a0 82 cb a4 3a 04 8a 12 bc 2c 0c b7 bb 14 c2 7f 3b
       0.0012572857 -0.008944038 -0.005586168 0.0039025592
0001b0 81 22 da ba 41 13 3b bb 4e 4c 9c 3a 81 cf 36 bb
       -0.0016642363 -0.0028545412 0.0011924596 -0.0027894678
0001c0 0e 96 80 3b 0c ab 98 bb 45 c6 30 bb 7e 79 a9 3b
       0.003924138 -0.0046590623 -0.0026973647 0.0051719537
0001d0 d0 a0 36 bb 4f 1f 03 bb 64 40 0b 3b 69 a9 9c bb
       -0.0027866848 -0.0020007675 0.0021248097 -0.0047809375
0001e0 28 46 90 3b a0 0a 08 3b e8 f6 75 3b c3 69 cf bb
       0.0044028945 0.0020758286 0.00375312 -0.0063297465
0001f0 fa e2 9d bb 4b a4 c1 ba 38 ef 07 bb 8a 90 94 bb
       -0.0048183175 -0.0014773695 -0.002074195 -0.004533832

bn1.running_mean f4 [128]
000000 52 ac 88 3c 39 30 97 bc 70 06 e2 bc f3 30 13 3d
       0.016683731 -0.018455612 -0.02759096 0.035935353
000010 82 5c 80 bc fb ae d5 bc 3e 33 6c 3c c7 ee d5 bc
       -0.015669111 -0.026084414 0.014416514 -0.026114834
000020 e5 1e 97 bc 14 98 e2 bc ff cf 33 3c 00 99 33 bd
       -0.018447349 -0.027660407 0.010974883 -0.043847084
000030 dc 90 7d 3b 54 40 68 bc 71 4b 39 bd 43 4d 0f 3d
       0.003869108 -0.014175493 -0.045237962 0.034985792
000040 55 81 7a 3c 71 e1 ef 3b 68 ee ff bc 0a 89 84 3c
       0.015289624 0.007320576 -0.03124161 0.016178627
000050 0a 4a a9 ba 86 08 7d bb 5d 9c 56 bc 51 41 0c bd
       -0.0012915742 -0.0038609817 -0.013098803 -0.034241978
000060 93 9b 3b bc cd b1 08 3d a9 7f a5 3c 94 99 16 bd
       -0.011450666 0.03337269 0.020202475 -0.036767557
000070 d4 c2 0d bc 45 b1 8f bc 8d cd 56 bd 03 a3 78 3b
       -0.008652408 -0.017540583 -0.052442122 0.003793896
000080 28 3a cb 3c 13 11 20 bd 16 f0 36 bc 49 74 72 bb
       0.024808004 -0.039078783 -0.011165639 -0.003699558
000090 39 4f e8 3c ca a7 01 bd 6b 09 19 3d 81 16 40 bd
       0.028358089 -0.031654157 0.037362497 -0.04689646
0000a0 3a c3 95 bb f6 20 a7 bb b4 7c 69 3a 0c 08 5d bc
       -0.004570392 -0.005100365 0.0008906827 -0.013490688
0000b0 3b 65 73 bc 16 a2 ef 3c ae 71 06 bd 47 83 11 bd
       -0.014855678 0.029252093 -0.032823257 -0.035525586
0000c0 26 47 01 3d 8f 62 8c 3c ac 69 39 3b f9 cd 0f bd
       0.031561993 0.01713684 0.0028291745 -0.03510854
0000d0 68 b1 e0 bb 16 2f 54 bc 13 d0 fb 3c cf da 62 bc
       -0.006857086 -0.012950679 0.030738866 -0.013846113
0000e0 af 7f 1d 3c 4a ce 11 3b 82 35 02 3c 1f a9 be bc
       0.009612962 0.0022248202 0.007947328 -0.023274003
0000f0 05 cb 28 3c d5 f3 99 3c 54 ef cd bb f9 4e cb 3b
       0.01030231 0.018793026 -0.0062846337 0.0062044826
000100 ff 4d 69 bc cd 0e c3 3c 80 12 1a 3c 99 dc 89 bc
       -0.014239787 0.023810768 0.009403825 -0.016828822
000110 94 e3 7d 3b d2 f7 79 39 e8 23 b8 3c bf 8d 04 3d
       0.0038740383 0.00023838811 0.022478059 0.032361742
000120 44 71 d6 bc e9 70 17 3d 65 8b 33 bc f4 d1 18 3d
       -0.026177056 0.036972914 -0.010958527 0.037309602
000130 5d 26 66 bc 05 8a 14 3d 01 86 01 3d 7e ed 43 bc
       -0.014047232 0.03626444 0.031621937 -0.011958478
000140 f4 8d 97 bc e8 c6 15 3d df 82 b7 bc 78 24 ad 3c
       -0.018500306 0.036566645 -0.022401271 0.021135554
000150 59 36 32 bd e9 c4 c5 bc 9e d7 60 bd 38 0b d7 3c
       -0.04350886 -0.024141746 -0.05489313 0.026250467
000160 61 48 09 bd f9 66 cb bc fb c7 91 bc 19 05 16 bc
       -0.03351629 -0.024829375 -0.017795553 -0.009156489
000170 c4 b6 b8 3c ce 75 c3 3c 1e 6b 0c b9 d6 50 e3 3c
       0.022548087 0.023859885 -0.00013391345 0.027748507
000180 2e d1 17 3c 01 ea 10 3c d6 a1 b7 3b f7 27 b4 bc
       0.009266181 0.008844853 0.005604009 -0.021991713
000190 95 69 88 3c b7 bc bc bc 4c d4 01 b8 20 6c a8 3c
       0.016651908 -0.023039205 -3.0953714e-05 0.02055937
0001a0 c7 12 da 3c fe a8 83 3b bd bd a5 bc 3a 3f 08 bc
       0.026620282 0.004017948 -0.020232076 -0.008315856
0001b0 58 90 a7 3b 77 83 61 bc 07 0b 44 bc e1 14 3f 3c
       0.0051136427 -0.013764254 -0.01196552 0.011662693
0001c0 0b 30 44 bd be 31 a2 ba b1 86 d9 3b 83 91 41 3d
       -0.04789738 -0.0012374443 0.006638371 0.04725791
0001d0 2c 79 82 bc f8 cf db bc e3 2e e6 bc ed 79 f0 bc
       -0.01592692 -0.026832566 -0.02809853 -0.029355014
0001e0 8a 86 fe bc 57 c1 50 bc 38 d5 e8 bc c0 b5 7a bc
       -0.031070013 -0.012741408 -0.028421983 -0.015302122
0001f0 83 56 2c bc b1 54 03 3d 40 a1 94 bc b2 f3 55 bc
       -0.010518673 0.03206319 -0.018143296 -0.01305859

bn1.running_var f4 [128]
000000 41 79 40 3e d0 87 3f 3e 20 c8 3f 3e 48 8f 3f 3e
       0.18796255 0.18704152 0.18728685 0.18707001
000010 16 38 3f 3e f2 02 40 3e 0e 6e 3f 3e 3d a2 3f 3e
       0.18673739 0.18751124 0.18694326 0.18714233
000020 c0 c7 40 3e 8d d9 3f 3e 2e fa 3f 3e c7 b1 3f 3e
       0.18826199 0.18735333 0.1874778 0.1872016
000030 03 1d 41 3e 39 9f 40 3e 8d e8 41 3e 05 b1 40 3e
       0.18858723 0.18810739 0.18936367 0.18817528
000040 c8 07 40 3e 02 52 40 3e db f2 3f 3e 16 39 40 3e
       0.18752968 0.18781283 0.18744986 0.18771777
000050 86 c1 40 3e 91 ec 3f 3e 70 14 40 3e b4 e1 3f 3e
       0.18823823 0.18742587 0.18757796 0.18738443
000060 60 4e 40 3e 92 3e 41 3e 14 8d 3f 3e ce c7 3f 3e
       0.18779898 0.18871525 0.18706161 0.18728563
000070 83 a9 3f 3e 12 02 40 3e 0c 55 45 3e 07 c7 41 3e
       0.18717007 0.1875079 0.19270724 0.18923579
000080 7e 3c 40 3e 70 24 40 3e cf 9e 40 3e 3a 80 41 3e
       0.18773076 0.187639 0.1881058 0.18896571
000090 bf 53 44 3e 0c 9c 3f 3e 40 cb 3f 3e f6 4b 41 3e
       0.19172572 0.18711871 0.18729877 0.18876633
0000a0 9b dc 3f 3e 97 38 3f 3e 14 16 3f 3e 77 e8 3f 3e
       0.18736498 0.18673931 0.18660766 0.18741022
0000b0 66 3d 3f 3e 98 bb 3f 3e 5b 9e 3f 3e eb e1 3f 3e
       0.18675765 0.18723905 0.18712752 0.18738525
0000c0 f9 57 3f 3e 71 ff 3f 3e a0 99 3f 3e 16 05 43 3e
       0.18685903 0.18749787 0.18710947 0.19044909
0000d0 39 ae 3f 3e 94 b6 3f 3e 6f 29 40 3e ef 5d 3f 3e
       0.18718804 0.18721992 0.18765806 0.18688177
0000e0 55 90 3f 3e 77 77 40 3e bd d5 40 3e 81 9d 3f 3e
       0.18707402 0.18795572 0.18831535 0.18712427
0000f0 ab ca 3f 3e f0 71 3f 3e 22 56 3f 3e d5 36 41 3e
       0.18729655 0.18695807 0.18685201 0.18868573
000100 51 64 3f 3e 06 e5 3f 3e 00 94 3f 3e 7a 03 40 3e
       0.18690611 0.1873971 0.18708801 0.18751326
000110 d2 ca 3f 3e ec d0 3f 3e f7 10 40 3e 87 13 3f 3e
       0.18729714 0.18732041 0.18756472 0.18659793
000120 bf a5 3f 3e e4 87 3f 3e e8 68 3f 3e 87 e6 3f 3e
       0.18715571 0.18704182 0.18692362 0.18740283
000130 f6 39 40 3e e6 96 3f 3e 90 2a 40 3e ee 0a 3f 3e
       0.1877211 0.18709907 0.18766236 0.18656513
000140 39 31 40 3e 3e 2f 40 3e 1e 18 40 3e 87 9f 3f 3e
       0.18768777 0.18768021 0.187592 0.18713199
000150 f3 5e 40 3e ea 7f 3f 3e bb 5f 41 3e 42 61 3f 3e
       0.1878622 0.18701139 0.18884175 0.18689445
000160 f2 69 3f 3e c2 e2 40 3e e6 c3 3f 3e 1c db 3f 3e
       0.18692759 0.18836501 0.18727073 0.18735927
000170 e9 e3 3f 3e 7a f9 3f 3e 7a e9 3f 3e eb 96 3f 3e
       0.18739285 0.18747512 0.18741408 0.18709914
000180 c7 ed 41 3e 13 76 3f 3e ff 92 3f 3e 23 1c 3f 3e
       0.18938361 0.18697385 0.18708418 0.18663077
000190 58 8f 40 3e b0 1b 40 3e 2c 94 3f 3e c5 ad 3f 3e
       0.18804681 0.18760562 0.18708867 0.18718632
0001a0 07 61 3f 3e 1e bb 3f 3e c5 1a 40 3e 30 7b 3f 3e
       0.18689357 0.18723723 0.18760212 0.18699336
0001b0 95 47 3f 3e 80 d7 3f 3e 27 65 40 3e 8d 7b 3f 3e
       0.1867965 0.1873455 0.18788587 0.18699475
0001c0 2f db 41 3e c9 37 3f 3e 98 c3 40 3e 60 b2 3f 3e
       0.18931268 0.18673624 0.18824613 0.18720388
0001d0 16 67 41 3e 4c b6 3f 3e 7d 24 41 3e 41 84 3f 3e
       0.1888698 0.18721884 0.18861575 0.18702795
0001e0 89 12 40 3e ae f7 3f 3e db cd 3f 3e 8d 1d 3f 3e
       0.1875707 0.18746826 0.18730871 0.18663616
0001f0 96 93 3f 3e f8 96 3f 3e a1 46 41 3e 20 3c 40 3e
       0.18708643 0.18709934 0.18874599 0.18772936

conv2.weight f4 [64, 128, 11, 1]
000000 01 3f a3 bc ff 56 ac bc 17 70 9d 3c 26 02 a8 3b
       -0.019927504 -0.021037577 0.019218488 0.0051272092
000010 01 e9 f3 bc 19 48 9c 3c 2a f3 09 3c 74 71 b2 bc
       -0.02977419 0.019077348 0.008419791 -0.021782614
000020 b2 9a c6 bc 0a 85 cb bc 48 27 fe 3a e3 e3 ca 3c
       -0.024243686 -0.024843711 0.0019390369 0.024766868
000030 25 19 d6 3c 12 be 58 bc 16 05 b4 bc 1e e4 8b 3c
       0.026135037 -0.01322891 -0.021975081 0.017076548
000040 88 e9 8d 3b d5 74 35 3c 51 42 f6 bc 5a 7c d4 bc
       0.0043308176 0.011075218 -0.030060919 -0.025938202
000050 c6 b9 0a 3b b4 16 6d bc f7 a2 30 bc 15 01 c8 bc
       0.0021167859 -0.014470745 -0.010781041 -0.024414578
000060 27 e8 ee bc 95 53 b1 3b aa 48 b9 ba 37 e4 b2 3b
       -0.029163433 0.005411575 -0.0014136035 0.0054593342
000070 bb 0a 12 bc 7d b4 14 39 aa 3b 02 ba 70 34 90 bc
       -0.008913691 0.00014181617 -0.0004967997 -0.01760313
000080 a2 2d d8 bc 5c 50 59 bc 66 15 93 bc 50 09 83 37
       -0.026388947 -0.013263788 -0.01795454 1.5620753e-05
000090 85 e4 54 bc 94 6f 29 bc 44 e4 b7 bc f5 0d 12 ba
       -0.012993936 -0.010341544 -0.022447713 -0.0005571538
0000a0 84 5a 3c 3c 31 36 9f 3c 37 22 88 bb 73 0d e5 bc
       0.01149619 0.01943502 -0.0041544694 -0.027960515
0000b0 5f 30 82 3c e3 6a e7 3b 13 d7 01 bc e6 68 86 bc
       0.015892206 0.0070623024 -0.007924813 -0.016407441
0000c0 af aa 91 bb ee 5d a0 bc ee 55 9b bc 2c 0b f1 3c
       -0.004445396 -0.01957604 -0.018961873 0.029424272
0000d0 bb 92 14 bc 8a 0f 8a 3b e8 ab 10 bb 0a b3 97 bc
       -0.009068186 0.004213278 -0.002207512 -0.01851799
0000e0 b5 82 59 bb 11 95 21 bc c5 6e 63 3c 14 8e df 39
       -0.003318948 -0.0098622 0.01388139 0.0004263973
0000f0 bf 85 32 ba 35 db 82 bc 1e 39 5c 3a f3 f2 52 bc
       -0.0006810091 -0.015973667 0.0008400845 -0.012875306
000100 ff 49 e0 3c ea a8 81 3c 88 8d a1 bc 70 85 d4 3b
       0.027379034 0.015827615 -0.019720808 0.0064856336
000110 26 21 e1 bc b4 0f 3f 3c 39 21 15 3a 81 2b 01 3c
       -0.027481627 0.011661459 0.00056888495 0.007883907
000120 d9 c2 a8 3c 1b ac c5 bc 8c e9 a7 bc d8 8c 76 bb
       0.020600723 -0.024129918 -0.020497106 -0.003762057
000130 08 96 d4 3b ee 0c b2 3c 18 73 10 bc 37 f3 5c 3c
       0.0064876117 0.021734681 -0.008816503 0.013485721
000140 ee 0a e2 bb 87 66 83 bc 13 d5 0e bb 8e 83 e9 bc
       -0.0068982756 -0.0160401 -0.0021794483 -0.028505113
000150 25 29 6c 3c 94 f1 83 bb 16 3c f6 bc 39 24 ce bc
       0.0144141065 -0.004026601 -0.030057948 -0.025163757
000160 bf 8d ec 3a 64 58 93 bc 44 8a 9a bc 0b be 13 bc
       0.0018047615 -0.017986484 -0.018864758 -0.009017478
000170 0b 43 42 3c 9f 1e 49 3a c7 1e 9d bc 07 7d 94 3c
       0.011856805 0.00076721044 -0.019179715 0.018126024
000180 45 ff ab bc 05 66 db ba db e0 cf bc 78 d1 53 bc
       -0.020995745 -0.0016738778 -0.025375774 -0.012928359
000190 b2 8f 67 bc 34 e0 38 3c 8c d0 de bc 3d ed bc 3b
       -0.014133381 0.011283923 -0.027199052 0.0057655857
0001a0 af 25 c8 3b bf d6 94 3c 29 ca 01 3c b9 f1 5f 3c
       0.006108008 0.018168805 0.007921734 0.013668471
0001b0 95 11 f7 bc 33 ed c2 bc 86 55 87 3b 09 22 1f 3c
       -0.030159751 -0.023794746 0.0041300682 0.009712704
0001c0 eb 41 95 3c 3d 7b 03 bd fd 12 99 3c 69 ee 87 bc
       0.018219909 -0.03209995 0.018685812 -0.016593175
0001d0 6d 28 7d 3b 7e de da bc f1 d2 bb bc 67 3d 56 bc
       0.0038628832 -0.02671742 -0.022927733 -0.013076163
0001e0 ca f9 b7 3b 64 9e 90 3b db d0 52 bb ed c2 a6 3c
       0.005614494 0.004413413 -0.0032167945 0.02035662
0001f0 3f f7 08 bc 4a 74 e3 bc fe a5 3a bc 60 31 bd bc
       -0.008359729 -0.027765412 -0.011392115 -0.023094833
000200 3f c0 63 bc 3e d2 6e 3c 7f 42 f2 3a b2 cf d0 bc
       -0.0139008155 0.014576493 0.0018482952 -0.025489662
000210 8b 72 d9 bc a3 36 59 3c 1e 26 67 bc 7c 0d e5 bc
       -0.026543876 0.013257655 -0.014108209 -0.027960531
000220 9c 31 52 3c b9 13 7b 3c b3 f3 82 3a 55 32 8d bc
       0.012829211 0.0153245265 0.0009990841 -0.017235914
000230 ea a9 49 bc ca 16 2e bb 72 2e e2 bc 40 2a dc bc
       -0.012308577 -0.0026563876 -0.027610037 -0.026875615
000240 bc e3 1e bc 8b 87 01 bc 42 24 a3 3c 2d f6 98 3c
       -0.009697851 -0.007905851 0.01991475 0.018672073
000250 1d f2 8e 3c d1 9f d2 3c 72 b4 c1 3c 6c 01 d3 3c
       0.017449433 0.025710972 0.023645613 0.025757514
000260 49 17 66 bc 8e 79 c0 ba ce e6 da 3c 47 a9 64 3b
       -0.014043638 -0.0014684664 0.026721384 0.0034890936
000270 67 97 70 3c e5 94 0e bc d8 bd d2 3a ea c2 29 bb
       0.014684535 -0.008702491 0.0016078306 -0.0025903531
000280 88 af 39 bb aa 7c 11 3c da df 16 bc 52 40 f2 bb
       -0.0028333385 0.00887982 -0.009208644 -0.0073929215
000290 2a 5e a8 3c 0e df bc bc 81 a9 e7 bc c4 1c 3a 3c
       0.020552713 -0.02305558 -0.028279068 0.011359397
0002a0 b1 4e 6c bc d7 00 a0 bc 55 42 48 bc bd bc 70 3c
       -0.014423058 -0.01953165 -0.012222846 0.014693436
0002b0 43 97 9b 3c 4a c5 31 bc 2a 79 d2 bc 28 f8 e2 bc
       0.018993026 -0.01085026 -0.025692541 -0.02770622
0002c0 fb 93 9e bc 9e 0f b2 bc 83 17 06 bc d3 63 4a 3c
       -0.019357672 -0.021735962 -0.008184317 0.0123529015
0002d0 c9 58 d5 bc db f4 a3 3c cc 17 ed 3a bd ac a5 bb
       -0.026043313 0.020014217 0.0018088757 -0.0050559924
0002e0 a0 eb 0f bc 4c fa 98 3c e7 cc 63 bc 6d a7 05 bd
       -0.008784205 0.018674038 -0.013903833 -0.032630373
0002f0 21 8d 42 3c 21 19 21 3c cf 7d 26 3c ff 0c e4 bc
       0.011874468 0.009832651 0.010161831 -0.027838228
000300 c6 83 6d 3b 50 2a 2f 3b 41 c3 89 bc ea 52 7f bc
       0.0036241873 0.00267281 -0.016816737 -0.015583733
000310 b8 19 0e bb 30 89 ca 3b 11 81 c2 3c ed 0a a2 3c
       -0.002168281 0.006180905 0.023743184 0.0197806
000320 ca 95 11 bc 48 f5 b5 bc 01 27 1f 3c 97 a4 46 3a
       -0.00888581 -0.022211686 0.009713889 0.00075776264
000330 0c 8f 36 3c 81 b0 77 3c 3f fd 3a 3c 8c 3d 31 bb
       0.0111425035 0.015117765 0.011412918 -0.0027044741
000340 cd a7 a4 bb 5b 90 45 bb 5b e1 2c bc 45 59 cb bc
       -0.005024886 -0.0030145857 -0.010551776 -0.02482284
000350 3e 83 80 3c 4c da 5e bb 9d fa ef 3b 9f 55 86 bb
       0.015687581 -0.0034004627 0.0073235766 -0.0040995623
000360 d3 84 f2 3b 40 69 2a 3c 59 4c 47 3c a4 56 67 bc
       0.007401088 0.01040107 0.012164199 -0.014119778
000370 f9 89 51 bc 19 47 60 3c c1 80 af bb 56 c6 a9 3c
       -0.012789243 0.013688826 -0.005355925 0.020724457
000380 01 e1 ca 3c c7 3d 86 3b 5b 70 4b ba b1 05 ee 3c
       0.024765493 0.00409672 -0.0007760578 0.029055448
000390 35 65 38 bc c4 84 17 bc 3c 4a bc ba b9 06 b4 3b
       -0.011254598 -0.009247962 -0.0014365385 0.0054939655
0003a0 df c9 23 3c 8c 22 df bb 71 e9 a3 3c f7 7c 85 bb
       0.00999686 -0.006809538 0.020008774 -0.004073735
0003b0 a1 1b a6 bc 16 81 03 bd 58 e9 d6 bb 4c c4 99 3c
       -0.020276846 -0.032105528 -0.0065585785 0.01877036
0003c0 4d c5 83 3c cc 6f 8a bc c2 cc 0d b8 8d b9 b7 3c
       0.016085291 -0.016899012 -3.3807715e-05 0.022427345
0003d0 62 34 dd bb 72 de a9 bc db 32 e3 bc 2f f6 c1 bc
       -0.0067506293 -0.020735953 -0.02773421 -0.02367696
0003e0 3a f1 e1 bb 30 43 0d 3c 70 84 a7 3c 2e a7 6c bc
       -0.0068952115 0.008621976 0.020448893 -0.014444156
0003f0 1b 04 d3 ba 95 76 6e bc 41 88 0f 3c 01 e3 49 3b
       -0.0016099246 -0.014554639 0.008760513 0.003080547

conv2.bias f4 [64]
000000 d6 d4 34 bb 2c 8c c6 3c ac 10 86 3c 50 a7 d6 3c
       -0.002759268 0.024236761 0.016365372 0.026202828
000010 0d 4b 8b 3c a4 12 2e 3b 74 85 98 3b e5 e1 90 bb
       0.01700356 0.0026561404 0.0046545807 -0.00442146
000020 49 ae 9b bb 1e e5 a3 3c 33 31 93 bc 9a 27 b3 3a
       -0.004751001 0.020006713 -0.017967796 0.0013668418
000030 ae a2 55 bc 2a 36 a8 3c cb 1a 22 bc 03 da 37 bc
       -0.013039274 0.02053364 -0.009894083 -0.011221412
000040 7b c2 4c bc c4 ca 04 bc 12 a4 18 ba b3 8c b3 bc
       -0.01249754 -0.008104984 -0.0005822788 -0.021917677
000050 a0 82 29 3c cb 69 81 3b 67 73 38 39 08 c5 4a bc
       0.010346085 0.003949379 0.00017590598 -0.0123760775
000060 6c 6e 2a bc a7 f7 7a 3c 90 53 68 bc 9f 0c db 3c
       -0.010402303 0.015317834 -0.014180079 0.026739417
000070 ad dd ec bb c9 89 25 3c 03 b0 89 bc f3 8e b4 bc
       -0.0072285742 0.010103651 -0.016807562 -0.02204082
000080 ca ca 9a 3c 32 08 9a 3c f3 4f 49 bc 94 04 1b bc
       0.018895525 0.018802736 -0.012287128 -0.009461541
000090 b3 11 eb 3b 3b 7c d8 3b a2 82 57 3b 12 1f a8 3a
       0.007173741 0.0066066063 0.003288426 0.0012826642
0000a0 3b 8d b5 3c 62 af 9a 3c e3 04 f5 b9 5f 88 bd ba
       0.02216207 0.018882457 -0.00046733682 -0.0014460197
0000b0 e7 bb 9f bc 4e 55 cb 3c 84 d2 85 bc e8 b1 a9 bc
       -0.019498779 0.02482095 -0.016335733 -0.020714715
0000c0 a0 16 bb bc 5c 11 b3 3c f1 5f 8f 3c 42 21 89 3c
       -0.022837937 0.021858864 0.017501803 0.016739491
0000d0 bc 64 8a bb b7 ed c4 bb bc 7c 5b b8 7a 23 86 bc
       -0.0042234343 -0.006009783 -5.2329837e-05 -0.016374338
0000e0 63 9e 3b 3b 76 21 54 3b 40 e8 8b bc 0c fd a5 bb
       0.0028628341 0.0032368577 -0.017078519 -0.005065566
0000f0 df 3d 8b bc 84 5d e8 3c 7c e7 99 3c 00 9a f3 bc
       -0.016997276 0.028364904 0.018787138 -0.029736519

bn2.weight f4 [64]
000000 6a b4 7e 3f c6 a1 80 3f 3e 4b 7e 3f c4 a5 7f 3f
       0.9949404 1.0049369 0.9933356 0.99862313
000010 77 b9 7e 3f 22 07 80 3f 12 24 81 3f e3 b4 7f 3f
       0.99501747 1.0002177 1.0089133 0.99885386
000020 77 b9 7e 3f 5b 95 80 3f af dd 7f 3f 98 2c 81 3f
       0.99501747 1.004558 0.9994764 1.0091734
000030 0a 55 80 3f 78 ff 80 3f 7d c3 80 3f 51 da 7f 3f
       1.0025952 1.0077963 1.0059658 0.999425
000040 2e 17 7f 3f 44 fe 7e 3f 32 ff 7e 3f c8 c8 7f 3f
       0.99644744 0.9960673 0.9960815 0.9991574
000050 d0 b3 7e 3f 8e 61 80 3f fb e7 80 3f a9 e9 80 3f
       0.9949312 1.0029771 1.0070795 1.0071307
000060 81 1d 80 3f 45 79 7f 3f 87 2c 7e 3f 0f c3 7d 3f
       1.0009004 0.9979442 0.99286693 0.9912576
000070 5c b7 7d 3f f4 55 80 3f 1e 29 80 3f e3 d0 7f 3f
       0.9910791 1.0026231 1.0012548 0.9992811
000080 3a e3 80 3f c3 2a 7e 3f 39 d7 7e 3f 50 dd 7f 3f
       1.0069344 0.99284 0.99547154 0.9994707
000090 e3 68 7f 3f 25 2c 80 3f ea 20 81 3f 76 b9 7e 3f
       0.9976942 1.0013472 1.008817 0.9950174
0000a0 56 3b 7e 3f 09 25 80 3f a7 ad 80 3f 09 b7 7e 3f
       0.9930929 1.0011302 1.0052994 0.9949804
0000b0 f3 7e 7f 3f f5 09 7e 3f dd 04 81 3f 9b b7 80 3f
       0.99803084 0.99233943 1.0079609 1.0056032
0000c0 fc 34 7f 3f 34 73 7f 3f 0a 79 7e 3f 31 6c 80 3f
       0.9969022 0.9978516 0.9940344 1.0033017
0000d0 12 31 80 3f 38 1c 7f 3f 79 85 80 3f aa b1 7e 3f
       1.0014975 0.99652433 1.0040733 0.99489844
0000e0 4c b9 80 3f 72 b8 7e 3f 3b b3 7e 3f aa b8 7e 3f
       1.0056548 0.9950019 0.99492234 0.99500525
0000f0 91 ba 7e 3f 57 f4 7e 3f 53 f2 80 3f d3 72 7e 3f
       0.9950343 0.99591583 1.0073951 0.9939396

bn2.bias f4 [64]
000000 fd 7d d9 bb 8d 6c 39 bb 67 d3 8c 3b 27 07 8f bb
       -0.0066373334 -0.002829346 0.004297662 -0.0043648663
000010 fa 43 a3 3b 8c dc 3a bb 2d 91 6b 3b 8b 50 99 3b
       0.0049824687 -0.0028512804 0.0035944686 0.004678791
000020 80 41 a3 3b 8c d3 80 bb 8b 43 a3 bb ce d4 df 3b
       0.0049821734 -0.0039314684 -0.004982417 0.006830788
000030 aa 6e a3 3b 0a db 68 bb 73 2e c7 bb 99 cc 84 ba
       0.0049875574 -0.0035530948 -0.006078535 -0.0010131776
000040 82 db c1 3b 8a 56 f9 ba cf a5 fd 39 29 33 1e 3b
       0.00591606 -0.0019022983 0.00048379457 0.002413938
000050 fd 03 3d b9 bb 9c d4 ba a6 90 b1 3b 88 e9 8b 3b
       -0.0001802593 -0.0016221026 0.0054188548 0.0042697825
000060 de 2c 30 39 a8 28 de bb 36 3f a3 3b 1d 43 8a ba
       0.00016801382 -0.006779749 0.0049819006 -0.0010548566
000070 af 73 03 bb 6c d9 b3 ba 13 b7 9c bb 1d f5 15 bb
       -0.0020057966 -0.0013721413 -0.0047825663 -0.0022881695
000080 ee 2a 96 3b 05 b4 6e 3b 18 b9 03 ba 15 44 a3 3b
       0.0045827543 0.0036423218 -0.00050248345 0.0049824812
000090 8c 2d 2e 3b fd 50 5e bb 3d 63 e1 bb 8e 44 a3 3b
       0.002657744 -0.0033922784 -0.006878285 0.0049825376
0000a0 d3 48 d9 bb 20 67 88 ba d7 91 06 bc eb 60 98 3b
       -0.006630996 -0.001040671 -0.008213482 0.0046502254
0000b0 dd 42 a3 3b 61 7d a9 3a 34 94 7e 3b 3e 33 8c bb
       0.004982336 0.0012931043 0.003884566 -0.0042785695
0000c0 c3 7e 89 bb 5b be d3 b9 b7 f6 27 3c 0c 3c a3 bb
       -0.0041960194 -0.00040386882 0.0102516925 -0.0049815234
0000d0 c1 a8 8a bb 3c 1b 9b bb 37 46 f2 39 42 51 aa 3b
       -0.004231543 -0.004733471 0.0004621015 0.005197675
0000e0 38 0b 9c b8 76 44 a3 bb 23 4b 50 bb 8f 44 a3 3b
       -7.440749e-05 -0.0049825264 -0.0031783066 0.004982538
0000f0 30 53 64 ba 2a 41 a3 3b 8b 22 f5 3b 1c 7a bf 3b
       -0.00087099057 0.0049821334 0.0074809245 0.005843414

bn2.running_mean f4 [64]
000000 eb 0d 15 bf 59 5e 0e be 6f 84 73 3c 78 b5 64 3e
       -0.5822436 -0.13903178 0.014863118 0.2233485
000010 a5 07 49 bf 1b 0d e6 be 3e f5 61 3e 50 bf ab be
       -0.7852729 -0.44931874 0.22066209 -0.33544397
000020 89 f6 80 bf f2 85 47 3e ae 66 f5 3e 8f d7 f3 3e
       -1.0075237 0.1948469 0.479299 0.47625396
000030 91 12 0c bf 60 c2 2d be d2 0c d4 bc 97 5f 92 be
       -0.5471583 -0.1696868 -0.02588502 -0.28588554
000040 7c 35 07 3e 10 9c 55 3d 58 55 f2 3c b2 fe 9a 3e
       0.13203996 0.052150786 0.02958171 0.30272442
000050 f7 23 ca 3e d5 bc ac 3e b9 cb c2 3e 64 b7 09 3e
       0.39480564 0.33737817 0.38046053 0.13448864
000060 b2 9b b2 3e 11 15 3d 3e 61 94 90 3e 93 04 0f 3f
       0.3488441 0.18465067 0.28238204 0.55866355
000070 77 e8 a1 3e dd 15 52 3e 2c d2 21 3e a5 c7 f5 bd
       0.3162267 0.20516153 0.1580283 -0.1200097
000080 a1 34 50 be 94 51 0e be 7c 8b a9 be 40 6e c5 3e
       -0.20332576 -0.13898307 -0.3311423 0.38560677
000090 5d 31 49 bf cd fb 87 3e 68 0b 91 be c6 2c 44 bf
       -0.7859095 0.26559296 -0.28329015 -0.7663082
0000a0 fa 6e 0b bf c3 2e 14 3e bc a3 49 3e 27 6a 06 bf
       -0.5446621 0.14470963 0.19691366 -0.52505726
0000b0 1f c3 d1 3e 4a c9 a1 3e f6 55 55 3e 12 61 bb be
       0.40969178 0.31598884 0.20833573 -0.36597496
0000c0 43 b6 49 3d 9d 96 6e 3e fe 79 67 be 83 fc 9b 3e
       0.049246084 0.23299642 -0.2260513 0.3046609
0000d0 c5 eb 95 3c 05 5b d6 3d 6f 60 40 3e 7b 87 f7 be
       0.0183009 0.10466579 0.18786786 -0.4834555
0000e0 3e 2c 03 be 70 24 45 bf 20 cc 60 bc a6 3c 56 bf
       -0.12809846 -0.77008724 -0.013720542 -0.8368629
0000f0 e6 8a 96 be b0 86 43 bf 00 c8 b1 3d 87 8e 34 bf
       -0.29402846 -0.7637739 0.08680725 -0.7052998

bn2.running_var f4 [64]
000000 a9 6e ca 3f 90 d7 a8 3e 0b 02 b6 3e c3 ea a6 3e
       1.5815021 0.3297696 0.35548434 0.32600984
000010 13 89 25 40 a9 66 01 3f c3 c0 bf 3e e2 ea a7 3f
       2.5864913 0.5054727 0.37451753 1.3118556
000020 02 bf 37 40 89 6c 83 3e 00 04 71 3f bc 2b 72 3f
       2.8710332 0.25668743 0.9414673 0.94597983
000030 9b 13 d3 3f c9 d9 84 3e 02 84 9e 3e 96 cc ec 3e
       1.6490358 0.25947407 0.3096009 0.46249837
000040 b7 f8 38 3f b4 e3 93 3e f5 ed 80 3e d4 0b 29 3f
       0.7225451 0.2888466 0.25181547 0.66033673
000050 fb b9 93 3f 0a 18 61 3f 7e 78 4b 3f f5 34 83 3e
       1.1541132 0.87927306 0.7948073 0.2562634
000060 28 69 59 3f a1 cf 9b 3e 66 56 9b 3f 0e 33 d6 3f
       0.8492608 0.30431846 1.2135742 1.6734331
000070 ef 87 1c 3f c1 fa c5 3e 00 37 1c 3f e7 64 49 3f
       0.6114492 0.38667873 0.61021423 0.7866959
000080 e1 99 a6 3e 11 f7 1c 3f a6 cf fd 3e d6 ff a5 3f
       0.32539275 0.61314493 0.49572486 1.29687
000090 1e 39 05 40 7e c8 ca 3e 69 a1 b3 3e 9d 3f 4f 40
       2.0816112 0.39606088 0.35084084 3.2382576
0000a0 1d 7e 74 3f cf 5b 10 3f f3 eb bd 3e 79 62 f0 3f
       0.95504934 0.5639009 0.37094077 1.8780051
0000b0 de e3 93 3f f9 71 31 3f d7 45 dc 3e c7 eb 96 3f
       1.1553915 0.69314533 0.43022034 1.1790704
0000c0 69 ad 8b 3e d8 48 77 3f b0 49 d0 3e 85 26 7b 3f
       0.2728074 0.96595526 0.4068122 0.9810565
0000d0 c2 0c e9 3e c2 06 a9 3e 36 9a cf 3e df d1 59 3f
       0.45517546 0.33012968 0.4054734 0.8508586
0000e0 a4 02 b6 3e 59 6e 37 40 83 67 00 3f 6d af 61 40
       0.3554889 2.86611 0.50157946 3.5263321
0000f0 a1 d0 1c 3f 02 cc 2e 40 7c 8c a1 3e 4b d9 01 40
       0.6125584 2.7312016 0.31552494 2.0288875

fc1.weight f4 [96, 64]
000000 66 fb dc 3d d2 fd c5 3d 66 7a 84 bd be 23 e1 3b
       0.10790138 0.09667553 -0.06468658 0.006870716
000010 20 9f 86 bc 6e 4f b3 bd 80 2d e8 3d c9 63 1f bd
       -0.016433299 -0.087553844 0.113368034 -0.038913522
000020 3a 83 89 3d d9 1b f0 3d 1f c0 89 3c ca fc c4 bd
       0.067144826 0.117240615 0.016815243 -0.09618528
000030 db 6d dd 3d 2d 03 e1 3c 51 d0 d2 3d 0c f9 b9 bc
       0.10811969 0.027467335 0.102936395 -0.022701763
000040 b8 6c a3 bb 78 95 ff bd 57 bb ac bd 17 37 71 3c
       -0.0049873255 -0.12479681 -0.0843417 0.014722607
000050 92 d3 3a bd 12 c1 de bd 69 b0 cf bc 2e 47 c4 bc
       -0.045611925 -0.10876669 -0.025352674 -0.023959722
000060 1d b8 cc 3c b4 de e5 3d b9 6d d9 bd 3e 52 22 3c
       0.024990136 0.11224118 -0.10616631 0.009907303
000070 70 99 a7 bc 48 ca b4 3d 26 4e 40 bd 75 95 91 bc
       -0.020458907 0.088276446 -0.04694953 -0.017771462
000080 99 68 42 bc 47 47 79 bd 22 15 7d bd aa 01 3a bd
       -0.011865758 -0.06085899 -0.061787732 -0.045411743
000090 90 cb b7 3b 0a 6f 3c bd c1 13 dd bd 54 3f e0 3d
       0.0056089833 -0.046004333 -0.107947834 0.10949579
0000a0 96 46 ce bd 5b 24 c3 bd 3b d7 d5 bd 4b a0 87 bd
       -0.10072057 -0.09528419 -0.104414426 -0.0662237
0000b0 e4 9b f5 bc 27 1f e8 3d 45 43 a5 3b 13 4e 9f 3d
       -0.029981561 0.11334067 0.0050434195 0.07778563
0000c0 d4 cf 0b bd 7f 51 50 3d 75 79 57 3d c5 55 5d 3d
       -0.034133747 0.05085897 0.052606065 0.054036874
0000d0 34 4f e3 bd a3 5a e0 3d 02 f8 ab bd f1 9f 6d bd
       -0.11099091 0.109547876 -0.08396913 -0.05801386
0000e0 fa 12 35 3d af cc 35 3d a2 51 da bc f6 c7 ec 3d
       0.04420755 0.044384655 -0.026650254 0.11561577
0000f0 81 93 d7 bc 73 b1 9b bd 9c 72 dc 3c f6 34 33 3d
       -0.026315453 -0.07602205 0.026910119 0.04375168
000100 fc 14 c9 3b 06 21 21 3d dd 21 08 3d ea b3 e5 bd
       0.0061365347 0.039338134 0.03323542 -0.112159565
000110 56 83 06 3d c2 14 f4 3d 80 13 06 be 24 b9 d8 3d
       0.032840095 0.11918022 -0.13093376 0.10582188
000120 a2 62 3a 3d 6b 95 88 bd e6 98 9f bd 54 73 3f 3d
       0.04550422 -0.06669124 -0.07792835 0.046740845
000130 8b 4f 2f bd 74 95 4e bd cd 38 f3 bd e3 6d aa bd
       -0.042800467 -0.0504355 -0.11876068 -0.083217405
000140 1f bd 77 3d 5b 1e ae 3d 4c 2a 02 be 55 0b 89 3c
       0.060483094 0.085018836 -0.12711447 0.016729036
000150 b6 de d4 3d 7f 75 cf 3d 35 a4 4d bd f5 46 92 3c
       0.10394041 0.101298325 -0.05020543 0.0178561
000160 54 ad 86 3d a7 ff 0d 3d 2b 8a 19 3d 86 db 22 bd
       0.065760285 0.034667637 0.037485283 -0.039760135
000170 f0 db d5 3d d9 ce 91 bd 63 a0 e3 3d 95 e8 3e bd
       0.104423404 -0.07119531 0.11114576 -0.046608526
000180 ea e0 b1 3d 4e ad 01 bc df c3 b6 3d 12 d3 81 3d
       0.08685477 -0.007914854 0.08924078 0.063390866
000190 97 5f fd 3d 82 d4 57 3b 48 d3 bc bd 5e ef 9b bd
       0.12371748 0.003293306 -0.09219986 -0.07614015
0001a0 ad 12 a7 3d 44 8a ee bd 70 47 ee 3b 61 6a c6 bd
       0.08157859 -0.11647466 0.0072716996 -0.09688259
0001b0 3b f7 9f 3c 35 d9 93 bd e1 43 d1 bd 4c 59 fe bc
       0.019527068 -0.07219163 -0.10218025 -0.03104844
0001c0 cc 29 a2 3b e5 0b c9 bd e7 68 8d 3d 31 32 da bd
       0.00494883 -0.09816722 0.06904774 -0.106541045
0001d0 ab 03 cb 3c 76 74 d2 bd 5c 16 94 bd 1b f1 95 bc
       0.024782022 -0.102761194 -0.07230827 -0.018303445
0001e0 a3 03 90 3d c8 55 6e 3d 3c fc 8b 3d 36 e7 c8 3c
       0.07031944 0.058187276 0.06835219 0.024524312
0001f0 06 ce 1e 3d a7 e3 59 3d 79 25 95 bd 8b 83 21 3b
       0.038770698 0.05319562 -0.07282538 0.0024645056
000200 2d c8 96 3d e4 b9 29 bd 16 0b 8f 3d 98 dc 7a 3d
       0.07362399 -0.041437045 0.06984536 0.06124553
000210 15 ca 03 be 9c 08 48 3d 6c 05 94 bd f3 19 42 3d
       -0.12870057 0.048836336 -0.07227597 0.04738803
000220 b4 5e 04 be 22 65 d4 bd 9a 93 0a 3d d2 5b dc bd
       -0.12926751 -0.10370852 0.03383217 -0.10759701
000230 3e fb ec bd 72 29 f5 3c 46 5c c6 3d cb cf e0 3d
       -0.11571358 0.02992699 0.096855685 0.10977133
000240 73 73 25 bd e2 d0 9d bc 6c fc cb 3d 54 31 8e bd
       -0.040393304 -0.019264642 0.09960255 -0.06943002
000250 2c 8d 20 3d e4 6c 21 3d 2a dd 5d bd b0 34 93 bc
       0.039197132 0.039410487 -0.054165997 -0.01796946
000260 36 80 2f 3c 16 53 c1 3d e3 01 0e bd 1d c7 9a bc
       0.01071172 0.094396755 -0.034669768 -0.018893773
000270 52 ab c5 bc 26 54 bc 3d e7 15 13 3c ae cb 15 3d
       -0.024129543 0.091957375 0.00897739 0.036571197
000280 77 97 9d bd 67 e9 36 bc 74 87 8f bd d2 3d 80 3d
       -0.07694905 -0.011164046 -0.070082575 0.06261791
000290 09 b6 aa 3c b5 62 94 3d 14 d0 a1 bc 01 99 bb bd
       0.020838754 0.07245389 -0.01975254 -0.091600426
0002a0 db 5d 4d bd f6 b4 b7 bd db 27 8e bd 0f 2c 91 3d
       -0.050138336 -0.089700624 -0.069411956 0.07088482
0002b0 f5 c7 9f bd 6b 60 4e bc 86 d8 9c bd dd a0 1d bd
       -0.07801811 -0.01259623 -0.07658486 -0.03848349
0002c0 0a 16 eb bd f2 a1 7e 3d 21 92 99 bd 6f fa e4 3d
       -0.11478813 0.06216616 -0.07498575 0.11180579
0002d0 0e 0a a4 bd 38 d0 b0 3d a5 78 ff 3c 36 1c e5 3d
       -0.0800973 0.086334646 0.031185457 0.111870214
0002e0 21 7a 14 3c 05 b8 11 bd 5d a6 20 bd 56 1b 16 bd
       0.009062321 -0.035575885 -0.039221156 -0.036647163
0002f0 6f 21 bb bd 7c e4 e6 bd 58 dd f6 3d 05 3d 80 3d
       -0.09137236 -0.11274049 0.12053937 0.062616386
000300 de ff 15 3c e0 12 78 bd 79 87 03 bd 25 cd 37 bd
       0.009155242 -0.060564876 -0.03211162 -0.044873375
000310 fc 96 d8 3d fa 88 91 3d 58 d4 3b bc f0 ea dd 3d
       0.10575673 0.07106204 -0.011464201 0.108358264
000320 ea 92 c7 3d 5f 4a 25 3d a4 84 c1 3c d9 c5 ca bd
       0.097448185 0.04035413 0.023622818 -0.09901018
000330 1e d9 bb bd 28 0b 89 3a 84 97 39 3c f0 c4 91 bd
       -0.09172271 0.0010455595 0.011327628 -0.07117641
000340 47 ba 5d 3d 71 b7 e9 bd 88 a1 32 3d c4 58 b1 bd
       0.054132726 -0.11411942 0.04361108 -0.08659509
000350 13 0c d2 3d a2 82 ee bd a3 00 1f 3c 1d f9 ea 3d
       0.10256209 -0.1164601 0.009704742 0.11473296
000360 54 f3 88 3d 7c 64 68 bc 0d 94 87 bd 32 3f 25 bd
       0.06687036 -0.014184114 -0.06620035 -0.04034347
000370 e8 72 e6 3d ac ee e4 3d b0 df fb bb 4c 31 81 bd
       0.112523854 0.111783355 -0.0076865777 -0.06308231
000380 b5 ee 48 3c 9b 03 84 bd aa f4 47 bc fe be 4a 3d
       0.012263943 -0.06446 -0.012204329 0.04949855
000390 b4 19 8a 3d 2b 72 46 3d dd 54 ad bc eb 9d 78 3c
       0.06743184 0.048448723 -0.02115863 0.015174369
0003a0 97 2d c8 bd f3 03 38 bd 37 1d 80 3d b5 0e 4b 3d
       -0.097743206 -0.04492564 0.06255572 0.049574573
0003b0 53 d2 24 3d d5 e1 1b bd 03 cb 1b bb f7 5d cc 3a
       0.040239643 -0.038057167 -0.0023772127 0.0015591969
0003c0 3b 75 f6 bd 3a 38 d0 3d c8 83 c0 bd 2b be ee 3d
       -0.12034079 0.10166974 -0.09400135 0.116573654
0003d0 d6 9b 4b bd bd d5 20 bd 6c 24 3b bd 1d 04 d8 bd
       -0.049709164 -0.039266337 -0.04568903 -0.105476595
0003e0 57 ec 99 3c 61 6e e7 3d b5 10 ba bd 35 9b d8 bd
       0.018789453 0.1130035 -0.09085218 -0.105764784
0003f0 94 e4 8e 3c d8 23 2c 3d 61 7a e3 bc 09 c9 84 3d
       0.017442979 0.04202637 -0.027768316 0.06483657
