input/05_cnn_qsar/01_featurize/01_featurize_fda_world/02_CNN/run_files_0.1/model_8.pth (torch, 634400 bytes, 20 tensors)

conv1.weight f4 [128, 1, 11, 42]
000000 f6 36 5e ba 18 70 dd bc 7b 75 1e 3d 21 40 e2 bc
       -0.0008476818 -0.02703099 0.038686257 -0.02761847
000010 02 3f 34 bd 1e aa ca 3c bf 94 ad bb f2 b2 65 bd
       -0.0440054 0.024739321 -0.005297273 -0.05607886
000020 62 5b 0e bd a2 31 c2 bc cd 2e 2c 3d 18 4f c1 bc
       -0.03475512 -0.023705307 0.04203682 -0.023597285
000030 1d 2d 73 3c 95 8e 14 3c 80 c5 55 ba 30 5b 1e 3d
       0.014842299 0.009067197 -0.0008154735 0.038661182
000040 4b 7a 21 bd 47 87 19 3d dd b9 97 bb 6f ec cf bc
       -0.03942327 0.037482526 -0.004630311 -0.025381295
000050 ce cc 1e bd 43 89 b5 bc cb 21 09 bd 38 e9 22 3c
       -0.038769536 -0.022160178 -0.033479493 0.009943299
000060 99 35 9e 3b d7 3e ce bc 77 8b 17 bd b4 b2 d1 3c
       0.0048281667 -0.025176449 -0.03699824 0.025597908
000070 09 a5 27 bd dd d9 80 bc c7 00 ef bc ef 57 15 bd
       -0.040928874 -0.015728885 -0.029175175 -0.036460813
000080 79 92 3c bd 98 53 f2 bc 73 94 22 bd 7f b2 32 bd
       -0.046038125 -0.029580876 -0.039692353 -0.04362726
000090 6c dc c4 bb 23 3f 54 3c 0d 7b 05 bd 94 1e c5 bb
       -0.0060077216 0.012954506 -0.032588053 -0.006015608
0000a0 41 e5 0c 3b d1 41 40 bc 72 4f 20 bd 76 88 09 bd
       0.002149895 -0.011734442 -0.039138265 -0.033577405
0000b0 79 38 9c bc c8 46 36 3d 10 c8 6b 3d 23 2b 43 bd
       -0.019069897 0.044501096 0.05756384 -0.04764856
0000c0 4b f6 c7 bc f8 57 79 bc 63 78 95 3b 1a ad 26 bd
       -0.024409434 -0.015218727 0.0045614704 -0.040692426
0000d0 58 dd 9a bc 6f a3 19 3d 1c 88 95 3c 97 ed 33 3c
       -0.018904373 0.037509378 0.018253379 0.010981939
0000e0 f3 9d 5d bb 00 f9 ee 3c 26 ff dd 3c 38 93 37 3d
       -0.003381607 0.029171467 0.027099203 0.044818133
0000f0 7f 73 df bb f6 aa 1f 3d 26 ea 70 3c 5c 19 06 bb
       -0.006819188 0.0389814 0.014704263 -0.0020461893
000100 e9 4f d4 bb 36 1f 11 3c ff d5 0f bc 49 6d 61 bb
       -0.0064792526 0.008857539 -0.008779048 -0.0034397414
000110 1f c8 37 bd f8 62 36 bc 00 96 0b 3d 5e 06 1b 3d
       -0.044868585 -0.011131994 0.034078598 0.03784787
000120 ed 29 01 3d b3 e7 81 bc 22 40 9d bb 3c 7d f0 3c
       0.031534124 -0.015857553 -0.004798905 0.029356591
000130 d8 d7 92 3b e9 77 0d bd ae 1f d1 3c 1c 9c 38 3d
       0.004481297 -0.034538183 0.025527801 0.045070753
000140 22 47 37 3d 7f e0 0e 3b b1 0e 5f bd d4 f8 46 bd
       0.044745572 0.002180129 -0.05445737 -0.048577145
000150 97 a3 50 39 b0 b1 9d b6 7f e4 8e bc f1 39 fc 3c
       0.00019897368 -4.69965e-06 -0.01744294 0.030789347
000160 9e 68 96 bb 5c c3 0c 3d 9e 60 c1 3c 8a ab ac 3a
       -0.004590108 0.034365997 0.023605641 0.0013173681
000170 68 75 4b 3d e1 44 cb bb 0d 2b 10 3d d3 16 d5 bc
       0.049672514 -0.0062032794 0.035197306 -0.02601186
000180 d6 9a d1 3b 3b 5e c1 3c b6 0f cb 3c 7b 06 15 3c
       0.0063966317 0.023604503 0.024787765 0.009095783
000190 80 4b 2b 3d e1 d3 84 bc 5d 01 23 bd 43 24 0a bb
       0.04182005 -0.016214313 -0.039796222 -0.0021078743
0001a0 03 30 16 3d 0a b9 0a 3d aa 50 9a bc a9 ef 8a bc
       0.03666688 0.033867873 -0.018837292 -0.016959982
0001b0 df 8c 87 bc 5d 80 17 3d 19 7b 3d bd c3 96 d3 bc
       -0.016546665 0.03698765 -0.046259973 -0.025828725
0001c0 8b 46 37 bd 34 11 01 bc d6 dc 36 bc 9d c7 03 bc
       -0.04474501 -0.007877637 -0.01116105 -0.008043197
0001d0 5d 94 2f 3c 4c 2f 3a bc 62 76 5c bc 76 36 53 3c
       0.010716525 -0.0113638155 -0.013455959 0.0128914025
0001e0 05 c3 30 bd 30 90 22 bd cc 1e 8b 3b 10 d9 d4 3b
       -0.043154735 -0.03968829 0.0042456146 0.0064956024
0001f0 38 bc 1d bd 80 8a f6 bc 03 67 16 bd 58 e5 cb 3c
       -0.038509578 -0.030095339 -0.036719333 0.024889633
000200 9e 83 fe bc a2 ea 1a 3d 34 03 32 3d 42 ae 90 bb
       -0.03106862 0.03782142 0.043460086 -0.0044153044
000210 27 98 ff bc d7 74 0f bd 3d 17 d3 bc 32 45 bc 3c
       -0.031200482 -0.035023537 -0.025767917 0.022982214
000220 69 66 a9 39 6e 56 05 bd 40 d1 67 ba 4b 53 2e bd
       0.00032310493 -0.03255313 -0.00088431314 -0.042559903
000230 19 1a 0b 3d fe e2 03 3c 2a 87 0c 3c ed 43 96 bb
       0.033960436 0.008049725 0.0085771475 -0.004585734
000240 bd 59 df 3c aa 94 d2 bc 43 50 38 3d a8 70 36 bd
       0.02726447 -0.025705654 0.04499842 -0.04454103
000250 c7 01 e0 3c 85 1f 0a bd d5 7f 15 3d cb d6 17 bc
       0.027344598 -0.033721466 0.036498863 -0.009267519
000260 bc 23 a9 bc 1a 2a f6 bb 18 f7 3d bd c9 85 0f bd
       -0.020646922 -0.007512343 -0.046378225 -0.035039697
000270 47 50 74 bb 56 9d f5 b9 66 48 a8 bb 7f 9b 79 bc
       -0.0037279294 -0.00046847266 -0.0051355837 -0.015234827
000280 17 25 35 3d a8 d6 67 3c 7f ce a1 bc 1a 57 25 bd
       0.044224825 0.014150299 -0.019751785 -0.04036627
000290 bd 95 9d bc d5 5c 14 bc 81 25 fa 3b a9 b0 28 bd
       -0.01923644 -0.009055336 0.0076338653 -0.0411841
0002a0 c7 45 55 bd bc e1 11 bc 88 34 8b bc fb 47 20 bd
       -0.052068498 -0.008903917 -0.016992822 -0.039131146
0002b0 bc 6e f7 3c 98 e6 1f 3b b9 43 58 bd dc 9f 4d bd
       0.03020417 0.002439892 -0.05279896 -0.050201282
0002c0 1c ff e7 3c ca fb fb bb 0a f9 20 3d ef d6 2d bd
       0.028319888 -0.0076899277 0.039300002 -0.042441305
0002d0 06 2f c6 bb 77 e7 ba bb 5e 29 4d 3b cc ae ba 3c
       -0.006048086 -0.0057038623 0.0031305174 0.022788428
0002e0 a8 94 b2 3b db de 77 bc 85 ed d6 bc e6 24 95 bc
       0.00544985 -0.0151288165 -0.026236305 -0.018206071
0002f0 e8 30 37 bd 3a 86 46 3d 46 71 07 3c ea cf 3e bd
       -0.044724375 0.048467852 0.008266753 -0.046585
000300 57 af 2e bd fc 76 8b 3c bc 80 c4 3c 77 5d 24 3c
       -0.042647686 0.01702451 0.023987167 0.010032049
000310 19 17 2b bd c8 df 47 3c 7b 30 a9 bc 83 08 3c 3d
       -0.041770075 0.01219935 -0.020653 0.045906555
000320 e2 a6 eb 3c 82 3e 4a bd 56 3a 3b 3d 3d 3c 01 3d
       0.0287661 -0.04937602 0.04570993 0.03155159
000330 ee 8a 13 bd 4a be be bc f5 95 37 bd 59 47 2c bd
       -0.036021166 -0.023284096 -0.044820745 -0.04206023
000340 24 3b 54 bc 91 e4 ed 3c 81 83 0b bd 42 78 b3 bc
       -0.012953553 0.029039653 -0.03406096 -0.02190793
000350 a4 83 30 3d 1c fb 2d 3d ab e8 fc bc 54 fd 06 3c
       0.043094292 0.042475805 -0.030872663 0.008239109
000360 6e 61 d9 bc e8 14 f3 bc 10 19 26 bd 60 7b de 3c
       -0.026535716 -0.029673055 -0.040551245 0.02715844
000370 61 97 50 bc fb b0 03 3d f1 cf 3c 3c eb 0f c5 bc
       -0.012731404 0.032151204 0.0115241865 -0.024055442
000380 eb 89 fa bc c5 15 35 bd a9 a6 bc bc 3a 6a c9 bc
       -0.030583343 -0.044210214 -0.023028689 -0.024586786
000390 77 cb 2e 3c 68 a4 c6 3b 58 c7 b2 3c a3 78 d4 bb
       0.010668627 0.006062079 0.02182357 -0.0064841076
0003a0 f1 01 22 bc 3f 7c 65 3c 49 91 9b bc 48 c3 a3 3c
       -0.009888158 0.014006673 -0.018990176 0.019990578
0003b0 62 5f cd 3c 8e fd 09 3d bf 4d dc ba 23 7b 3b bd
       0.025069896 0.033689074 -0.0016807838 -0.04577173
0003c0 16 62 39 bb 17 82 bc bc 6c 2b b0 3b ff 90 dc bc
       -0.0028287224 -0.02301125 0.00537627 -0.026924608
0003d0 17 86 fa bc f6 2b ce 3c 01 ba 0d 3d ff 4c 1c 3d
       -0.030581517 0.025167447 0.034601215 0.038159367
0003e0 58 89 ef 3c 6c 94 cc bc 62 bf 0c 3c 20 cc 66 3c
       0.029240295 -0.024973117 0.008590551 0.014086753
0003f0 59 51 3d bc 08 d0 14 3d 76 a7 1c 3d 6e 96 06 bd
       -0.011555039 0.036331207 0.03824564 -0.032858305

conv1.bias f4 [128]
000000 2b b1 41 bc 6e 88 8c 3c 83 07 32 bc 29 ba 03 3c
       -0.011822025 0.017154898 -0.010866049 0.0080399895
000010 f8 a5 19 3d 7a 53 0c bd 5e 45 eb 3b 18 3b b3 3c
       0.037511796 -0.034259297 0.0071799 0.021878764
000020 bc 83 16 bd 98 98 e9 ba 21 67 e0 bb 28 d7 a1 bc
       -0.036746725 -0.0017821966 -0.0068482314 -0.019755915
000030 ec 4c 29 b8 54 8a fe bc c6 1c df 3c 1d 11 cb 3c
       -4.036438e-05 -0.03107182 0.0272354 0.024788434
000040 9f 04 2b bd 99 ea 56 bc 1f 1d 82 bc 5a c4 dc bc
       -0.041752454 -0.013117456 -0.015883027 -0.026949096
000050 99 1c 79 bc 86 c2 cf 3b ac d2 57 3c ba 7e b8 bc
       -0.015204572 0.0063403277 0.013172787 -0.022521365
000060 dc 6e df bb fe 5f 6e 3c 9a ac 42 3d 39 66 68 bc
       -0.0068186354 0.0145492535 0.047527887 -0.014184528
000070 08 01 0c bd a4 32 82 3c 56 8a 7e 3c f2 45 f8 bc
       -0.03418067 0.015893288 0.015535912 -0.03030679
000080 7e ec d6 3b 77 55 40 bd 3f 5e 08 bb 43 6d 02 3d
       0.006558954 -0.046956506 -0.0020808128 0.03184248
000090 24 91 7c bb 8b 78 ab bc 8e 6c 98 3c 18 47 37 bd
       -0.003853866 -0.020931503 0.01860645 -0.044745535
0000a0 65 d5 1f 3d 08 12 3d 3d ea e0 4f 3c f0 6d 09 bb
       0.03902187 0.046159774 0.012687901 -0.002097007
0000b0 b0 cc fb bc 67 3c bb 3c f7 37 33 bc 97 bc a9 bc
       -0.030737251 0.02285595 -0.010938636 -0.02071981
0000c0 7e cc 3c bd 71 83 0f bd c1 70 ad bc 18 b3 10 bc
       -0.046093456 -0.03503746 -0.02117193 -0.008831762
0000d0 06 61 07 3d f8 a9 00 bd e5 01 19 bd 93 6c 1f bd
       0.033051513 -0.031412095 -0.037355322 -0.038921904
0000e0 76 d1 d5 3b f8 a7 bc bc 94 36 9f bc d8 c7 32 3d
       0.006525214 -0.023029312 -0.019435205 0.043647617
0000f0 8a bf d7 bc 39 84 c9 3c 39 6a 17 bc f8 32 d0 bc
       -0.02633645 0.024599181 -0.009241634 -0.025414929
000100 77 e1 12 3d ff f7 8d 3c e1 ab 05 3d 1d 06 ae 3c
       0.03585955 0.017330168 0.03263462 0.02124315
000110 57 f0 4f 3d f4 44 36 bd 62 ab 1a 3d 5c 3d 4a 3d
       0.050766315 -0.044499353 0.0377611 0.049374923
000120 34 bf 3c 3c 65 16 1d 3d cc 99 65 3d ee aa 76 3c
       0.011520196 0.038351435 0.056054875 0.015055401
000130 cf 1f a1 bc 9b cc cf 3c 00 8b 18 b9 6e c5 38 3c
       -0.019668488 0.025366118 -0.00014547631 0.01127754
000140 5a 2a e0 3a 72 20 ab bb 3e 7d c8 3b 6c 5a c9 bb
       0.0017102465 -0.0052223736 0.0061184457 -0.0061448123
000150 a1 ba 27 3d d0 d2 07 bc f9 5b 8f 3c 41 52 a4 bc
       0.040949468 -0.008290008 0.01749991 -0.020058753
000160 e0 28 21 3c d6 e8 07 bd 62 d7 ae bc 38 c2 0e bc
       0.0098364055 -0.033181034 -0.021342937 -0.008713298
000170 23 2f 18 bb 5b 80 d2 bc 75 72 fb bc 43 49 14 3d
       -0.0023221455 -0.02569597 -0.030694226 0.03620268
000180 1c 3d 22 bc 1f a9 89 bc af 2a 87 3c 21 7f a5 3c
       -0.009902265 -0.016804276 0.016499845 0.020202221
000190 59 70 6b 3c fc 07 74 bb ec c5 12 bd 57 45 b9 bc
       0.0143700475 -0.0037236204 -0.035833284 -0.022616072
0001a0 6e 92 cc bc 54 0c bd 3c 65 1a 9e bc dd 83 72 3c
       -0.024972167 0.023077168 -0.019299695 0.0148019465
0001b0 f5 b3 c3 bb e7 b5 1c 3c 9a 69 14 bd 84 64 df bb
       -0.0059723803 0.009564853 -0.036233522 -0.0068174023
0001c0 a4 7e 73 bc da 43 59 39 37 36 1d 3d a4 18 75 3b
       -0.014861736 0.0002072001 0.03838178 0.003739872
0001d0 96 f2 b0 3c 56 22 85 3c 54 e6 a1 3b c5 a5 8a 3c
       0.021600049 0.016251724 0.0049407873 0.016924748
0001e0 e1 75 c6 bc a6 7e f0 bc 8c 8e 26 bd 21 ec eb 3c
       -0.02422613 -0.029357266 -0.040663287 0.028799118
0001f0 cd 74 21 3d 42 25 b6 bb 00 ab 01 3d 47 96 85 bc
       0.03941803 -0.0055586407 0.03165722 -0.01630701

bn1.weight f4 [128]
000000 3d 20 80 3f b7 82 80 3f f8 a0 7c 3f d7 f0 80 3f
       1.0009838 1.0039891 0.9868312 1.0073498
000010 4b 92 80 3f df 1e 7f 3f d3 35 81 3f 80 02 82 3f
       1.0044645 0.9965648 1.0094551 1.0157013
000020 af 3b 7e 3f 15 8c 80 3f 6a f2 80 3f 13 ac 80 3f
       0.9930982 1.004275 1.0073979 1.0052513
000030 79 56 7e 3f c2 ee 7e 3f d7 d9 7f 3f 8f f9 7f 3f
       0.99350697 0.99583066 0.9994177 0.9999017
000040 a2 ed 7d 3f b5 24 7d 3f 81 08 80 3f 99 b6 7d 3f
       0.99190724 0.98884135 1.0002595 0.99106747
000050 66 88 7f 3f 2d c9 7d 3f ae ac 7e 3f f4 d9 80 3f
       0.998175 0.99135095 0.9948224 1.0066514
000060 15 99 7c 3f 34 6b 7f 3f 45 f6 80 3f 79 44 7f 3f
       0.98671085 0.99772954 1.0075155 0.99713856
000070 a6 61 80 3f 9f b7 7f 3f 04 d7 7b 3f 04 87 7d 3f
       1.00298 0.9988956 0.9837496 0.9903414
000080 b2 b6 7d 3f ae e2 7d 3f 1d 0f 81 3f 68 4e 80 3f
       0.99106896 0.9917401 1.0082737 1.0023928
000090 a2 02 80 3f 35 7a 7f 3f b5 3e 7e 3f 21 0d 81 3f
       1.0000803 0.9979585 0.99314433 1.0082132
0000a0 62 68 80 3f c4 4c 80 3f a7 f6 80 3f a1 b5 80 3f
       1.0031855 1.0023427 1.0075272 1.0055429
0000b0 02 08 80 3f f0 8c 80 3f a8 5e 80 3f 20 d5 80 3f
       1.0002444 1.0043011 1.0028887 1.006504
0000c0 89 7e 7f 3f d9 d9 82 3f 1b 47 80 3f df 8f 80 3f
       0.9980245 1.0222732 1.00217 1.0043906
0000d0 f2 6c 7e 3f 7a ce 7e 3f b7 3b 81 3f 90 6b 81 3f
       0.9938499 0.9953381 1.0096349 1.011095
0000e0 87 54 7d 3f 95 f7 7d 3f a9 1a 81 3f f5 ef 80 3f
       0.98957103 0.99205905 1.0086261 1.0073229
0000f0 57 0c 7f 3f ed 63 80 3f 9e 6c 7e 3f 86 54 80 3f
       0.99628204 1.0030495 0.99384487 1.0025795
000100 a3 55 80 3f e7 26 80 3f c0 4b 80 3f a6 41 81 3f
       1.0026134 1.0011872 1.0023117 1.0098159
000110 45 d1 7e 3f a1 2a 80 3f 43 7b 7f 3f 7d e6 7e 3f
       0.9953807 1.0013009 0.9979746 0.9957045
000120 4e 9b 7e 3f 38 94 7f 3f 91 e8 80 3f 95 16 7f 3f
       0.99455726 0.9983554 1.0070974 0.9964383
000130 8a 99 82 3f 1d 62 7f 3f 9c 2a 80 3f de 9c 80 3f
       1.0203106 0.99759084 1.0013003 1.0047872
000140 47 09 7f 3f 45 39 7e 3f f3 3f 80 3f 94 96 7f 3f
       0.9962353 0.99306136 1.0019516 0.9983914
000150 6b 05 81 3f c0 1e 81 3f a9 14 7b 3f a4 0d 80 3f
       1.0079778 1.0087509 0.980784 1.0004163
000160 e5 25 80 3f 9e 72 7f 3f 3d fb 80 3f 30 1b 82 3f
       1.0011564 0.99784267 1.0076672 1.0164547
000170 a3 b2 7e 3f cf bf 80 3f 9c 09 7f 3f ff 64 80 3f
       0.9949133 1.0058535 0.9962404 1.0030822
000180 5e 7c 80 3f 63 a5 7f 3f b8 ad 81 3f 36 44 80 3f
       1.0037954 0.99861735 1.013114 1.0020816
000190 e1 ae 81 3f 06 ff 7f 3f 03 87 7f 3f aa d3 80 3f
       1.0131494 0.9999851 0.99815387 1.0064595
0001a0 58 7e 7f 3f bc 46 80 3f a6 f8 7e 3f e5 40 7f 3f
       0.9980216 1.0021586 0.9959816 0.99708396
0001b0 0b c2 80 3f bc 04 80 3f c7 e6 81 3f a1 26 7f 3f
       1.0059217 1.0001445 1.0148553 0.9966832
0001c0 9c a0 7d 3f 7c fa 7f 3f 63 11 7f 3f b2 ab 81 3f
       0.99073195 0.99991584 0.99635905 1.0130522
0001d0 23 e4 7f 3f 00 88 7e 3f e5 3e 80 3f 66 2e 80 3f
       0.99957484 0.9942627 1.0019194 1.001416
0001e0 f4 0f 81 3f 0c a6 7f 3f 33 bb 80 3f f3 a0 80 3f
       1.0082994 0.9986274 1.0057129 1.0049118
0001f0 6b fe 80 3f e6 31 7e 3f e5 97 7f 3f 6e e8 7f 3f
       1.0077642 0.9929489 0.9984115 0.99964035

bn1.bias f4 [128]
000000 4e 8b 6a 3c c4 4f b4 3a 56 8e a2 ba 7c b5 89 bc
       0.014315439 0.0013756682 -0.0012402039 -0.016810171
000010 37 13 25 3c 95 33 44 bb 2d b7 59 3c 54 8e 33 3a
       0.010075382 -0.0029937972 0.013288301 0.00068495166
000020 37 2f 70 ba f8 83 4e 3a 1f 85 9c 3b 28 c1 aa 3b
       -0.0009162309 0.0007877941 0.0047766115 0.0052110143
000030 44 6a 85 3b 74 8b bb bb cc 2f 88 3b 97 30 8a bb
       0.0040715057 -0.005723411 0.0041560885 -0.004217218
000040 a1 aa 64 bc a1 33 12 bc b3 f4 d6 3a 8d db 74 bb
       -0.013956697 -0.008923442 0.001639983 -0.0037362308
000050 a2 93 e4 39 f3 7b 96 3b 1c 8a ab bb 64 1b 0d 3b
       0.00043597544 0.0045924126 -0.00523497 0.0021531219
000060 ab 7e 92 bc ce 2f 7c 3b 47 30 3e 3c 54 96 3f 3c
       -0.017882666 0.0038480642 0.01160819 0.011693556
000070 72 8b c1 3b 1f ed 1f bc 1c 23 a2 bb 94 c5 d3 bb
       0.0059065158 -0.009761124 -0.004948033 -0.006462762
000080 e6 75 0f 3c 43 2e e6 ba 5a 92 a7 bb 78 42 e3 3b
       0.0087561365 -0.0017561394 -0.005113882 0.006935414
000090 55 a7 20 bc d6 db 0f 3a 02 fe 6d ba 50 4f c5 ba
       -0.00980552 0.0005487775 -0.00090786826 -0.0015053544
0000a0 f6 e8 5f 3b e5 0c 26 3c 8c 28 33 3b e2 5a bf 3b
       0.0034165955 0.01013491 0.00273374 0.0058396915
0000b0 fe dd 26 3b 5c 18 2d b9 92 db f0 bb d1 84 c3 3b
       0.0025461907 -0.0001650764 -0.0073503936 0.0059667607
0000c0 ea 69 26 bc bc 3f c8 3b 2f 17 9e 3c 7a 65 1b 3c
       -0.010157088 0.0061111134 0.019298164 0.009484643
0000d0 e3 86 c3 bb 6f 7e ef bb de 8a 44 3c 2c ab ab 3b
       -0.0059670075 -0.007308773 0.011995999 0.005238911
0000e0 37 05 87 bb c1 64 e8 bb 77 5c b9 3b 44 58 c9 3a
       -0.0041204947 -0.007092089 0.0056567746 0.0015361388
0000f0 8b 92 f3 bb 35 1c e9 3b 7b 05 0b bc 00 44 7e 3c
       -0.007433241 0.0071139582 -0.008485193 0.015519142
000100 40 22 cf 3b 5b 0c 9a 3b 7f 9e 05 39 00 09 07 bc
       0.0063212216 0.00470118 0.00012742913 -0.008241892
000110 ed 5e 3f b9 4e e9 86 bb 5b b0 5f bc 0c 6d 06 bc
       -0.00018250542 -0.0041171676 -0.013652886 -0.00820471
000120 5d 27 87 bb b1 8e 10 bb 77 98 f7 bb a7 15 82 3b
       -0.0041245655 -0.0022057707 -0.007556017 0.0039698663
000130 05 30 f3 3a 92 bc 00 bb 8c 42 d6 3a d0 cb 6d bb
       0.001855374 -0.0019643647 0.0016346737 -0.0036284812
000140 99 54 30 bb e2 2a e6 bb 37 38 b3 bb 9a 6f 36 bc
       -0.0026905893 -0.007024155 -0.005469348 -0.011135006
000150 36 b1 62 bc 54 8d 5a 3b 37 3d ab ba 1a b8 9f 3b
       -0.013836196 0.0033348398 -0.0013064508 0.0048742415
000160 a5 0f 40 3c 73 31 45 3c 31 3f 2a 3b b1 78 f1 3b
       0.01172248 0.012035715 0.0025977606 0.007369124
000170 9e 56 e0 bb 8d 9c 55 ba 1d c6 b5 bb 8d a8 20 3b
       -0.006846263 -0.0008148633 -0.0055472986 0.0024514527
000180 54 29 09 bb c9 2f 9c bb af 36 c0 3b 57 5d 44 bb
       -0.0020929174 -0.0047664386 0.005865894 -0.0029962861
000190 a3 1e c7 bb 6c 74 f7 bb f3 20 4a 39 d4 cc e4 bb
       -0.00607665 -0.0075517204 0.00019276496 -0.006982425
0001a0 40 b1 a3 39 7a 0f 18 3b af d2 6f bb 18 51 4a bc
       0.00031221844 0.0023202584 -0.0036594083 -0.012348436
0001b0 1d 91 10 3c eb 23 0b bc 01 21 05 3c 2b 6f ed ba
       0.00882366 -0.00849245 0.0081255445 -0.0018114796
0001c0 96 4e e8 b9 4a a1 58 bc 48 eb fe bb a7 fc 09 bc
       -0.0004430904 -0.013222048 -0.0077795126 -0.008422053
0001d0 0c 76 00 3c 0c 87 0c bc 3c 31 9b bb 74 9d c7 3a
       0.007840645 -0.00857712 -0.004736094 0.001522942
0001e0 af 31 0f bb 20 d0 53 3b 94 6d 18 3b 41 30 5c bb
       -0.0021849682 0.0032320097 0.0023258673 -0.0033598098
0001f0 4d b4 1f 3c b3 ed 32 bc 95 bf aa bb 63 ba bb b9
       0.009747577 -0.01092093 -0.0052108266 -0.00035806288

bn1.running_mean f4 [128]
000000 a5 0f 9a bc a8 09 20 3c b5 8e 8a 3b 21 aa bc 3b
       -0.018806288 0.009767927 0.004228438 0.0057575856
000010 ce 75 f2 3c a5 b4 1a bd 13 e1 b7 3b 41 77 89 3c
       0.02959719 -0.037769932 0.0056115477 0.016780498
000020 e1 41 3c bd 62 91 9f 3b 0f 11 cb 3b bd eb cc bc
       -0.045961265 0.004869626 0.006197102 -0.025014753
000030 75 3c e7 3c 6b ea b7 bc 42 c4 f8 3c d4 e6 9e 3c
       0.02822707 -0.022450646 0.03036702 0.019397177
000040 4b 9f 9f bd 64 0e 08 bd 16 81 26 bd 1f 78 20 3b
       -0.077940546 -0.03321685 -0.04065045 0.002448566
000050 4b 94 cc bb 86 9e 7b 3c 15 26 47 3c 5a 8c b3 bc
       -0.006243264 0.015357619 0.012155076 -0.02191751
000060 03 a3 24 bd 22 d9 8f ba 4c 95 33 3d 1b ae 21 bd
       -0.040194523 -0.0010974745 0.043843552 -0.03947268
000070 93 03 b1 bc 18 cd 8b 3c 6d 12 98 3c 7a c0 e8 bc
       -0.02160815 0.01706557 0.018563474 -0.028412092
000080 32 f6 ca bc 38 31 83 bd b1 84 6b bc b7 c6 42 3d
       -0.024775598 -0.06405872 -0.014374898 0.04755279
000090 96 3d da bb ee 30 78 bc 4f 6d e4 3b 9a ec 29 bd
       -0.0066601736 -0.0151483845 0.0069710384 -0.041485406
0000a0 98 76 15 3d df bb 27 3d 00 ec 79 3b 3c bd 82 3b
       0.036490053 0.040950652 0.0038135052 0.0039898437
0000b0 26 7f e8 bc 03 e0 27 3d 0c 50 ce bb 7a ab 8a bc
       -0.028380942 0.04098512 -0.0062961634 -0.01692747
0000c0 3f 98 44 bd 58 b2 0f bd e7 19 2e bd 8b 91 1b 3c
       -0.047996756 -0.03508219 -0.04250517 0.009495149
0000d0 70 e3 c8 3c 51 d6 53 bd 6e d0 74 bd 28 6c 51 bd
       0.024522513 -0.05171806 -0.059769087 -0.051128536
0000e0 c7 69 9e bb 34 4f 53 bd 39 29 f6 bc be d1 60 3d
       -0.004834387 -0.051589206 -0.030048953 0.054887526
0000f0 d1 71 2d bd 0a 2f 00 3d db 33 7b bc 50 eb f9 bc
       -0.042344872 0.03129486 -0.0153321875 -0.030507714
000100 c6 cb 6c 3d 68 19 9e 3c 0f 85 46 3c 80 06 6a 3c
       0.05781152 0.019299224 0.012116685 0.014283776
000110 0c d1 4b 3d a1 97 07 bd 0c d3 02 3d 67 ca 07 3d
       0.04975991 -0.03310359 0.03193955 0.03315201
000120 f8 0e f8 3a eb f2 fa 3c 1b f1 5c 3d ac ca ac 3a
       0.001892536 0.03063341 0.053940874 0.001318296
000130 a2 fd d5 bc ea 1f a0 38 ce c5 93 3c c2 67 e8 bb
       -0.026121918 7.635339e-05 0.018038657 -0.007092447
000140 9d 6c 51 3c 6d 22 8e bb 00 cc b1 3b 79 67 eb bc
       0.012782243 -0.0043376 0.00542593 -0.028735863
000150 1c e7 1d 3d c3 2c 2f bc 47 37 80 bc 77 41 d4 bc
       0.03855048 -0.010691824 -0.015651358 -0.025910122
000160 24 6b 57 b8 68 42 56 bd f8 40 80 bb 4b 23 aa bb
       -5.1359777e-05 -0.052309424 -0.003913995 -0.0051921955
000170 0f 8e 5e bb d5 67 7d bc 13 21 de bb c5 f2 60 3d
       -0.0033959185 -0.01546665 -0.006778845 0.054919023
000180 a6 20 6f bc a7 6f b6 bc 20 8f 9a 3c 7a 4f 41 3b
       -0.014595186 -0.022270037 0.018867075 0.0029496835
000190 2e 1b 02 bb 19 18 da 3a 61 82 57 bd 62 58 9c bc
       -0.0019852626 0.0016639262 -0.052614573 -0.019085113
0001a0 97 9c 58 bd 00 ce 19 3c 72 53 a4 bc 01 b6 8f 3c
       -0.05288371 0.009387493 -0.020059321 0.01754284
0001b0 9b 1a 51 bc bf 05 1f 3c 57 81 67 bd 91 18 f0 3b
       -0.012762691 0.00970596 -0.056519832 0.0073271473
0001c0 e4 8a 22 bd 8e a3 85 3b ab 4f bd 3c f7 22 62 bc
       -0.039683238 0.004078335 0.023109278 -0.013802282
0001d0 06 c6 79 3c 9b 9e a6 3c 38 73 4d 3c 44 fc 82 3b
       0.015244966 0.0203393 0.012539677 0.0039973576
0001e0 5d 0b e2 bc 22 b7 e5 bc e6 b7 0f bd 64 ea fb 3c
       -0.027593309 -0.028041426 -0.03508749 0.030751415
0001f0 2f 9c a7 3c 30 03 cd bc 6d b1 2a 3d d5 83 1d bc
       0.020460216 -0.025025934 0.041673113 -0.009613951

bn1.running_var f4 [128]
000000 b1 17 42 3b 11 9b 42 3b 22 0b 54 3b 1a 03 0e 3b
       0.0029616172 0.0029694478 0.0032355268 0.002166933
000010 b2 f1 68 3b 18 00 43 3b 05 59 24 3b 72 fb 1a 3b
       0.0035544452 0.0029754695 0.0025077474 0.0023648408
000020 9a 01 39 3b 13 42 31 3b f1 02 5b 3b 25 f3 57 3b
       0.0028229714 0.002704744 0.0033418501 0.0032951322
000030 90 20 d9 3b 7c b8 1f 3b 40 21 26 3b 6f d1 4f 3b
       0.006626196 0.0024371436 0.0025349408 0.0031710526
000040 a6 de 26 3c bd 63 a6 3b 14 04 c5 3b 85 f8 f1 3b
       0.010184919 0.0050778077 0.006012449 0.007384362
000050 ae 79 54 3b 70 91 6d 3b 6d c8 70 3b 71 e7 33 3b
       0.003242116 0.0036250018 0.0036740557 0.0027451182
000060 80 44 03 3c 1a a8 6c 3b 0f 06 82 3b ed e4 c4 3b
       0.008011937 0.0036110939 0.0039680074 0.0060087354
000070 32 98 38 3b fd 3e 2b 3b c4 8d 27 3b 15 53 69 3b
       0.0028166887 0.0026130073 0.0025566677 0.00356025
000080 96 1f 0e 3c c6 51 8f 3b 41 70 98 3b 5c ff 8f 3b
       0.008674523 0.004373762 0.0046520536 0.004394455
000090 df ef 24 3b be c2 82 3b 54 c0 49 3b f4 73 2e 3b
       0.0025167388 0.0039905002 0.0030784803 0.0026619406
0000a0 a7 07 1f 3b 40 ee 5e 3b 9e 9f 10 3b e3 64 12 3b
       0.0024266036 0.003401652 0.0022067796 0.0022337965
0000b0 d6 fd 1c 3b 91 3b 95 3b 7b dc 31 3b d1 d3 35 3b
       0.002395501 0.00455422 0.0027139473 0.002774466
0000c0 19 a6 3e 3b c9 fb 52 3b 5d ac 9e 3b 28 b2 93 3b
       0.00290907 0.0032193533 0.0048423246 0.004507322
0000d0 c4 61 6d 3b 05 22 9a 3b da cf 98 3b fb c1 60 3b
       0.0036221603 0.0047037625 0.0046634497 0.003429531
0000e0 0b 81 44 3b 23 3c 02 3c 73 97 81 3b a6 e9 1e 3b
       0.0029984142 0.007948908 0.0039548217 0.0024248152
0000f0 cc 1c 96 3b 58 71 59 3b 7f fd 40 3b 96 88 1f 3b
       0.0045810696 0.003317913 0.002944797 0.0024342886
000100 c1 99 bc 3b 36 05 5c 3b c7 15 be 3b 7f 73 20 3b
       0.0057556336 0.0033572442 0.005800936 0.0024482904
000110 d0 c6 42 3b 75 75 6e 3b 4f 9f 82 3b 41 02 95 3b
       0.0029720552 0.0036385928 0.003986276 0.004547388
000120 d2 85 7b 3b 18 87 3d 3b 4e b3 14 3b 28 63 53 3b
       0.0038379324 0.0028919633 0.0022689882 0.0032255147
000130 fd f4 1e 3b df af c1 3b c4 81 bd 3b bd eb 98 3b
       0.002425491 0.005910858 0.0057832915 0.004666774
000140 5f 12 79 3b dd 02 0c 3b a2 e7 23 3b 3d 0b bf 3b
       0.0038005335 0.0021364011 0.002500989 0.005830197
000150 a0 bf 2a 3b 48 2a 75 3b 91 3a 1f 3c a5 18 2c 3b
       0.0026054159 0.0037409235 0.009718553 0.0026259806
000160 44 95 31 3b 97 99 91 3b 3f bb 8b 3b 2a e8 52 3b
       0.0027097026 0.004443358 0.004264265 0.0032181838
000170 64 c1 4a 3b 6e 06 64 3b 2a 08 ad 3b 2f 9d a3 3b
       0.0030938024 0.0034793871 0.0052805142 0.004993103
000180 27 75 5c 3b 3b 7b 2d 3b 5e 80 0c 3b bb 16 9f 3b
       0.0033639164 0.0026471156 0.0021438817 0.0048550046
000190 94 6e 8a 3b 2b 0c 33 3b ef bb 96 3b 71 24 3f 3b
       0.0042246077 0.0027320485 0.00460004 0.0029166008
0001a0 5f e4 f2 3b 03 96 7d 3b 65 c9 56 3b 5f e6 13 3b
       0.007412478 0.003869415 0.003277385 0.0022567732
0001b0 73 2a 47 3b 78 2f 2d 3b ac 39 8c 3b 18 5f 62 3b
       0.0030390292 0.0026425999 0.004279336 0.0034541544
0001c0 4b fa bd 3b 72 8f 31 3b 81 6d 68 3b 14 3b 8b 3b
       0.0057976595 0.0027093557 0.003546566 0.004248986
0001d0 e0 7c 73 3b 03 4d 35 3b e5 85 7a 3b 30 de 83 3b
       0.0037153289 0.002766431 0.003822678 0.0040242895
0001e0 a4 df 2b 3b ad a7 54 3b ec 3d 29 3b df f0 45 3b
       0.002622583 0.0032448575 0.0025824262 0.0030203385
0001f0 5f e5 8f 3b a3 f6 95 3b 14 21 45 3b fa 6e 64 3b
       0.004391357 0.0045765205 0.003007953 0.0034856186

conv2.weight f4 [64, 128, 11, 1]
000000 bc 8d a1 bc e9 43 c5 3b 00 4b 2e b6 2c f3 c0 3b
       -0.019720905 0.0060200584 -2.5971676e-06 0.0058883633
000010 7c 04 75 3c e0 4a fd 3c 9f 4c cb 3b 27 cd e7 39
       0.014954682 0.030919492 0.0062042023 0.00044212604
000020 65 be fa 3c 5f 9f fa 3a 34 fc 5d 3b 61 88 0c 3c
       0.030608365 0.0019120983 0.0033872249 0.008577437
000030 be 6c 6b 3c 46 2a 3f 3c ed 9f e6 3b 0d c3 3d bc
       0.014369188 0.011667794 0.0070381076 -0.011582148
000040 69 57 fd 3b 9a ad 00 bd da f3 da bc 03 27 5f 3c
       0.0077313674 -0.03141556 -0.026727606 0.013620141
000050 38 68 4d 3c dc ad 05 3d c5 05 37 3b 07 66 52 3c
       0.012537055 0.03263651 0.0027927023 0.012841708
000060 0f 43 77 3c 61 56 33 bc 99 ae 55 bc 36 59 9e 3c
       0.015091672 -0.010945887 -0.013042116 0.019329648
000070 de 9a 32 bc 24 9a b8 b9 98 11 08 3d d9 eb fd 3c
       -0.010901181 -0.0003521006 0.033219904 0.03099625
000080 73 8f d2 3c 15 7e 8d 3b 60 16 63 bc 3c 1b c2 3c
       0.025703168 0.0043180087 -0.013860315 0.023694627
000090 86 4d 9b bc df fe 11 3b 8b 87 d2 3c b4 08 88 bc
       -0.018957864 0.002227716 0.025699398 -0.016605712
0000a0 6a a8 f7 39 84 ae 94 3c 3f b4 bf 3c bb 4c 8c 3c
       0.0004723699 0.018149622 0.023401378 0.017126432
0000b0 8a 2f 0c 3c c2 70 4f 3b bf 7b a8 3b 58 d0 01 3d
       0.008556256 0.0031652902 0.005141705 0.031692833
0000c0 92 23 8b bb d2 a6 9a 3c 37 78 23 3c 40 dd c0 ba
       -0.0042461837 0.018878374 0.009977392 -0.0014714375
0000d0 cc 05 c4 3c 7e 75 0e bc 39 b5 c4 bb 21 23 04 3d
       0.023928545 -0.0086950045 -0.0060030487 0.032260064
0000e0 6e 31 0a 3d 96 d3 3c bb 61 5c 3e bc f4 8f 34 bc
       0.033738546 -0.0028812638 -0.011618705 -0.011020649
0000f0 14 98 32 3c 2f c9 85 3c 1c 78 dd bb 86 3d 16 bc
       0.010900516 0.016331283 -0.006758703 -0.009169942
000100 d6 51 91 bc 7b 7d f2 3c d9 fc 5e 3b f1 f5 c1 bc
       -0.017739218 0.02960085 0.003402522 -0.023676844
000110 db 2e 61 3b 55 23 93 3b 54 26 aa 3c 2c ea 9a bc
       0.0034360203 0.004490296 0.02077023 -0.01891049
000120 9d 9d e3 bc 08 c5 05 bb 97 5b 9b bc 1b fa 05 bd
       -0.027785117 -0.002041163 -0.018964572 -0.032709222
000130 fc 1b aa 3b ac 32 89 bc f7 0b 5a 3c 59 77 9c 3c
       0.0051913243 -0.016747795 0.013308517 0.019099878
000140 27 ba 37 bc 8e 76 a4 3c 4e 56 36 bb d6 52 89 3c
       -0.011213816 0.020076063 -0.0027822438 0.016763132
000150 94 3d 0a bc f1 f2 0e 3c ba 15 ed bc 56 b5 85 bc
       -0.008437533 0.008724914 -0.028941024 -0.01632182
000160 69 c4 fb 3c c3 d6 a8 bc e4 69 76 bc 09 e2 21 3b
       0.030733304 -0.020610219 -0.015039895 0.0024701378
000170 56 a6 e2 3c 09 d6 ce 3a 67 4f 23 bc a2 10 52 3b
       0.027667206 0.001578034 -0.009967661 0.003205337
000180 8b d5 5e 3c 7e 36 c8 3c 67 44 b4 bc cb 46 59 bb
       0.013600717 0.024440046 -0.022005273 -0.0033153768
000190 71 33 07 bd 0a 99 0d bd c3 b0 a3 3c 48 3a c5 ba
       -0.033008043 -0.034569778 0.019981747 -0.0015047276
0001a0 05 c2 95 bc f6 58 b0 3c 87 1f 6d bc 94 6c c5 bc
       -0.018280992 0.021526795 -0.014472849 -0.024099626
0001b0 13 75 2f 3c 52 ec 52 3b 90 db 95 3c 10 cb 43 bc
       0.010709065 0.0032184315 0.018293172 -0.011950269
0001c0 d7 62 81 bc 24 8c 95 3b 90 7c f6 3c 58 db 2f 3b
       -0.0157942 0.004563825 0.030088693 0.002683362
0001d0 60 b0 5d bc 6d 30 d9 3c 3c 7e a9 3c 12 1d 13 3c
       -0.013530821 0.026512349 0.020690076 0.008979099
0001e0 52 0b b5 3c de 17 e6 3c 95 6d 8a 3b b3 46 7b bc
       0.022100125 0.028087553 0.004224489 -0.01533668
0001f0 b3 92 55 3c 7d 6b 06 3d 07 8e 01 3d a2 82 fb 3c
       0.013035464 0.032817353 0.03162959 0.030701939
000200 8d 96 ae 3c 43 56 9c 3c 8f ec df ba 56 77 12 bc
       0.021312023 0.019084102 -0.001708405 -0.008939585
000210 28 90 91 bc d6 fd c4 ba 80 ca a9 3c 9e 35 b5 bc
       -0.017768934 -0.0015029262 0.020726442 -0.022120293
000220 26 2c 1a 3b 75 21 0d bc d1 47 88 3a f6 68 74 bb
       0.002352485 -0.008613934 0.001039738 -0.0037294007
000230 84 51 b9 bc 1d 2e b2 3c 9a 37 b7 3a bc 8c b5 ba
       -0.022621877 0.021750504 0.0013978363 -0.0013851146
000240 32 57 f1 ba ec bd d9 bb e9 ea d0 3c 47 67 25 3c
       -0.0018412827 -0.006644955 0.025502639 0.010095424
000250 00 a1 aa bc 91 d4 9c bc 9a ce e2 3b 6c 55 3d 3c
       -0.020828724 -0.019144328 0.0069216015 0.011556011
000260 ef 04 7c b9 45 09 c2 bc 09 25 91 3b f4 99 04 bc
       -0.0002403443 -0.02368606 0.0044294638 -0.008093346
000270 29 ef 12 ba c0 51 80 3c 42 4e 76 3a 66 cc cf 3c
       -0.00056050956 0.015663981 0.00093958166 0.02536602
000280 cf 96 4b 3c e3 6d 48 bc 90 66 4f 3c 9d 58 b8 3c
       0.012426092 -0.01223323 0.01265873 0.022503192
000290 c5 ef 0a bb 88 e6 0a 3c 75 33 1c 3c 93 9c 00 bc
       -0.0021200043 0.0084778145 0.009533753 -0.00784983
0002a0 e4 53 8f bc bf 38 84 ba 2e b9 f7 3b 06 a8 90 bc
       -0.017496057 -0.0010087712 0.007559917 -0.017658245
0002b0 11 6c 90 bc 7a e0 09 3c 33 17 45 bc bd 84 cd 3c
       -0.017629655 0.008415336 -0.012029457 0.025087709
0002c0 7f 25 5a bc 6c 99 98 ba fb 52 6e bc 52 81 8b b8
       -0.013314604 -0.0011642403 -0.014546151 -6.652124e-05
0002d0 73 e1 5d bc d0 36 b4 3b fc c2 40 bc 8c a6 41 bc
       -0.013542521 0.005499698 -0.011765238 -0.011819493
0002e0 a0 ba 2d 3c 5f 5f e9 3c a3 36 b8 38 3a f9 2e bc
       0.010603577 0.02848786 8.7839806e-05 -0.010679537
0002f0 8d 0a aa 3c 84 73 bc bc cc 44 88 3c 48 0d 5e 3c
       0.020756984 -0.0230043 0.016634367 0.013552971
000300 33 71 36 bc 98 8d fb 3c 20 96 a3 bc 9b 51 1c 3c
       -0.011135387 0.030707166 -0.019969046 0.009540941
000310 45 6d dc 3b 9b 9e b4 3a 51 56 3b bc cc 3d fe bb
       0.006726893 0.0013780178 -0.011434154 -0.0077588316
000320 f4 64 59 bb 5c 46 f4 bb 24 82 63 bb f5 91 6f 3c
       -0.0033171745 -0.0074546766 -0.003471502 0.014622201
000330 da f4 64 bc b3 a4 bc bc 03 5f 7f 3c 0e 17 96 ba
       -0.013974393 -0.023027753 0.015586617 -0.0011450963
000340 7c 19 8a 3c 6c c0 82 bb ca 7b a3 bc ff f0 07 3c
       0.016857855 -0.0039902236 -0.019956488 0.008297204
000350 ed 42 01 3d 55 ce 8a bc 1f 27 f7 3c 6c 64 c6 3c
       0.031557966 -0.01694409 0.030170022 0.024217807
000360 4f 88 7f bc c3 20 ba bc 23 e4 b6 3c 3d e9 27 bc
       -0.015596463 -0.0227207 0.022325581 -0.010248479
000370 84 d7 8f 3c 0f 31 06 bc 56 0c 1d 3c 20 e0 22 bb
       0.01755882 -0.008190407 0.009585461 -0.0024852827
000380 e6 20 aa 3c 19 bb e4 bb 01 c7 c0 3c c5 4d 99 bc
       0.02076764 -0.0069803116 0.023532392 -0.018713841
000390 7d 0d a6 bb 47 bc ae bc 4e c5 a9 bc 88 82 9d bc
       -0.005067526 -0.021330012 -0.020723965 -0.019227281
0003a0 19 84 63 bc 2f 17 58 bc b0 3d 9d bc ad c9 96 3c
       -0.013886475 -0.013189121 -0.019194454 0.018406713
0003b0 09 a5 4d 3c 63 8f 29 bc 24 97 8d ba 79 99 00 bd
       0.0125515545 -0.010349127 -0.001080249 -0.031396363
0003c0 84 be 54 bc 28 16 d6 3b ed 89 99 3c a0 81 9b 3c
       -0.012984876 0.006533403 0.018742526 0.018982708
0003d0 d1 a4 e5 b9 3b b8 d6 3c ac ed e4 3c d7 ed ff 3b
       -0.00043801081 0.026210895 0.027945362 0.007810335
0003e0 00 d7 f0 3b 10 c7 a6 3b 5c 78 ba 3b 3f 27 11 bc
       0.0073498487 0.005089648 0.0056906175 -0.008859455
0003f0 27 02 03 3d 7c 5f 08 bc 52 df d8 3c 94 5a 42 3c
       0.031984475 -0.0083235465 0.026473675 0.011862416

conv2.bias f4 [64]
000000 01 1e 4d 3c f1 48 32 3c 13 e3 5b bc 6a 5b 1d 3c
       0.0125193605 0.010881648 -0.013420838 0.009604314
000010 d9 78 0c 3c a1 d1 bf bc 95 c1 b5 ba 1a 02 8d bc
       0.008573734 -0.023415389 -0.0013866896 -0.017212916
000020 3c dd 22 3c 92 2a 26 3b 5f 2d 54 bc 38 bd a3 3a
       0.009940442 0.0025354964 -0.01295027 0.0012492305
000030 ea 55 95 3b 5a 18 0f bd 85 8e 34 3b 8e 48 75 bb
       0.004557361 -0.034935333 0.0027550769 -0.003742728
000040 29 ee e8 bc f7 8f 8a 3c 32 eb 00 bc d7 c7 0d bc
       -0.028433876 0.01691435 -0.007868575 -0.008653603
000050 c6 3a ed bc 2f a6 a0 3b 44 9a 81 bb a9 8e 20 38
       -0.02895869 0.004902623 -0.0039551575 3.8279835e-05
000060 9b 01 62 bc 0d 03 c6 bc 7a 89 98 3c 19 ff 3e bc
       -0.013794328 -0.024171377 0.018620241 -0.0116575
000070 ff 48 5a bc 57 a0 d3 3c e7 74 fb b9 ef 92 ab bb
       -0.013323068 0.025833292 -0.0004796155 -0.0052360217
000080 f2 46 e3 3b 30 e1 bd 3c be 24 cd bc 66 9a a8 bb
       0.0069359476 0.023178667 -0.025041934 -0.005145359
000090 78 30 86 3c 03 f5 85 3c e1 81 52 3b 71 27 c2 39
       0.016380534 0.016352182 0.003212087 0.0003703195
0000a0 db 6c 0a bc cc 4c e1 3c 2c 55 af bc df c5 07 bc
       -0.008448805 0.02750244 -0.021402918 -0.008286922
0000b0 b5 a0 18 bc 02 6e 96 3c 6e 64 da ba 7b 41 cd 3b
       -0.009315659 0.018363003 -0.001666201 0.0062639094
0000c0 f4 89 96 3c 81 9b 99 3c 8e 97 aa bc 42 2e 16 3b
       0.018376328 0.018750908 -0.02082422 0.0022915755
0000d0 52 1c 91 bc 0e 31 85 bc 34 72 30 3c 6c a8 c1 bb
       -0.0177137 -0.016258743 0.010769416 -0.00590997
0000e0 a0 f3 a5 bc 76 9d fc ba 76 cb 1f 3c ce 8c db bb
       -0.020257771 -0.0019273001 0.009753099 -0.006700135
0000f0 a0 77 6d bb d0 12 7e 3c 5f 57 76 bc 21 04 d5 3c
       -0.0036234632 0.015507415 -0.015035479 0.026002945

bn2.weight f4 [64]
000000 a8 cb 80 3f 90 76 7e 3f 32 5b 7e 3f 19 15 7f 3f
       1.0062151 0.9939966 0.99357903 0.9964157
000010 8b 39 80 3f 71 74 80 3f 40 83 80 3f b2 24 80 3f
       1.0017561 1.0035535 1.0040054 1.0011199
000020 52 e1 7c 3f e8 b9 80 3f fc 62 80 3f f6 4a 81 3f
       0.9878131 1.0056734 1.0030208 1.0101001
000030 e7 6f 7e 3f 7d 6d 7d 3f 9d ec 7e 3f c6 1e 82 3f
       0.993895 0.9899519 0.99579793 1.0165641
000040 ca 9c 80 3f e2 5f 80 3f 51 26 80 3f 20 81 80 3f
       1.0047848 1.0029261 1.0011693 1.0039406
000050 67 6b 7e 3f f9 b3 7f 3f 0a ef 7d 3f 92 76 7e 3f
       0.9938263 0.9988399 0.9919287 0.99399674
000060 7f c4 7e 3f 08 81 7f 3f 32 89 80 3f 8e 20 81 3f
       0.9951858 0.9980626 1.0041869 1.008806
000070 8b 0b 81 3f 45 ce 80 3f b0 c4 80 3f 50 a8 80 3f
       1.0081648 1.0062948 1.0060024 1.0051365
000080 29 a7 80 3f be 7f 7d 3f d6 9c 80 3f f5 7f 7f 3f
       1.0051013 0.99023044 1.0047863 0.9980462
000090 91 76 7e 3f fb a7 7f 3f a0 76 7e 3f 2b d4 7d 3f
       0.9939967 0.9986569 0.9939976 0.9915187
0000a0 61 05 7e 3f 84 49 80 3f c3 29 7e 3f 4c 6b 7e 3f
       0.9922696 1.0022435 0.99282473 0.9938247
0000b0 61 24 81 3f 30 fa 7c 3f b1 c4 80 3f eb 96 7f 3f
       1.0089227 0.98819256 1.0060025 0.9983966
0000c0 31 17 7e 3f 83 38 80 3f f7 68 80 3f 57 d0 7e 3f
       0.9925414 1.0017246 1.0032033 0.9953665
0000d0 11 ec 7d 3f 70 ad 80 3f 70 98 82 3f e9 21 7e 3f
       0.99188334 1.0052929 1.020277 0.9927049
0000e0 3f e7 80 3f b3 e5 7c 3f 93 76 7e 3f df 75 7e 3f
       1.0070571 0.98787993 0.9939968 0.99398607
0000f0 1c aa 80 3f f5 5b 80 3f cf 39 80 3f e2 3a 80 3f
       1.0051913 1.0028063 1.0017642 1.001797

bn2.bias f4 [64]
000000 b2 c3 c4 3b 31 43 f3 39 1a f5 0b 3b 66 52 b5 ba
       0.006004774 0.00046398633 0.0021355809 -0.0013833761
000010 09 b3 48 3a aa 47 97 39 34 b7 c4 3b 4b c6 b0 bb
       0.0007656073 0.00028854358 0.006003285 -0.005394732
000020 19 b6 c4 bb eb d8 51 3a b9 2e 2e 3c 6f c7 0f 3b
       -0.006003153 0.00080050406 0.010631257 0.002193894
000030 db b7 c4 bb 24 40 a2 39 1c df 0a 3c 90 fa a1 3a
       -0.0060033626 0.00030946836 0.008476045 0.0012357999
000040 43 d5 ba 3b ac 73 91 bb ae 92 65 bc d8 8f c2 ba
       0.0057016923 -0.004438838 -0.014012022 -0.0014843894
000050 c8 72 09 bc 62 b2 83 3b 72 86 bd bb 8f b5 c4 bb
       -0.008389182 0.0040190676 -0.0057838494 -0.006003089
000060 f3 b5 c4 3b 40 74 48 ba 9f 63 e4 3b d9 db 82 3b
       0.0060031353 -0.0007646717 0.0069698836 0.003993493
000070 05 ae b4 3b 44 f3 9a bb 8b b6 c4 3b 1b ef 88 3a
       0.005513909 -0.0047287066 0.006003206 0.0010447236
000080 60 d2 41 3c 03 86 cf bb 4b b7 c4 3b 67 b2 56 bb
       0.011829942 -0.006333114 0.0060032955 -0.0032760145
000090 72 d7 c4 3b 3a a5 cd 3b fb 6f 1b ba 42 24 1b bb
       0.0060071284 0.0062758 -0.0005929467 -0.0023672734
0000a0 99 08 5c bb b7 27 27 bc fb 7c a9 ba bd ee c7 bb
       -0.003357446 -0.01020234 -0.0012930924 -0.006101458
0000b0 de 5b 03 3b 9e ad a2 bb 8d b6 c4 3b eb 6b be 3b
       0.002004377 -0.0049645444 0.006003207 0.0058112047
0000c0 a9 33 c2 bb 90 fa c8 3b e0 dc d0 3b 71 22 63 3a
       -0.0059265685 0.006133385 0.0063739866 0.0008664495
0000d0 cf b3 58 bb 47 05 c5 bb 00 b2 c4 3b 7c 05 b1 bb
       -0.0033066159 -0.006012592 0.0060026646 -0.005402265
0000e0 eb e7 42 3c b0 1a 21 3a 17 b7 c4 3b 84 ad c4 3b
       0.011896114 0.00061456393 0.0060032713 0.00600213
0000f0 51 b8 c4 3b 27 49 2b bc c5 7f 33 bc 25 71 33 3b
       0.0060034175 -0.010454453 -0.010955756 0.0027380672

bn2.running_mean f4 [64]
000000 ee 3d 7d 3f 0f 61 bb bf 2b 29 8f 3f 81 e7 5b be
       0.9892262 -1.4638995 1.1184438 -0.2147503
000010 6f 69 12 bf a4 1f 9b 3e 04 63 fb 3e ae cb 91 bf
       -0.5719213 0.30297577 0.4909898 -1.1390283
000020 d4 b7 83 3f ea 37 cf 3e 92 0f 1e 3f e3 84 46 3e
       1.0290475 0.40472347 0.6174251 0.1938663
000030 42 88 a3 bf 78 8d 16 3f ea d2 88 bf 4c 9c d1 bd
       -1.2775958 0.58809614 -1.0689366 -0.102348894
000040 bf 0f bd bf 00 22 d1 b6 36 93 14 be 2d 35 87 3e
       -1.477043 -6.2326435e-06 -0.14509282 0.26407757
000050 9a fe 5d bf d6 7a b3 3e c5 84 92 bf 74 f0 a2 bf
       -0.86716616 0.35054654 -1.1446768 -1.272963
000060 a5 d3 8a bf 4c ad 23 bf 77 ee 85 bf 63 5e b4 bf
       -1.0845839 -0.63936305 -1.0463399 -1.4091305
000070 2e 7c 57 3f 8a 8c 04 bf 83 2d c4 bf fb 6f d9 3e
       0.8417386 -0.51776946 -1.5326389 0.42468247
000080 47 2f a2 3e 52 58 07 3f eb 5d 08 3f e7 06 05 3f
       0.31676695 0.5286914 0.5326831 0.5196366
000090 3e 01 de bf 0d 81 2d 3f 18 05 db bf e8 58 9b 3f
       -1.7344129 0.6777504 -1.711093 1.2136507
0000a0 8e 8e 1a 3f 3e 8e a8 bf ba fe 6e 3e 69 9d 7e bf
       0.6037377 -1.3168409 0.23339358 -0.9945894
0000b0 9e cf f3 bc 88 6d 38 bf de f2 85 bf 21 f6 3b 3f
       -0.029762086 -0.7204213 -1.0464742 0.7342244
0000c0 eb 8b 04 bf 6b 28 37 3f 0b 77 ee 3e 88 03 b1 bf
       -0.51776 0.7154605 0.46575198 -1.3829203
0000d0 36 8c ac bf dd dc 82 3f 48 57 7b 3f 58 6f 30 3f
       -1.3480289 1.0223652 0.98180056 0.689199
0000e0 f0 5c 8c be 88 81 99 3f e5 c9 c1 bf 24 64 83 bf
       -0.27414656 1.1992655 -1.5139738 -1.0264935
0000f0 b0 fc a9 3f f1 3b 89 bf 4d d7 94 3d e4 cc 89 be
       1.3280239 -1.0721418 0.07267628 -0.26914132

bn2.running_var f4 [64]
000000 03 e0 16 40 81 08 7c 40 70 ea a4 40 fd 90 83 3e
       2.3574226 3.938019 5.153618 0.25696555
000010 56 7d e1 3f c1 c0 95 3e d2 91 91 3f 4d 6b 60 40
       1.7616374 0.29248622 1.1372626 3.5065491
000020 e8 09 55 40 da 71 9d 3e a6 64 b0 3e ba 28 28 3e
       3.3287296 0.30750924 0.3445179 0.16421786
000030 e8 98 56 40 3f 4c 2c 40 c2 de 33 40 b2 44 da 3e
       3.3530827 2.6921537 2.810471 0.42630535
000040 73 83 b0 40 cf a0 e6 3e 57 ed fc 3e 8e 6c 10 40
       5.516046 0.45044562 0.49399826 2.2566257
000050 7c 44 06 40 f3 4e 96 3f fc 9a 55 40 74 e3 7f 40
       2.09793 1.1742843 3.3375845 3.9982576
000060 65 6d 32 40 41 e4 15 40 37 66 89 40 d1 a5 e5 40
       2.787927 2.3420565 4.2937274 7.1764913
000070 43 04 a8 3f 42 8d e9 3f 24 17 aa 40 ac 6c a7 3e
       1.31263 1.8246233 5.315325 0.32700098
000080 24 86 11 3f 25 21 88 3f 37 65 58 3f 9a 33 4c 40
       0.5684531 1.0635115 0.8452944 3.1906495
000090 51 d5 cf 40 c0 a3 70 3f 12 6c a6 40 ce de 6a 40
       6.4947896 0.9399986 5.200692 3.669849
0000a0 66 64 6d 3f e1 3e 88 40 84 bb 60 3f d9 51 32 40
       0.9273132 4.2576756 0.87786126 2.7862456
0000b0 0c 14 54 3e 6a 32 09 40 3a 46 44 40 ab 3b 74 40
       0.20710772 2.143702 3.0667863 3.8161418
0000c0 2e 90 29 40 ef 56 99 3f ce 49 6a 40 33 46 8b 40
       2.649425 1.1979655 3.6607547 4.3523192
0000d0 1f 31 5c 40 a5 30 92 40 87 b5 64 40 9b 14 17 40
       3.440498 4.568438 3.5735795 2.3606327
0000e0 d4 b1 c0 3f f2 58 af 40 0d 19 c6 40 10 c9 b1 40
       1.5054269 5.4796076 6.190558 5.555794
0000f0 27 bc 5a 40 97 4b 33 40 d9 5a 3c 3e 25 ef f8 3f
       3.417734 2.8014886 0.1839403 1.9447981

fc1.weight f4 [96, 64]
000000 8e 90 d6 bd 4a 2b 7e bd 67 cd e3 bd 14 a4 1c 3d
       -0.1047679 -0.062053002 -0.11123162 0.038242415
000010 51 7b 96 3d 50 ad 76 bd 47 ca 36 3d 8d a8 8f 3d
       0.073477395 -0.060223877 0.0446265 0.070145704
000020 6c ed 8b bd 41 8e d7 3b c8 84 ad bd d7 20 09 bc
       -0.06832394 0.0065782373 -0.08472592 -0.008369646
000030 ef 80 90 bd 63 a3 d9 3d 16 51 de 3d 26 8b 17 3b
       -0.07055842 0.10626867 0.1085531 0.002312371
000040 e4 89 6e bc 6d 14 90 bd 13 6c 44 3d 49 52 45 3d
       -0.014559243 -0.07035146 0.04795463 0.048174176
000050 63 17 b4 3d ce 7e bb bd 63 be fc bc 27 2e 10 bd
       0.08793523 -0.091550454 -0.030852502 -0.035200264
000060 ca 58 ac bd 55 62 93 3c aa 4c c3 bd fb 22 cb 3d
       -0.08415373 0.017991224 -0.09536107 0.09918781
000070 1e 26 fa bb ad 28 a5 bb 0a 2f 9a 38 29 f4 ca 3d
       -0.0076339385 -0.0050402493 7.352054e-05 0.09909851
000080 90 55 81 bc 9c e6 d5 bd 72 f9 b8 bd 06 ab b1 bd
       -0.01578787 -0.10444376 -0.09031953 -0.08675198
000090 2a a2 3a 3d 1b dd d3 bc 48 66 df 3d 78 4e 81 3a
       0.045564808 -0.025862267 0.109081805 0.0009865304
0000a0 82 11 b5 bd 07 bb 8e 3d 31 3a 95 bb af 74 4f bd
       -0.0884123 0.069692664 -0.004554056 -0.050648388
0000b0 dd e8 88 bd 7f b2 3d bd fc f8 d1 3b 06 cd 15 bd
       -0.0668504 -0.046312805 0.006407855 -0.03657248
0000c0 c9 0a df 3d 41 b8 8d 3d 0a e7 01 3e d3 b9 8d 3d
       0.10890729 0.06919909 0.1268579 0.06920209
0000d0 fc 67 47 bc 93 38 83 3d b5 ac 03 3c 7e 04 8d 3c
       -0.012170788 0.06407275 0.008036782 0.017214056
0000e0 5b 13 23 bd 4d 40 4f 3d 1c ff d5 3d c6 7d 10 bd
       -0.03981338 0.05059843 0.10449049 -0.035276197
0000f0 74 4a ea bd 58 18 a5 3d 8b 33 1d 3d 37 e3 73 bd
       -0.11439982 0.08061284 0.038379233 -0.05954286
000100 2a 61 07 3e f3 e4 b5 3c ed 80 10 bb 30 08 3e bd
       0.13220659 0.022203898 -0.0022049502 -0.046394527
000110 b1 3d 5a bc 0d 23 aa bc e9 54 cd bc 78 1b d6 3b
       -0.013320372 -0.020768667 -0.025064902 0.0065340362
000120 fb 5b f3 3d 5a 0a b8 bd 73 c4 13 3e 95 3e b9 3d
       0.11882778 -0.089863494 0.14430408 0.0904514
000130 93 87 04 3d 25 a5 d1 bd a4 e9 fe bc 6c 28 68 bd
       0.032355856 -0.10236577 -0.031117268 -0.056679174
000140 ef 65 de bc 35 10 9c bd dc 2f 3e bd 46 1f 9f bd
       -0.027148215 -0.07620279 -0.04643236 -0.07769637
000150 6c 0e bd bd bb 4e 9b 3d f4 d1 c5 3d 9d 63 be 3c
       -0.092312664 0.07583376 0.09659186 0.023240859
000160 ba 42 0a bd 13 21 77 bd d9 2e ab bd 69 fe c9 3c
       -0.03375504 -0.060334276 -0.08358545 0.024657445
000170 32 95 a5 3d 21 58 36 bd 25 da fb 3d fc 35 83 3b
       0.080850974 -0.04451764 0.12297467 0.004004238
000180 a6 d3 7d 3d 83 c3 da 3d 9a 4f 01 3d 3c 6f a5 3d
       0.06196942 0.10681822 0.031570055 0.08077857
000190 a9 2f d0 bc 73 4e 41 3c 7e 5e 82 bc 45 35 fe 3d
       -0.025413351 0.011798489 -0.015914198 0.12412504
0001a0 98 e1 ca 3d 2e dd c5 bd 91 8f bc 3d 44 c6 75 3c
       0.0990631 -0.09661327 0.092070706 0.0150008835
0001b0 0c 31 5b b9 1f c5 b4 3d d2 56 cc 3d 3e d7 96 bd
       -0.00020903739 0.0882666 0.09977497 -0.07365273
0001c0 32 fc ce bd 6b 02 14 3d 8a c7 d0 bd 40 b6 6b bc
       -0.10106696 0.03613512 -0.10194309 -0.0143867135
0001d0 c5 fd 52 bd 40 5d e9 3d 35 98 d3 bd a5 51 24 bd
       -0.051511545 0.11394739 -0.103317656 -0.040116925
0001e0 ff b7 12 3d 67 1c ce 3d 2b a2 18 3d b9 07 81 3d
       0.035820004 0.10064011 0.03726403 0.06300301
0001f0 9e b7 f1 bc 51 3d c7 bd 60 bf cb 3d 0b 66 59 3d
       -0.0295065 -0.09728492 0.09948611 0.05307583
000200 29 d3 6f bc a7 26 aa 3d 3c 28 12 bd 1b fe 6f 3d
       -0.014637747 0.083081536 -0.0356829 0.058591943
000210 c5 3f ef bd c4 78 f3 bd 0a e7 a6 bd cf c1 1d 3d
       -0.11682085 -0.118882686 -0.08149536 0.03851491
000220 c2 dc 84 3d e7 b6 c9 bd 8a a2 6f 3d f4 f4 84 bd
       0.06487419 -0.09849339 0.05850462 -0.064920336
000230 c0 39 ae bd 4b a2 17 3d f7 5e f9 bd f6 64 85 3d
       -0.08507109 0.03702001 -0.12176316 0.065133974
000240 60 09 50 3d cd d3 a1 bd ca 6b 78 bd 92 2d 93 bc
       0.05079019 -0.07901726 -0.06064967 -0.017966066
000250 41 83 46 bc 61 ea bf bd 09 69 ca bd e5 3d 3e 3d
       -0.012116254 -0.09370876 -0.09883315 0.046445746
000260 1f f7 8d 3d 70 8a ca 3d 2d 63 4a bd 81 24 ec bd
       0.069319 0.09889686 -0.049410988 -0.115304
000270 0d 29 87 3d 7f 97 ee 3c 5f 79 ba bc 4d 2f fb bd
       0.06599627 0.029124973 -0.022762952 -0.12264881
000280 f9 95 6b bd 6e 90 6d bd dd 34 e7 3d e7 19 3e 3c
       -0.057516072 -0.057999067 0.1128938 0.011602855
000290 3d 49 2a 3d ab 10 1d bd c2 70 8b bd b1 dd 97 bd
       0.04157375 -0.038345974 -0.06808616 -0.07415331
0002a0 31 95 f3 3c 29 67 87 3d 62 e3 ca bd a0 8f 1a 3c
       0.029734226 0.06611473 -0.09906651 0.009433657
0002b0 7e 40 52 bd 9c c9 b7 3c 28 1f d9 3c 5b a4 53 bd
       -0.051331036 0.022435002 0.026504114 -0.051670413
0002c0 2f be 54 bd 18 70 76 3b 16 c1 0b 3e 21 84 69 3c
       -0.051939186 0.0037603434 0.13647875 0.014252693
0002d0 ba f0 a5 bd 05 3a ec 3d 8f 88 a6 bd ba 93 e3 3c
       -0.081025556 0.11534504 -0.08131515 0.027780402
0002e0 b1 d1 09 bd bb 81 f6 3d 2f 20 d6 bd 1c 8f 01 3e
       -0.033647243 0.12036463 -0.10455357 0.12652248
0002f0 40 e1 12 bd 65 c8 3f 3d 65 0a f2 bd 30 85 36 bd
       -0.035859346 0.04682197 -0.11818389 -0.04456061
000300 2a d4 d7 3d 92 95 7d bd 4e f2 43 ba 1d 14 fc bd
       0.10538514 -0.06191022 -0.0007474766 -0.12308524
000310 de 7b f1 bd 06 94 b6 bd d9 0d 7b bd 0b 74 f3 3d
       -0.11791204 -0.08914952 -0.061292503 0.11887368
000320 53 2e 5e bd 44 d6 b4 bd 04 73 25 bd b4 3c 5f bd
       -0.054243397 -0.088299304 -0.04039289 -0.05450125
000330 5f a4 17 3c 7e 66 2a bd ee 6f e5 3d 91 c9 20 bc
       0.009255498 -0.04160165 0.112029895 -0.009813682
000340 84 21 86 3d 22 2a 47 bb 1f b2 bd 3d 31 2f dd 3d
       0.06549361 -0.0030390103 0.092624895 0.10800017
000350 e4 74 94 bc 47 5a c0 3d 87 1b f9 3d cd 98 76 3d
       -0.018122144 0.09392219 0.121634535 0.060204316
000360 57 3e 45 bd f2 68 83 3c 96 af 91 bd 7a 92 b7 3d
       -0.048155155 0.016041253 -0.071135685 0.08963485
000370 28 95 04 3d a9 d8 31 3d 39 1b 58 3c 26 03 c8 3d
       0.03236881 0.043419514 0.013190084 0.097662255
000380 4b fa d4 bd a5 ae 12 bc 57 b5 e8 3d f3 c7 b5 3c
       -0.10399302 -0.008952771 0.11362713 0.02219007
000390 ac b5 c6 3c 0f 44 0a 3e 12 84 a2 3d 49 e9 c3 bd
       0.02425655 0.13502525 0.07935347 -0.0956598
0003a0 52 05 48 bc 9c f8 82 3c 18 5f 59 bc ce 50 47 3b
       -0.0122083 0.015987687 -0.013267301 0.0030413154
0003b0 d4 c8 8b 3c 26 70 4b 3d 8c c8 a0 3d 91 f6 82 3d
       0.017063536 0.0496675 0.07850751 0.06394685
0003c0 0a dc a5 bc 09 f1 6b bc 38 4f 1e bd c0 83 de bc
       -0.020246524 -0.014400729 -0.038649768 -0.027162433
0003d0 40 4e a5 bc dc 78 b7 3d 09 d7 e2 bc b6 61 b3 bc
       -0.020178914 0.08958599 -0.027690427 -0.021897178
0003e0 05 11 4d bd 8e e9 8f 3d a7 21 96 bd 52 0b 42 3b
       -0.05006506 0.07026969 -0.073306374 0.0029608798
0003f0 22 9b f1 bd 64 c0 a5 3d 4f 3c 5a bd b1 00 b8 bd
       -0.11797167 0.08093336 -0.05328017 -0.08984507
