input/05_cnn_qsar/01_featurize/01_featurize_fda_world/02_CNN/run_files_0.1/model_9.pth (torch, 634400 bytes, 20 tensors)

conv1.weight f4 [128, 1, 11, 42]
000000 b4 e0 85 bb d3 b5 7c 3c 95 9e 47 bd 0f e8 3b bc
       -0.0040856246 0.01542421 -0.04873522 -0.011468901
000010 63 d8 83 bc 47 a7 c4 3c 48 0d 7f 3c ef 8c 74 3c
       -0.016094392 0.024005545 0.015567131 0.014926179
000020 3c 4f e7 3c b6 77 1f bb f3 37 44 3d c5 6e 19 bd
       0.028236024 -0.0024332828 0.04790492 -0.037459154
000030 6c d3 08 bc d3 a6 2e 3d bd ed 29 bd 4b 72 1c 3d
       -0.008351188 0.042639565 -0.04148649 0.038194936
000040 0e 0b 9f bb 3e c4 82 3b 2c c4 b4 bb 2a 47 fe bc
       -0.0048536127 0.003990679 -0.0055165496 -0.031039793
000050 fd d7 c7 3c fd 0c be 3a be 6b aa 3b 8a ab 5c 3c
       0.024394983 0.001449972 0.005200832 0.0134686325
000060 59 df 6a bd 2f 82 e6 3c 2f b1 a2 3c d5 0b 32 bd
       -0.057341907 0.028138248 0.019859878 -0.043468315
000070 68 85 91 bc f5 aa bd bc 6e 88 73 3c 8a b9 60 bc
       -0.017763808 -0.023152808 0.01486407 -0.013716111
000080 d6 46 b6 bc 49 67 24 3d d1 4a 29 bd 72 af 59 ba
       -0.022250574 0.040137563 -0.041331116 -0.00083040365
000090 d7 c8 8d 3c e0 4d 27 3d 90 0f b1 bb 3e 5f 03 bd
       0.017307682 0.04084575 -0.0054034665 -0.032073252
0000a0 25 09 07 3d 40 01 ca bb 38 53 06 3d f7 df 3c 3d
       0.032967705 -0.0061647 0.032794207 0.046112027
0000b0 ce 43 2a bd e0 dc 54 3b a5 88 c2 bb 98 22 97 bc
       -0.04156857 0.0032480285 -0.0059366995 -0.018449113
0000c0 cb e1 eb 3c b1 c7 f7 bc 9e 27 10 3d d4 45 2a bd
       0.02879419 -0.030246587 0.035194032 -0.0415705
0000d0 5f f2 d1 bc 1c c5 16 bd 40 1a 06 3d be e7 43 bd
       -0.025628267 -0.036809072 0.032739878 -0.04782843
0000e0 fe ef 0e 3d 3c e1 26 3d 5c e5 ef bc d7 48 aa bc
       0.034896843 0.040742144 -0.029284172 -0.020786686
0000f0 34 44 d5 bc 56 61 b9 3c 08 a3 f4 3c 1f 8f 48 bc
       -0.026033498 0.022629421 0.029862896 -0.012241154
000100 4a b2 28 bd b2 8f 46 bc 14 61 c6 bc f8 44 0e bc
       -0.041185655 -0.012119221 -0.024216212 -0.008683436
000110 d1 a0 28 bd d9 f2 0b bd 5b 28 39 bc 10 d8 0f 3d
       -0.04116899 -0.034167144 -0.011301125 0.035118163
000120 f2 9c 10 bd c7 68 20 bd b4 b7 75 3c c5 54 af bb
       -0.035305925 -0.039162423 0.0149974115 -0.0053506815
000130 6b 04 85 3c 91 ed 47 3b f8 f8 19 3d 95 57 9b 3c
       0.016237458 0.003050659 0.03759095 0.01896266
000140 bd 42 3d 3d 7c 09 e7 3a 51 e2 d7 bc 73 14 66 bc
       0.046206225 0.0017626728 -0.026353033 -0.014042961
000150 9f 58 81 3c 9c c7 90 bc aa 97 05 bd 03 a4 ce 3c
       0.015789328 -0.017673306 -0.03261534 0.025224691
000160 2b 6f 67 3c 10 aa 14 bd 3c 7f 3f 3d 75 55 45 bd
       0.014125626 -0.036294997 0.0467522 -0.0481772
000170 aa 37 38 3d 09 09 5b bc 99 fc b8 3c 30 26 41 3c
       0.04497496 -0.013368853 0.022581385 0.01178889
000180 ef 82 d4 bc 69 24 04 bd 0d ab fe 3c a0 70 c2 3c
       -0.02594134 -0.032261286 0.031087423 0.023735344
000190 17 5f 0c 3d e8 f8 21 3d fd 83 dc bb 2d 3d a4 bc
       0.034270372 0.039544016 -0.0067296014 -0.020048702
0001a0 80 8b cc bc c5 54 2d 3d 97 af 79 bc fa 50 40 3d
       -0.024968863 0.04231717 -0.015239618 0.046952225
0001b0 d3 30 d1 3c c3 fb a2 3c ba cd 14 bd 09 41 40 bd
       0.025535977 0.01989544 -0.03632901 -0.046937022
0001c0 35 f7 78 3d 7c 61 9a bb 19 e5 e5 bc e9 53 d1 3c
       0.06078263 -0.004711328 -0.028063344 0.025552707
0001d0 67 01 b4 bb ae b3 00 3d a5 40 b6 3c f4 f7 30 3d
       -0.0054933312 0.031421356 0.022247622 0.043205217
0001e0 c7 95 a7 3c 76 42 5a bc 4c b6 d4 bc 69 51 1c bd
       0.020457162 -0.01332151 -0.025965832 -0.038163576
0001f0 85 62 5f bd 14 a7 2c 3c 18 b2 80 3c 6d 4e c4 bc
       -0.054537315 0.010537881 0.015709922 -0.023963178
000200 99 56 ce bc d5 de 18 3d 28 4a 92 3a f3 71 5d 3c
       -0.025187777 0.037321884 0.0011161016 0.013515937
000210 19 46 b8 3c d9 bc 3c bd 79 06 a1 3c 42 80 bd bc
       0.022494363 -0.046078537 0.019656407 -0.023132447
000220 7d 5c 96 3c b9 1b 0d bb d6 0a bc 3c e5 f0 8a 3d
       0.018354649 -0.0021531417 0.022954386 0.06784228
000230 d4 65 ca 3c 5f b7 b9 3c 12 03 7f bc fa 7e d4 3c
       0.024706759 0.022670446 -0.015564697 0.025939453
000240 6b bf 2d bd 47 a9 08 bc 10 47 89 bc f9 c3 1a 3c
       -0.04241888 -0.00834114 -0.016757518 0.009446138
000250 5e f8 7c bc 8d 1e 69 3d 18 41 79 bc 07 0d 82 bc
       -0.015440075 0.0569139 -0.015213273 -0.015875353
000260 ae 15 1d 3d b0 5d 3a bd b1 43 87 3d 38 ff 07 3d
       0.038350753 -0.045499504 0.06604708 0.03320238
000270 a8 46 6f bd fe 9d 30 bd b3 a5 be bb 3c fd 2e 3d
       -0.058416992 -0.043119423 -0.0058180927 0.042721972
000280 08 f2 19 3d f1 7e 05 3c 72 74 69 bc 48 83 48 3c
       0.037584335 0.008147941 -0.014248954 0.012238331
000290 a4 73 be bc 8c bc 78 3c 63 61 f8 3b e2 46 16 3d
       -0.023248501 0.015181672 0.007579969 0.036688693
0002a0 7a 17 ac b9 3f 08 66 bc 7e 6f b0 b8 c1 2a c7 3b
       -0.00032823888 -0.014040052 -8.413101e-05 0.0060780947
0002b0 80 d6 ff ba 78 71 f3 3b 2d 99 10 bd ca 43 38 bd
       -0.0019518882 0.007429298 -0.03530233 -0.044986524
0002c0 93 de cb 3c 96 62 2b bd 5a fe df bc 8e 91 33 3d
       0.024886405 -0.041842066 -0.027342964 0.043839984
0002d0 a7 30 e7 bc 2b 7b 60 3d a5 37 16 3d df a3 19 bd
       -0.028221441 0.054804962 0.03667416 -0.037509795
0002e0 a6 c8 e2 bb 14 8a 5a 3c c8 15 14 3d 4c 44 62 bc
       -0.006920892 0.013338584 0.036153585 -0.013810229
0002f0 5c 94 26 bd 9a 02 1c bd 2c 5d 61 3d 90 39 83 bd
       -0.04066883 -0.03808842 0.055020496 -0.064074636
000300 2d 5d 2a bb 94 89 3c 3d ed f8 b3 3b 77 81 7b 3c
       -0.0025995478 0.046029642 0.0054923207 0.015350691
000310 aa c5 46 3c ef f9 ae bc 7e b8 80 bd d1 5b 96 3b
       0.012132088 -0.021359412 -0.06285189 0.004588582
000320 32 ae 44 bc 7e 70 1b 3d 61 85 a9 bc 77 18 6c 3c
       -0.012004422 0.037949078 -0.020693483 0.01441013
000330 66 5d dc 3c cc ca f8 3c da e0 c9 bc f9 8f da bb
       0.026900005 0.030370139 -0.02464335 -0.006669995
000340 e1 f6 80 3b 70 0a f4 bc 10 e8 c1 bc 90 bd c2 bb
       0.0039356803 -0.029790133 -0.023670226 -0.005943008
000350 4a 3e 92 bb d1 86 45 bc 90 5a 50 3d eb 0b c8 3b
       -0.004462992 -0.0120560685 0.050867617 0.0061049364
000360 26 72 a0 bc 0b 4c 85 bc 22 ee a3 bc 42 6f 02 3d
       -0.01958568 -0.016271612 -0.020011012 0.031844385
000370 4e e9 9a 3a e9 a1 bd 3c 0f 11 d6 bc 11 4f 42 bd
       0.0011818798 0.023148494 -0.026131181 -0.047438685
000380 91 61 a6 3b 0e cc c6 3c 14 5a 6c bd 40 79 c2 bb
       0.005077549 0.024267223 -0.057703093 -0.0059348643
000390 01 1f a5 3c 4a 3c 91 bc ef bf 1e 3d 1a 2a 83 bd
       0.020156385 -0.017728943 0.03875726 -0.064045146
0003a0 c6 3e 10 3c 90 a1 07 bc 3f 31 21 bc 6e c7 01 3c
       0.008804029 -0.008278266 -0.009838401 0.007921083
0003b0 3a 47 36 3b 5b 54 21 3b 74 f3 e6 bc 13 a3 5b 3c
       0.002781345 0.002461693 -0.02819226 0.013405579
0003c0 7b 23 58 bc 72 f8 55 3d 9c ec f0 bc 26 84 36 3c
       -0.013192053 0.05223889 -0.0294097 0.011139905
0003d0 ed e2 ee bc e3 13 b8 3c 11 96 25 bd 83 61 8d 3b
       -0.029160941 0.02247042 -0.040426318 0.004314603
0003e0 05 14 93 3c 63 ee 38 bb 54 b2 a2 3c 94 17 84 bb
       0.017953882 -0.0028218261 0.019860424 -0.004031131
0003f0 f4 d8 85 bc 5c fd 80 bc 61 15 0c bd 6a a8 27 3c
       -0.016338803 -0.015745811 -0.034200076 0.010233024

conv1.bias f4 [128]
000000 b2 1a 8f bb 8d da 26 3d 86 be 1c bc a3 e7 ae bc
       -0.004367196 0.04073577 -0.009566909 -0.021350687
000010 0b 84 68 bd 8f 4a 2a 3d b0 27 03 bd f1 1f 80 bb
       -0.05676655 0.04157501 -0.03202027 -0.0039100577
000020 1f 1a a5 bc a6 4a ca bc 1e 83 d9 3c c4 d7 39 bb
       -0.020154057 -0.024693798 0.02655178 -0.0028357366
000030 2e 9f 2c 3d 03 42 e6 bc cb 6f 9f 3b 4a 0e 24 bb
       0.042143993 -0.028107649 0.0048656217 -0.002503293
000040 ae c7 0f 3d c7 61 01 3d 67 97 f6 bb 5b 08 2c 3d
       0.03510254 0.03158739 -0.007525373 0.042000156
000050 4e 0a 05 bd 4d 0f 62 bb 9b 02 2e bd 29 4c 8e 3c
       -0.03248053 -0.0034493983 -0.042482954 0.0173703
000060 75 26 ab 3b e1 70 19 3d 66 3e 4a 3d 4d 1b 21 3d
       0.0052230903 0.037461165 0.049375914 0.039332677
000070 53 f0 0b 3d 63 bb 67 3d 4a ab 48 3d 39 fe 00 bb
       0.034164738 0.05657519 0.04899148 -0.0019682779
000080 ea c0 35 bd c9 45 d1 3a 07 78 7b bc 0f b5 50 3d
       -0.04437343 0.0015966232 -0.015348441 0.05095392
000090 f1 8e 62 3c 63 39 18 3d 0c 9e 21 bd 27 79 ea 3b
       0.013828025 0.037164103 -0.039457366 0.0071555558
0000a0 30 10 8e bc b4 4d c3 3c 24 1b 60 3d bb 05 4c 3c
       -0.017341703 0.023840763 0.054713383 0.012452538
0000b0 cc 74 b3 3c 03 31 44 bb 5f ad d1 3c 9f e3 ca bc
       0.021906279 -0.002993644 0.025595365 -0.024766741
0000c0 c3 ed c6 3c bf 05 ce bc ba 50 8c bc a1 25 4e bd
       0.024283295 -0.025149224 -0.017128337 -0.050328854
0000d0 60 86 c9 3c 4f ee 0f 3d 52 1e b2 bc 8b 00 d5 3b
       0.024600208 0.03513938 -0.021742973 0.006500309
0000e0 cc f4 da 3c 35 7f fd bc ed 86 09 bd 43 d6 81 3c
       0.026728056 -0.030944446 -0.03357594 0.015849238
0000f0 c9 fd 27 3d aa 5e db bc 6c 2c cf bc 5f 14 e1 3c
       0.041013513 -0.026778538 -0.025289737 0.027475534
000100 50 fe ef bc ad 64 11 bd 0a 2e 74 3c 2a 94 52 bc
       -0.02929607 -0.035496403 0.014903555 -0.012852708
000110 6a 45 46 bd 09 36 3c bc d6 43 80 bc 52 70 5d 3c
       -0.048406042 -0.011487492 -0.015657347 0.013515549
000120 df ad 20 bd 91 cd 1d 3d 64 64 81 3c f7 19 4e bc
       -0.039228316 0.03852612 0.01579494 -0.012579433
000130 c3 bf f7 3b a1 6c 1e 3c c4 18 6b bc cd dc 22 bc
       0.0075607016 0.009669454 -0.014349166 -0.009940338
000140 6e 95 93 bc eb 72 33 bd ac f7 67 3d c2 bb c7 3b
       -0.01801559 -0.043810766 0.056632683 0.0060953805
000150 da 59 e4 bc 55 cc 84 3c 35 e4 8d bc b8 6e d5 3b
       -0.027874876 0.016210714 -0.017320732 0.006513443
000160 b9 81 1e bd a7 d2 c6 3c 88 52 04 bd 40 4a 6c bc
       -0.038697932 0.024270369 -0.03230527 -0.014421999
000170 5d 24 f4 3c e5 9a 10 bd 25 9c e5 bc 53 d6 03 3d
       0.029802496 -0.03530397 -0.028028557 0.032186817
000180 7a 5a 49 bd c2 e1 7c bc 45 a3 31 3c b1 9a e1 bc
       -0.04915855 -0.015434684 0.010842149 -0.027539583
000190 7f 42 03 bd 5f 99 0d bd df e9 92 3c 4f 4d 59 3b
       -0.032045837 -0.034570094 0.017933784 0.0033157652
0001a0 43 16 68 bc 6c d7 7c 3d 6b 54 40 3d bc 81 b3 bc
       -0.014165464 0.06172888 0.046955507 -0.021912448
0001b0 9c b0 01 bd 25 1a ff bc e4 ba 65 3c 1c 29 29 3d
       -0.03166257 -0.031140396 0.014021609 0.04129897
0001c0 0f 07 1a 3d 43 ef 0f bd 4e 59 7c bc 18 30 5c bc
       0.037604388 -0.035140287 -0.015402151 -0.013439201
0001d0 5d 5d ec 3c cb 47 da 3c 95 03 0e 3c 2f 5b fd bb
       0.028853113 0.026645562 0.008667846 -0.007731817
0001e0 e1 a4 fe 3c 12 3b 5c bd a5 3f a5 3c 6f 24 2b 3c
       0.03108448 -0.05376727 0.02017195 0.010445698
0001f0 ed 79 58 3c f4 e8 9a bc 16 05 32 bc d2 6f 6f bc
       0.013212663 -0.018909909 -0.01086547 -0.014614062

bn1.weight f4 [128]
000000 98 a8 7f 3f 46 f8 7f 3f d7 67 80 3f 52 c2 81 3f
       0.9986663 0.9998821 1.003169 1.0137427
000010 a7 08 82 3f f3 60 7d 3f 88 79 81 3f 92 4d 82 3f
       1.015889 0.9897606 1.0115213 1.0179923
000020 a3 be 7e 3f 5c 13 82 3f 09 7f 80 3f a8 f7 7c 3f
       0.9950964 1.0162158 1.0038768 0.98815393
000030 79 48 7b 3f cd f0 81 3f ad 86 82 3f 0f e6 80 3f
       0.9815746 1.0151612 1.019735 1.0070208
000040 bb 17 81 3f 48 0d 7b 3f 2b 28 81 3f ae 59 80 3f
       1.0085367 0.9806714 1.0090383 1.0027368
000050 7b e0 7f 3f d1 eb 7f 3f 27 17 80 3f 43 33 82 3f
       0.99951905 0.999692 1.0007066 1.0171894
000060 d2 ed 7b 3f 8a 2d 7f 3f 9f d6 7e 3f d6 42 80 3f
       0.9840976 0.9967886 0.99546236 1.0020397
000070 ef 7d 7f 3f a4 09 7f 3f 04 a1 7c 3f a7 0f 7e 3f
       0.99801534 0.99624085 0.9868319 0.99242634
000080 f0 b1 80 3f 72 bc 80 3f 44 97 7c 3f 6a 27 80 3f
       1.0054302 1.0057509 0.98668313 1.0012028
000090 cb 39 7f 3f af 4c 81 3f a1 81 7a 3f 0e e6 7e 3f
       0.9969756 1.0101527 0.9785405 0.99569786
0000a0 7f 46 81 3f 02 35 80 3f 2a e6 7f 3f 5f ed 7f 3f
       1.0099639 1.0016177 0.9996058 0.99971575
0000b0 0b 31 7e 3f 14 e6 82 3f 3e da 7d 3f 8a ce 7e 3f
       0.99293584 1.0226464 0.99161136 0.99533904
0000c0 71 5f 81 3f 51 a7 80 3f ff 36 7d 3f ff 23 81 3f
       1.0107251 1.0051061 0.9891204 1.008911
0000d0 3d b1 7f 3f 92 dd 82 3f e8 9a 7e 3f 59 4c 83 3f
       0.9987982 1.0223868 0.9945512 1.0257674
0000e0 ea 9d 81 3f 06 59 7f 3f 26 81 80 3f d7 d2 7d 3f
       1.0126317 0.99745214 1.0039413 0.9914984
0000f0 e3 f2 80 3f 28 38 7d 3f be 4b 80 3f 63 2e 80 3f
       1.0074123 0.9891381 1.0023115 1.0014156
000100 28 e1 7f 3f 6a 31 81 3f cc 10 83 3f e5 92 7e 3f
       0.99952936 1.0093205 1.0239501 0.99442893
000110 7d c1 80 3f 7f 04 7f 3f c9 07 7d 3f cc b9 80 3f
       1.0059048 0.99616235 0.98840004 1.0056701
000120 01 8b 7d 3f b3 55 81 3f 04 4d 80 3f a0 e7 84 3f
       0.9904023 1.0104278 1.0023503 1.0383186
000130 61 41 80 3f 85 42 7e 3f 00 33 7e 3f 1c 9f 7f 3f
       1.0019952 0.9932025 0.9929657 0.99852157
000140 25 45 7e 3f 3a 16 81 3f 20 02 7e 3f 26 1c 81 3f
       0.99324256 1.0084908 0.9922199 1.0086715
000150 c7 3a 81 3f e7 24 81 3f f6 0e 81 3f d1 5a 81 3f
       1.0096062 1.0089387 1.0082691 1.010584
000160 c6 44 81 3f e5 c0 7d 3f dc df 7e 3f 03 b6 82 3f
       1.0099113 0.9912246 0.9956033 1.0211796
000170 0a 8e 7c 3f 51 b3 81 3f 90 da 7f 3f 15 0f 80 3f
       0.98654234 1.0132848 0.99942875 1.0004603
000180 99 b1 7c 3f f4 33 7e 3f 03 99 80 3f 2b e3 80 3f
       0.9870849 0.99298024 1.0046695 1.0069326
000190 22 c5 80 3f b2 8e 7e 3f dc b6 7f 3f e3 67 80 3f
       1.006016 0.99436486 0.99888396 1.0031704
0001a0 f7 dd 81 3f bd e8 81 3f c1 1c 80 3f 30 f9 81 3f
       1.0145863 1.0149151 1.0008775 1.0154171
0001b0 85 a2 7d 3f 5c b5 7d 3f b9 f1 80 3f 80 d2 7c 3f
       0.9907611 0.9910486 1.0073768 0.987587
0001c0 2b a6 83 3f 55 54 81 3f d8 f8 80 3f 54 69 80 3f
       1.0285085 1.0103861 1.0075941 1.0032144
0001d0 2c 3a 7f 3f 4d 45 80 3f 69 17 7f 3f 0c 16 81 3f
       0.9969814 1.0021149 0.99645096 1.0084853
0001e0 20 1f 7e 3f 9f 8c 7f 3f bf 54 82 3f 53 81 80 3f
       0.99266243 0.99823946 1.0182112 1.0039467
0001f0 54 11 82 3f d4 53 81 3f 3c c6 7f 3f d0 14 7c 3f
       1.0161538 1.0103707 0.99911857 0.9846926

bn1.bias f4 [128]
000000 99 bb d0 bb 47 ce e4 ba 00 8f 12 3c 88 8c ca bb
       -0.0063700196 -0.0017456495 0.008945227 -0.0061813034
000010 a4 89 89 bc 1d 28 c4 bb 05 31 8c 3a ed 7d 93 3a
       -0.016789265 -0.005986227 0.0010695761 0.0011252739
000020 62 6e 27 bc d9 a3 cb ba 2b 10 8c ba 4f 37 2c bc
       -0.010219188 -0.0015536501 -0.0010685971 -0.0105112335
000030 f8 ce 3a bd 38 55 4f 3c 7e b6 07 bc 57 3c d6 bb
       -0.045607537 0.012654595 -0.008283256 -0.006537955
000040 a4 b8 3f 3c a3 6c bc bc 62 10 50 bb 76 1a 2d bc
       0.011701737 -0.02300102 -0.0031748046 -0.010565391
000050 cc 9b d9 3a 1a c3 04 bb 4e 72 93 3c 4f 36 c8 39
       0.0016602217 -0.002025789 0.01799884 0.00038187436
000060 4e 90 32 bc 65 48 72 bb c9 fa a4 bc b6 d6 78 3b
       -0.010898663 -0.003696942 -0.020139115 0.0037969775
000070 bf e8 35 bc f3 98 c3 bc 15 d9 8d bc cc 2b 1d b9
       -0.011102854 -0.023876643 -0.017315427 -0.00014989002
000080 43 7d 77 3c 27 6f 54 bc d0 3f 22 bc f2 59 96 bc
       0.015105548 -0.012965954 -0.009902909 -0.018353436
000090 00 ab df 3b 11 d4 ab bc eb c5 08 bc 09 d6 eb b9
       0.0068258047 -0.020975145 -0.008347969 -0.00044982161
0000a0 ba bc 97 bb 67 65 8a 3b 2d 7b 00 bc 6d 6b 86 bc
       -0.0046306523 0.004223514 -0.007841867 -0.016408646
0000b0 3d a8 a7 bb c6 18 1e 3c 2c 91 20 bc 94 3c b0 ba
       -0.005116491 0.009649461 -0.009800237 -0.0013445788
0000c0 b1 96 93 ba 6f ab a0 39 6a 27 b5 b9 68 0a ad 3c
       -0.001126012 0.00030645306 -0.00034552376 0.021123126
0000d0 70 ac e5 ba aa 6e 2f bc 5f d1 e6 bb 9f 85 2d 3c
       -0.0017522704 -0.010707537 -0.007044002 0.01059094
0000e0 79 02 73 3b 73 86 ec 39 12 20 31 3c 56 d4 bc bc
       0.0037080331 0.000451136 0.010810869 -0.023050468
0000f0 d7 a3 7c bc 20 cd 06 bc 90 ff 2b bb 91 84 eb 3b
       -0.015419922 -0.008227617 -0.0026244856 0.007187434
000100 4c 60 64 3b ed d5 88 3c b7 12 4f bc 8c 63 8a bc
       0.0034847436 0.01670357 -0.012638739 -0.01689317
000110 5f c6 d3 bb a9 29 b3 bb ac 3c 99 bc 15 21 9d ba
       -0.0064628567 -0.0054676128 -0.018705688 -0.0011988009
000120 19 ea 91 bc 61 bb e6 ba 7b ef a6 ba 2b f3 85 3c
       -0.017811822 -0.0017603451 -0.0012736166 0.016351303
000130 28 2b 5c bc 3d 50 6d 3a d7 7a b7 bc 3f 06 15 bc
       -0.013438024 0.0009052789 -0.022397442 -0.0090957275
000140 cb fa a4 bc 33 eb 49 3c 61 80 5f bc b5 47 15 bc
       -0.020139119 0.012324142 -0.013641448 -0.009111335
000150 2a cf e1 ba aa 39 76 bc c5 e5 01 bc c6 58 b1 3c
       -0.0017227877 -0.015028397 -0.0079283165 0.021648776
000160 0d 6b 13 bc 88 27 f4 bb 72 9e 4b 3a a0 80 c5 3a
       -0.008997691 -0.0074510016 0.00077674456 0.001506824
000170 21 bc 31 bc 9f e8 0f 3c 68 ba 4c bb 74 bd ec bb
       -0.010848076 0.008783489 -0.0031239036 -0.007224733
000180 4d fa 4d bc 78 b4 c0 bb ef a0 82 3c f4 ec ab bb
       -0.012571883 -0.0058808886 0.01594588 -0.005246753
000190 b8 2a 11 bb 5a 49 a1 bb 34 79 87 bb 0a 58 1d bc
       -0.0022150706 -0.0049220743 -0.0041343216 -0.00960351
0001a0 b2 b5 dc bb 2d af 9a bb fa ac 44 bb 5e 26 c0 bb
       -0.006735527 -0.0047205896 -0.0030010329 -0.0058639487
0001b0 e2 9b 49 bc c2 62 45 bc 76 da 8f bc 03 0b 8a bc
       -0.012305232 -0.0120474715 -0.017560225 -0.016850954
0001c0 22 6a 40 3c 31 84 98 bb 8b aa 72 bb 25 a2 5c bc
       0.011744054 -0.0046544303 -0.003702792 -0.013466393
0001d0 3d 25 22 3c 8a 05 74 bb a5 4a 32 bc c2 b0 25 bc
       0.009896574 -0.0037234747 -0.010882054 -0.010112943
0001e0 17 08 4a bc 8b 61 4c 3b 28 29 65 bc 14 1a 44 bc
       -0.01233103 0.003118607 -0.013986863 -0.011969108
0001f0 3e d2 81 bc 0a 19 4d bc ea c4 d3 ba f5 9e b5 3b
       -0.015847322 -0.012518177 -0.0016156707 0.005542631

bn1.running_mean f4 [128]
000000 9c e3 9d bb 54 b0 38 3d 4b bb ab bc e9 7b 8f bc
       -0.004818393 0.045090035 -0.020963332 -0.01751514
000010 f4 5a 56 bd 1b 56 1a 3c 10 ea 39 bd f9 c4 b8 bc
       -0.052332833 0.009419943 -0.045389235 -0.022554861
000020 31 bc 58 bc 68 22 01 bd 55 9a 98 3c 0d 12 94 3b
       -0.013228462 -0.031526953 0.018628279 0.0045187534
000030 f2 94 32 3d b1 d6 32 bd 68 0a 5d 3a 4e c1 ca ba
       0.043599077 -0.043661777 0.00084320316 -0.0015468986
000040 b4 c5 e3 3c 9b a5 18 3d dd a4 9f bb 70 cd 0e 3d
       0.027804233 0.03726731 -0.004871948 0.03486389
000050 3d 7c 70 bd a7 8e 1b bc 0c b3 59 bd 8f 80 e5 3b
       -0.058712233 -0.00949446 -0.053149268 0.007003851
000060 fc 5f 97 3c 02 b4 57 3d 7c ed 6c 3d 4d 5c 4b 3d
       0.018478386 0.052661903 0.05784367 0.04964857
000070 83 42 b4 3c af 5b 4b 3d 34 c7 50 3d e7 ed 03 bb
       0.022004372 0.049647983 0.050971225 -0.0020130815
000080 09 37 24 bd 4a 5a 90 ba 53 82 24 bb c6 88 3b 3d
       -0.040091548 -0.0011013236 -0.0025102093 0.045784734
000090 84 d2 52 3b 2f 7e 9e 3c 04 18 3c bd 81 13 dc bb
       0.0032168934 0.019347278 -0.04592134 -0.0067161922
0000a0 78 7c 1c bd ff 8c 22 3c 0d e4 59 3d 05 95 00 3b
       -0.03820464 0.009921311 0.053196 0.0019620073
0000b0 72 0a 76 3c 3b 33 80 bc 12 09 08 3d 1a 90 71 bc
       0.015017139 -0.015649429 0.033211775 -0.014743829
0000c0 65 09 c0 3b e3 ac dd bc c1 fb 7e bc f2 c9 4e bd
       0.005860495 -0.027059978 -0.0155629525 -0.05048556
0000d0 71 78 fa 3c 2e 8b f1 3c 16 2e 4d bd 66 2b 7a 3b
       0.030575009 0.029485311 -0.05009278 0.003817284
0000e0 f6 d0 03 3c d8 14 3e bd a3 67 53 bd 19 fa 18 3c
       0.008045426 -0.046406597 -0.051612508 0.009336972
0000f0 17 8b 16 3d b3 44 87 bc df d3 0f bd fb 4b 18 3d
       0.03675374 -0.01651225 -0.035114165 0.037181836
000100 24 05 10 bd 51 1e 33 bd c1 01 72 3c 5d 5c 5a bc
       -0.035161152 -0.043730084 0.014770926 -0.013327685
000110 7e 67 82 bd 64 83 e4 bb aa 4f 05 bc 22 d0 e7 3b
       -0.06367396 -0.006973671 -0.008136669 0.007074372
000120 4f c3 75 bd e5 ee 00 3d 7b 6a a1 3a 33 3a de bc
       -0.060000714 0.031477828 0.0012315059 -0.02712736
000130 9b b5 94 bb a4 0d 16 bb 5b 18 78 bc 01 ff 55 bc
       -0.0045382506 -0.0022896314 -0.015142526 -0.013061286
000140 6e a0 e2 bc 9f 72 54 bd 0b 17 77 3d 99 50 db 3b
       -0.02766439 -0.051867124 0.06032471 0.0066929576
000150 74 56 be bc f8 66 5f 3c ce 97 c4 bc ed ac 65 bb
       -0.023234583 0.0136353895 -0.023998167 -0.0035045699
000160 22 24 63 bd 13 eb c2 3c 3b 2d 4a bd 75 cd b2 bc
       -0.05545438 0.023793733 -0.04935954 -0.021826485
000170 dc 2f ca 3c b4 ca 45 bd 23 e6 e9 bc 6b 96 fb 3c
       0.024681024 -0.048289016 -0.02855212 0.030711373
000180 a7 c0 43 bd 8e 96 4a bc 0e 66 d4 3b 0b b1 48 bd
       -0.04779115 -0.012364997 0.0064818924 -0.048996966
000190 3a d7 36 bd ef 70 18 bd dc 1d 92 3b 09 37 a4 3b
       -0.04463885 -0.037217077 0.004459126 0.0050114435
0001a0 e6 a9 10 bd 98 17 66 3d e6 68 2f 3d 97 57 9d bc
       -0.035318278 0.056174845 0.04282465 -0.019206805
0001b0 60 43 23 bd 9d 1e 22 bd 13 45 82 3c 02 22 37 3d
       -0.039859176 -0.039579976 0.015902078 0.044710167
0001c0 4d 47 a2 3c af bd 1f bd ae 34 ba bc 5b b1 a9 bc
       0.01980939 -0.038999256 -0.022730198 -0.020714452
0001d0 03 c5 0c 3c 13 a2 03 3d 90 0f 10 3b 78 4e f6 bc
       0.008591893 0.032136988 0.0021981932 -0.030066714
0001e0 af 68 fe 3c 81 02 92 bd 6f 64 a1 3c 2d 11 9f 3b
       0.031055776 -0.07129384 0.01970121 0.0048543424
0001f0 af 19 e3 3b 12 9a 01 bd e6 74 2f bc 3d 3e f4 bc
       0.006930552 -0.031641074 -0.010709023 -0.029814834

bn1.running_var f4 [128]
000000 b1 3c 14 3b b6 10 25 3b 57 81 58 3b e9 d6 28 3b
       0.0022619183 0.0025186962 0.0033036077 0.0025762862
000010 4e df 42 3b fb a9 1f 3c 38 f6 97 3b 02 45 9e 3b
       0.002973515 0.009745116 0.004637506 0.0048300037
000020 e0 81 70 3b fe 87 39 3b fa aa 6d 3b 6f 32 67 3b
       0.0036698505 0.0028309817 0.003626524 0.0035277863
000030 cc d2 32 3b b4 07 59 3b 9c eb 1b 3b c0 ec 0c 3b
       0.002728629 0.0033116164 0.0023791557 0.0021503419
000040 30 c6 2b 3b 4a 67 59 3b b1 78 40 3b e3 87 84 3b
       0.0026210658 0.0033173137 0.0029368813 0.0040445193
000050 75 0c e3 3b c3 d9 2a 3b 51 19 46 3b c8 6a 25 3b
       0.006928975 0.0026069738 0.0030227492 0.0025240649
000060 c6 34 33 3b da 45 63 3b 92 9a 41 3b f9 5d 69 3b
       0.0027344688 0.0034679086 0.0029541594 0.003560899
000070 ca 32 40 3b 8e 5e 82 3b 9a c4 4b 3b e6 11 32 3b
       0.0029327148 0.003978557 0.0031092525 0.0027171313
000080 46 3c 3a 3b 6b 01 31 3b 69 61 3d 3b 73 c7 44 3b
       0.0028417273 0.0027008902 0.0028897172 0.0030026108
000090 40 fd 70 3b df 98 aa 3b 5e b3 5c 3b e8 e6 86 3b
       0.0036772043 0.005206212 0.0033676247 0.0041168816
0000a0 b1 95 97 3b 25 63 94 3b 54 fc fa 3a ec 09 83 3b
       0.004625999 0.0045284205 0.0019148686 0.0039989855
0000b0 cc 72 40 3b 0f 94 a1 3b 85 d8 11 3b fd 0a 81 3b
       0.00293653 0.00493098 0.00222543 0.0039380775
0000c0 4e 35 90 3b b3 06 45 3b 50 71 2d 3b 4d 81 4b 3b
       0.0044008857 0.0030063807 0.0026465245 0.003105241
0000d0 f8 e4 69 3b dd 93 5b 3b ee a8 f8 3b c3 57 43 3b
       0.0035689455 0.0033504881 0.0075884974 0.0029806949
0000e0 1d 76 96 3b 7f c4 93 3b cf 12 9f 3b 50 49 22 3b
       0.004591717 0.004509508 0.004854537 0.0024762936
0000f0 da c6 48 3b aa 5c 4b 3b 4d 31 3b 3b 53 7c 56 3b
       0.0030636103 0.0031030574 0.002856332 0.0032727912
000100 de dd 3b 3b f2 1b 91 3b 13 c5 19 3b b8 cf 40 3b
       0.0028666179 0.00442838 0.0023463413 0.0029420685
000110 3f c5 8b 3b bb 87 89 3b 14 0f 4b 3b 9c d6 24 3b
       0.004265457 0.0041970885 0.003098433 0.0025152331
000120 99 87 bb 3b 62 4e 82 3b ad 92 4c 3b f1 4f 81 3b
       0.0057229516 0.003976629 0.0031215355 0.0039462973
000130 55 5d 5d 3b 55 56 72 3b 95 5a 5e 3b a4 d8 36 3b
       0.0033777554 0.0036977727 0.0033928503 0.0027900124
000140 50 ed 50 3b c3 d9 2f 3b 60 99 7d 3b 7a bc 4f 3b
       0.003187973 0.0026832677 0.0038696155 0.0031698034
000150 f7 33 2f 3b f7 11 43 3b 32 d5 47 3b 5a ac 70 3b
       0.0026733854 0.0029765347 0.0030492065 0.0036723823
000160 95 28 86 3b 6b 92 83 3b e6 7f ad 3b 1e 84 36 3b
       0.004094193 0.004015257 0.0052947877 0.0027849744
000170 aa 25 50 3b 9d 13 56 3b b3 33 42 3b be bb 3a 3b
       0.003176073 0.00326655 0.0029632866 0.002849325
000180 7d fd 31 3b 1c 8d 55 3b 10 4d 40 3b 14 60 c4 3b
       0.0027159147 0.0032585328 0.0029342808 0.0059928987
000190 c1 92 61 3b 4b a3 3d 3b 1a f1 55 3b cd 5a 3b 3b
       0.0034419748 0.0028936442 0.0032644928 0.0028588057
0001a0 fa 51 ba 3b cd eb 2e 3b e4 2a 2c 3b db fc 51 3b
       0.005686042 0.0026690841 0.0026270682 0.0032041583
0001b0 a4 16 43 3b 18 86 6f 3b 26 48 f3 3a cd 01 32 3b
       0.0029768134 0.0036548432 0.0018560931 0.0027161718
0001c0 f9 43 9b 3b 11 73 52 3b 8b 67 3d 3b 63 7b 17 3b
       0.0047383276 0.0032112042 0.0028900828 0.0023114316
0001d0 69 66 9b 3b ba 2a 7a 3b 2b 43 5b 3b 34 8a ca 3b
       0.004742433 0.003817244 0.0033456783 0.006181026
0001e0 dc 82 3f 3b 2e d3 d8 3b 72 8c 43 3b 9a 1d 3a 3b
       0.0029222285 0.0066169715 0.002983835 0.0028398992
0001f0 7f 93 26 3b 85 c3 6c 3b be 41 47 3b 00 38 81 3b
       0.0025417504 0.003612728 0.0030404176 0.0039434433

conv2.weight f4 [64, 128, 11, 1]
000000 eb e0 94 bc f2 c7 70 bc 76 e8 b1 3c 83 fe 77 3b
       -0.018173655 -0.014696108 0.021717291 0.003784091
000010 14 9c 33 ba 94 74 a1 3b 29 74 86 bc 8f 0c 00 3a
       -0.00068515656 0.0049272273 -0.016412811 0.0004884684
000020 91 4a e2 3c 48 c6 3f 3c 46 4a 11 3d 20 e6 ec 3c
       0.027623447 0.011704989 0.035471223 0.028918326
000030 1c d4 85 ba de 6c 33 3c 2e d7 d5 bb 95 f0 1c 3d
       -0.0010210308 0.010951249 -0.0065258956 0.038315374
000040 7d 8c e9 3c 43 63 30 3c 5c 52 a7 3b e9 ec 93 bb
       0.028509373 0.010765853 0.0051062535 -0.004514326
000050 22 c9 55 bc f1 a6 0a 3c 2c 19 7e bb 69 f2 0b 3c
       -0.013048442 0.0084626535 -0.0038772328 0.008541682
000060 8c 7a c2 3c 18 ad 42 bb 97 41 ee 3b 68 be 26 bb
       0.023740076 -0.0029705223 0.0072710025 -0.002544308
000070 dc 00 9f 3a 6e 59 f9 3a 8f 7b 81 bc 82 16 9c 3c
       0.0012130993 0.0019023845 -0.015805988 0.019053701
000080 0d 1b de 3b 9b 6c 16 3c f8 fd e1 bb 68 68 10 3d
       0.006778127 0.009181167 -0.0068967305 0.03525582
000090 11 3f 0a bc c4 1f 0a 3a 69 b2 29 bb c7 92 20 3a
       -0.008437888 0.00052690157 -0.0025893694 0.0006125387
0000a0 a9 1e 74 bc 72 06 f6 3a 31 ae 40 bc 39 b1 9d bb
       -0.014899888 0.0018770231 -0.0117602805 -0.0048123864
0000b0 eb 99 b3 3c b3 bc c7 3c ee 25 2e bc cd 1d 72 3c
       0.02192398 0.024381971 -0.01062916 0.014777613
0000c0 87 98 db 3b a2 45 a9 bc a1 8a 78 3b 21 87 97 bc
       0.0067015323 -0.020663086 0.0037924426 -0.018497052
0000d0 7c 3e 6b 3c 01 80 83 bc 67 4a eb bc 79 8c 49 3c
       0.014358159 -0.016052248 -0.028722001 0.012301558
0000e0 62 2d 02 3c d1 39 c0 bc 3e d2 c3 bb 38 f0 15 3c
       0.00794539 -0.023465069 -0.0059759906 0.009151511
0000f0 58 60 8f bc 12 0e 35 bc 12 39 a5 3c 19 8e b3 bc
       -0.017501995 -0.011050718 0.020168815 -0.021918343
000100 57 cf a9 3c fd fd 30 3c 6d 9a 3a 3c 46 7e 8a 3c
       0.02072875 0.010802743 0.011389357 0.016905915
000110 b6 9d 30 bc 60 20 99 bc e5 59 98 bc 7b 70 be 3c
       -0.010779789 -0.018692195 -0.018597553 0.023246994
000120 e0 b0 71 ba c3 85 2b bb de 03 1b 3c c8 ba cd 3c
       -0.0009219777 -0.0026172257 0.009461371 0.025113478
000130 d8 38 4a 3c 81 2a 66 bc e0 5f f8 bb 44 f0 ae 3c
       0.012342654 -0.01404822 -0.0075797886 0.021354802
000140 83 77 a2 bc db a8 0a bc b7 ec 67 3c c1 1d 96 b9
       -0.019832378 -0.00846311 0.014155558 -0.00028632398
000150 91 43 da 3c 08 8a ea 3c be 90 f2 3c 10 2b dd ba
       0.026643546 0.028630272 0.029610034 -0.0016873796
000160 9a 2c ab 3b 19 73 9d 3c 06 57 00 3d fe 70 17 bc
       0.005223823 0.019219922 0.031332992 -0.009243248
000170 bd 7a c0 3c d4 71 0a 3d a1 ae 9f bb 64 4e 67 bc
       0.023496026 0.03379996 -0.0048731123 -0.014117811
000180 78 13 44 3c 15 1c a2 3c 3e c8 cf 3c 7e 69 e7 b9
       0.011967532 0.019788781 0.025364038 -0.0004413835
000190 cc 7f 82 bc ce c5 af bc b0 8e a0 3b 23 83 98 3c
       -0.015930079 -0.021456625 0.004899822 0.018617218
0001a0 b6 82 2b bc a3 cf b6 3c 05 12 66 3b c8 2d a4 bc
       -0.010468176 0.022315806 0.0035105955 -0.020041361
0001b0 8a 11 9c bc 38 a7 9a bc 1f f7 91 bc 28 59 ab 3b
       -0.019051332 -0.018878564 -0.017818032 0.005229134
0001c0 74 d9 0c 3d 1b 6a 3b bc 60 c3 46 bb 46 15 e4 bb
       0.034387067 -0.011438872 -0.0030328855 -0.006960544
0001d0 93 6a b2 3c 02 21 c7 3c 41 78 35 3c b9 14 cd 3c
       0.021779334 0.024307732 0.011076034 0.025034295
0001e0 da fe ba 3b 11 9c 2c 3c c7 67 5e 3c 31 5e 9b 3c
       0.00570665 0.010535256 0.013574547 0.018965812
0001f0 83 0c b0 bc 53 18 28 bc 86 55 e4 bb ff eb c4 3c
       -0.021490341 -0.010259706 -0.006968203 0.024038313
000200 9a ea bc bb 91 37 b8 3c 9e 66 70 bc 5b dd e6 3c
       -0.0057652714 0.022487434 -0.014672903 0.028181722
000210 40 0d 4e ba f1 c5 6b 3b 40 39 d0 3b 5b 63 7c bc
       -0.0007860251 0.0035976137 0.006354481 -0.015404548
000220 1e 5c b7 3c 1e c5 34 bb 96 d3 1e bc fc 53 2f 3a
       0.022382792 -0.0027583311 -0.009694001 0.0006688235
000230 36 a3 1b 3c 03 ec 6a bc e3 a5 b2 3c b3 8e a4 bc
       0.009499362 -0.014338496 0.021807617 -0.020087576
000240 5e fb 96 bc ff d5 83 bc fa 47 b3 3a e7 1e 6a bc
       -0.018430408 -0.016093252 0.0013678067 -0.014289594
000250 64 cf b9 bb b0 be 5a bc 65 8a aa 3c a4 18 bf 3c
       -0.005670475 -0.0133511275 0.020817945 0.02332718
000260 b0 83 7a bc 6c 9c e9 3c 58 ba 80 ba 00 e7 a7 3c
       -0.015290186 0.02851697 -0.000982116 0.020495892
000270 9d 46 ae 3b 6d ac a2 bc 5a 2d 73 39 93 07 bb bc
       0.0053184764 -0.01985761 0.0002319118 -0.02283076
000280 93 93 f4 bc ae bd ac 3c ee d9 dd bc 38 db ed 3b
       -0.029855525 0.02108654 -0.027081456 0.007258799
000290 ff bd d8 3c a8 1d 99 3c f9 2e 95 3c a7 23 fd ba
       0.026457785 0.018690899 0.018210875 -0.0019312993
0002a0 56 c8 83 bb dc 4f 59 bc bb b4 28 bc dc 2e 5a 3c
       -0.0040216846 -0.013263669 -0.010296996 0.013316836
0002b0 09 66 02 3d e9 0d ed 3c 35 e4 a9 3b 3f dd f8 3c
       0.03183559 0.028937297 0.005184675 0.030378936
0002c0 90 20 cd bb 72 ae 58 bc 43 8a 80 3c 4a 44 d7 3c
       -0.0062599853 -0.013225185 0.015690928 0.02627768
0002d0 18 31 68 3c a0 42 51 bc 73 bb ea b9 d1 a1 e8 3b
       0.014171861 -0.012772232 -0.0004477162 0.007099368
0002e0 0b b1 3a bb 0c 55 27 bb 88 40 21 3c 35 5f 8e bc
       -0.0028486873 -0.002553287 0.009842046 -0.017379383
0002f0 e6 61 c4 3c 00 d2 c1 bb 71 2f 19 3c 1f 94 c7 bb
       0.023972463 -0.0059149265 0.00934969 -0.0060906555
000300 9b 0b ac 3c 05 04 ea 3c 05 93 29 bc cb 0f 01 3d
       0.021001628 0.02856637 -0.010349994 0.031509202
000310 7e 01 93 bc 6f b7 bc 3c b4 7f 98 3c 3f 25 06 3b
       -0.017945047 0.023036687 0.018615581 0.0020468978
000320 d6 46 08 3c bb 97 d7 3c 2e 78 85 3b b0 4d a5 3c
       0.00831767 0.026317468 0.0040731644 0.020178646
000330 a6 d4 92 39 ee 8a 92 3c 83 ca 8f bc 1a b1 a2 3c
       0.00028005725 0.017888512 -0.01755262 0.01985984
000340 01 7d 2c 3c a0 6c ab 3c 5e 4b 0f bc de 10 e4 3b
       0.01052785 0.02092582 -0.008745996 0.0069600185
000350 cc 60 31 bc 90 71 a9 3c 58 0f 30 3c 3c af 4e bc
       -0.010826301 0.020684034 0.010745846 -0.012615021
000360 5d c8 34 bc bd d2 9e 3b 40 61 c9 3c 82 68 7a 3c
       -0.011034098 0.0048468993 0.024582505 0.015283706
000370 50 9b bf bc 86 21 8b 3c e3 5a 91 3c 37 96 91 bc
       -0.023389488 0.016983759 0.017743533 -0.017771823
000380 22 66 82 b9 a7 56 1b 3c 37 ea 47 3c 84 f5 72 bb
       -0.00024871627 0.009481109 0.012201837 -0.0037072608
000390 bd 8e 96 3c a5 e7 21 3c 5a 26 10 bc 43 bd 9c 3c
       0.01837861 0.0098818885 -0.008798206 0.019133216
0003a0 94 f9 2f 3b 38 60 95 ba 37 2e 0c 3c ab e6 7e bb
       0.002685164 -0.0011396473 0.00855594 -0.0038894813
0003b0 9e 12 c4 bc da 9c de bc 34 32 e5 bc ee c3 e5 3c
       -0.023934659 -0.027174402 -0.02797804 0.028047528
0003c0 0c 2a 3c 3c d8 c0 de bb 6b c0 5d bb 1d 62 a9 3c
       0.011484634 -0.006797891 -0.0033836614 0.020676667
0003d0 2c 06 da 3c 34 10 e2 ba bd 29 0d 3b 1e b3 fb 3c
       0.026614271 -0.001724726 0.002153977 0.030725058
0003e0 e4 ab ca 3c c1 fb d5 3c ab 34 8a 3c 27 00 cb 3c
       0.024740167 0.026121022 0.016870817 0.024780346
0003f0 2c 03 10 bc 77 b5 4a 3c d7 7b 5d bc c5 81 4a bc
       -0.008789819 0.012372366 -0.013518295 -0.012360041

conv2.bias f4 [64]
000000 df 73 23 3a b4 14 8b 3c 91 d7 a4 3c 5f 7d 4a 3c
       0.00062352227 0.016977645 0.020122321 0.012358992
000010 20 30 cb 3c 30 17 bd 3c 06 f4 3e bb f8 8b 85 3c
       0.024803221 0.023082346 -0.0029137149 0.016302094
000020 f4 6d 9c 3b d3 b2 b4 3b 61 c1 3e bc da dc 8c 3c
       0.0047738496 0.0055144816 -0.011642785 0.017195154
000030 47 33 f0 3a d0 41 d1 3c 77 17 9d 3c 48 2d 81 bc
       0.0018325829 0.025544077 0.019176228 -0.015768662
000040 c2 74 81 3b 82 7c 30 bb 25 84 db bc d8 2f 40 bc
       0.003950686 -0.0026929681 -0.02679641 -0.011730157
000050 77 bd 30 bd 48 94 7c bb 6d b5 e7 3b 7c f3 d0 bc
       -0.043149438 -0.003854053 0.007071188 -0.025506727
000060 bf 02 c3 bb 85 4f cf bc aa 46 84 3c 69 dc 99 bc
       -0.005951255 -0.025306473 0.016146977 -0.018781858
000070 0d 82 ae 3c bc 1f d0 3c 0c 27 80 bc 59 9c b2 bc
       0.021302247 0.025405757 -0.015643619 -0.021803068
000080 ef 4e 47 3c 87 dc 80 bc dd a6 41 bb 41 04 fb bb
       0.012164815 -0.015730156 -0.002954892 -0.007660419
000090 f3 fb b8 3c a1 96 11 bd 24 9c 60 3c 83 01 c9 bc
       0.022581076 -0.03554404 0.013709102 -0.024536854
0000a0 5d fb e0 bb c9 60 82 bc f2 93 05 bd bd 4a 86 3b
       -0.0068659023 -0.015915291 -0.032611795 0.004098265
0000b0 44 30 bc 3c da 10 7f 3c 59 82 a1 3c 60 8e 3f bb
       0.022972234 0.015567983 0.019715475 -0.002922915
0000c0 83 f3 b4 3a cf 8a 9d 3c 48 82 40 bc 2d 18 95 3b
       0.0013805482 0.019231228 -0.0117498115 0.004550001
0000d0 a6 40 88 bc d2 91 97 3c bb 90 b8 3c f0 76 4d bc
       -0.01663239 0.01850215 0.02252995 -0.012540564
0000e0 bd dd 91 bc b1 59 06 3d ec 9a bf bc a9 5a 9a 3c
       -0.017805928 0.03280038 -0.023389302 0.018842058
0000f0 33 57 00 bc 20 0c b6 3b 76 18 b3 bb 13 74 96 bb
       -0.00783329 0.0055556446 -0.0054655625 -0.004591474

bn2.weight f4 [64]
000000 db 65 7d 3f 7a 50 7f 3f 47 f6 7e 3f 6d 76 7e 3f
       0.98983544 0.9973217 0.9959454 0.99399453
000010 b1 c5 81 3f 3c c9 7f 3f 66 fe 7f 3f 9d 70 7e 3f
       1.0138456 0.99916434 0.99997556 0.99390584
000020 4d 06 81 3f cc f8 7b 3f 6e 76 7e 3f 96 a1 7f 3f
       1.0080048 0.9842651 0.9939946 0.99855936
000030 a9 c4 7c 3f d0 26 82 3f 6a 5c 7d 3f 9d 79 7e 3f
       0.9873758 1.0168095 0.9896914 0.9940432
000040 8d 64 7d 3f 9d eb 81 3f 21 23 7a 3f e5 cb 7d 3f
       0.98981553 1.0150028 0.9770985 0.99139243
000050 89 b6 80 3f 8b 4a 80 3f 6c 76 7e 3f 30 13 80 3f
       1.0055705 1.0022749 0.9939945 1.0005856
000060 db 80 7e 3f cd 47 80 3f 58 98 80 3f 7b c7 80 3f
       0.9941537 1.0021912 1.0046492 1.0060877
000070 33 78 7f 3f d0 b8 81 3f fe 59 82 3f 41 e5 7e 3f
       0.99792784 1.0134525 1.0183713 0.99568564
000080 83 15 81 3f 8a 21 81 3f 6c 76 7e 3f 83 2a 80 3f
       1.008469 1.008836 0.9939945 1.0012974
000090 fa fc 7f 3f 81 f0 7b 3f b0 72 7f 3f 9b 72 7e 3f
       0.99995387 0.98413855 0.99784374 0.99393624
0000a0 ac 4e 7e 3f d1 0b 83 3f b8 f8 7f 3f 49 d0 7f 3f
       0.99338794 1.0237981 0.9998889 0.9992719
0000b0 79 b2 7e 3f 68 8c 80 3f 77 9c 84 3f 86 20 7e 3f
       0.9949108 1.0042849 1.0360249 0.99268377
0000c0 7a a3 81 3f 5d eb 7b 3f 5f 76 7e 3f 00 23 82 3f
       1.0128014 0.9840601 0.9939937 1.0166931
0000d0 b7 6c 7e 3f 70 76 7e 3f aa 5e 7f 3f f2 9f 7c 3f
       0.99384636 0.9939947 0.9975382 0.9868156
0000e0 94 47 7f 3f d5 19 80 3f f9 f7 80 3f 48 3b 7f 3f
       0.99718595 1.0007883 1.0075675 0.9969983
0000f0 11 c1 7d 3f 5c cb 7e 3f f8 83 7e 3f 3e 9a 7b 3f
       0.9912272 0.9952905 0.9942012 0.9828223

bn2.bias f4 [64]
000000 2a 51 85 3b f7 0b 7a bb 47 d2 90 3b c8 79 bc bb
       0.0040685134 -0.0038154104 0.0044195983 -0.005751822
000010 a3 0d e0 bb f9 a9 96 bb 34 6b 76 b9 28 c5 c4 3b
       -0.006837563 -0.004597899 -0.00023500324 0.006004948
000020 53 95 51 3a 79 0f 0f bb 42 ef c8 3a 83 99 08 ba
       0.00079949683 -0.002182929 0.0015330093 -0.00052108633
000030 1d 22 b7 3b 37 4d 37 3c 28 d3 c4 bb 03 c8 c4 3b
       0.0055887834 0.011187843 -0.006006617 0.0060052886
000040 6e 98 0e 3c d8 b5 0c bc 27 25 3c 39 ca b8 c4 bb
       0.008703334 -0.008588277 0.00017942917 -0.006003474
000050 0d a3 21 3c 8f 31 46 3a 0f c6 c4 bb 0a a6 84 bc
       0.0098655345 0.00075604854 -0.0060050557 -0.016192455
000060 7c 36 c2 3b 3d 19 8f 3b e6 c6 c4 3b 14 ca ec bb
       0.005926905 0.0043670223 0.006005156 -0.007226238
000070 2c 47 e4 3a ab 1c 70 3c 39 4b 9f 3c e9 a4 c4 bb
       0.001741623 0.0146552725 0.019445049 -0.006001104
000080 7d a0 dc bb 87 66 4a bc 77 c9 c4 3b 2e 15 43 3b
       -0.006732999 -0.012353546 0.006005462 0.0029767263
000090 75 e3 e8 3b 4d b1 de 3b 69 bd c4 3b 91 c6 c4 bb
       0.007107193 0.0067960382 0.0060040248 -0.0060051163
0000a0 8c 39 b4 3b 6d a8 d0 3b 40 cb af 3b 9f a0 93 bc
       0.005500024 0.006367734 0.0053648055 -0.018020926
0000b0 71 65 1f 3b 61 1a 90 bb 84 dc 62 bc 0d 1b b4 39
       0.0024321938 -0.004397676 -0.01384652 0.0003435243
0000c0 b8 8c c4 bb 28 1e c8 b9 46 a1 56 bb 50 c8 c4 3b
       -0.0059982203 -0.0003816944 -0.0032749935 0.0060053244
0000d0 bd 78 b6 bb 02 c9 c4 bb 7a ee 21 3b 5b 4a a8 3b
       -0.0055685923 -0.0060054073 0.0024708793 0.005135817
0000e0 53 25 6b 3c c6 c6 c4 bb 1b 4e 85 bc c1 8c 3f 3b
       0.0143521605 -0.006005141 -0.016272595 0.0029228183
0000f0 d8 3e c0 bb da 92 e5 ba fb c8 c4 3b 73 c8 47 bb
       -0.0058668666 -0.0017515079 0.006005404 -0.0030484467

bn2.running_mean f4 [64]
000000 14 e6 63 3f 23 a6 52 bf e9 e6 50 bf 78 ed 27 bf
       0.89022946 -0.82284755 -0.8160234 -0.65596724
000010 b4 3c 50 3e 62 06 cf 3e c3 55 9f 3f 0c ee 95 bf
       0.20335656 0.40434557 1.2448047 -1.1713271
000020 a6 2f 8f be b8 ab e0 be b2 b5 a0 bf c4 a7 27 bf
       -0.2796604 -0.4388101 -1.2555449 -0.65490365
000030 27 e9 7c 3f c9 0e 28 be 4d ad 8b 3f bd 47 a7 bf
       0.9879326 -0.1641189 1.0912262 -1.3068768
000040 ef af c5 be da 0d a6 3e 9e 60 8a 3f a8 35 82 be
       -0.3861079 0.32432443 1.0810735 -0.2543156
000050 2e f5 f7 3e e5 8c 9e 3f 7b f0 70 bf 8f 78 28 3f
       0.48429245 1.2386748 -0.94116944 0.6580896
000060 c7 b3 bf bf d6 7b 28 3f 90 2c 57 bf 56 a6 41 bf
       -1.4976739 0.6581396 -0.8405237 -0.75644433
000070 a0 4b 24 3f 0c 13 00 be 4f 2a 2f bc 7f cd 23 3f
       0.64177895 -0.12507266 -0.0106912395 0.6398544
000080 54 1b 7d 3f 73 f3 80 bd 5c 1b d9 bf 2c ac 84 3f
       0.98869824 -0.06296434 -1.6961474 1.0365043
000090 c5 3c 61 bf fa c6 81 3d 9b 8f 7f 3f a5 74 da bf
       -0.8798335 0.0633678 0.998285 -1.7066847
0000a0 33 41 db 3e 07 ea a5 3f 24 8e 97 bf bb ab aa bd
       0.4282318 1.2962044 -1.1840253 -0.08333536
0000b0 ce a5 45 bf 13 3b 0b 3f b4 6a 51 3f 81 ab b0 bf
       -0.7720612 0.54387015 0.8180344 -1.3802339
0000c0 3e 8f 87 3f 7b b0 11 bf 4f 3a db bf 0b bd 9c 3f
       1.0590589 -0.5690991 -1.7127169 1.2245191
0000d0 42 b7 c8 bf 85 ce 87 bf bf 16 10 bf c7 1d 75 3f
       -1.5680926 -1.06099 -0.5628471 0.9574856
0000e0 59 3e f5 be fb 6e 5a 3f b9 ed 72 be 2d 26 06 3f
       -0.4789913 0.8532559 -0.23723496 0.52402
0000f0 be c5 7c bf 78 cf 0d bf 57 80 c3 3f 0c 0a 42 3e
       -0.9873923 -0.553947 1.5273541 0.18949145

bn2.running_var f4 [64]
000000 86 b8 02 40 c5 2b 0f 40 cf 42 30 40 75 a0 b0 3f
       2.0425124 2.2370465 2.7540777 1.3798968
000010 7d 59 ba 3e 02 46 8f 3f 64 25 4a 40 c1 65 46 40
       0.363964 1.119324 3.1585321 3.0999606
000020 00 ea 38 3e a5 27 ca 3e 24 d6 32 40 5d ed 34 3f
       0.18058014 0.3948337 2.79432 0.7067469
000030 8c 94 11 40 9a 0a 94 3e cf d5 26 40 46 05 84 40
       2.2746916 0.28914338 2.6067998 4.1256437
000040 a8 79 2f 3f 2c 8e ca 3e cc 6a 2f 40 51 d1 67 3f
       0.6854501 0.39561594 2.7408934 0.90553766
000050 0e 48 25 3f 4d 0d 2b 40 cd 1d 2b 40 60 01 31 40
       0.6456307 2.6726868 2.673694 2.765709
000060 51 4a 64 40 df c8 46 3f 2a 22 37 40 84 57 03 40
       3.567036 0.77650255 2.8614602 2.0522165
000070 5e 4a b3 3f b7 d1 67 3e 52 20 84 3e 45 0a ba 3f
       1.400707 0.22638594 0.25805908 1.4534384
000080 76 79 90 3f 82 8a 38 3e 28 16 82 40 72 48 23 40
       1.1287067 0.18021587 4.0652046 2.5512967
000090 49 b8 ff 3f 8f 97 c8 3e 13 aa 0e 40 4e 0d 85 40
       1.9978114 0.3917813 2.2291305 4.157874
0000a0 9d 85 ec 3e 33 ea ce 3f 82 3b 42 40 4d 18 30 3e
       0.4619569 1.6165222 3.034882 0.1719677
0000b0 85 6c ff 3f 63 81 b2 3f a8 d9 4d 3f 0c 71 5a 40
       1.9954993 1.3945736 0.8041024 3.4131498
0000c0 db 7c 05 40 48 14 77 3f d1 02 63 40 e9 ad 05 40
       2.0857456 0.9651532 3.547047 2.0887396
0000d0 32 29 3d 40 64 fb b4 3f c2 e0 9e 3f d1 1b 51 40
       2.9556394 1.4139218 1.2412341 3.2673228
0000e0 d0 7e 41 3f 8c 09 6b 3f 98 4c bf 3e 1c ac 97 3f
       0.75584126 0.9181144 0.37363124 1.1849399
0000f0 b4 f9 10 40 2d c1 b4 3f 27 4a 90 40 e3 cc 45 3e
       2.2652407 1.4121453 4.509052 0.1931644

fc1.weight f4 [96, 64]
000000 d8 7f 61 bd b5 3b 58 3d 7c 2a 09 be 69 00 e9 3c
       -0.055053562 0.052791316 -0.13395113 0.028442578
000010 48 a6 d0 3d b1 d3 55 b9 d5 a6 c1 3d 79 87 86 3d
       0.10187966 -0.00020392124 0.09455649 0.06568808
000020 e0 55 66 bd 84 ef bc 3d 3c 72 8e bc 18 37 0b 3e
       -0.05623424 0.092253715 -0.017388456 0.13595235
000030 09 4c ce bd ee c6 ed 3d f7 e0 94 3c a8 56 5f 3d
       -0.10073096 0.116102085 0.018173678 0.054526
000040 47 ad f1 3d 99 d5 84 bd 7d b6 6d 3d 69 6c 67 bd
       0.11800628 -0.06486053 0.058035363 -0.056499872
000050 ce 84 b6 3d 4a 2f a3 3b d2 7a 5b 3d a9 a9 85 3d
       0.08912049 0.0049800025 0.053583927 0.06526501
000060 54 84 12 3d 63 0b d4 bc d4 eb 00 be fe 53 1f 3d
       0.03577073 -0.025884336 -0.12589961 0.03889846
000070 7d 0d b8 3c 08 6a ac bc 45 4d a0 3c a5 e0 ec 3d
       0.02246737 -0.021046653 0.019568095 0.11566285
000080 cf 75 18 3d 5f 0f c5 3d 0c be 5d bd f8 5c 72 3d
       0.037221726 0.096220724 -0.05413632 0.059170693
000090 20 1c a1 bd 7c dd 23 bd 4f e1 ce bd a3 0e c2 ba
       -0.078666925 -0.040006146 -0.10101568 -0.0014805387
0000a0 55 c6 67 3d ba e7 fa 3d 3f 43 1d 3d ea bb ba bd
       0.05658563 0.122512296 0.03839421 -0.09117873
0000b0 00 93 f6 bd ee 86 00 be 33 78 38 bd 20 26 5c bb
       -0.12039757 -0.12551472 -0.045036506 -0.003359206
0000c0 3e a1 f3 bd a9 c8 c8 3d 68 96 04 be e4 4c 1c bc
       -0.11895989 0.09803898 -0.12948 -0.0095398165
0000d0 31 c0 ef 3d d0 6e be bd d1 86 84 bd 9b df 3a bc
       0.117065795 -0.092984796 -0.06471027 -0.011405851
0000e0 1b 2e a9 3b 12 b6 01 bd df 09 86 bd 10 51 d3 bb
       0.005162967 -0.031667776 -0.065448515 -0.0064488724
0000f0 42 2a 48 bd 87 05 87 bc 68 d3 52 3d 92 28 ba 3c
       -0.048868425 -0.016482128 0.051471144 0.022724424
000100 e7 bb 76 bd 4f 5e f9 bd c5 c5 9e 3d 78 d9 03 bd
       -0.06023779 -0.12176191 0.07752565 -0.032189816
000110 48 2a b2 3d 44 d7 82 3c 04 c9 c5 bd d0 ee d6 bd
       0.08699471 0.015971787 -0.09657481 -0.104947686
000120 1a ea 90 bc ed d9 bb bc 8e 2e f0 bc 32 77 72 3d
       -0.017689753 -0.022931064 -0.029319074 0.059195705
000130 18 a1 b5 bd 5b cd 58 3d 15 b5 12 3c 37 f2 22 3d
       -0.08868617 0.052930217 0.008954306 0.039781775
000140 bf cc 96 bb ad 5e 59 bd 73 49 69 3d 71 ab bb 3d
       -0.0046020444 -0.053068805 0.056954812 0.09163559
000150 fe e6 92 bd 05 29 44 bd 65 59 67 3d 2c 20 05 be
       -0.071729645 -0.04789068 0.056481738 -0.13000554
000160 2b cc c1 bc ec 05 1a 3c b5 0d bb bd e2 cd 94 bc
       -0.023656925 0.009400826 -0.09133474 -0.018164579
000170 a1 82 d8 3c b8 ad d1 bd 74 f2 40 bd 1b 56 71 3d
       0.026429476 -0.10238212 -0.04710622 0.058920007
000180 07 68 36 3d 22 8b a7 3d 6e 9c a3 bb 7b 2b c7 bd
       0.044532802 0.08180834 -0.004993013 -0.0972509
000190 44 95 86 bd c4 d2 c2 3c ea 9a c4 3d 2e 66 97 3d
       -0.06571439 0.023782142 0.0959986 0.07392536
0001a0 20 12 a7 bd 0a 83 5e bd fe c4 33 bd 65 8d c8 3d
       -0.08157754 -0.054324187 -0.04388904 0.09792594
0001b0 d7 dc ef 3d 84 0d 02 be 97 4e 08 be 28 dd c6 bd
       0.11712044 -0.12700468 -0.1331123 -0.09710151
0001c0 13 65 8d 3d ee eb b5 3d 95 55 76 3d 50 36 ad bd
       0.06904044 0.08882891 0.06014021 -0.08457625
0001d0 d6 3d 01 3c 56 7e 1a 3d c3 76 18 3d 59 4e a7 3d
       0.007888278 0.03771814 0.037222635 0.081692405
0001e0 5d 25 4f bc 71 0a 16 bd 39 44 de 3d 3f 9b 5b 3d
       -0.012643185 -0.03663105 0.10852856 0.05361485
0001f0 c5 8b e2 bd a7 90 3b 3c 1b 33 be bb 26 d4 86 bd
       -0.11061815 0.011448062 -0.005804432 -0.06583433
000200 8d b3 10 3d 1f 06 af bc bb db f5 3c b1 25 06 3e
       0.035327483 -0.021365223 0.030012002 0.13100316
000210 17 7a f1 3c f1 32 9c 3c 61 c5 b0 bd b7 f8 85 bd
       0.029477162 0.01906726 -0.08631397 -0.06541579
000220 42 63 13 3e 83 b5 5d 3d 7c fd 9c 3d 4c bf 78 bd
       0.14393333 0.05412818 0.07665536 -0.06072931
000230 55 66 b4 3a 36 a1 71 bd 3b 95 b4 bd 9f 12 c8 bc
       0.0013763407 -0.058991633 -0.08817526 -0.024422942
000240 69 ac 0a 3e 79 c4 06 3d ac fd 62 bd 47 13 24 3d
       0.13542332 0.032902215 -0.0554177 0.040057447
000250 47 1e 4b 3d c1 b5 06 be 6d 8f b0 3d b1 73 2b bd
       0.04958942 -0.13155271 0.08621106 -0.04185838
000260 a2 5a 14 bd 1c 20 23 bb 03 85 2d bd d0 70 96 bd
       -0.036219247 -0.0024890965 -0.042363178 -0.07345736
000270 83 db 59 bd d9 b1 40 bd 15 e7 d6 3b d4 e0 a2 3d
       -0.05318786 -0.04704461 0.006558309 0.07953039
000280 bb 96 eb bd 9c a9 43 3d 88 71 c3 bc 32 59 f0 3d
       -0.11503359 0.047769174 -0.023857847 0.11735763
000290 96 6d d2 3d 1f 4b 17 3c 67 19 d2 3d f6 9e 53 3c
       0.10274808 0.009234219 0.10258751 0.012916317
0002a0 b2 37 83 bc e4 0f 71 bd 8a e7 9a 3c ca 70 d9 bd
       -0.016017769 -0.058853045 0.018909235 -0.10617216
0002b0 0c e8 b2 3d e8 cc f2 3d 22 89 9a bc cb 64 23 bd
       0.08735666 0.11855489 -0.018864218 -0.039891046
0002c0 f6 06 b1 3d c9 2e d4 bc c8 21 e3 3d e2 f5 c4 3d
       0.08643906 -0.025901215 0.11090428 0.09617211
0002d0 e8 f5 9d 3d 2a c7 e6 bd 38 c3 ad 3d 85 93 8b 3d
       0.077129185 -0.11268456 0.08484501 0.068152465
0002e0 05 33 63 3d fd 2a 47 bd 1d 66 33 3b 07 b6 05 3c
       0.055468578 -0.04862498 0.0027374097 0.0081610745
0002f0 54 e4 86 3d ec 98 a5 3d 9e f1 c8 3d b2 14 95 bd
       0.06586519 0.08085808 0.0981171 -0.07279338
000300 7c 01 4b bd 0f 9f a4 bd 0d 24 b7 3d e0 de df bd
       -0.049561962 -0.080381505 0.08942423 -0.10931182
000310 2e 2e b0 bc 80 de d4 bc a2 d9 97 3c 30 f1 c2 bc
       -0.021506395 -0.025985003 0.018536393 -0.023796648
000320 83 ce f0 bc 92 48 a3 3b 54 49 24 bc c2 a1 b3 bd
       -0.029395347 0.0049830163 -0.010027248 -0.08771087
000330 39 4b 5c 3c 80 ab 85 bb 86 67 01 bc 1b 01 f3 3d
       0.013445669 -0.0040792823 -0.007898217 0.11865445
000340 6c fe 17 be 8b 0e 02 3e 8a 21 09 3e 4d 24 67 bd
       -0.14843148 0.1270086 0.133917 -0.056431103
000350 79 e5 96 bd 84 6e 7d bc e6 b1 f7 bc bc 69 b9 bd
       -0.07367987 -0.0154682435 -0.030236196 -0.0905337
000360 fb a8 a1 bc ba 3f 7e bd a5 42 90 bd 4e 34 c0 3c
       -0.019733896 -0.062072493 -0.070439614 0.02346244
000370 90 3b 59 bd 97 90 8b 3c 50 a3 57 bd bf a7 91 bd
       -0.05303532 0.01703672 -0.05264598 -0.07112073
000380 28 5f f7 ba 70 eb b8 bd f7 da c5 3d c3 a4 da bd
       -0.0018872963 -0.09029281 0.09660905 -0.10675957
000390 96 1d 07 bd 17 fa 8b bd db 48 a2 bc 58 c5 7f bb
       -0.0329872 -0.0683481 -0.01981013 -0.0039027538
0003a0 30 2b 93 bc 13 49 73 3d ae 17 24 bd 3d e9 ee bd
       -0.01796493 0.05939586 -0.040061645 -0.116655804
0003b0 26 d3 a1 3d ca 7f 94 3d 61 2a 80 bc 60 26 77 bd
       0.079016015 0.07250936 -0.015645208 -0.06033933
0003c0 8b ba d4 bd 77 c6 a0 3d 54 7e fb 3c 43 3b 5a 3c
       -0.10387143 0.07850354 0.030699886 0.013319793
0003d0 91 6a c4 bd ff 7c e7 bc e5 ca 55 bc 21 c0 b9 bd
       -0.095906384 -0.028257845 -0.013048862 -0.09069849
0003e0 0a ce 84 3d e2 2e 84 3d c1 c4 ec bd 8c e3 de bd
       0.06484611 0.06454255 -0.11560965 -0.10883245
0003f0 de 17 de bd 59 1f 83 bd 51 1b f2 bd 57 07 c2 3d
       -0.10844396 -0.064024635 -0.118216164 0.09474056
