input/05_cnn_qsar/01_featurize/01_featurize_fda_world/02_CNN/run_files_0.1/model_4.pth (torch, 634400 bytes, 20 tensors)

conv1.weight f4 [128, 1, 11, 42]
000000 c9 c3 e0 bc fa 9f 32 3c b6 35 00 ba b7 48 c3 b8
       -0.027437108 0.010902399 -0.0004890816 -9.311869e-05
000010 86 57 6f 3b 9d 68 34 3d 0b 69 1e 3d 4d a4 69 bc
       0.0036520674 0.04404508 0.038674396 -0.014260364
000020 0e e1 0c bd f3 b4 1e bd c6 bf 31 bd 89 d9 72 bc
       -0.034394316 -0.038746785 -0.04339578 -0.014822372
000030 5b a3 d6 3c d2 e5 31 3d c7 0d 8d 3c 23 26 1f bc
       0.02620094 0.043432064 0.017218484 -0.009713682
000040 c8 79 27 bd 98 71 81 bc 48 a3 43 3d 36 79 f0 bc
       -0.040887624 -0.015801236 0.04776314 -0.029354673
000050 bc 2b 00 3c 34 cd 4b bc 02 6a 6f bb 42 2e 92 3c
       0.007822927 -0.012439061 -0.0036531691 0.017844323
000060 0b 0e 2e 3d 10 ff bb ba d3 b9 31 3d d4 bd 3a 3c
       0.04249386 -0.0014342982 0.043390106 0.011397798
000070 e1 fe a9 3c e7 2b 88 bc e2 e9 d6 3c ae 6c fa 3c
       0.020751419 -0.016622497 0.02623457 0.0305694
000080 d0 ed e8 3c 1f ed 31 3d 27 f9 38 3d 20 aa f8 3c
       0.02843371 0.043439027 0.045159485 0.03035456
000090 52 25 cc 3c 82 11 c3 3b 78 96 e3 bc 08 49 73 bc
       0.02492014 0.005953015 -0.02778171 -0.014848955
0000a0 c3 cf 8d bc e0 77 3e 3d 15 ea 0a 3c d1 1a cf bc
       -0.017310983 0.04650104 0.008478661 -0.025281342
0000b0 e5 b4 4b 3c 28 9b 4d 3d 9f 66 06 ba c8 62 02 3d
       0.012433265 0.050196797 -0.0005126986 0.031832486
0000c0 97 0c 82 3c 42 01 0d bd 7c 3c 84 bc bf 71 ea 3b
       0.015875144 -0.034425028 -0.016142122 0.007154673
0000d0 24 4b 0b 3d a9 40 36 bd 18 15 5f bc 16 b1 a0 3c
       0.034007207 -0.04449526 -0.013615869 0.019615691
0000e0 ed bc 36 3d 41 50 de 3c 8d 33 d9 3c bc 18 16 3d
       0.044613767 0.027137877 0.02651384 0.036644682
0000f0 33 76 2a bd 3a 75 0e bd 72 84 c4 3b 67 47 88 3c
       -0.04161663 -0.034779765 0.005997234 0.01663561
000100 d1 31 17 bd 24 f9 2e 3d fe 0d 77 bc a8 51 26 3c
       -0.036912743 0.042718068 -0.01507902 0.010151304
000110 20 07 e4 bc 64 e0 b9 bc c2 37 9d 3c 7a a8 8b 3c
       -0.027835429 -0.022690006 0.019191626 0.01704811
000120 4f d5 13 bc b3 50 41 3d 24 69 2c bd e8 63 eb bc
       -0.009023025 0.0471961 -0.042092457 -0.028734162
000130 24 09 cb 3c b1 76 14 bd 08 4f 21 3c a3 76 b4 3c
       0.024784632 -0.036246005 0.009845503 0.022029227
000140 0e 7a b3 bc 52 55 27 3d e2 b1 e1 bc 09 c9 ca bc
       -0.021908786 0.040852852 -0.027550641 -0.024754064
000150 96 17 45 3d aa 41 bf bc 84 ad 0a 3b 58 06 04 bc
       0.048118196 -0.02334674 0.0021160552 -0.008058153
000160 7d 47 a6 3c 33 a5 ea 3c 19 71 41 bd 29 29 09 bd
       0.02029776 0.028643226 -0.047227 -0.03348652
000170 8f 8e 45 bc d6 a9 38 3c 7b ec c0 bc 2e 59 e8 3c
       -0.012057914 0.011270961 -0.023550263 0.028362837
000180 0c ce 51 bc b6 6b 0d bd 1b 37 33 3d bd 54 a9 bc
       -0.012805473 -0.03452655 0.043753725 -0.02067029
000190 9c c0 0a 3c a3 f1 e9 3c cc 62 c3 3c 62 e0 8d 3c
       0.008468773 0.028557604 0.023850821 0.017318908
0001a0 1a 96 af bc 3b c0 57 bd 8c 48 2e 3d 72 1c 30 bd
       -0.021433879 -0.05267356 0.042549655 -0.042995878
0001b0 6e bb 34 bb f2 67 fa bb 4f 09 56 bc 0b 6d 2a 3c
       -0.0027577537 -0.007641786 -0.013063743 0.010401974
0001c0 e7 6b ec 3c c9 5c c8 bb 83 68 05 bc 74 63 9f bc
       0.028860046 -0.0061145765 -0.008142593 -0.019456603
0001d0 2f ce 04 bd 9e f1 89 bb 8b 68 2d 3d 3e 24 9e 3c
       -0.032423194 -0.004209711 0.042336028 0.019304391
0001e0 34 ca 17 bd 7d a8 99 3c 01 fe 53 bc f7 28 11 bd
       -0.03705807 0.0187571 -0.012938977 -0.035439458
0001f0 2f 9d 9e bb 71 3d 03 3d 81 1f f3 3c b2 45 5d 3d
       -0.004840515 0.032041017 0.029678108 0.054021545
000200 08 ab 29 bd 0d 08 90 bc a6 26 fe bc 20 96 1a 3d
       -0.041422874 -0.017581964 -0.031024288 0.037740827
000210 3a f2 8a bc a8 42 23 3c b3 01 03 3d ee 80 04 3d
       -0.016961206 0.009964623 0.031984042 0.03234952
000220 66 46 bb 3c ec b3 ee 3b 89 50 97 bc 84 58 f0 bc
       0.022860717 0.007284632 -0.01847102 -0.029339083
000230 a1 66 19 bd 6a 84 02 3d 28 53 21 bb 99 80 4b bd
       -0.03745139 0.03186456 -0.0024616215 -0.049683187
000240 91 be 10 bd 97 06 a2 3c b2 06 0f 3d 36 e5 6e bc
       -0.03533799 0.019778533 0.034918495 -0.014581015
000250 34 b6 51 3b b0 e5 bb bc 63 99 80 bc ad 5a 5a 3c
       0.003199947 -0.022936672 -0.01569814 0.013327283
000260 5c 25 db bc 76 53 b4 3a f6 e4 3f bc c9 64 42 bc
       -0.026751213 0.0013757783 -0.011712303 -0.011864849
000270 95 54 e2 3b 84 37 2f bd 77 8b 47 3c c9 f6 e0 3c
       0.0069070556 -0.042777553 0.012179247 0.027461426
000280 cc 3f 2e 3d 7a ac 07 3d 2c 10 2b bd ac b5 6a bc
       0.04254131 0.03312347 -0.04176347 -0.0143255405
000290 3a 1a b5 bc 4a 90 90 3b b2 18 d2 3c 51 ee 34 3d
       -0.022107232 0.004411732 0.025646541 0.04417259
0002a0 84 c1 ba bc 00 05 bc 3a b0 5e 11 3c b4 2b 53 bc
       -0.022797354 0.0014344752 0.008872673 -0.012888838
0002b0 d3 e5 2a bd 60 ba 04 3d e4 67 06 bd 50 40 b2 bc
       -0.041723084 0.032404304 -0.03281392 -0.021759182
0002c0 03 97 89 bc 5c 0a 3d 3d 2c 3b 2e bc 77 a6 2f bd
       -0.01679564 0.046152458 -0.010634225 -0.042883363
0002d0 4d 1a 18 bd 11 ea 1f 3d 06 be 17 3d 1a 0c 3e 3d
       -0.037134457 0.039041582 0.037046455 0.04639826
0002e0 8c 84 c2 bc a5 86 0c 3d 7c 69 21 3d 51 dd f1 3c
       -0.023744844 0.034308095 0.03940724 0.029524477
0002f0 3e 0b bc bc a4 f7 96 bc 17 81 09 3d 56 fd 53 bb
       -0.02295458 -0.018428631 0.033570375 -0.0032347045
000300 f5 cb 9d 3c c5 18 37 bc c5 d6 6e 3b 71 8a 2c bd
       0.019262293 -0.011175339 0.003644393 -0.042124216
000310 99 77 da bc dd 22 97 bc 4c 17 ee 3c 27 24 3a 3c
       -0.026668357 -0.018449241 0.029063843 0.011361158
000320 6a 7f 1f bd b3 94 22 3c e2 5d b8 3c e9 dd 9a 3c
       -0.03893987 0.009923148 0.022505704 0.018904643
000330 7a da f7 bc ad 4e c3 3c 70 f4 e1 bb 2d 22 2d 3c
       -0.030255545 0.023841226 -0.0068955943 0.01056723
000340 96 7d b6 3c 79 2b 22 bb 12 b1 ca bc b3 db 53 3c
       0.02227668 -0.002474515 -0.024742637 0.012930798
000350 e0 8b a6 3c 45 02 8d 3c 41 56 36 3c df 6f 20 3d
       0.02033037 0.017212996 0.011128963 0.03916919
000360 22 0a 48 3d fe 45 1f bd f9 d9 b6 bc 0a e4 0a bd
       0.04883779 -0.03888511 -0.022320734 -0.03390888
000370 7e f1 d4 3c 84 a2 50 3c b9 31 9c 3c d6 3e c5 bc
       0.025994059 0.012734059 0.019066678 -0.024077814
000380 7c 9f 9d bc 30 ad 83 bc 4e 11 83 3c da f2 92 3c
       -0.019241087 -0.016073793 0.015999462 0.017938066
000390 2d 5e de 3c ca b6 a7 bc 2a d4 36 bd cd 1a a7 bc
       0.027144516 -0.020472903 -0.04463593 -0.020398522
0003a0 c1 93 36 3c 88 b6 1d bd 50 e6 c7 bc 59 9e 01 bd
       0.011143626 -0.038504153 -0.024401814 -0.031645153
0003b0 76 50 22 3d c7 01 cf 3c 91 1e c1 bc 1b ff 66 bd
       0.039627515 0.025269402 -0.023574146 -0.05639563
0003c0 e8 d0 ee 3c 8d f0 20 bd cd 16 d0 bc 22 8e 26 3c
       0.029152349 -0.039291907 -0.025401497 0.010165723
0003d0 0d 7e 1d 3d 8b cc 04 3b 98 90 cd bc 50 43 37 bd
       0.03845029 0.0020263519 -0.025093362 -0.04474193
0003e0 57 22 3d bd 66 67 e0 bb 83 7a 56 bd 2e 47 37 3d
       -0.046175327 -0.0068482636 -0.05236293 0.044745617
0003f0 8d e5 22 3d 47 bc e1 3b d2 c8 f3 ba 03 d7 9d 3c
       0.039769698 0.0068888995 -0.0018599278 0.019267565

conv1.bias f4 [128]
000000 33 21 11 3c 07 b2 80 3c 96 67 5a bd 80 94 31 b9
       0.008858013 0.01570989 -0.053321443 -0.00016935356
000010 35 7b 29 3d ad f1 c5 bb 84 d3 d1 3c 86 f9 2b 3d
       0.041377265 -0.006040773 0.025613554 0.04198601
000020 31 71 30 bd 85 fe 83 bc 2b ab 9a bc 44 1f 7d 3c
       -0.043076698 -0.016112575 -0.018880447 0.015449349
000030 20 4c e0 bc 6c cf aa bc d6 4a 05 b9 22 e3 56 3d
       -0.02738005 -0.02085086 -0.00012711747 0.052462704
000040 7a 13 66 bc 3c 23 5c bb 32 a9 06 3d d6 66 c2 3c
       -0.0140427295 -0.0033590337 0.0328762 0.023730677
000050 64 47 94 bc d2 8f 6a 3d 49 8a 0d bd 85 3d a3 3c
       -0.018100448 0.057266064 -0.034555707 0.019926796
000060 80 8f 2e bd d6 3e ff bc 16 91 f0 ba 3e 81 13 bc
       -0.04261732 -0.031157892 -0.0018353786 -0.009002982
000070 0e 7c f8 3b 4f ff ed bc 1f 38 8e bb cf cd 4d bd
       0.007583148 -0.029052405 -0.0043401862 -0.050245102
000080 60 30 3b 3d 9a df c0 3c f8 0a 25 bb ee 0b 05 bd
       0.04570043 0.023544122 -0.002518354 -0.03248208
000090 16 ae 9b 3c 09 d5 08 3d 02 18 27 bc d4 36 a2 bb
       0.01900391 0.03340629 -0.010198595 -0.0049503837
0000a0 c5 d3 36 bd 75 23 33 bd 4b 90 01 3d ee 56 fe 39
       -0.044635553 -0.043734986 0.03163175 0.00048511423
0000b0 b7 ca b2 3c 8c 9b 2d bd 10 a7 1d bd 05 4d 08 bd
       0.021825178 -0.04238467 -0.0384894 -0.033276577
0000c0 43 05 c8 3c dd b4 bc bc 3d ce 39 bd 03 5c b8 bc
       0.024416571 -0.023035461 -0.0453627 -0.022504812
0000d0 d4 cf 15 3d 0b 80 35 bc 7d 92 cb bc 2b aa 2a 3d
       0.036575153 -0.011077891 -0.024850124 0.04166619
0000e0 a0 8e 14 bc 39 f6 40 3d 3d ff 8b 3c cc 90 35 3d
       -0.009067208 0.047109816 0.01708948 0.044327542
0000f0 01 43 00 3d d5 b3 34 3c 10 1f 3d bc 0f 3f c2 bc
       0.0313139 0.011029203 -0.01154305 -0.02371171
000100 ed b7 75 3c 61 dc bb 3c 1f 5d c6 3a 06 95 fa bc
       0.014997465 0.022932233 0.0015133953 -0.030588638
000110 9e 9f 8f bb 5d b0 1f bc ca 3d 02 3d 97 78 24 3d
       -0.0043830415 -0.009746638 0.031797208 0.040154066
000120 af 52 38 bd 37 97 3d 3b 8c 5b f4 3c 20 74 9c 3c
       -0.04500073 0.0028929242 0.02982881 0.019098341
000130 5e 25 b7 bc e0 bb 62 3d b2 52 a6 3b f0 27 1d bd
       -0.022356685 0.055354953 0.005075776 -0.038368165
000140 00 12 14 bd b6 45 19 3d ec d5 db 3b b7 74 9b ba
       -0.03614998 0.037419997 0.006708851 -0.0011860345
000150 8e 76 00 bd 4e 2b 95 3b d4 03 82 3c dc b7 f4 bc
       -0.031363063 0.0045522815 0.015870966 -0.029872827
000160 04 45 1a bd 4c 19 2e 3b b6 db b7 bc 3b f8 1e bd
       -0.037663475 0.002656537 -0.022443634 -0.03881095
000170 84 e6 a7 bb d8 80 4f 3c 25 a1 13 bd e8 f8 f4 3c
       -0.005123915 0.012664996 -0.03604235 0.029903844
000180 a4 bc 2e 3d 60 fa 27 bc 94 cc 02 3d 5f 12 30 bd
       0.04266037 -0.010252565 0.031933382 -0.04298627
000190 ad 45 05 3c 87 01 c9 bc 0b 4b 2a 3d 5e 7b 8f 3c
       0.008134288 -0.024536861 0.041575473 0.01751488
0001a0 22 33 74 bd aa 74 d4 ba 8f 4f 85 bc 61 26 0b bd
       -0.059619077 -0.0016209085 -0.016273288 -0.033972148
0001b0 77 03 56 3b 75 b7 05 3d 02 a7 db bc 1c 69 35 3d
       0.0032655874 0.03264566 -0.026813034 0.044289693
0001c0 bd f9 17 3d 44 a8 97 bc 0e d8 82 bc ee 41 14 3d
       0.037103403 -0.018512852 -0.015972164 0.036195688
0001d0 8c 18 08 3d 17 c1 0f bc a3 d4 2f 3d 27 9d 01 bd
       0.033226535 -0.008774064 0.042927396 -0.031644013
0001e0 29 04 fa 3c 0e a4 71 bd d9 7c ee 3b b9 28 6f bd
       0.030519562 -0.058994345 0.0072780666 -0.058388446
0001f0 48 47 6c 3c f6 1d 5b ba a1 5e 6f bc c4 a3 a0 3c
       0.014421292 -0.00083586515 -0.014609964 0.01960934

bn1.weight f4 [128]
000000 2a 27 80 3f f0 25 7b 3f b7 73 81 3f f3 8b 7c 3f
       1.0011952 0.98104763 1.0113438 0.98651046
000010 7b 79 7e 3f f3 7c 7c 3f 78 2f 7f 3f 28 82 7d 3f
       0.99404114 0.9862816 0.99681807 0.9902673
000020 0c 5f 7e 3f e4 e7 7f 3f 1e 1c 7a 3f 25 b7 81 3f
       0.9936378 0.9996321 0.97699153 1.0134016
000030 eb ca 7e 3f d8 fa 7d 3f 60 93 7e 3f 8b a7 82 3f
       0.9952838 0.9921088 0.99443626 1.020738
000040 59 09 85 3f a2 88 7e 3f 82 3c 80 3f d1 00 81 3f
       1.0393478 0.99427235 1.0018466 1.0078374
000050 40 64 7f 3f 94 47 7e 3f fe f8 7c 3f 54 e3 80 3f
       0.99762344 0.9932797 0.9881743 1.0069375
000060 61 33 83 3f dd b1 81 3f ce 66 7d 3f ae 9a 80 3f
       1.0250055 1.0132405 0.9898499 1.0047204
000070 35 f4 80 3f e5 08 81 3f e5 be 80 3f 0b 5c 7e 3f
       1.0074526 1.0080839 1.0058256 0.99359196
000080 43 5b 80 3f c6 28 80 3f 05 96 82 3f 94 8c 7f 3f
       1.0027851 1.0012443 1.0202032 0.9982388
000090 1b 8d 80 3f bb 8f 80 3f 97 ce 7f 3f 65 20 82 3f
       1.0043062 1.0043863 0.99924606 1.0166136
0000a0 86 42 81 3f 0f d0 7f 3f 63 63 7c 3f 78 34 81 3f
       1.0098426 0.9992685 0.9858915 1.0094137
0000b0 0f be 80 3f dc 80 7d 3f 60 e3 80 3f 2f 35 80 3f
       1.0058001 0.9902475 1.0069389 1.001623
0000c0 56 05 82 3f d3 f0 80 3f 85 71 7f 3f fa f1 7e 3f
       1.0157878 1.0073494 0.9978259 0.99587977
0000d0 b0 33 7f 3f 0f 99 80 3f 55 84 7d 3f 02 5d 81 3f
       0.99688244 1.004671 0.9903005 1.0106509
0000e0 28 c6 7f 3f ae f3 7e 3f 75 45 80 3f c3 04 80 3f
       0.9991174 0.99590576 1.0021197 1.0001453
0000f0 81 26 7f 3f 38 d0 81 3f d3 d4 80 3f 5b c7 7e 3f
       0.9966813 1.0141668 1.0064949 0.9952294
000100 37 83 80 3f a1 57 81 3f 7f 2d 7f 3f 7e 44 81 3f
       1.0040044 1.0104867 0.99678797 1.0099027
000110 33 f7 7e 3f 5f 4a 7d 3f 66 68 7e 3f e1 23 81 3f
       0.99595946 0.98941606 0.9937805 1.0089074
000120 4b 86 83 3f 16 89 7f 3f 9d 45 7a 3f c9 37 80 3f
       1.0275358 0.9981855 0.9776247 1.0017024
000130 d0 a8 7c 3f f3 93 81 3f 06 22 80 3f 10 d6 7e 3f
       0.9869509 1.0123276 1.0010383 0.99545383
000140 db da 7e 3f 32 86 80 3f ea 04 81 3f cd 6c 7d 3f
       0.99552697 1.0040953 1.0079625 0.9899414
000150 f4 ac 80 3f d2 2f 7e 3f 1a 74 80 3f e9 d0 80 3f
       1.0052781 0.9929172 1.0035431 1.0063754
000160 4e 01 80 3f 0e de 7d 3f 24 3f 7e 3f 1c c8 81 3f
       1.0000398 0.99166954 0.99315095 1.0139194
000170 3e 48 81 3f 01 39 7f 3f e5 f0 7c 3f 96 d4 7f 3f
       1.0100172 0.99696356 0.98805076 0.99933755
000180 81 a5 7f 3f 72 a1 80 3f f3 04 7f 3f f4 79 80 3f
       0.99861914 1.0049269 0.99616927 1.0037217
000190 81 d9 7d 3f e8 cc 7e 3f 51 83 7f 3f 22 2b 81 3f
       0.9916001 0.9953141 0.9980975 1.0091288
0001a0 0c fb 81 3f 1e 5b 7d 3f 40 b5 80 3f 7f 7d 7e 3f
       1.0154738 0.9896716 1.0055313 0.9941024
0001b0 bb 29 81 3f 1f c2 7f 3f cb 8b 7d 3f 97 19 81 3f
       1.009086 0.9990558 0.9904143 1.0085934
0001c0 87 48 7e 3f c4 57 7f 3f 4c 35 82 3f a0 6d 81 3f
       0.9932942 0.99743295 1.0172515 1.011158
0001d0 65 f4 7f 3f a1 65 7f 3f 16 e5 7f 3f 96 73 7e 3f
       0.9998229 0.9976445 0.9995893 0.9939512
0001e0 bf c1 81 3f af 1d 80 3f ee 0b 82 3f a9 35 80 3f
       1.0137252 1.0009059 1.0159891 1.0016376
0001f0 18 08 7e 3f d7 4a 83 3f ab c1 7e 3f 3a 39 7d 3f
       0.992311 1.0257214 0.99514264 0.98915446

bn1.bias f4 [128]
000000 e7 5a a6 bb ee 1d 11 bc 84 73 59 39 56 21 b2 bc
       -0.0050767544 -0.008857233 0.00020737766 -0.021744411
000010 74 34 ea bb 78 1b d2 3a 38 4f 69 bb 2c 15 d2 3a
       -0.007147366 0.0016029915 -0.0035600197 0.0016028038
000020 50 20 32 bb c0 93 5b bc fb b2 d2 bc f1 63 0a bc
       -0.0027179904 -0.013401926 -0.02572011 -0.008446679
000030 8c 53 a4 39 ad 96 08 3c cd b9 0d bc 2f 21 b2 3b
       0.00031342765 0.008336705 -0.008650255 0.0054360847
000040 3f 0f 91 bc 98 81 6e bc 50 0d d7 bb a3 c5 03 bb
       -0.017707465 -0.014557265 -0.0065628663 -0.0020106814
000050 36 72 83 3a 40 82 a3 bb 97 f4 85 bc ee 08 12 bc
       0.0010028544 -0.0049898922 -0.016351981 -0.008913262
000060 a1 96 e6 3b 66 1b 34 3a b2 79 a0 bb 98 a2 d7 bb
       0.0070369993 0.0006870538 -0.0048973197 -0.006580662
000070 d5 65 96 3b 7c d1 21 bc ea 95 0b 3c 67 f8 5c 3c
       0.004589776 -0.009876605 0.008519629 0.013486958
000080 87 94 43 3c bd 74 52 bb a8 63 b5 3b 76 79 e5 bb
       0.011937267 -0.0032113038 0.0055355616 -0.0070030047
000090 62 a1 5c 3c bd 18 c6 bb 89 70 e4 ba 59 cb 58 bb
       0.013466211 -0.0060454295 -0.0017428558 -0.003308019
0000a0 ae 3d d7 3b 2e 07 a7 bb 0a 3e 00 bc d4 99 ea 3b
       0.006568632 -0.0050972914 -0.007827291 0.007159451
0000b0 37 48 56 bb 1b eb 3b bb 76 62 95 bc 04 6a c5 b8
       -0.0032696852 -0.002867407 -0.018235426 -9.413439e-05
0000c0 19 b3 0a bc 77 ba 27 3c 50 a9 6e bc 02 7c 4e bb
       -0.008465552 0.010237328 -0.014566734 -0.003150702
0000d0 0f b8 cd 3b 7e 96 c2 bb f5 f9 c6 39 bb 4b 9d 3b
       0.006278045 -0.00593835 0.00037951735 0.0048002875
0000e0 ed f8 5e bc 75 61 5e bc 91 09 05 ba 51 99 ba 3b
       -0.013609153 -0.01357304 -0.0005074973 0.0056945463
0000f0 16 18 19 bb 08 57 61 b9 25 58 55 bc 13 73 e1 bb
       -0.0023360304 -0.00021490094 -0.013021504 -0.006880173
000100 50 46 83 bc 8a 69 a9 bb 71 5a 35 3b 2a 04 57 bc
       -0.016024739 -0.005170052 0.0027672315 -0.013123551
000110 3a 3d 05 bc f7 8b 26 bc 37 9f bd 3b b1 71 4a 3b
       -0.008132273 -0.010165206 0.005786802 0.003089052
000120 b2 e1 3c bc 50 52 c1 ba 2a 46 9e bc 30 86 39 3c
       -0.011528419 -0.0014749262 -0.019320566 0.011323497
000130 63 26 64 3b 42 1e b2 39 69 b7 1a 3b b7 45 b0 bc
       0.003481292 0.0003397335 0.0023607856 -0.021517618
000140 54 13 8b 3a eb 91 28 bc 20 3e 91 b9 3f 03 cc 3a
       0.0010610619 -0.010288696 -0.00027702842 0.0015564932
000150 d6 6e 5c bc cc 3e 41 bc 6d 84 1c 3b fd ab 60 3b
       -0.01345416 -0.011794757 0.0023882643 0.00342822
000160 a0 e3 d4 ba 90 ee 0d bb 76 b5 2e bc 08 c2 5d 3c
       -0.0016242154 -0.0021657087 -0.010663381 0.01353503
000170 4c 55 0c b9 db 55 66 bc 27 d6 12 bc fb 8a c2 3b
       -0.00013383216 -0.0140585555 -0.008962191 0.005936978
000180 d9 9d 7f bb b3 dd d0 39 e9 45 60 bc 4a 03 91 3c
       -0.0039003997 0.0003983803 -0.013688543 0.017701764
000190 88 e9 55 ba 72 34 91 b8 89 08 a5 bc fc ba 25 3c
       -0.0008160104 -6.9239075e-05 -0.020145671 0.010115381
0001a0 a0 52 0a bc d0 ff 83 3a fd 2c 3e bc e3 aa 24 3b
       -0.008442551 0.0010070745 -0.011607406 0.002512627
0001b0 d2 c9 c5 3b d7 08 38 3c ac dc 27 bc a3 44 62 bc
       0.0060360217 0.011232576 -0.010245483 -0.01381031
0001c0 cd f1 25 3b 34 52 a2 bb c4 a4 04 3c 41 ac d3 3a
       0.0025321126 -0.004953647 0.008095924 0.0016149358
0001d0 97 de be ba de 2b 7b bb de ab 68 3c b6 a9 01 bc
       -0.0014562187 -0.0038325707 0.014201133 -0.007913997
0001e0 30 f1 2b 3c 5f 18 cf 39 9b 05 3d bb 55 f7 1e 3b
       0.010494515 0.00039500275 -0.0028842452 0.0024256308
0001f0 b9 76 85 bb 04 85 a5 3a 16 50 63 bb d3 a3 80 bb
       -0.0040729907 0.0012628143 -0.0034685186 -0.0039257794

bn1.running_mean f4 [128]
000000 b5 fe 55 3b 7e d2 19 3d e4 28 5b bd 20 34 15 3c
       0.0032653038 0.037554257 -0.053505793 0.009106666
000010 f8 80 24 3d d1 e4 01 bd c1 54 7f 3b df f3 c5 3c
       0.040162057 -0.031712357 0.003896043 0.024164138
000020 c4 5f 4b bd a3 66 1b bd 15 4b 1c 3b 1a 30 07 3c
       -0.049651876 -0.03793968 0.0023848463 0.008251214
000030 89 79 f6 bc d7 4c 50 3c b1 9e f0 3b ed fc 53 3d
       -0.03008725 0.012713633 0.0073431362 0.05175488
000040 23 76 e8 bc 04 c1 f0 bb 8b 7b 03 3d 9d 7b 0b 3d
       -0.028376644 -0.007347228 0.03210024 0.034053434
000050 54 a1 6e bc 72 1a 7d 3d 0e 06 14 bd f6 d0 37 3c
       -0.014564831 0.0617928 -0.036138587 0.011219254
000060 0a da 57 bd ff 81 16 bd 62 55 e0 bc 2e e5 4a bc
       -0.052698173 -0.036745068 -0.027384464 -0.012383742
000070 6f bf 0a 3c 5a 97 15 bd af e8 29 bb 7c 2d 8b bd
       0.008468493 -0.036521293 -0.0025926044 -0.06795785
000080 7d de e8 3c 31 2d e4 3c 70 0b d5 bc df 69 f2 bc
       0.028426403 0.02785358 -0.02600643 -0.029591499
000090 d7 5c f0 3b a4 3c ff 3c ca 0c 11 bc 15 ec 3b bc
       0.007335286 0.031156845 -0.008853147 -0.011469861
0000a0 0d bf 5e bd ae 83 6a bd e7 6b 0f 3d 66 db de ba
       -0.05438142 -0.057254486 0.035015013 -0.0017002642
0000b0 79 4b d1 3b 50 70 43 bd 11 8f 12 bd b4 d7 04 bd
       0.006387171 -0.04771453 -0.03578097 -0.032432273
0000c0 d7 e8 9e ba 21 89 e7 bc 71 1d 72 bd da 4b dc bc
       -0.0012123835 -0.02826363 -0.05911011 -0.026891638
0000d0 2c 95 5a 3c 05 7f 9e bc 76 8f 6e bc 7e de ce 3c
       0.013341229 -0.019347677 -0.014560571 0.025252577
0000e0 46 96 d5 bb 45 35 3d 3d dc ae a5 3c ba 33 09 3d
       -0.006518158 0.04619338 0.020224981 0.033496596
0000f0 07 84 0e 3c c3 92 0c 3c 5f bf e1 bc c0 38 26 bd
       0.00869847 0.008579913 -0.027557073 -0.040581465
000100 e9 be 8d 3c 04 5b ec 3c b5 d4 55 bc 86 e2 dc bc
       0.017302947 0.028851993 -0.013051202 -0.026963484
000110 d9 93 0d bc 6e 59 a8 bc a1 8b 79 3c 66 db 98 3c
       -0.008641207 -0.020550456 0.015231044 0.018659305
000120 fb 72 30 bd 7e 68 bf 3b a7 80 15 3d 14 22 91 bb
       -0.043078404 0.005841314 0.036499646 -0.0044291113
000130 0d 4d 27 bd d0 61 35 3d 3f 75 09 3c d8 2e 28 bd
       -0.040844966 0.044282734 0.00838977 -0.0410603
000140 2f 41 99 bd 0f cb 23 3d 54 af 37 3c 46 00 6b bc
       -0.07483136 0.039988574 0.011211235 -0.014343327
000150 b7 cc db bc e1 6f fa 3b 71 e9 85 3c db ad 24 bd
       -0.026831014 0.0076427315 0.016346665 -0.040204864
000160 25 2b 2e bd 34 fb 8a bb c0 c4 11 bd d9 09 5e bd
       -0.042521615 -0.0042413715 -0.035588026 -0.05420861
000170 de 22 79 bc 7c de 10 ba d7 03 16 bd cc b8 bb 3c
       -0.015206067 -0.0005526317 -0.036624756 0.022915266
000180 2b f5 2c 3d 7c 22 08 bd d9 41 d3 3c 90 fd 71 bd
       0.042225998 -0.033236012 0.025788235 -0.059079707
000190 55 6f c2 3c c5 be 22 bd 5e c4 19 3d cd a3 ee 3c
       0.023734728 -0.039732713 0.037540786 0.02913084
0001a0 89 ff 8d bd 7e 03 e8 bc ff ac 59 bc 82 50 4c bd
       -0.06933505 -0.028321978 -0.013285874 -0.049881466
0001b0 fb 2d db b9 10 84 b0 3c 82 6e 46 bd ae ef 24 3d
       -0.00041805193 0.021547347 -0.048445232 0.04026764
0001c0 90 69 fc 3c a0 a1 27 bd 7b 9d b8 bc 7d 28 ad 3c
       0.030812055 -0.040925622 -0.02253603 0.02113747
0001d0 0e 36 b2 3c b8 50 65 bc 85 c5 1f 3d 6c 89 1d bd
       0.02175429 -0.013996296 0.03900673 -0.038461134
0001e0 83 72 ba 3c 60 b2 6c bd 96 df c8 3b a7 9d 6e bd
       0.022759682 -0.0577873 0.006130169 -0.058255818
0001f0 d7 12 61 3c 2e 73 00 bc ad ed 95 bc 5c 90 da 3c
       0.013737402 -0.007839961 -0.01830181 0.026680164

bn1.running_var f4 [128]
000000 90 a8 5a 3b 25 96 b4 3b d9 b8 0e 3b 3d fd 44 3b
       0.0033364631 0.0055110627 0.0021777658 0.0030058168
000010 ad 2c 66 3b b2 b0 cd 3b 39 dc 98 3b 4d a3 91 3b
       0.0035121844 0.0062771672 0.0046649245 0.004444516
000020 96 10 6e 3b 11 8d b1 3b 6a 90 9d 3b 3c ad 3c 3b
       0.0036325804 0.0054184278 0.0048084753 0.002878978
000030 3f 1f 40 3b 07 47 12 3c c9 b3 20 3b 0f 38 1b 3b
       0.00293155 0.008928067 0.0024521223 0.0023684537
000040 40 13 93 3b 7c 5d 1f 3b 50 4f 0e 3b 53 c7 86 3b
       0.0044883788 0.0024317196 0.0021714754 0.004113117
000050 68 ec 1a 3b 58 b9 59 3b 9d 1d 05 3b a6 88 6c 3b
       0.0023639444 0.0033222046 0.002031184 0.003609219
000060 39 92 33 3b f5 ce 3c 3b b5 90 e4 3b 55 98 5d 3b
       0.0027400388 0.002880988 0.0069752582 0.003381272
000070 46 5f 2a 3b 76 84 4f 3b b9 89 1c 3b 6b 3b 8a 3b
       0.0025996729 0.0031664646 0.00238858 0.004218509
000080 eb f7 8b 3b b5 1b 18 3b 5a 83 af 3b e2 28 2c 3b
       0.0042714975 0.0023209874 0.0053562345 0.0026269485
000090 4a b5 95 3b 3e f0 12 3b c3 aa 2e 3b 50 bd 25 3b
       0.0045687305 0.0022421028 0.0026652075 0.002528984
0000a0 35 fd 16 3b f2 00 93 3b 0d dd 6f 3b b6 20 83 3b
       0.0023039107 0.0044861967 0.0036600262 0.004001702
0000b0 22 1a 7e 3b 00 49 2e 3b 57 b9 15 3b 05 65 18 3b
       0.00387729 0.0026593804 0.0022846067 0.0023253572
0000c0 f5 22 d7 3b 38 46 3a 3b 44 3a 66 3b 23 3e 73 3b
       0.0065654465 0.0028423201 0.0035129944 0.0037115894
0000d0 2f 46 bd 3b f7 7e 25 3b 6c 56 4b 3b 4e 07 8c 3b
       0.005776189 0.002525268 0.0031026853 0.0042733317
0000e0 fe cf 59 3b 92 72 42 3b 17 a0 5e 3b 29 08 3f 3b
       0.0033235545 0.002967034 0.0033969933 0.002914915
0000f0 14 fb c3 3b a2 57 10 3b 0c 98 71 3b ca a6 a1 3b
       0.0059808586 0.002202489 0.0036864309 0.004933213
000100 4d 71 29 3b dc a3 41 3b d1 2d 7a 3b b7 e0 29 3b
       0.0025854886 0.002954713 0.0038174281 0.0025921294
000110 5e be 3f 3b ad 13 5f 3b d1 e5 87 3b 5f ba aa 3b
       0.0029257755 0.0034038827 0.0041472693 0.0052102054
000120 d0 c0 20 3b 62 a1 6f 3b f5 c5 75 3b ba cf af 3b
       0.0024528988 0.0036564698 0.0037502025 0.005365339
000130 bc c8 83 3b c4 15 8e 3b da ce 3a 3b 35 9b 49 3b
       0.004021732 0.0043360908 0.002850464 0.0030762677
000140 c2 e6 2c 3c 1d 86 56 3b 23 6e 48 3b e8 5c 59 3b
       0.010553064 0.0032733746 0.0030583225 0.0033166949
000150 68 66 7f 3b 22 56 45 3b 7b 7d 07 3b 4e 45 96 3b
       0.003897095 0.0030111154 0.0020674157 0.0045858985
000160 03 af 4b 3b b7 9d 58 3b 51 45 86 3b 76 7f 8c 3b
       0.0031079657 0.003305299 0.0040976186 0.0042876555
000170 46 93 89 3b e2 19 72 3b 4e be 7b 3b c2 af 55 3b
       0.0041984646 0.0036941697 0.003841299 0.003260598
000180 f4 78 0a 3b 88 60 b5 3b b9 fb 20 3b 28 1c 7b 3b
       0.0021129223 0.005535189 0.00245641 0.0038316343
000190 fb e7 8f 3b bb f9 9c 3b e7 86 1b 3b 39 a5 87 3b
       0.004391668 0.0047905124 0.002373153 0.004139569
0001a0 7f 13 7a 3b 87 12 f8 3b 22 d0 4c 3b 46 02 8b 3b
       0.0038158593 0.007570568 0.0031251987 0.0042422144
0001b0 17 d5 11 3b 81 96 94 3b 4c a9 9c 3b 1e d0 3f 3b
       0.0022252256 0.004534543 0.004780924 0.0029268335
0001c0 51 82 25 3b e9 c1 a3 3b d1 68 4b 3b 59 73 93 3b
       0.0025254677 0.004997481 0.0031037817 0.0044998345
0001d0 7d aa 81 3b d4 f0 61 3b ed 6d 3c 3b 7e a5 46 3b
       0.0039570914 0.003447582 0.0028752044 0.0030311043
0001e0 09 7c 40 3b 4c 18 6b 3b d0 ff 28 3b 77 bf 43 3b
       0.0029370806 0.0035872636 0.0025787242 0.002986876
0001f0 50 fb 2b 3b 42 31 35 3b ba 9f 3e 3b 16 99 81 3b
       0.0026242323 0.0027647768 0.0029086904 0.003955017

conv2.weight f4 [64, 128, 11, 1]
000000 c4 05 bb 3c b9 5d b9 3c 36 87 89 3c 00 ab 73 3c
       0.022829898 0.022627698 0.016788106 0.014872313
000010 68 e8 6c bc aa a6 8d 3c 67 08 b6 bc 05 26 88 3b
       -0.014459707 0.017291386 -0.022220803 0.004154923
000020 35 20 95 bc ee 50 85 3c be 8e 6b bc 6a 36 7f bc
       -0.018203834 0.016273942 -0.014377294 -0.015576938
000030 20 2c 91 3c 65 da 80 bc 86 a4 c8 3b e3 b7 8c 3b
       0.017721236 -0.015729139 0.0061231283 0.004294382
000040 a8 be cf bc 90 33 0e bd fd bd 93 3b 7a 64 30 bc
       -0.025359467 -0.034717143 0.0045087324 -0.010766143
000050 57 14 11 ba ac 90 a2 ba 36 eb 24 3c 8b a5 c1 bb
       -0.0005534342 -0.0012402735 0.010065844 -0.005909627
000060 e0 53 6d 3b af d8 1c bc eb 8d 82 bc 00 34 8f 3c
       0.0036213323 -0.009573146 -0.015936812 0.01748085
000070 cb ea aa bb a5 2f a6 3a 85 6e e8 bb ef de 06 bd
       -0.005215978 0.0012678994 -0.007093253 -0.03292745
000080 35 32 11 bd c4 f1 cf 3b b1 47 d1 3c d2 30 c2 bc
       -0.03544827 0.0063459594 0.02554688 -0.02370492
000090 e9 2f e3 bc b4 c7 3e 3c bd 54 5b 3c 4b dc 71 bc
       -0.027732806 0.011644293 0.013386902 -0.014761995
0000a0 08 62 05 3c 9c 55 e6 ba a6 fd 4c bc ed 42 92 3a
       0.008141048 -0.0017573121 -0.012511646 0.0011158861
0000b0 9b fd ae 3b b0 22 47 bc f1 2b 45 bb 0a ba 4f 3a
       0.0053402907 -0.012154266 -0.0030086006 0.00079241453
0000c0 5a f3 df bc 09 b4 bb 3c d5 67 60 bc 31 4f df bc
       -0.027337719 0.022912996 -0.0136966305 -0.027259441
0000d0 a6 c1 ec 3b 17 a8 92 3c da 69 81 3c c1 35 70 ba
       0.007225233 0.017902417 0.015797544 -0.00091632834
0000e0 9d da 02 3c 6d 2c ac 39 46 8d d4 3b 6b c2 8b bc
       0.007986692 0.00032839496 0.0064865677 -0.01706048
0000f0 ce 93 56 3c 77 f8 35 3c 0a 25 f4 3b 3e 1e e2 bc
       0.013096763 0.011106602 0.0074507045 -0.027602311
000100 bb e9 fd bc 25 12 a6 3b 17 38 71 3c d6 47 ff 3b
       -0.03099524 0.005068081 0.0147228455 0.007790546
000110 4a 59 32 3c 26 54 76 39 7a 9e cc 3c b2 94 41 bc
       0.010885546 0.00023491736 0.024977911 -0.011815237
000120 0e 00 ee 3b 27 6a 94 bc 56 48 00 3c f2 f4 96 bc
       0.00726319 -0.018117024 0.007829746 -0.018427346
000130 62 28 ec 3c db 43 2f bb 7c fb b3 bc 77 06 2c 3c
       0.02882785 -0.0026743326 -0.021970503 0.010499588
000140 ba 80 82 bc f9 0d 1c bc 71 e1 41 bb 07 ff 8d 3c
       -0.015930522 -0.009524816 -0.0029583836 0.01733352
000150 f3 fe b4 3c 8f 96 2d 3b 98 50 ba bc ab 32 b1 bc
       0.022094226 0.0026487445 -0.022743508 -0.021630606
000160 4a 2a a8 3c f1 da d8 bc ee 36 20 bb ae 47 a3 3b
       0.020527977 -0.026471587 -0.0024446803 0.00498291
000170 91 ac a1 3c 07 18 f6 bc b9 72 11 bc a3 46 3d 3c
       0.019735606 -0.030040754 -0.00887745 0.011552486
000180 29 0c 45 bc f4 4d d3 3b 9d 66 6c 3c 35 72 3f 3c
       -0.012026825 0.0064485017 0.014428762 0.011684944
000190 c1 20 a8 3c 3b da a3 3c e6 5d 85 3c 02 40 c6 3c
       0.02052343 0.020001521 0.016280126 0.024200443
0001a0 3f 5c 6d bc ba 33 88 bc 7a 74 37 3b b3 ad 99 3c
       -0.014487325 -0.016626228 0.002799301 0.018759584
0001b0 0d c8 b3 3c 8e fb 1a bc a7 8a 2d 3b fe e1 28 bc
       0.021945978 -0.009459389 0.0026480348 -0.010307787
0001c0 3f 52 f7 bc 5d 09 b1 3b 44 eb 33 bc 7f f1 21 bc
       -0.030190585 0.0054027275 -0.010981385 -0.009884237
0001d0 82 45 55 3a 86 51 9a 3c 8d f7 eb 3b 43 49 98 bc
       0.00081356626 0.018837702 0.007201141 -0.018589621
0001e0 2a 13 9c 3b 1f 8b f3 3c 4e 1e b9 bb 42 e4 48 bc
       0.0047630267 0.029729424 -0.0056493646 -0.012261452
0001f0 6c dc 35 3b 13 98 12 3c cd 1a 11 3b 44 4b 1d 3b
       0.002774979 0.00894739 0.0022141219 0.002400116
000200 5f 6b fc bb 91 25 9e 3c 49 7a 9e 3c 1d 5b b8 bc
       -0.0077032293 0.019305022 0.01934542 -0.022504384
000210 7c a8 80 bc ce 2c bc bc d1 84 87 3c 3d 25 62 bc
       -0.01570534 -0.022970583 0.016542824 -0.013802824
000220 6d 61 a0 bc 70 01 df bb 36 e8 b9 bc 2a 63 76 3c
       -0.019577706 -0.0068055913 -0.022693735 0.015038291
000230 5f b4 89 bb b8 6a c3 3b 52 f4 2c bc 39 3c 34 bc
       -0.00420241 0.0059636496 -0.010556297 -0.011000686
000240 02 48 37 bc 78 c8 14 bd 17 4b bf ba 80 11 c6 bc
       -0.011186602 -0.036323994 -0.0014594522 -0.024178267
000250 d1 15 3f bc c8 0c 04 3c 80 34 aa bc 7e 19 a7 bb
       -0.011662916 0.008059688 -0.020776987 -0.0050994745
000260 49 e6 13 3c e7 42 06 3b 1c 82 bc 3c d2 83 c9 bb
       0.009027072 0.0020486654 0.02301126 -0.0061497474
000270 75 33 a5 bb 66 84 84 bc 59 a0 03 bb da 40 2b bc
       -0.0050415345 -0.016176414 -0.0020084588 -0.010452474
000280 66 61 86 3c 77 d2 f9 bc 8a 71 2a 3c b5 f1 fd bb
       0.016403865 -0.030495865 0.010403046 -0.007749761
000290 f0 42 ee bb 32 a6 e1 3b 4b f7 46 bc c0 c5 69 bc
       -0.007271163 0.006886267 -0.01214392 -0.014268339
0002a0 44 de 01 bd f3 81 35 3c 84 43 49 3b a5 db cc bc
       -0.03170611 0.011078346 0.0030710408 -0.025007078
0002b0 f8 f3 e4 bc 3e 4f 48 bb 96 a4 cf bc ae ba db 3b
       -0.027948365 -0.003056481 -0.025347035 0.0067056036
0002c0 88 f2 02 3d a0 a8 c2 3c fc 49 8a 3c 0f 46 41 3c
       0.031969577 0.023762047 0.016880982 0.011796488
0002d0 3d 42 99 3b 75 cc cb 3c 07 63 c7 3c 52 e4 0f bc
       0.0046770857 0.024877766 0.024339212 -0.008782463
0002e0 67 a3 b4 bc d0 61 72 3b 28 48 c5 3c 44 49 ce bb
       -0.022050573 0.003698457 0.024082258 -0.006295355
0002f0 64 37 6f bc 3b a1 77 bc 08 3f 85 bb 3e c9 bd 3b
       -0.0146006085 -0.015114124 -0.004066352 0.005791812
000300 ee 2b e5 bb 67 8f 09 bb ca 5e 51 3c 58 d3 dc bc
       -0.006993762 -0.0020990015 0.012778947 -0.026956245
000310 95 7a af 3b 88 eb 8a bc 31 30 ff 3b f1 dd 67 3c
       0.005355189 -0.016958013 0.0077877273 0.014152036
000320 27 b5 03 ba 7f be 5f bc b5 99 99 bb 0d bf a7 bb
       -0.0005024247 -0.013656258 -0.0046875128 -0.0051192106
000330 1a f8 d7 3b 04 21 1d bc 5b be 25 3c 2b 53 f6 bc
       0.0065908553 -0.009590391 0.010116185 -0.030068954
000340 e7 26 87 bc 69 a3 e7 3b 51 23 05 bc 1e 5e fd 3a
       -0.016498042 0.0070690406 -0.008126096 0.0019330417
000350 39 21 88 bc 43 2a 8d bb b8 77 d2 bc 7d 41 a2 bc
       -0.016617404 -0.0043080165 -0.025691852 -0.019806618
000360 8b 5a 94 bb 51 33 30 bc 53 b3 c2 3b 2f 84 05 bd
       -0.004527395 -0.010754422 0.0059417873 -0.032596763
000370 13 eb 5d 3c 85 f2 cd bb d9 57 44 3c 88 de 05 bc
       0.013544816 -0.006285014 0.011983835 -0.008170731
000380 c1 8b 9c bc f8 cb 1f bc 4b 94 ec bc 15 94 40 3a
       -0.019109609 -0.00975322 -0.028879305 0.00073462847
000390 7d 11 02 bc c2 98 d7 bb 98 45 f6 bb 6a b1 5c 3c
       -0.00793874 -0.0065794894 -0.0075156204 0.013470033
0003a0 fc c3 ef bc 45 ba a3 3a 09 e1 ff 3b 73 8a 8c 3c
       -0.029268257 0.0012491426 0.0078088087 0.017155861
0003b0 93 a6 80 3c 9b 14 05 bd c2 80 65 bc 30 f0 91 bc
       0.015704429 -0.032490354 -0.014007749 -0.017814726
0003c0 87 21 25 bc 6d f9 18 bd 54 67 41 bb d7 a4 40 bc
       -0.010078794 -0.037347246 -0.0029511051 -0.011758051
0003d0 17 2d a2 bc 2f 92 b5 bc 4e 57 0e 3c 1c 98 b7 bc
       -0.019796891 -0.022164432 0.008687807 -0.022411399
0003e0 8e 32 e5 3b 06 ea 4d ba 00 12 92 3c 4e 0f 66 3b
       0.006994552 -0.00078550016 0.017830849 0.0035104337
0003f0 a5 c6 40 bc 07 2b b2 bc 44 f3 d7 3c 22 e1 9b bc
       -0.011766111 -0.021749033 0.026361115 -0.01902825

conv2.bias f4 [64]
000000 ff da 0d 3b 12 a9 76 3c 54 35 dd 3c 7b 23 0b 3c
       0.0021645424 0.015054958 0.027002968 0.008492346
000010 cd 22 cf 3c 0f d9 20 3c ab 0c 55 3b e0 9c 59 bb
       0.025285149 0.009817376 0.0032508771 -0.0033205077
000020 0a a7 ab bc 6a a1 65 3b b9 f1 a4 3b 49 a5 d1 bb
       -0.020953674 0.0035038837 0.0050336984 -0.0063978774
000030 7b 0e aa 3c 5e 49 b8 3c 90 8b 3a 3c 54 46 d3 3c
       0.020758858 0.022495922 0.011385813 0.025790371
000040 a3 a6 fc bc 6f 37 b4 bc 97 6a 15 bc 76 c4 95 3c
       -0.030841177 -0.021999089 -0.009119651 0.018282156
000050 db ce 97 3c 04 ab b9 3c c1 21 94 3c 2f f1 c1 bc
       0.018531254 0.022664554 0.018082501 -0.023674576
000060 e9 5c 63 3c e7 fa fa bc e0 43 60 bc df fc 1d 3a
       0.013877132 -0.030637218 -0.013688058 0.00060267554
000070 b1 a7 ae 3c 43 bd 51 3c 8f eb cb 3a 90 95 6c 3c
       0.021320196 0.012801471 0.0015557873 0.014439955
000080 32 b4 94 bc ef 02 63 bc d9 0b 1f 3c d2 11 be bc
       -0.01815233 -0.01385568 0.009707415 -0.023201857
000090 96 b0 d1 bb 1c 34 0a 39 a9 52 cf bc d4 e6 be bb
       -0.0063992245 0.00013180118 -0.02530797 -0.0058258567
0000a0 96 03 f1 3c 79 c3 8e 3b 59 cb ea 3b b1 ff 96 3c
       0.029420655 0.0043567983 0.007165354 0.01843247
0000b0 45 0b 7c 3c 7b 2a 76 3c 8f bb bf 3c f4 2b ce 3c
       0.015383546 0.015024777 0.023404865 0.025167443
0000c0 a7 e4 51 3c 56 31 1b bd e9 bc c2 3c 93 ed 32 3c
       0.012810863 -0.037888847 0.02377172 0.0109209
0000d0 94 9f 12 bb 52 72 d9 ba 59 27 d7 bc 0f ed ea 3c
       -0.0022372948 -0.0016589856 -0.02626388 0.028677491
0000e0 fa 0f e6 3c 56 b0 20 bc 35 b2 85 3c 05 58 a7 3b
       0.02808379 -0.009807667 0.016320327 0.0051069283
0000f0 e8 26 a2 3a 20 64 63 3c 7c e5 6d bc f2 5e a7 3c
       0.0012371214 0.013878852 -0.014520045 0.020431016

bn2.weight f4 [64]
000000 4a 6c 7f 3f 5f ba 7c 3f b7 2f 7c 3f 96 bd 7f 3f
       0.9977461 0.9872188 0.9851031 0.9989866
000010 1e 02 7f 3f 8c ba 7e 3f 63 c6 7d 3f 5e f6 7e 3f
       0.99612606 0.995034 0.9913084 0.99594676
000020 64 7b 82 3f 29 1d 81 3f 2e e2 7d 3f a4 3f 7d 3f
       1.0193906 1.0087024 0.9917325 0.9892523
000030 26 7c 7e 3f 8f c1 80 3f 84 8d 80 3f 85 0b 7f 3f
       0.99408185 1.0059069 1.0043187 0.9962695
000040 af 56 7f 3f 5a 00 81 3f 55 c3 7f 3f 2b 54 7f 3f
       0.99741644 1.0078232 0.9990743 0.99737805
000050 30 12 80 3f a2 8e 7d 3f 82 e1 7d 3f d8 58 80 3f
       1.000555 0.99045765 0.9917222 1.0027113
000060 64 be 80 3f ce a2 80 3f 21 78 7e 3f 8b 2c 7f 3f
       1.0058103 1.0049684 0.9940205 0.9967734
000070 0e 7e 7e 3f e9 92 7d 3f c2 c4 80 3f 6c 76 7e 3f
       0.99411094 0.9905229 1.0060046 0.9939945
000080 6f 6f 7e 3f 1b 64 7c 3f f5 a3 7e 3f 84 26 7c 3f
       0.99388784 0.9859025 0.9946893 0.9849627
000090 0a f2 7f 3f 71 76 7e 3f fb 39 7e 3f 37 a8 83 3f
       0.999787 0.9939948 0.9930722 1.028571
0000a0 4d 54 7f 3f f3 74 7e 3f 7b 76 7e 3f 86 05 82 3f
       0.9973801 0.993972 0.99399537 1.0157936
0000b0 69 a0 7f 3f b4 c8 81 3f 6c 76 7e 3f e2 e9 7d 3f
       0.9985414 1.0139375 0.9939945 0.99185
0000c0 d7 e3 7d 3f 58 0e 81 3f 74 3d 7e 3f bf 46 7e 3f
       0.9917578 1.0082502 0.9931252 0.993267
0000d0 ad c9 7c 3f e3 9e 7f 3f a5 06 80 3f 15 8a 7d 3f
       0.9874523 0.99851817 1.0002028 0.9903882
0000e0 67 53 85 3f 20 f7 80 3f 53 53 7f 3f 15 c6 80 3f
       1.0416077 1.0075417 0.9973652 1.006045
0000f0 b1 da 7d 3f 91 6c 80 3f 79 67 80 3f ef 03 7f 3f
       0.9916182 1.0033132 1.0031577 0.9961538

bn2.bias f4 [64]
000000 e9 c7 12 3c 0d 85 6c b9 1d 47 38 3a 47 c2 0e 3c
       0.008958795 -0.00022556279 0.00070296397 0.0087133115
000010 ce 43 cf 3a 13 76 1b ba 37 7d 67 3b cf 0e ad bb
       0.0015813054 -0.0005930375 0.0035322437 -0.0052813063
000020 ff 44 be bb 94 c8 c4 3b a4 41 af 3b fe 4c b5 3a
       -0.005806565 0.006005356 0.005348401 0.001383215
000030 52 62 db bb c4 36 c7 bb 83 12 e1 3b fa c6 b8 3a
       -0.0066950703 -0.0060795266 0.006868662 0.0014097386
000040 ef dc 05 3b 8b bf 9d 3b 31 40 d2 38 ea 17 4f bc
       0.0020425876 0.0048140935 0.00010025537 -0.012639979
000050 bf 43 80 3b 13 04 30 bb 26 7a d9 3a fd c8 c4 3b
       0.003914326 -0.0026857897 0.0016592189 0.006005405
000060 38 11 0b 3c d7 3d bc 3a fe ae b8 bb 17 fe 8e 3b
       0.008487992 0.0014361691 -0.005636095 0.004363786
000070 ef 0b 8d 3b c0 45 37 bb dc c9 c4 3b c1 c9 c4 bb
       0.004304401 -0.0027965158 0.006005509 -0.0060054963
000080 34 af 13 3b a8 f9 43 bb 15 c4 c4 bb a9 3b cb bb
       0.002253485 -0.0029903445 -0.00600482 -0.0062021804
000090 5e 02 1c 3c 2b cb c4 bb 9b 87 51 3b cb 7c 54 bb
       0.009522049 -0.006005665 0.0031971696 -0.0032423015
0000a0 82 53 d0 bb 74 ca c4 3b 4a c8 c4 3b 9d 3e 30 ba
       -0.006357611 0.0060055796 0.0060053216 -0.00067231973
0000b0 70 4a 85 bc ea c9 02 bc 73 c9 c4 bb 63 bb db b9
       -0.016270846 -0.00798271 -0.00600546 -0.0004191055
0000c0 6d fa 28 3a b9 2d 9c b9 96 bc 11 3c 89 be c4 3b
       0.0006446008 -0.00029788705 0.00889506 0.006004159
0000d0 d5 56 3c b6 1b e4 11 bc 23 27 07 3c de 60 78 bb
       -2.8064726e-06 -0.008904482 0.008249077 -0.0037899534
0000e0 4d 81 c4 3b 41 8a aa 3a 21 fa b7 3b 11 c0 ec 3b
       0.005996859 0.0013011174 0.0056145345 0.0072250445
0000f0 bb bc 25 bb 3c e5 0d 3b 56 0f c7 3b 8a 98 9d bb
       -0.0025289494 0.0021651527 0.0060748262 -0.004809444

bn2.running_mean f4 [64]
000000 90 6b 9d bf 90 f9 6e 3f bf 78 99 3f 5c 7d 38 be
       -1.229845 0.9334955 1.1989974 -0.18016571
000010 54 29 6b 3e 5f 72 c9 bf e6 ee 53 bf f5 4f 5d 3f
       0.22964984 -1.5738028 -0.82786405 0.8645013
000020 a9 f4 46 3d 1b ec ab 3f ea 9b 94 bf b0 58 dc 3e
       0.04857317 1.3431429 -1.1610081 0.43036413
000030 05 b8 a1 bf 15 49 14 3f 2d d2 bf bf 40 a0 92 3f
       -1.2634283 0.57924014 -1.4986016 1.1455154
000040 8a a4 f8 3e 90 f7 bb be 9e aa 8e bf ea 9a 33 be
       0.48563033 -0.36712313 -1.1145818 -0.17539564
000050 b9 c1 06 3f e6 37 5c 3f c4 90 84 3f 65 b1 97 3f
       0.5263935 0.86022794 1.0356679 1.1851012
000060 46 c6 6d 3f ed ae 17 3f 69 7c 85 bf 1b 57 d2 bf
       0.92880666 0.5925129 -1.0428592 -1.6432832
000070 07 d0 a0 be 6d 9d f3 3e 9f ea 15 bf bb 42 6f bf
       -0.31408712 0.47581044 -0.5856113 -0.934612
000080 1b 70 0c 3f a4 6f 44 bf bb c7 31 3f fb 9f 98 3e
       0.5485856 -0.7673285 0.6944539 0.29809555
000090 b4 bf 62 bf 31 f5 81 bf 56 06 4c 3f 93 83 31 3d
       -0.88573766 -1.0152951 0.7969717 0.04333837
0000a0 54 b7 6f bf 96 a7 ba bf 2c 97 ac bf 38 76 12 3d
       -0.9363911 -1.4582393 -1.3483634 0.035757273
0000b0 81 f0 95 3e b8 ee 71 3e 3f ff 9f bf 4c 71 45 3f
       0.29285052 0.2362622 -1.249977 0.77126
0000c0 d7 f9 8b bf 3c 46 82 bd 65 c2 ec be c4 79 cf 3f
       -1.093562 -0.063610524 -0.4624206 1.6209035
0000d0 1b cf 37 bf 35 b0 1e 3f 35 66 47 3f ab 60 77 bf
       -0.7180039 0.6198762 0.7789033 -0.9663188
0000e0 21 62 f8 3d c0 96 38 bd 81 0d ff be 8c 81 88 bf
       0.121280916 -0.04506564 -0.4981499 -1.0664535
0000f0 db 22 48 3f da b3 6f 3f 4f 0c 12 3f 3a ea 5a bf
       0.78178185 0.93633807 0.5705003 -0.8551365

bn2.running_var f4 [64]
000000 ac 9b 9f 40 68 03 eb 3f 7f 6b 6e 40 85 37 73 3e
       4.987753 1.8360415 3.725311 0.23751648
000010 d3 3f 8f 3e c8 6d 71 40 0c f0 33 40 6c 10 9e 3f
       0.27978382 3.7723255 2.8115263 1.2348762
000020 07 0f b8 3e d0 0d 17 40 99 59 23 40 c3 2e a4 3f
       0.35948965 2.360218 2.5523436 1.282677
000030 80 3c 27 40 0f 97 3f 3f 52 77 93 40 72 ec e9 3f
       2.6130676 0.7483987 4.6083155 1.8275282
000040 cf a8 03 3f c8 ad 6f 3e a1 a4 42 40 43 89 aa 3e
       0.51429456 0.23406136 3.0412982 0.33307847
000050 ac d4 f3 3f 3a 54 b0 3f 7e ce 1c 40 6c 49 14 40
       1.9049277 1.3775704 2.4501033 2.3169813
000060 90 d9 cc 3f 6e 05 e4 3f c4 cd 1c 40 42 70 64 40
       1.6003895 1.7814157 2.450059 3.5693517
000070 99 80 a0 3f 41 73 e9 3f 57 42 a5 3f 26 8a 25 40
       1.2539245 1.8238298 1.291087 2.586557
000080 15 eb 00 40 8a 1c 03 40 70 42 b0 3f e5 3a c2 3f
       2.0143483 2.048617 1.3770275 1.5174223
000090 0a df a0 3f 3a 9d 3b 40 da df b3 3f 4c c6 97 3e
       1.2568066 2.9314713 1.4052689 0.29643476
0000a0 c8 04 e9 3f cc fc 7c 40 e8 07 29 40 6e 50 1b 3e
       1.8204584 3.9529295 2.6411076 0.151674
0000b0 65 bd 4a 3e b5 68 db 3e 01 a9 40 40 ab 51 19 40
       0.19798811 0.42853323 3.0103152 2.3956096
0000c0 4f 14 76 40 29 1a 3c 3e ec 99 b9 3f 31 c8 88 40
       3.8449895 0.18369354 1.4500098 4.2744374
0000d0 e5 6e 1d 40 b4 74 c3 3f 2f bf a2 3f f3 6c dd 3f
       2.4598935 1.526999 1.2714595 1.7298874
0000e0 4d 14 56 3e d4 65 9a 3e 62 b5 08 40 2c ee ff 3f
       0.20906182 0.30155814 2.1360707 1.9994559
0000f0 da ce 71 3f cc 4f 8a 3f 37 20 58 3f ce 2f 6b 3f
       0.94456255 1.0805602 0.84424156 0.9186982

fc1.weight f4 [96, 64]
000000 94 de 16 3c fe 95 f0 bd ee 1a a0 3d 68 3c 5a bb
       0.00920834 -0.11747359 0.078176364 -0.0033300165
000010 1c e9 b6 bd 98 25 9e bd 34 c8 1d bc c3 fe 1b 3d
       -0.08931181 -0.07722014 -0.009630252 0.038084757
000020 60 ee cc bd 33 01 c2 bd 2b a3 3d 3d ab 9b dd 3d
       -0.10006404 -0.09472885 0.046298187 0.10820707
000030 85 66 be 3d 7f f9 a1 bc 6e 1c e5 bc c0 b6 d8 bd
       0.09296898 -0.01977229 -0.027967658 -0.10581732
000040 8f ef 8f 3d cf 57 a0 bd f1 b5 d5 3d 77 6e 9a bc
       0.07028114 -0.07829248 0.10435093 -0.018851502
000050 57 52 b1 3d b9 06 43 bd 5b b8 c0 3d 52 0d 19 3c
       0.08658283 -0.047613833 0.09410163 0.009341555
000060 6b 9d b9 3d b0 5a 81 3d b8 2c e1 3d dc a7 0d bd
       0.09063228 0.063161254 0.109948575 -0.03458391
000070 03 58 e1 bd d4 c7 7a bc 3f 37 91 3d 3f f2 be bd
       -0.11003115 -0.015306432 0.070906155 -0.093235485
000080 e9 59 e0 3d 9d 75 ed bd 29 ef fc 3c e6 5d e9 bd
       0.10954649 -0.115946986 0.03087576 -0.11394863
000090 98 d7 44 bd 8a fb da bc db 90 04 bd e0 0c 05 be
       -0.04805717 -0.026731271 -0.032364707 -0.12993193
0000a0 0c 1b d2 bd ed d2 8e bd 9c 8d e5 3c 08 db 0e bd
       -0.10259065 -0.06973825 0.028021626 -0.034876853
0000b0 a2 13 91 3d 3a e3 4b bd a6 71 60 3d 52 21 b9 3d
       0.07083823 -0.049777247 0.054795884 0.090395585
0000c0 3d 89 bb 3d 5f 50 15 3d ac 17 48 3d d4 5d d7 bd
       0.091570355 0.0364536 0.0488507 -0.10515943
0000d0 09 6d ce 3b 4d 4c d5 3d 78 20 ef bd 72 7f 8c bd
       0.006299619 0.10414944 -0.11676115 -0.06860246
0000e0 ae cb 8a bd a5 82 8d 3c f1 00 b9 3b c6 f2 19 3d
       -0.0677713 0.01727421 0.005645864 0.037585042
0000f0 a6 72 bc 3d 28 5d 83 3d d8 9a 96 3d f5 93 eb bd
       0.09201555 0.064142525 0.07353753 -0.1150283
000100 aa d3 2e bd 02 6d f4 3d a4 2c c2 bd 1f d5 cf 3b
       -0.042682327 0.11934854 -0.09481171 0.0063425447
000110 cf a3 97 bd da 3f e1 3d 82 84 cb bc 23 59 8e bd
       -0.07404291 0.10998507 -0.024843458 -0.06950595
000120 83 39 4d bc 54 16 d9 bc 01 57 42 bc d3 61 f6 3d
       -0.012525919 -0.026499905 -0.011861564 0.12030377
000130 17 94 5f 3a e3 c8 f0 3d a4 ef dc 3d 24 2f 23 3d
       0.0008528842 0.11757066 0.10787895 0.03983988
000140 93 20 9e 3d ea a7 b6 bd 72 4d 72 bb b0 25 81 3c
       0.07721057 -0.08918746 -0.003697243 0.015765041
000150 96 c0 d8 3d b7 fb 18 3d 79 c8 ee bd d4 aa e8 3d
       0.10583608 0.03734943 -0.11659331 0.11360708
000160 4e d8 05 be 73 af d0 3c 36 a2 6b bd e0 40 9e bc
       -0.13070795 0.025474286 -0.057527743 -0.019318044
000170 c7 e2 af 3c c0 b9 91 3d db f9 aa 3d 96 94 82 3b
       0.02147044 0.07115507 0.083484374 0.003984998
000180 41 8b 10 3c 8f 75 a0 3d ec 64 5d 3c 92 2a 89 3d
       0.008822263 0.078349225 0.013512831 0.06697573
000190 3b f5 d0 bc 30 a6 ed bc 68 40 87 3d 8f d7 07 3d
       -0.02550756 -0.029009908 0.066040814 0.033164557
0001a0 e5 b8 c2 bd 8d bb 9c bc f5 07 c6 3d b8 f2 c5 bc
       -0.09507922 -0.0191324 0.096694864 -0.024163589
0001b0 65 8b e0 bd f6 c5 a2 3d 7e f2 ba bd 29 5a f5 3d
       -0.109640874 0.07947914 -0.09128283 0.11980087
0001c0 0e 0b d2 3d 46 8b f2 3d bb db 12 3d ef 1a 54 bd
       0.10256015 0.118429706 0.035854083 -0.0517835
0001d0 fe 9f 79 3d 17 16 e2 bd d0 04 9a 3d 14 55 ba 3d
       0.060943596 -0.110393696 0.07520449 0.090982586
0001e0 cb 38 a6 3d 2f 9c 2a 3d a2 d2 cd bd fa b5 18 bc
       0.08116301 0.041652855 -0.10049941 -0.00932073
0001f0 c6 31 ca 3d 44 ab cc 3c cb 7d 58 bd f2 ef 25 bd
       0.09872775 0.02498401 -0.05285434 -0.040512033
000200 d2 fc 21 bd 72 9b f3 bc 13 0e 94 bd fa 33 0b be
       -0.03954775 -0.029737208 -0.07229247 -0.13594046
000210 94 fa b5 3d 77 4c 10 3c 73 db ea bd 7d 76 0f 3e
       0.088856846 0.008807293 -0.11467638 0.14010043
000220 21 06 b5 3d 85 ff a5 bd 9f 4c 83 3d 29 ed d8 bd
       0.088390596 -0.08105377 0.06411099 -0.1059211
000230 34 35 bd 3b 1e 31 bd 3d 52 60 32 bc f3 12 be 3d
       0.0057741646 0.09237884 -0.010887222 0.09280958
000240 25 20 da bc b7 c2 ff 3d c9 3c 2b 3b e6 e9 92 3d
       -0.026626656 0.12488311 0.002612876 0.07173519
000250 f8 57 36 3d d0 50 91 bd 28 e9 c5 bd fc a5 09 3d
       0.044517487 -0.07095492 -0.09663612 0.03360556
000260 1d 9b a7 3d 0b a0 e6 bd b4 56 e4 3c 6e 0f bb 3d
       0.081838824 -0.112609945 0.027873375 0.09133802
000270 ec a9 58 3d b5 57 07 3c a6 39 6b bb 62 01 71 3d
       0.052896425 0.008260657 -0.0035892515 0.05883921
000280 1b 13 0e bd 05 bc 41 3c a3 ac 9a 3c f0 6c 4c bc
       -0.03468619 0.0118246125 0.018881148 -0.012477145
000290 b0 98 6c bd d5 48 e6 3d 65 91 61 3d d8 99 d6 3c
       -0.0577628 0.1124436 0.0550703 0.026196405
0002a0 1c f5 bd 3d 67 f6 c2 3c 28 5f c0 3c 8b 69 60 bd
       0.092752665 0.023799134 0.023482874 -0.054788154
0002b0 96 25 98 bd e0 47 b5 3d a6 14 1b 3d 4d 6c 90 3c
       -0.07429044 0.088516 0.03786149 0.017629767
0002c0 4b 88 b3 bc 0a e4 3f 3d b5 07 87 3a e7 f4 d3 bd
       -0.021915575 0.046848334 0.001030198 -0.10349446
0002d0 ff 94 b0 bc 65 a0 c6 3a 07 c3 f1 3d c6 1e d6 bd
       -0.021555422 0.0015154002 0.11804777 -0.10455088
0002e0 90 72 a7 bd 6f 5d 23 bd d3 b5 b1 3d b2 a1 91 bd
       -0.08176148 -0.039884027 0.08677258 -0.07110919
0002f0 e5 b5 d8 3c 46 21 d5 3c 5a b6 a5 bd c4 01 d7 bd
       0.026453922 0.026016843 -0.080914214 -0.10498384
000300 97 38 de 3d 35 16 57 bc f7 98 bd 3d 5b 88 bb bb
       0.108506374 -0.013127853 0.09257691 -0.005723042
000310 fc 67 96 3d 28 c8 92 bc 03 8d c8 bd 66 84 49 bd
       0.07344052 -0.017917708 -0.09792521 -0.04919853
000320 e7 a2 e4 bb 28 fb b9 3d 2a 9d 50 bd 0a 40 c5 bc
       -0.0069774273 0.090811074 -0.050931133 -0.024078388
000330 68 2b c9 3d 82 7b 93 bd 3f 7e 23 bd c1 0a 4f 3b
       0.09822732 -0.072012916 -0.03991532 0.0031592103
000340 f4 2c 16 bd 5f fe 61 3b 26 94 95 3d 04 27 c4 3d
       -0.036663964 0.0034483892 0.07303648 0.09577754
000350 81 ae 64 bd 29 ed cd 3d a0 7a bc 3d 38 b0 cb 3d
       -0.055830482 0.10055 0.09203076 0.099457204
000360 c2 63 fd bd b9 09 e5 bd b4 9e 29 3d 29 16 98 3d
       -0.12372543 -0.11183495 0.041411117 0.07426102
000370 2e 1d a7 3d fe b3 e5 bd 1b a4 0c 3d f1 ba 97 bd
       0.081598625 -0.112159714 0.03433619 -0.07408703
000380 ac 1c 33 bc 04 f7 ac 3c cf 91 95 bd 05 2d 36 bc
       -0.010932129 0.02111388 -0.073032014 -0.011119132
000390 c9 0c 92 3d 28 90 30 bd 6a 93 86 3d 3e 88 2a 3d
       0.07131345 -0.043106228 0.06571086 0.041633837
0003a0 7f 33 8c bd 2f 89 b4 bd 6c 76 f1 3d 85 4d d9 3c
       -0.068457596 -0.08815228 0.11790165 0.026526222
0003b0 dd e6 4e bd fe f4 b6 bd b0 2a 67 3c 3d 68 d1 3d
       -0.050513137 -0.08933447 0.014109299 0.1022496
0003c0 2d 55 9f bc 7f ce 1a be 8e 38 93 3d e6 1c 34 bd
       -0.019449795 -0.15117835 0.07188521 -0.043972872
0003d0 77 fe cc bc 6c f6 a6 bc 2c 4d ad 3d 73 99 e9 3d
       -0.025023682 -0.020381175 0.08461985 0.11406221
0003e0 26 4c 18 3d 1f fb 87 3c ac be b4 3d f4 09 f3 bd
       0.037181996 0.016599236 0.0882543 -0.11867133
0003f0 f2 2d 8b bd 03 79 65 bd 14 51 09 bd 5b 12 7a bd
       -0.06795873 -0.05602361 -0.033524588 -0.06105266
