input/05_cnn_qsar/01_featurize/01_featurize_fda_world/02_CNN/run_files_0.1/model_7.pth (torch, 634400 bytes, 20 tensors)

conv1.weight f4 [128, 1, 11, 42]
0.019723874 0.033822585 0.057025168 0.023560286 0.0066286395 0.01925884 -0.03639893 -0.0067328396
-0.048663575 0.01653668 -0.004034455 -0.016372956 0.008218641 -0.009329465 -0.011478064 -0.00038001448
0.018413763 0.0036637567 -0.0114628235 -0.0127095515 0.012556257 -0.0011717683 -0.046422143 0.010368237
-0.013139587 0.040451873 -0.0377202 -0.012317629 -0.029180158 0.051455557 0.044685926 0.009016583
0.005601119 -0.015094166 -0.011688922 0.045719255 -0.03319843 0.018937647 0.008942101 -0.04255515
-0.029568959 -0.04423188 0.029680684 -0.024264995 -0.015380695 0.054413557 -0.039593652 -0.014408416
-0.031902783 0.043792047 -0.030816332 -0.013037327 0.012290514 0.016474295 -0.04766782 -0.011127469
0.02641366 0.04503401 -0.017764837 -0.002213559 0.014404914 -0.017725272 -0.013206905 -0.0066419328
0.018756554 -0.030141853 -0.004219189 -0.0013975719 -0.02229234 0.031125093 -0.03408556 -0.02095279
-0.011500619 -0.021005275 0.015547008 0.033640504 0.019348698 0.006964427 0.02314658 -0.041477833
-0.024537042 0.029453749 0.009933188 0.026397863 0.023286514 -0.035946835 0.052127287 -0.016488515
-0.043564282 -0.025518293 -0.012348358 0.045019872 0.018342825 0.012660817 -0.006626007 0.008120793
-0.0020642064 -0.013062991 -0.0009833433 0.0069456976 0.034877025 0.03538803 0.03671381 0.025306666
0.043742727 0.025913535 -0.028095247 0.018726457 -0.02108033 0.00872517 -0.010607422 -0.042665336
0.0003879135 0.038342945 0.019870492 -0.0214297 -0.05083481 -0.005656984 0.020081967 0.013286237
0.023071636 -0.026325587 -0.032568116 0.025722232 -0.015260416 -0.017213993 0.014952325 -0.02748954
-0.029332835 0.039546262 -0.017964961 0.008975657 -0.017802607 -0.03194801 -0.025247756 0.015261493
-0.01949218 0.010328098 0.023073683 -0.028886385 -0.029970752 -0.023374885 -0.039169844 -0.026623977
-0.049116794 0.013249604 0.012198804 -0.008934302 -0.0018748206 0.008865195 -0.0464819 0.020253299
0.026356678 -0.027572716 -0.033850662 -0.012853032 -0.03974846 -0.023651889 0.043075304 0.035314795
-0.0039329133 -0.028558848 0.004767809 -0.0054285126 -0.0010775941 0.0007886414 0.03619239 0.01795268
0.0043747937 0.021755576 -0.01057872 -0.003420518 -0.02859276 -0.00895167 -0.039968386 0.012851951
0.042634547 0.021563035 0.015027862 0.009345669 0.018116772 0.0315068 -0.02664043 0.033075295
-0.032164186 -0.02809917 -0.0104476055 0.018121576 -0.015973741 -0.04768934 -0.026470823 0.024702365
-0.005450963 0.01114818 0.026467158 0.008773552 0.010494555 -0.005179949 0.02848613 -0.05245795
0.03921893 -0.0003477256 0.0020517255 -0.03518381 0.0041159797 -0.04358609 -0.016835148 -0.0073559885
0.031363957 -0.0077248057 0.0058505144 0.016673226 0.03653904 0.05467168 -0.03740254 -0.021986477
0.023225825 -0.04754953 -0.023764987 0.04697386 0.05127736 -0.0014039389 0.03496623 0.00012814591
0.009616354 0.03389275 -0.013349388 -0.016856212 0.03397118 -0.0051459325 0.039189935 -0.034092803
-0.04661909 0.014111777 0.04247144 -0.009754818 -0.039684515 0.033306766 0.0371955 -0.02795213
-0.024730666 0.032257907 -0.03567107 0.017016465 -0.010490522 0.0032049576 -0.024404014 0.0033606593
0.019135466 0.042135507 -0.029476423 -0.013743987 -0.028149258 0.007974767 -0.059510347 -0.049752127
00000000: f693 a13c 8d89 0a3d 3993 693d 8001 c13c
00000010: 0f35 d93b b7c4 9d3c 0b17 15bd 279f dcbb
00000020: 7553 47bd ee77 873c 7633 84bb 9420 86bc
00000030: 7ba7 063c 9dda 18bc 7d0e 3cbc ae3c c7b9
00000040: 76d8 963c a31b 703b 91ce 3bbc b93b 50bc
00000050: c2b8 4d3c 0596 99ba 2525 3ebd 8adf 293c
00000060: 6c47 57bc ddb0 253d 7f80 1abd e1cf 49bc
00000070: 3a0b efbc 10c3 523d 9708 373d 4aba 133c
00000080: 9789 b73b 854d 77bc e482 3fbc 1d44 3b3d
00000090: 14fb 07bd 2023 9b3c e481 123c 4f4e 2ebd
000000a0: 9a3a f2bc 7d2c 35bd e824 f33c 62c7 c6bc
000000b0: 50ff 7bbc c0e0 5e3d f42c 22bd 4711 6cbc
000000c0: 7eac 02bd 4a5f 333d 8872 fcbc 839a 55bc
000000d0: 275e 493c 1af5 863c 553f 43bd fd4f 36bc
000000e0: 7661 d83c 9575 383d 9087 91bc 5c11 11bb
000000f0: 9702 6c3c 9734 91bc c661 58bc 92a4 d9bb
00000100: 58a7 993c 0cec f6bc 1f41 8abb bb2e b7ba
00000110: 6d9e b6bc 0dfa fe3c 4d9d 0bbd 2fa5 abbc
00000120: 186d 3cbc 4113 acbc e1b8 7e3c a0ca 093d
00000130: 2981 9e3c d935 e43b e69d bd3c a9e4 29bd
00000140: e801 c9bc fd48 f13c cfbe 223c 5540 d83c
00000150: 5cc3 be3c fd3c 13bd 6c83 553d ec12 87bc
00000160: 7670 32bd bd0b d1bc c450 4abc c266 383d
00000170: b143 963c 516f 4f3c fa1e d9bb 130d 053c
00000180: a347 07bb 2806 56bc 87e3 80ba bc98 e33b
00000190: 36db 0e3d 0af3 103d 3861 163d ed4f cf3c
000001a0: 932b 333d 9f48 d43c 0128 e6bc 3a68 993c
000001b0: a8b0 acbc 04f4 0e3c c1ca 2dbc d9c1 2ebd
000001c0: de60 cb39 7e0d 1d3d 71c7 a23c 578d afbc
000001d0: 2938 50bd 395e b9bb f082 a43c 84ae 593c
000001e0: ba00 bd3c c2a8 d7bc 2566 05bd 6eb7 d23c
000001f0: d306 7abc 5c04 8dbc 99fa 743c be31 e1bc
00000200: 6a4b f0bc 43fb 213d 412b 93bc a20e 133c
00000210: c6d6 91bc ebdb 02bd 62d4 cebc 570b 7a3c
00000220: 10ae 9fbc 2f37 293c 0505 bd3c 24a3 ecbc
00000230: 3985 f5bc b07c bfbc 8f70 20bd 871a dabc
00000240: b12e 49bd de14 593c 7edd 473c 2e61 12bc
00000250: 8abc f5ba 533f 113c ce63 3ebd 3fea a53c
00000260: f6e9 d73c 2de0 e1bc fea6 0abd 8695 52bc
00000270: 48cf 22bd 9bc1 c1bc bb6f 303d 3fa6 103d
00000280: abdf 80bb 3ff4 e9bc 483b 9c3b aae1 b1bb
00000290: 0f3e 8dba d4bc 4e3a 793e 143d 8011 933c
000002a0: 6e5a 8f3b c038 b23c 5e52 2dbc c52a 60bb
000002b0: 5d3b eabc 06aa 12bc e4b5 23bd fd90 523c
000002c0: 90a1 2e3d f6a4 b03c 6c37 763c 941e 193c
000002d0: a069 943c 460d 013d 083d dabc f679 073d
000002e0: 98be 03bd 3b30 e6bc 6f2c 2bbc b373 943c
000002f0: 5ddb 82bc e655 43bd 57d9 d8bc 9d5c ca3c
00000300: fe9d b2bb dba6 363c a7d1 d83c f2be 0f3c
00000310: 5bf1 2b3c 90bc a9bb bf5b e93c 26de 56bd
00000320: 07a4 203d f14e b6b9 3e76 063b e61c 10bd
00000330: 57df 863b 5487 32bd dde9 89bc 810a f1bb
00000340: 7e77 003d 5e20 fdbb acb5 bf3b 4a96 883c
00000350: f6a9 153d 69ef 5f3d 6833 19bd fc1c b4bc
00000360: 1644 be3c 4cc3 42bd caae c2bc aa67 403d
00000370: 3608 523d 5f04 b8ba c038 0f3d e85e 0639
00000380: e98d 1d3c 20d3 0a3d 64b7 5abc 0a16 8abc
00000390: 5d25 0b3d 369f a8bb a085 203d e5a4 0bbd
000003a0: a9f3 3ebd 1535 673c 88f6 2d3d acd2 1fbc
000003b0: 3b8c 22bd ad6c 083d 4f5a 183d defb e4bc
000003c0: f797 cabc de20 043d d41b 12bd 1d66 8b3c
000003d0: 70e0 2bbc 440a 523b edea c7bc 823e 5c3b
000003e0: fbc1 9c3c 4896 2c3d 8a78 f1bc 762e 61bc
000003f0: 4699 e6bc 99a8 023c 1fc1 73bd e3c8 4bbd

conv1.bias f4 [128]
-0.0039002367 0.009257913 -0.0035267973 -0.029806767 -0.041694056 0.012779783 -0.00552972 -0.013480422
0.0024617263 0.016799597 0.056332696 -0.048435405 0.036421012 -0.034448024 -0.0023417636 0.047961377
0.02401213 -0.036461715 -0.007984828 0.027676262 0.01962753 -0.03259497 0.01812469 0.027067646
-0.0058621224 0.031095142 0.003677314 -0.01165029 0.009535128 -0.005654374 -0.025089009 0.043504763
0.042095564 -0.003064974 -0.017878922 -0.039922595 0.046875283 -0.026945023 -0.035646386 -0.027838001
0.05021937 0.021535674 -0.03417 -0.041634846 0.023528796 0.02950207 -0.038687635 0.014960573
0.03285127 0.055881917 -0.03462931 0.01184123 -0.021439804 -0.0134061705 -0.011239569 -0.013293029
0.035729498 -0.036520448 0.040353414 0.021633377 -0.00035890733 -0.027765812 0.036078963 0.019508215
-0.02024523 -0.040825553 -0.0115651125 0.027016204 0.036230948 -0.030253572 0.027040008 -0.03651263
-0.0058492944 0.04342892 -0.035950016 0.01842778 0.0008840626 0.05349503 0.05692044 0.00039710972
0.034006838 -0.018900944 0.014847837 -0.031560224 0.04104422 -0.019110244 0.030900387 -0.03786823
0.023720492 -0.028577784 -0.012655699 0.02094972 -0.0029230462 0.029789751 -0.03286278 0.009898474
0.0011038237 0.00037144162 -0.02668904 -0.042879984 -0.0074175806 -0.021580517 -0.03272109 0.035604604
0.012667317 0.016599782 -0.029328687 -0.015620356 0.005919328 -0.058118068 -0.012169116 -0.0027458575
0.018754296 -0.013423596 -0.018944195 0.020229386 0.024025245 0.008803775 -0.03816979 -0.022847017
0.03612887 -0.016804466 0.028947627 -0.047614284 -0.012944864 -0.039276406 0.045406844 0.04409415
00000000: 1d9b 7fbb 80ae 173c d721 67bb 522d f4bc
00000010: 63c7 2abd 4c62 513c a732 b5bb fddc 5cbc
00000020: ea54 213b 4f9f 893c 1dbd 663d 3464 46bd
00000030: 332e 153d 5f19 0dbd 4678 19bb 2673 443d
00000040: 16b5 c43c e158 15bd ccd2 02bc 54b9 e23c
00000050: eac9 a03c 4e82 05bd 3b7a 943c f8bc dd3c
00000060: 0c17 c0bb 3dbb fe3c 17ff 703b dce0 3ebc
00000070: 3a39 1c3c 5448 b9bb 7787 cdbc 0d32 323d
00000080: 666c 2c3d bbdd 48bb d176 92bc e085 23bd
00000090: 4c00 403d cfbb dcbc f201 12bd 850c e4bc
000000a0: d3b2 4d3d 956b b03c d8f5 0bbd 4d89 2abd
000000b0: 76bf c03c 53ae f13c ed76 1ebd 311d 753c
000000c0: 0e8f 063d 70e4 643d 77d7 0dbd b801 423c
000000d0: 87a2 afbc 8ea5 5bbc 2b26 38bc 01cb 59bc
000000e0: 1859 123d 7796 15bd 9f49 253d 7b38 b13c
000000f0: ba2b bcb9 2175 e3bc 89c7 133d b1cf 9f3c
00000100: 53d9 a5bc b238 27bd 997b 3dbc 1651 dd3c
00000110: e766 143d 57d6 f7bc 0283 dd3c 448e 15bd
00000120: 70ab bfbb 86e2 313d 5340 13bd dbf5 963c
00000130: 70c0 673a 9b1d 5b3d 6825 693d 2a33 d039
00000140: c14a 0b3d 27d6 9abc 5844 733c 4b45 01bd
00000150: fc1d 283d 168d 9cbc cf22 fd3c b81b 1bbd
00000160: 7a51 c23c f51b eabc d959 4fbc bf9e ab3c
00000170: 9490 3fbb a309 f43c 1f9b 06bd 362d 223c
00000180: 2dae 903a 0dbe c239 f9a2 dabc eca2 2fbd
00000190: 2d0f f3bb a0c9 b0bc 8d06 06bd 22d6 113d
000001a0: 948a 4f3c 44fc 873c b742 f0bc 86ec 7fbc
000001b0: ecf6 c13b 360d 6ebd f960 47bc d8f3 33bb
000001c0: 9ca2 993c a4ee 5bbc db30 9bbc 19b8 a53c
000001d0: 97d0 c43c b53d 103c ed57 1cbd ab29 bbbc
000001e0: defb 133d 85a9 89bc 9323 ed3c 3207 43bd
000001f0: b216 54bc 4ce0 20bd 87fc 393d 119c 343d

bn1.weight f4 [128]
0.98957086 1.0096488 1.0243168 0.99151427 1.0005763 0.99560106 1.0047307 1.0089062
1.0111825 0.993502 1.002258 0.99604553 1.0034767 1.0104469 0.98807305 0.9945891
0.9710728 1.0103475 0.97613263 1.0168451 0.9988475 1.008503 0.999146 0.99487144
0.9951998 1.00306 1.0029147 0.98849446 0.9963164 0.9984518 0.9992912 0.9986375
1.0157564 0.99304014 0.9947555 1.0149907 1.0012165 0.9790008 0.98949146 1.0001972
1.0039417 0.9934628 0.9938011 1.0151217 1.0120176 0.9932386 0.99684644 1.0040711
0.99912107 0.998608 0.9981596 0.9989314 1.0168657 1.0041751 0.98968524 1.0092067
0.99160826 1.0176885 0.98612654 1.0096345 1.0065589 1.007514 1.0070701 1.0084203
0.9998563 1.0195358 1.0050343 1.0143696 1.0061677 0.990036 0.9897465 1.0122763
1.0040967 0.99971414 0.9853476 0.98889714 1.0046384 1.0078135 1.0078887 1.0107596
0.99364877 0.99288726 0.9866961 1.0072699 0.99998033 0.9991123 1.0018296 0.98897266
1.0026109 0.99640346 0.9782966 0.9971615 0.99665177 1.0094123 1.0088831 1.0123092
1.0193799 1.0131233 0.9841998 0.9859893 1.0120486 0.9909858 1.000346 1.0064127
1.001677 0.9899282 1.0218765 1.0009687 0.9921328 1.0089074 1.0010647 0.9936916
1.0077683 0.99462384 1.0105269 1.0091615 0.99807066 1.0004007 1.015218 1.0111688
1.0038303 0.99600226 1.0006539 0.98817074 0.99734193 1.004134 0.9959672 1.008082
00000000: 8454 7d3f 2c3c 813f d01c 833f e1d3 7d3f
00000010: e212 803f b6df 7e3f 049b 803f d723 813f
00000020: 6e6e 813f 2656 7e3f fd49 803f d7fc 7e3f
00000030: ed71 803f 5356 813f 5bf2 7c3f 649d 7e3f
00000040: 3a98 783f 1153 813f d4e3 793f fb27 823f
00000050: 78b4 7f3f a016 813f 08c8 7f3f e5af 7e3f
00000060: 6ac5 7e3f 4564 803f 825f 803f f90d 7d3f
00000070: 970e 7f3f 8a9a 7f3f 8cd1 7f3f b5a6 7f3f
00000080: 4e04 823f e137 7e3f 4ca8 7e3f 37eb 813f
00000090: dd27 803f cc9f 7a3f 504f 7d3f 7606 803f
000000a0: 2981 803f 9453 7e3f c069 7e3f 82ef 813f
000000b0: cb89 813f e344 7e3f 5431 7f3f 6785 803f
000000c0: 66c6 7f3f c6a4 7f3f 6387 7f3f f8b9 7f3f
000000d0: a828 823f cf88 803f 035c 7d3f af2d 813f
000000e0: 0ada 7d3f 9e43 823f ca72 7c3f b43b 813f
000000f0: ecd6 803f 38f6 803f ace7 803f eb13 813f
00000100: 95f6 7f3f 2680 823f f7a4 803f ddd6 813f
00000110: 1aca 803f 0073 7d3f 0760 7d3f 4592 813f
00000120: 3e86 803f 44ed 7f3f be3f 7c3f 5d28 7d3f
00000130: fe97 803f 0800 813f 7f02 813f 9260 813f
00000140: c45f 7e3f dc2d 7e3f 1e98 7c3f 38ee 803f
00000150: b6fe 7f3f d3c5 7f3f f43b 803f 502d 7d3f
00000160: 8e55 803f 4c14 7f3f a571 7a3f fa45 7f3f
00000170: 9224 7f3f 6c34 813f 1523 813f 5993 813f
00000180: 0a7b 823f 06ae 813f 85f4 7b3f cb69 7c3f
00000190: cf8a 813f 3fb1 7d3f 560b 803f 22d2 803f
000001a0: f436 803f ef6b 7d3f d9cc 823f be1f 803f
000001b0: 6afc 7d3f e123 813f e322 803f 9362 7e3f
000001c0: 8dfe 803f ab9f 7e3f f258 813f 342c 813f
000001d0: 8f81 7f3f 210d 803f aaf2 813f fb6d 813f
000001e0: 837d 803f 01fa 7e3f 6d15 803f c2f8 7c3f
000001f0: cd51 7f3f 7787 803f b5f7 7e3f d508 813f

bn1.bias f4 [128]
-0.002464078 -0.010819504 0.015416708 -0.012667419 -0.0053079673 -0.009311241 -0.007964987 0.012674539
0.007968998 -0.002926664 0.013963004 -0.01314377 -0.011292342 0.012490297 -0.0004153938 -0.00023720638
-0.009144595 -0.0063886764 -0.0004097364 -0.0093575455 -0.009157371 -0.0029701504 -4.9906244e-05 0.001214986
-0.010608038 -0.00461919 -0.0035289188 -0.008885881 -0.007956736 -0.013553887 -0.012155571 -0.005683797
0.0071504847 -0.012817889 -0.0048178704 -0.0014254518 -0.0008442201 -0.012437436 -0.013125136 -0.01006376
-0.0033918312 -0.011928955 -0.008940286 0.0041290047 -0.003770223 0.005117672 -0.008255782 -0.008190271
0.0058705057 -0.0074454495 -0.00711502 -0.004987328 0.0063571013 0.0010927342 -0.0019193623 0.003699577
0.00012905992 -0.002425755 -0.004339219 0.012062851 -0.005686022 -0.011761916 -0.0011653651 -0.001594134
0.0077100797 -0.002271279 -0.0049548694 -0.0015459748 -0.01547167 -0.005631903 -0.0027965414 -0.012724306
0.0011418441 -0.0055174287 0.014462778 0.00268883 0.0012491388 -0.005212553 -0.021256777 -0.004612249
-0.0031030343 0.0062056063 -0.013644647 0.0038303048 0.010177617 -0.0043758363 -0.020794092 -0.0063118045
-0.003927941 -0.014572383 -0.020731153 -0.008157641 -0.015651789 -0.006806904 0.0004379995 -0.0016319795
0.0028021608 -0.0051376815 -0.017583063 -0.00023119722 -0.012272874 -0.0028602066 0.005107064 -0.00068727497
-0.013250809 -0.013507129 0.004762001 0.012591569 0.0017839925 -0.01691748 -0.0019394751 -0.0066371816
0.0016283601 -0.0018138523 -0.02157827 0.0047671497 -0.012633379 -0.0010865119 0.0047257035 -0.0026375179
-0.007309961 0.0057875644 -0.009030659 -0.0072428733 0.008858145 0.004331674 -0.0079338625 -0.0017747914
00000000: 5e7c 21bb 4a44 31bc 5c96 7c3c 028b 4fbc
00000010: 75ee adbb 2d8e 18bc 947f 02bc dfa8 4f3c
00000020: 6690 023c 46cd 3fbb 15c5 643c f858 57bc
00000030: 8403 39bc 1aa4 4c3c 36c9 d9b9 9aba 78b9
00000040: 36d3 15bc 1a58 d1bb e4d1 d6b9 6450 19bc
00000050: cc08 16bc dba6 42bb 6c52 51b8 2a40 9f3a
00000060: 56cd 2dbc 935c 97bb 6f45 67bb 1696 11bc
00000070: f85c 02bc 1f11 5ebc 2928 47bc 253f babb
00000080: 9d4e ea3b 2002 52bc 3adf 9dbb 3ad6 baba
00000090: a74e 5dba 63c6 4bbc cf0a 57bc 78e2 24bc
000000a0: 7c49 5ebb aa71 43bc 477a 12bc 9a4c 873b
000000b0: d815 77bb 25b2 a73b 4243 07bc 7d30 06bc
000000c0: 5f5d c03b f5f8 f3bb 1d25 e9bb bd6c a3bb
000000d0: 3b4f d03b 133a 8f3a 1d93 fbba 9a74 723b
000000e0: 4254 0739 6af9 1ebb 0230 8ebb 44a3 453c
000000f0: cf51 babb 0db5 40bc 2abf 98ba 43f2 d0ba
00000100: d6a4 fc3b bdd9 14bb 755c a2bb 4ea2 caba
00000110: e37c 7dbc d48b b8bb 2e46 37bb 9c79 50bc
00000120: eea9 953a 8ccb b4bb 4af5 6c3c 1537 303b
00000130: 25ba a33a 10ce aabb b122 aebc 5922 97bb
00000140: 475c 4bbb 6658 cb3b cc8d 5fbc da05 7b3b
00000150: 05c0 263c 2d63 8fbb 5f58 aabc 41d3 cebb
00000160: f5b5 80bb 01c1 6ebc 61d4 a9bc a0a7 05bc
00000170: 2e38 80bc 730c dfbb 4ca3 e539 25e8 d5ba
00000180: 75a4 373b ff59 a8bb 5b0a 90bc 886d 72b9
00000190: 2a14 49bc 4e72 3bbb 2859 a73b 3e2a 34ba
000001a0: ec19 59bc 014d 5dbc 8f0a 9c3b de4c 4e3c
000001b0: dbd4 e93a 8796 8abc fc35 feba b77c d9bb
000001c0: b36e d53a c9be edba e9c4 b0bc c035 9c3b
000001d0: 3bfc 4ebc 4a69 8eba 13da 9a3b 35da 2cbb
000001e0: 6688 efbb 9ca5 bd3b 54f5 13bc a055 edbb
000001f0: c121 113c b7f0 8d3b 08fd 01bc 1ea0 e8ba

bn1.running_mean f4 [128]
-0.005129598 0.007639984 -0.01163244 -0.037825957 -0.03683046 -0.0022319278 -0.019010773 -0.029225685
-0.014059576 0.01918358 0.050314676 -0.0486739 0.037377197 -0.045921907 -0.004124314 0.03775082
0.047629014 -0.03310276 0.008186917 0.032208722 0.014784913 -0.0329166 0.040474206 0.047669098
-0.0052888296 0.033799484 0.0022310107 -0.0052608866 0.0012778018 -0.02535965 -0.026528755 0.057321165
0.034753315 -0.025087379 -0.0059278263 -0.03824989 0.0651077 -0.004905121 -0.030144319 -0.033361383
0.051403582 0.023201095 -0.027113404 -0.052811522 -0.004109509 0.021836292 -0.055621784 0.016984122
0.022921467 0.052738495 -0.059082963 -0.0006853916 -0.03163653 -0.0039645927 -0.00947252 -0.034955457
0.034558974 -0.044803884 0.038748123 0.016624466 -0.0056042825 -0.033257924 0.018188072 0.021669844
-0.02941119 -0.05323857 -0.010070487 0.022763055 0.03949677 -0.052682776 0.016994832 -0.038324226
-0.015432833 0.043846827 -0.048115082 0.02308043 -0.010403288 0.043352466 0.052124225 -0.0032117867
-0.013425892 -0.02091151 0.020693775 -0.028895913 0.040318385 -0.016394919 0.020584185 -0.022642817
0.013270731 -0.043938138 0.008992115 0.02605215 -0.019590478 0.024486292 -0.03238311 0.00014031796
-0.014835537 0.0034469487 -0.044835445 -0.028804924 -0.020502048 -0.032298084 -0.03989785 0.027687648
0.0043892046 0.021832375 -0.038241006 -0.021442404 -0.024866218 -0.070200786 -0.01611472 -0.010843085
0.013540727 -0.022150505 -0.020633938 0.03189172 0.026632406 0.01524972 -0.045066945 -0.02336687
0.034331176 -0.03564717 0.03332507 -0.054800875 -0.027145462 -0.0555021 0.01655601 0.048977684
00000000: 3016 a8bb d558 fa3b fd95 3ebc 64ef 1abd
00000010: 89db 16bd 8945 12bb 7bbc 9bbc b46a efbc
00000020: 235a 66bc e226 9d3c c316 4e3d 495e 47bd
00000030: d518 193d 9c18 3cbd 4125 87bb 9ba0 1a3d
00000040: a416 433d c296 07bd 6b22 063c 4bed 033d
00000050: 6b3c 723c 8fd3 06bd 48c8 253d ac40 433d
00000060: eb4d adbb 5471 0a3d 2636 123b 8463 acbb
00000070: ea7b a73a 0abf cfbc d552 d9bc 99c9 6a3d
00000080: 7e59 0e3d 0c84 cdbc 363e c2bb ebab 1cbd
00000090: 3057 853d 23bb a0bb 38f1 f6bc f2a5 08bd
000000a0: 908c 523d 3910 be3c ee1c debc e550 58bd
000000b0: 0fa9 86bb 06e2 b23c abd3 63bd 4922 8b3c
000000c0: cdc5 bb3c 5204 583d fa00 72bd daab 33ba
000000d0: 4e95 01bd 6ae9 81bb a132 1bbc 742d 0fbd
000000e0: b68d 0d3d 4784 37bd 5ab6 1e3d 0830 883c
000000f0: 21a4 b7bb 7639 08bd 27ff 943c f584 b13c
00000100: bcef f0bc b010 5abd affe 24bc 9679 ba3c
00000110: 5dc7 213d e5c9 57bd bf38 8b3c ddf9 1cbd
00000120: fed9 7cbc bb98 333d 5214 45bd 2c13 bd3c
00000130: 8d72 2abc 5b92 313d 3680 553d d77c 52bb
00000140: 46f8 5bbc 9d4e abbc fe85 a93c 1fb7 ecbc
00000150: e424 253d a34e 86bc 2aa0 a83c 6e7d b9bc
00000160: 7b6d 593c 7af8 33bd aa53 133c 526b d53c
00000170: 367c a0bc 7a97 c83c 27a4 04bd 5122 1339
00000180: c110 73bc 34e6 613b 5fa5 37bd 4ef8 ebbc
00000190: e9f3 a7bc ff4a 04bd ee6b 23bd 35d1 e23c
000001a0: 51d3 8f3b cfd9 b23c 9aa2 1cbd fba7 afbc
000001b0: 3db4 cbbc 6ec5 8fbd 0403 84bc 32a7 31bc
000001c0: edd9 5d3c fa74 b5bc 8108 a9bc e4a0 023d
000001d0: 342c da3c f6d9 793c 1e98 38bd e16b bfbc
000001e0: d99e 0c3d c402 12bd de7f 083d e276 60bd
000001f0: 2960 debc 2c56 63bd 78a0 873c d39c 483d

bn1.running_var f4 [128]
0.0032127223 0.0034046592 0.0025286686 0.0032037199 0.0025968435 0.0044110715 0.0033707814 0.0031692642
0.0036712424 0.0030559148 0.003867576 0.0018640998 0.002165141 0.0040144497 0.0035653317 0.0037563657
0.005206531 0.0028921964 0.00349924 0.0020973913 0.0024931284 0.0031586185 0.0051868074 0.0053343833
0.0025312714 0.002702701 0.0024309906 0.0026666226 0.0030453491 0.004251456 0.0019247889 0.004420732
0.0036564893 0.006317068 0.0033806716 0.002772238 0.004335675 0.0058140885 0.0028228164 0.0025302893
0.0025064547 0.0023968245 0.0036111202 0.002096793 0.00686989 0.004315387 0.0036566781 0.0028744845
0.004109836 0.0034781094 0.0062865796 0.0034828782 0.0025831559 0.0032137341 0.0033283844 0.00485082
0.0031931824 0.0026271273 0.0032034628 0.0025346742 0.0030990636 0.0026740395 0.0039043927 0.0022847648
0.003701891 0.0034124805 0.0023866491 0.0035396533 0.002007007 0.005488673 0.0030063544 0.0022755787
0.0025720627 0.0025513042 0.003160303 0.0022755363 0.0030824186 0.0038929458 0.003956586 0.0032693434
0.014489497 0.0029477994 0.0028576767 0.0034241043 0.0031327792 0.0026132648 0.0039858976 0.0041999305
0.003318462 0.004371763 0.0051627224 0.0025031194 0.004170086 0.002397934 0.0028705916 0.0026096203
0.0046369075 0.0025318428 0.005186049 0.0034960196 0.0040336982 0.0031995946 0.0032405409 0.0033090846
0.0026410678 0.0020884508 0.0033733607 0.0023041125 0.008750265 0.003451256 0.0027369645 0.0030025707
0.0020946844 0.0026615912 0.002473104 0.0038081955 0.0022661749 0.0031311053 0.0023545758 0.0021031937
0.002477558 0.0046448116 0.0030122772 0.004059272 0.0047199316 0.003648339 0.00724988 0.0024595254
00000000: 898c 523b b420 5f3b 05b8 253b 80f5 513b
00000010: ce2f 2a3b c08a 903b 54e8 5c3b 6eb3 4f3b
00000020: 3a99 703b be45 483b 2877 7d3b cf54 f43a
00000030: 0ae5 0d3b a58b 833b 57a8 693b 5c2d 763b
00000040: 8c9b aa3b 018b 3d3b 8153 653b 6374 093b
00000050: c163 233b d300 4f3b 18f6 a93b 0dcc ae3b
00000060: b0e3 253b cc1f 313b 4151 1f3b 81c2 2e3b
00000070: 7b94 473b cc4f 8b3b 3349 fc3a cadb 903b
00000080: b6a1 6f3b 68ff ce3b 428e 5d3b 70ae 353b
00000090: 4712 8e3b 1c84 be3b 00ff 383b 36d3 253b
000000a0: 5543 243b 0b14 1d3b 8ba8 6c3b 596a 093b
000000b0: d01c e13b 1768 8d3b e1a4 6f3b d961 3c3b
000000c0: ceab 863b fef0 633b a7ff cd3b 0041 643b
000000d0: 2a4a 293b 839d 523b 0621 5a3b a1f3 9e3b
000000e0: b644 513b e22b 2c3b 30f1 513b c71c 263b
000000f0: a919 4b3b f03e 2f3b d7e0 7f3b febb 153b
00000100: 6d9b 723b eca3 5f3b 5469 1c3b 87f9 673b
00000110: fd87 033b 54da b33b 4206 453b e021 153b
00000120: 0d90 283b c833 273b 161d 4f3b 2a21 153b
00000130: 6702 4a3b cb20 7f3b 40a6 813b 7b42 563b
00000140: 5b65 6d3c de2f 413b dc47 3b3b f066 603b
00000150: 504f 4d3b 4f43 2b3b 229c 823b 929f 893b
00000160: 8e7a 593b 0241 8f3b 0e2c a93b 600b 243b
00000170: 37a5 883b a826 1d3b 8920 3c3b 2a06 2b3b
00000180: 33f1 973b 46ed 253b bbef a93b 7a1d 653b
00000190: 1d2d 843b 4ab0 513b 415f 543b 3add 583b
000001a0: c415 2d3b 64de 083b 9a13 5d3b 9800 173b
000001b0: 465d 0f3c 782e 623b a55e 333b c7c6 443b
000001c0: f946 093b 176e 2e3b cd13 223b eb92 793b
000001d0: 1b84 143b 3b33 4d3b 3a4f 1a3b bcd5 093b
000001e0: 875e 223b 8133 983b a069 453b a403 853b
000001f0: a8a9 9a3b f918 6f3b 6790 ed3b fd2f 213b

conv2.weight f4 [64, 128, 11, 1]
0.003242003 0.021662442 -0.008365397 0.012775473 0.009274778 0.020846607 0.0064994968 0.015905874
-0.0033504325 -0.033248786 -0.020553725 -0.0024389806 -0.008307507 0.0074273525 0.01482962 -0.003529437
0.011776126 -0.017475285 -0.03185206 -0.013595927 0.0092824595 -0.026083032 0.017664451 0.027620064
0.027403286 -0.020492163 -0.022527987 -0.022260288 -0.010388981 0.0051148143 0.0017256282 0.017847292
-0.00835747 0.01405328 0.0027956206 0.017206449 -0.0035851048 0.032066695 0.007422427 -0.008353196
-0.01259093 -0.0074228183 0.0008034392 0.011855406 0.009706763 -0.003715501 0.00027784344 -0.025879873
-0.00766985 0.00036140683 0.009474354 0.012769378 0.0033847815 -0.015785327 0.009570081 -0.021473795
-0.027333254 -0.017317371 -0.03291999 -0.006180178 -0.013705672 0.01741484 -0.023504542 -0.02046629
0.015184016 -0.0017842934 0.0007684281 0.026583372 0.0022425547 0.008032785 -0.0144285895 0.013027796
0.013837881 0.019065956 0.0015721283 -0.0013178298 -0.0033718713 0.00090097944 -0.010021422 -0.003925788
-0.023868969 0.017148428 -0.0076108607 0.00023589708 0.010208252 -0.0074765407 0.01172717 -0.021966547
-0.022889622 -0.025777908 0.0038317104 0.02399688 0.005363852 -0.003303169 0.0024807714 -0.0047242204
0.030082688 0.009740432 0.011971062 0.011931504 0.007984517 -0.008821597 0.00033768485 -0.0043313866
-0.0054503693 0.023605363 -0.023236282 -0.0093065165 -0.00703532 -0.0106471535 -0.015397226 0.017132178
0.0015633524 -0.026238883 -0.032237012 -0.018119128 -0.012875232 -0.0013701078 0.0035529237 0.011592937
0.009990759 -0.0022017027 -0.0004056718 -0.02240363 0.001098485 -0.016311998 -0.017606167 -0.014036732
-0.025779825 0.012419028 -0.018618612 -0.027116975 -0.0048213745 0.01446336 0.019903202 0.0070497342
0.018015709 -0.0042977813 -0.019964382 -0.005852385 0.011082325 -0.01707929 -0.022941634 0.021052787
0.015125432 0.0016194289 0.00436141 0.025852276 0.0125240395 0.016204469 -0.009052131 -0.025724145
-0.012096725 -0.015247048 0.029344365 0.029204918 -0.007089843 0.010857711 -0.02011505 0.014898567
-0.002081364 0.0008807949 -0.0004853849 0.021396825 -0.025530525 0.0038563656 -0.02022403 0.028618572
0.026956186 -0.0005224087 0.013127348 0.0075548133 0.0093460465 -0.018306762 -0.0010462675 0.016006393
-0.0018735034 0.027946422 0.024775678 -0.027965853 0.019121496 -0.016026206 0.0077169 -0.015538237
0.009342456 0.005333446 -0.011771404 0.02688399 0.032180678 0.0036071464 -0.006362568 0.02974667
0.015938813 0.004401547 -0.020624323 0.013425332 0.006119618 -0.0071954764 0.017213514 -0.018152818
-0.005880701 -0.024948234 -0.016158508 -0.015397388 0.008543385 0.0030634617 0.0053054686 0.012957772
0.017557612 0.008668766 0.03298012 0.0169435 -0.01676007 0.014767117 0.020983435 0.019023659
-0.024255864 -0.0050161337 -0.00030687414 0.00474097 0.009906188 0.016518792 0.00062769064 0.012760772
-0.02835379 0.008614756 -0.0060195546 -0.0069529377 0.015763754 -0.0061869053 0.002957076 -0.019949753
0.0015414973 -0.00032267324 -0.00595162 -0.0071770395 0.022279413 -0.006627873 0.012960339 -0.025376841
-0.019667372 -0.020823231 -0.024435861 0.005423438 -0.021711268 0.008619874 -0.024475224 0.004361127
6.249889e-05 -0.02673656 -0.0043540304 -0.032888774 -0.015390702 -0.02252581 -0.012397425 0.018862996
00000000: c977 543b 6f75 b13c 050f 09bc 3850 513c
00000010: 3df5 173c 81c6 aa3c bbf9 d43b 094d 823c
00000020: ee92 5bbb e12f 08bd 4960 a8bc 4ed7 1fbb
00000030: 361c 08bc 2661 f33b eff7 723c 204e 67bb
00000040: a7f0 403c 5428 8fbc 4e77 02bd 73c1 5ebc
00000050: 7515 183c 15ac d5bc 0ab5 903c 7943 e23c
00000060: db7c e03c 2edf a7bc 9d8c b8bc 355b b6bc
00000070: 8b36 2abc 2c9a a73b 792e e23a 7c34 923c
00000080: c5ed 08bc bb3f 663c bb36 373b 8af4 8c3c
00000090: 14f4 6abb 5e58 033d d537 f33b d8db 08bc
000000a0: 304a 4ebc 1d3b f3bb e49d 523a 2d3d 423c
000000b0: 1d09 1f3c c37f 73bb 84ab 9139 0702 d4bc
000000c0: 5d53 fbbb 347b bd39 523a 1b3c a736 513c
000000d0: 36d3 5d3b 3b50 81bc d4cb 1c3c d0e9 afbc
000000e0: fde9 dfbc 29dd 8dbc 1dd7 06bd 1783 cabb
000000f0: c18d 60bc 91a9 8e3c 998c c0bc eca8 a7bc
00000100: 61c6 783c f4de e9ba 5670 493a 5fc5 d93c
00000110: d3f7 123b f19b 033c e465 6cbc 8972 553c
00000120: 48b8 623c 3530 9c3c df0f ce3a 08bb acba
00000130: 9dfa 5cbb b52f 6c3a e430 24bc e6a3 80bb
00000140: db88 c3bc dc7a 8c3c 8764 f9bb 245b 7739
00000150: 8340 273c c5fd f4bb 5123 403c 30f3 b3bc
00000160: 0483 bbbc 312c d3bc 6f1d 7b3b 1b95 c43c
00000170: 40c3 af3b fb79 58bb 7094 223b a2cd 9abb
00000180: f86f f63c 5596 1f3c 4622 443c 5b7c 433c
00000190: 7ed1 023c 7688 10bc 4b0b b139 4eee 8dbb
000001a0: 0399 b2bb 0960 c13c 045a bebc 5c7a 18bc
000001b0: 8b88 e6bb 6671 2ebc a644 7cbc c858 8c3c
000001c0: 67e9 cc3a edf2 d6bc f50a 04bd 916e 94bc
000001d0: a3f2 52bc 3095 b3ba 2bd8 683b 4df0 3d3c
000001e0: 48b0 233c 714a 10bb 59b0 d4b9 d187 b7bc
000001f0: 0afb 8f3a bda0 85bc cf3a 90bc 52fa 65bc
00000200: 3630 d3bc 2e79 4b3c 0f86 98bc 6b24 debc
00000210: 9ffc 9dbb bbf7 6c3c 0a0c a33c 7501 e73b
00000220: ae95 933c 67d4 8cbb 588c a3bc 5dc5 bfbb
00000230: a492 353c dee9 8bbc 18f0 bbbc e576 ac3c
00000240: a9d0 773c 0443 d43a 29ea 8e3b 27c8 d33c
00000250: a131 4d3c 3cbf 843c 644f 14bc 71bb d2bc
00000260: 5831 46bc c1ce 79bc 9863 f03c 273f ef3c
00000270: ea51 e8bb 8ae4 313c 51c8 a4bc 1f19 743c
00000280: 7e67 08bb 25e5 663a 427b feb9 6548 af3c
00000290: 6425 d1bc 14bb 7c3b ddac a5bc 7f71 ea3c
000002a0: 38d3 dc3c 41f2 08ba 1714 573c 5e8e f73b
000002b0: 2920 193c 10f8 95bc e922 89ba d71f 833c
000002c0: 5890 f5ba e5ef e43c 5df6 ca3c a518 e5bc
000002d0: afa4 9c3c 6449 83bc 0dde fc3b 1794 7ebc
000002e0: 1a11 193c 30c4 ae3b d9dc 40bc d03b dc3c
000002f0: e3cf 033d e065 6c3b 177d d0bb 4aaf f33c
00000300: 1d92 823c da3a 903b 57f4 a8bc ecf5 5b3c
00000310: 1487 c83b 08c8 ebbb 5b03 8d3c 38b5 94bc
00000320: e5b2 c0bb 3d60 ccbc d95e 84bc 5345 7cbc
00000330: 8ef9 0b3c 5cc4 483b 7fd9 ad3b d64c 543c
00000340: fbd4 8f3c 7107 0e3c 2a16 073d 18cd 8a3c
00000350: 6a4c 89bc c7f1 713c 74e5 ab3c 81d7 9b3c
00000360: 3cb4 c6bc 615e a4bb f3e3 a0b9 245a 9b3b
00000370: 904d 223c 6b52 873c 9b8b 243a 8f12 513c
00000380: 3546 e8bc e824 0d3c af3f c5bb 78d5 e3bb
00000390: fd22 813c 86bb cabb 81cb 413b aa6d a3bc
000003a0: 110c ca3a 782c a9b9 cf05 c3bb 5f2d ebbb
000003b0: 5183 b63c a12e d9bb 9a57 543c 18e3 cfbc
000003c0: 781d a1bc 7b95 aabc b72d c8bc 18b7 b13b
000003d0: d4db b1bc 5f3a 0d3c 4480 c8bc c9e7 8e3b
000003e0: d611 8338 a106 dbbc 41ac 8ebb 61b6 06bd
000003f0: 4829 7cbc 0c88 b8bc 921e 4bbc 9286 9a3c

conv2.bias f4 [64]
0.01354291 -0.004269959 0.005702245 -0.0020185153 -0.041098963 0.020162687 0.017004194 -0.008008284
-0.022935346 0.016556067 0.016190544 -0.010948156 0.0072589447 -0.0025511922 0.030652417 -0.027146732
0.00802827 -0.016196761 0.00790021 -0.015851425 -0.024541218 0.0036058081 -0.01955619 0.01953295
-0.016796023 -0.0139331315 -0.032081436 -0.008714061 -0.018996464 0.017589767 -6.1854545e-05 -0.0028965962
0.02644086 -0.011720493 -0.023064328 0.005077675 -0.01598263 0.007955382 0.015232213 -0.013570198
0.005233443 -0.016797328 -0.015624005 0.007246265 -0.022425255 -0.015766662 0.017768556 -0.009721772
-0.012622046 -0.017968774 0.005815075 -0.0017801045 -0.01699727 0.006262586 -0.03343485 -0.020690277
0.018657701 -0.0056591616 -0.0059093465 -0.011586014 0.027398666 0.009720402 0.028130911 0.010202772
00000000: 15e3 5d3c 03eb 8bbb e6d9 ba3b 1149 04bb
00000010: 6357 28bd 382c a53c 614c 8b3c 2d35 03bc
00000020: e8e2 bbbc 97a0 873c 08a2 843c e55f 33bc
00000030: 71dc ed3b e731 27bb c71a fb3c d362 debc
00000040: 0189 033c 12af 84bc e26f 013c d9da 81bc
00000050: aa0a c9bc 6c4f 6c3b 4e34 a0bc 9103 a03c
00000060: d097 89bc ca47 64bc d367 03bd 6cc5 0ebc
00000070: 799e 9bbc 6a18 903c e8b7 81b8 d2d4 3dbb
00000080: 819a d83c 5007 40bc 67f1 bcbc a062 a63b
00000090: 01ee 82bc 4a57 023c 8890 793c 8955 5ebc
000000a0: 4d7d ab3b 8d9a 89bc d4fb 7fbc 1472 ed3b
000000b0: 2bb5 b7bc 1629 81bc 5d8f 913c 1148 1fbc
000000c0: b3cc 4ebc 4033 93bc 628c be3b 6552 e9ba
000000d0: dc3d 8bbc 6136 cd3b fbf2 08bd a87e a9bc
000000e0: 09d8 983c 7d70 b9bb 31a3 c1bb 44d3 3dbc
000000f0: 2b73 e03c 5242 1f3c cc72 e63c 8729 273c

bn2.weight f4 [64]
1.0005112 1.0158085 0.99872744 0.9939597 1.014078 1.0000378 0.98823005 1.0031257
0.99592394 0.992377 1.0026604 0.9931919 0.99809206 0.9986693 0.9924369 1.0113623
1.0007342 0.99183834 0.9977654 0.99964106 0.98884714 1.0006286 1.0023764 1.0026325
0.99399465 1.0080476 1.0033603 0.9864235 0.99035525 0.9915532 1.008591 1.0199356
0.9918587 0.99072766 1.0022004 0.9893771 1.0186211 0.9933105 0.9993437 0.9905625
1.0189624 1.0003158 0.9930099 0.9955472 0.9958312 0.9938996 0.9880287 1.013838
1.0007524 1.0047121 0.99989045 1.0130218 0.9939895 0.99564844 0.99577564 1.0078772
0.99724954 0.9908252 0.99028933 0.99615216 0.98607844 1.0030621 1.0149184 0.9978487
00000000: c010 803f 0306 823f 9aac 7f3f 2574 7e3f
00000010: 4fcd 813f 3d01 803f a5fc 7c3f 6c66 803f
00000020: dff4 7e3f 6b0c 7e3f 2d57 803f d341 7e3f
00000030: f682 7f3f cba8 7f3f 5810 7e3f 5274 813f
00000040: 0f18 803f 1ee9 7d3f 8e6d 7f3f 7ae8 7f3f
00000050: 1625 7d3f 9914 803f df4d 803f 4356 803f
00000060: 6f76 7e3f b407 813f 1c6e 803f 4086 7c3f
00000070: ec87 7d3f 6ed6 7d3f 8319 813f 408d 823f
00000080: 74ea 7d3f 54a0 7d3f 1a48 803f d147 7d3f
00000090: 2d62 823f 9949 7e3f fdd4 7f3f 8195 7d3f
000000a0: 5c6d 823f 590a 803f e635 7e3f 2edc 7e3f
000000b0: cbee 7e3f 3470 7e3f 73ef 7c3f 72c5 813f
000000c0: a818 803f 689a 803f d2f8 7f3f b3aa 813f
000000d0: 1976 7e3f d1e2 7e3f 27eb 7e3f 1f02 813f
000000e0: bf4b 7f3f b8a6 7d3f 9a83 7d3f d403 7f3f
000000f0: a36f 7c3f 5764 803f d9e8 813f 0373 7f3f

bn2.bias f4 [64]
-0.0011893102 0.016187109 -0.00982348 0.0060048965 0.020362413 -0.0050423164 0.0024546494 0.005309949
0.0013611175 0.005590072 0.0057723625 -0.007593282 -0.04202713 -0.001765525 -0.013283414 -0.012448384
-0.00598848 -0.0016540306 0.00036017984 0.000599408 -0.0002813617 -0.0026458167 0.0040517873 0.0024125874
0.006005317 0.0010454521 -0.01667702 -0.0009211584 -0.0094421925 -0.0005930905 0.0060054115 0.012007229
-0.001723291 -0.01269445 -0.006955687 -0.00040973656 -0.00035695022 -0.0060040797 -0.0006619143 -0.0011982705
0.0069884653 -0.0060046245 0.006006366 -0.008414909 0.010234016 -0.0060065733 -0.0002816303 0.008459992
-0.0076561677 -0.0059499918 0.0057410356 0.007587363 -0.005876831 0.0051522166 0.008556605 -0.006003554
0.00492443 -0.012392513 -0.002682213 -0.011010307 -0.00040925347 -0.016017962 -0.006005433 0.014904097
00000000: a1e2 9bba d49a 843c a9f2 20bc b9c4 c43b
00000010: 13cf a63c 043a a5bb 2fde 203b 15ff ad3b
00000020: 8667 b23a ec2c b73b 1626 bd3b 11d1 f8bb
00000030: a424 2cbd 3069 e7ba ada2 59bc 4ff4 4bbc
00000040: 033b c4bb 0fcc d8ba 85d6 bc39 9721 1d3a
00000050: ba83 93b9 7065 2dbb dbc4 843b 801c 1e3b
00000060: 40c8 c43b 8d07 893a 3f9e 88bc e579 71ba
00000070: 6db3 1abc a179 1bba 0bc9 c43b f8b9 443c
00000080: 0de0 e1ba 62fc 4fbc 88ec e3bb e9d1 d6b9
00000090: 0c25 bbb9 dfbd c4bb 5184 2dba 490f 9dba
000000a0: 7fff e43b 71c2 c4bb 0dd1 c43b b0de 09bc
000000b0: 93ac 273c cad2 c4bb c7a7 93b9 c79b 0a3c
000000c0: 97e0 fabb 26f8 c2bb 4c1f bc3b 6a9f f83b
000000d0: 6e92 c0bb edd3 a83b 0131 0c3c 76b9 c4bb
000000e0: 1d5d a13b f809 4bbc 11c8 2fbb 9364 34bc
000000f0: 1291 d6b9 1a38 83bc 39c9 c4bb 5030 743c

bn2.running_mean f4 [64]
-0.22110528 0.17723514 0.12680797 -1.310726 0.327593 -1.3775346 0.9847295 0.91456527
-1.2368717 -1.2168962 -0.7899553 0.46907717 -0.3957958 0.30833325 0.73051345 0.43522185
0.78007495 1.1344228 0.59051645 0.5214186 0.60158277 0.6946726 0.93543303 0.10386408
-1.7284046 0.7033646 0.42135832 0.9105148 -0.49461117 -1.2116444 1.4364048 0.3115991
0.65924466 0.60148174 0.65312546 0.8470603 0.14546332 0.882611 -0.33951905 -1.2050924
0.07550927 0.4822019 -1.2603253 1.1931218 -0.7442886 -1.4758627 0.9432426 0.6457453
-0.8145665 0.27113783 0.7494535 0.2535748 -1.5982056 -0.75154465 -0.62816244 0.9656983
0.30363005 0.4460873 1.1587439 -0.31461543 0.38609838 0.1237926 0.94352585 -0.35291034
00000000: 6c69 62be 217d 353e f3d9 013e dfc5 a7bf
00000010: 45ba a73e 0e53 b0bf 3c17 7c3f f320 6a3f
00000020: d051 9ebf 41c3 9bbf 833a 4abf e22a f03e
00000030: bfa5 cabe dbdd 9d3e ee02 3b3f 66d5 de3e
00000040: feb2 473f c434 913f 162c 173f b07b 053f
00000050: 5401 1a3f 10d6 313f 8a78 6f3f b1b6 d43d
00000060: 5d3c ddbf b40f 343f 47bc d73e 7f17 693f
00000070: ad3d fdbe 2a17 9bbf 1ddc b73f eb89 9f3e
00000080: 42c4 283f b5fa 193f 3b33 273f f2d8 583f
00000090: 56f4 143e cbf2 613f 71d5 adbe 7840 9abf
000000a0: 9ba4 9a3d 2be3 f63e 5752 a1bf 37b8 983f
000000b0: b389 3ebf 12e9 bcbf 5978 713f 904f 253f
000000c0: 6e87 50bf 94d2 8a3e 2fdc 3f3f 8ed4 813e
000000d0: 0092 ccbf 3b65 40bf 41cf 20bf 0138 773f
000000e0: 6675 9b3e 8e65 e43e b851 943f 4615 a1be
000000f0: b0ae c53e fa86 fd3d e98a 713f aab0 b4be

bn2.running_var f4 [64]
0.7105954 0.2831042 0.3137461 5.0260735 0.42236656 3.8566852 5.0679708 1.9501808
3.309282 4.2838697 2.7833304 0.940006 0.66430044 1.071789 2.2115443 0.31681725
1.8747464 3.769077 2.4174254 1.273445 1.9793715 1.2424794 0.6812696 0.25104007
5.5971246 0.65859514 0.30206805 1.4773318 0.71052015 3.0561845 4.2705636 0.23164451
1.1089257 0.6697615 1.05993 1.7817199 0.23607202 3.9176774 0.23516127 4.1654243
0.3103688 0.88606447 4.644716 2.3317647 3.710648 5.030721 2.347196 0.39029232
2.3801239 0.19418836 1.5326684 1.1937909 5.3752146 2.2135727 1.6690495 1.718752
0.7893157 2.4405725 4.1694255 0.8651673 0.45130864 0.55082077 2.3130035 0.687827
00000000: 95e9 353f 09f3 903e 54a3 a03e 98d5 a040
00000010: 6e40 d83e eed3 7640 d12c a240 869f f93f
00000020: 47cb 5340 7615 8940 1622 3240 3ca4 703f
00000030: 980f 2a3f 6230 893f f189 0d40 df35 a23e
00000040: b1f7 ef3f 8f38 7140 19b7 1a40 3f00 a33f
00000050: 0c5c fd3f 9109 9f3f af67 2e3f 5388 803e
00000060: a51b b340 b199 283f aaa8 9a3e 3519 bd3f
00000070: a6e4 353f 8798 4340 75a8 8840 3834 6d3e
00000080: 47f1 8d3f 7d75 2b3f c9ab 873f 660f e43f
00000090: ddbc 713e 3abb 7a40 1ece 703e 284b 8540
000000a0: a9e8 9e3e 1fd5 623f 83a1 9440 a23b 1540
000000b0: 427b 6d40 abfb a040 7638 1640 65d4 c73e
000000c0: f353 1840 50d9 463e 7a2e c43f 24ce 983f
000000d0: c201 ac40 2dab 0d40 6aa3 d53f 1100 dc3f
000000e0: 9810 4a3f 5732 1c40 ef6b 8540 9b7b 5d3f
000000f0: ed11 e73e 9702 0d3f 4008 1440 6e15 303f

fc1.weight f4 [96, 64]
-0.06999621 0.10141394 0.06662508 -0.032125395 -0.068952166 -0.05477024 0.123295985 -0.040759012
-0.05727232 0.04511529 -0.08890897 -0.08879757 0.11210034 -0.046069708 0.00526779 0.029893627
0.106851146 0.07833063 -0.016577724 0.10423483 -0.01590925 0.097608685 -0.030420186 -0.07583868
0.0017673471 -0.11758144 -0.09711617 -0.03651826 -0.048602205 -0.025085196 -0.04609446 0.08017813
0.09571147 0.06480719 0.010601238 0.06148129 -0.003256024 0.06640989 -0.045920003 0.037402272
0.06492506 -0.07531288 -0.033792906 -0.028741084 0.07128768 0.03027309 -0.13349073 -0.05656473
0.0011382689 -0.12547651 0.09145848 0.06864981 0.08306699 -0.048680574 -0.04451616 0.020691982
0.04502855 0.10633102 -0.124050945 -0.026176158 0.118770294 0.067376636 -0.08532165 0.03766322
-0.12970662 -0.09387358 -0.042310968 -0.041947592 -0.13186195 0.03724409 0.11728601 0.03372735
0.03676426 0.061746337 0.023397852 -0.054281186 0.1185541 0.07647363 -0.09321213 -0.0033621737
-0.08506921 0.1221367 -0.056657623 0.11301072 0.116206616 -0.01772674 0.032979712 -0.06598821
0.03315079 -0.09852492 -0.0038421412 0.014868346 -0.046374753 -0.060607865 0.057438027 -0.032059893
-0.019244058 0.050153915 -0.02885032 0.12208609 -0.012497911 -0.09830588 0.03036462 0.048704624
-0.11566497 -0.051899035 0.03827678 0.10675156 -0.06257934 0.017861882 0.09710539 -0.028412132
-0.011334346 0.033900056 0.030852787 -0.065750144 0.11130932 0.10439256 -0.03634884 -0.1314171
-0.030694287 -0.067935765 -0.021382472 0.07020853 -0.08232722 0.08762093 -0.0048535825 -0.019288335
-0.07893073 0.049500607 0.09663051 0.10179096 -0.05559205 -0.04154504 -0.09514472 -0.08102621
-0.09727601 -0.069190614 -0.023909343 0.015940052 -0.058279954 0.092740946 0.06832926 -0.13169153
0.0625035 0.048177775 0.02932179 -0.08845238 0.06466643 0.12816527 0.035786133 -0.10970044
0.061238635 0.048217084 -0.0967956 -0.06804787 -0.07303905 0.12765528 0.062168267 -0.017528303
-0.026140364 0.05991894 0.12953626 0.0801071 -0.025101027 0.0002884287 0.094197564 -0.004362747
-0.040680327 0.078588605 -0.051463738 -0.08239425 0.0090631535 -0.028199384 0.08501519 -0.058790516
-0.02604566 -0.10376061 0.047905482 -0.04171302 0.045038734 0.026690304 0.06860254 0.061125934
0.12481392 -0.04259508 -0.06300134 0.045956485 0.12443427 0.08150149 0.09118315 0.06910317
0.010481659 0.087388836 -0.051200815 -0.062145103 0.06545004 -0.12555294 -0.022149166 0.047060568
-0.020698482 0.03266445 0.0988682 0.04512443 -0.080602795 -0.038352493 0.043559913 0.020732405
-0.07748303 -0.100309215 -0.00044741717 0.07178832 -0.009496084 0.034638498 0.05465534 -0.09927163
-0.015251585 0.13385777 -0.020086348 0.08584695 -0.111667804 0.0030650054 0.013599487 -0.03917138
0.027362578 -0.043355636 0.0019926426 -0.059265018 0.016034158 0.022224007 0.08729296 -0.0148545485
-0.08696293 -0.13823292 0.1040844 0.042883452 -0.058674384 0.1206252 0.0032300442 0.0035360008
-0.08604426 0.068765216 -0.005571658 -0.1126043 -0.013580817 0.107558005 0.014661413 -0.04038838
0.086278506 0.08041843 -0.11039411 0.11120352 -0.026307018 0.029688831 0.031467367 0.009885481
00000000: 2c5a 8fbd 1db2 cf3d bb72 883d eb95 03bd
00000010: cb36 8dbd c256 60bd 9b82 fc3d ecf2 26bd
00000020: 6196 6abd cfca 383d e815 b6bd 80db b5bd
00000030: dd94 e53d 97b3 3cbd 6d9d ac3b 7be3 f43c
00000040: c6d4 da3d cf6b a03d 02ce 87bc 1279 d53d
00000050: 1e54 82bc 10e7 c73d c133 f9bc 4f51 9bbd
00000060: 54a6 e73a 8ace f0bd d8e4 c6bd 2c94 15bd
00000070: 1b13 47bd 787f cdbc 8bcd 3cbd 6e34 a43d
00000080: 6004 c43d a2b9 843d d1b0 2d3c ced3 7b3d
00000090: 0563 55bb e901 883d 9d16 3cbd 2033 193d
000000a0: 6ef7 843d a43d 9abd 6e6a 0abd 6c72 ebbc
000000b0: 46ff 913d 45ff f73c cbb1 08be 6bb0 67bd
000000c0: f731 953a ea7c 00be 954e bb3d 4698 8c3d
000000d0: 071f aa3d 4865 47bd 9456 36bd 3b82 a93c
000000e0: db6f 383d 14c4 d93d 6c0e febd 626f d6bc
000000f0: d73d f33d c3fc 893d 1ebd aebd c044 1a3d
00000100: d0d1 04be cb40 c0bd 444e 2dbd 3dd1 2bbd
00000110: d206 07be 428d 183d a633 f03d b125 0a3d
00000120: 1f96 163d bae9 7c3d daac bf3c f355 5ebd
00000130: 7ecc f23d 359e 9c3d 00e6 bebd ea57 5cbb
00000140: c438 aebd ce22 fa3d d311 68bd 2a72 e73d
00000150: bcfd ed3d ab37 91bc bc15 073d d424 87bd
00000160: 1fc9 073d 6fc7 c9bd 6fcc 7bbb 5d9a 733c
00000170: 74f3 3dbd f43f 78bd 2344 6b3d 3c51 03bd
00000180: b7a5 9dbc 316e 4d3d 8257 ecbc 4608 fa3d
00000190: 0ac4 4cbc 9854 c9bd 39bf f83c 807e 473d
000001a0: c1e1 ecbd 1594 54bd 1dc8 1c3d 90a0 da3d
000001b0: 9929 80bd 1553 923c 31df c63d 8fc0 e8bc
000001c0: b1b3 39bc c9da 0a3d fcbe fc3c 03a8 86bd
000001d0: 24f6 e33d c4cb d53d 85e2 14bd 3492 06be
000001e0: 9672 fbbc e821 8bbd 4b2a afbc 7dc9 8f3d
000001f0: 2c9b a8bd 9a72 b33d cd0a 9fbb 9202 9ebc
00000200: 6fa6 a1bd 26c1 4a3d 38e6 c53d c777 d03d
00000210: 7db4 63bd 222b 2abd 3cdb c2bd 12f1 a5bd
00000220: a538 c7bd cfb3 8dbd 87dd c3bc b694 823c
00000230: f6b6 6ebd f7ee bd3d 36f0 8b3d 25da 06be
00000240: d601 803d 0f56 453d 4034 f03c 8526 b5bd
00000250: d56f 843d c23d 033e 7b94 123d a0aa e0bd
00000260: 5dd5 7a3d 477f 453d c63c c6bd af5c 8bbd
00000270: 7f95 95bd 11b8 023e 27a4 7e3d 8497 8fbc
00000280: 5124 d6bc 906d 753d 27a5 043e 310f a43d
00000290: aba0 cdbc 3f38 9739 a7ea c03d 60f5 8ebb
000002a0: 6aa0 26bd 10f3 a03d a4cb 52bd 51be a8bd
000002b0: 9f7d 143c 6502 e7bc 721c ae3d 53ce 70bd
000002c0: b55d d5bc 7180 d4bd 8a38 443d 46db 2abd
000002d0: 897a 383d a0a5 da3c 7d7f 8c3d 305f 7a3d
000002e0: 719e ff3d 2e78 2ebd d906 81bd de3c 3c3d
000002f0: 65d7 fe3d 41ea a63d 3bbe ba3d f685 8d3d
00000300: 44bb 2b3c ebf8 b23d f2b7 51bd dd8b 7ebd
00000310: ac0a 863d f390 00be 2b72 b5bc 95c2 403d
00000320: dd8f a9bc 29cb 053d 697b ca3d 65d4 383d
00000330: 1413 a5bd 8117 1dbd e16b 323d 01d7 a93c
00000340: 6caf 9ebd eb6e cdbd 5193 eab9 c105 933d
00000350: 7795 1bbc 19e1 0d3d 47de 5f3d ed4e cbbd
00000360: c9e1 79bc 0312 093e 208c a4bc 87d0 af3d
00000370: 17b2 e4bd 42de 483b 62d0 5e3c 2b72 20bd
00000380: 7c27 e03c ae95 31bd ff96 023b e0bf 72bd
00000390: 115a 833c 1f0f b63c a7c6 b23d 7e60 73bc
000003a0: 9f19 b2bd ee8c 0dbe 342a d53d 8fa6 2f3d
000003b0: 8d54 70bd 580a f73d 26af 533b 40bc 673b
000003c0: f937 b0bd c7d4 8c3d 7492 b6bb 159d e6bd
000003d0: 1382 5ebc 5f47 dc3d 6c36 703c 496e 25bd
000003e0: c9b2 b03d 6bb2 a43d 4f16 e2bd acbe e33d
000003f0: d181 d7bc fe35 f33c ede3 003d b6f6 213c

fc1.bias f4 [96]
-0.08008715 -0.0008475818 -0.10754539 0.02888006 0.06279251 -0.11942708 0.09426567 -0.079507634
0.10465609 -0.013027656 0.026390817 -0.045421332 -0.061040618 0.059288047 0.0013582399 0.10359376
-0.08081952 0.074126475 -0.11806536 -0.012093659 -0.073519744 0.10853509 -0.016027985 0.061946373
0.11865421 0.0499385 -0.03542677 -0.025831437 0.09163734 -0.0047946884 0.09420109 -0.015704948
0.07063646 -0.08392545 0.094669096 0.029333299 -0.041375246 0.006278611 0.110400796 0.044907
0.056385905 -0.121408656 0.118796065 -0.09536336 0.03156121 -0.023079038 0.01096528 0.057690617
0.033406116 -0.01079972 0.06012856 0.09498422 -0.01369161 -0.05251837 -0.015082158 -0.11643031
0.049967777 0.043803442 0.10983134 0.021232136 -0.0065296064 0.11270839 -0.07941838 -0.028603755
0.09657849 0.07667498 0.012571014 -0.012725547 0.11772945 -0.003049551 -0.10774404 0.040334754
0.10810535 -0.066063054 0.1149051 -0.040980518 -0.0042599025 0.10176973 -0.08534483 0.010089438
0.004477364 -0.07777105 0.004777905 -0.044549704 0.055956647 0.10176522 -0.040816158 0.033933926
0.022781009 -0.09230951 0.12264207 -0.09992417 0.07756424 0.08907544 -0.020134157 -0.09135883
00000000: bb04 a4bd 4030 5eba c240 dcbd e095 ec3c
00000010: 5c99 803d 2f96 f4bd 5c0e c13d e6d4 a2bd
00000020: ef55 d63d f371 55bc 8e31 d83c b80b 3abd
00000030: ba05 7abd 06d8 723d f806 b23a f728 d43d
00000040: b484 a5bd 9fcf 973d 40cc f1bd 7b24 46bc
00000050: 8591 96bd a547 de3d 1f4d 83bc 7bbb 7d3d
00000060: fa00 f33d 508c 4c3d a91b 11bd 739c d3bc
00000070: 5cac bb3d c31c 9dbb 80ec c03d aaa7 80bc
00000080: d9a9 903d 1be1 abbd dfe1 c13d 634c f03c
00000090: 1779 29bd cebc cd3b d019 e23d 67f0 373d
000000a0: e8f4 663d 1aa5 f8bd 5a4b f33d de4d c3bd
000000b0: 5446 013d 4010 bdbc b8a7 333c ff4c 6c3d
000000c0: dad4 083d 4ff1 30bc 5d49 763d 1687 c23d
000000d0: c652 60bc 811d 57bd 281b 77bc 0473 eebd
000000e0: 03ab 4c3d 3d6b 333d 41ef e03d 04ef ad3c
000000f0: 4ff6 d5bb a8d3 e63d 1ba6 a2bd 6c52 eabc
00000100: f2ca c53d c607 9d3d a8f6 4d3c d07e 50bc
00000110: 231c f13d fada 47bb e8a8 dcbd 0e36 253d
00000120: 5666 dd3d 114c 87bd 5d53 eb3d 30db 27bd
00000130: a796 8bbb a66c d03d 45c9 aebd 2c4e 253c
00000140: dab6 923b 6e46 9fbd f98f 9c3b c079 36bd
00000150: cc32 653d 496a d03d d82e 27bd 4dfe 0a3d
00000160: 3d9f ba3c c50c bdbd c42b fb3d 0ba5 ccbd
00000170: 00da 9e3d 2f6d b63d 63f0 a4bc 571a bbbd

fc2.weight f4 [2, 96]
-0.037665784 0.015165153 0.017452653 -0.005481835 0.055094257 0.054282833 0.017296806 -0.074257895
-0.005525991 -0.040052556 0.01795057 -0.0065696947 0.044995893 -0.000116389274 -0.056346893 0.008179719
0.05779579 0.10578756 0.1317265 0.1489813 -0.044739682 -0.05694941 0.09331023 0.1172328
0.13901535 0.115400255 0.11904679 -0.06925489 0.10963563 0.15790273 0.09332408 -0.013768108
-0.04544833 0.045222487 -0.042025227 0.13733895 -0.05054614 -0.1029938 0.0634177 0.076198965
0.010191119 -0.0056669544 0.14360063 0.092456706 0.030878931 -0.0122825885 -0.092477016 -0.09014366
-0.025754675 0.066411205 0.15585363 -0.10499737 0.10238811 -0.08445863 -0.019287707 0.09192334
0.08420428 0.06831222 0.05567185 0.12797056 0.0996713 0.035239752 -0.054904237 -0.10633357
0.13312922 0.028735172 0.044892546 0.13849378 0.09851313 -0.10352827 0.123712026 0.16672055
0.123532325 -0.025614155 0.01117846 0.10446816 0.0086226445 -0.023477595 0.14898121 0.010793607
-0.05912104 -0.017583147 0.093304366 0.048119854 -0.071331605 0.04087775 -0.01280941 -0.05150715
-0.022096535 0.11134266 -0.037579183 -0.08567547 0.048810836 -0.06596176 0.033715513 -0.021850605
-0.062762804 0.058247082 -0.10011776 -0.054398883 -0.13774967 -0.09760406 0.012820022 -0.06852718
-0.15356167 -0.07526863 0.040862918 0.059805553 -0.07773295 -0.1057088 0.035838723 -0.14362708
-0.11305088 -0.055802554 -0.033956904 -0.028896216 -0.077455305 0.04401332 -0.06659783 -0.0047036787
0.009599545 0.054277994 0.046920866 0.061309844 -0.0058211824 -0.053582758 -0.0046184515 0.09004844
0.11506864 -0.060134772 -0.0034338497 -0.16396968 0.00084765645 -0.022558652 -0.00055980694 -0.10459428
0.09294286 -0.12914704 -0.14904827 0.07801982 -0.08772966 0.0965435 -0.0650604 0.048809603
0.0010427304 -0.13131055 0.0034584992 0.095945515 -0.032792807 0.0007333532 0.07504755 -0.034035586
-0.05310813 -0.10175094 -0.120364696 0.05574078 -0.018746208 -0.13678384 -0.07127061 0.087594196
-0.050924197 0.08411202 0.06555327 0.031944416 -0.15546271 0.10139222 -0.0696001 -0.15612659
-0.15571561 -0.13742518 -0.070592806 0.013315025 0.04313386 0.010692774 -0.020431302 -0.018083325
0.0068198442 0.075148486 0.0054448424 0.0010480082 -0.079855636 -0.15591648 0.10305449 -0.008852484
-0.115846485 0.06393685 -0.029529871 0.115695015 0.038140204 -0.030022971 -0.015580109 0.052331902
00000000: 7047 1abd 4377 783c def8 8e3c f7a0 b3bb
00000010: 84aa 613d ad57 5e3d 08b2 8d3c 8614 98bd
00000020: 5f13 b5bb 260e 24bd 130d 933c 9846 d7bb
00000030: 9d4d 383d 0416 f4b8 00cc 66bd 3a04 063c
00000040: 47bb 6c3d 26a7 d83d 50e3 063e 8e8e 183e
00000050: f540 37bd c943 69bd 6f19 bf3d c017 f03d
00000060: 0a5a 0e3e f856 ec3d cece f33d 82d5 8dbd
00000070: a588 e03d 41b1 213e b220 bf3d a193 61bc
00000080: 0728 3abd 373b 393d a522 2cbd 95a2 0c3e
00000090: 7809 4fbd 6aee d2bd 24e1 813d 340e 9c3d
000000a0: a7f8 263c dcb1 b9bb 0b0c 133e f159 bd3d
000000b0: d0f5 fc3c e93c 49bc 9764 bdbd 3d9d b8bd
000000c0: 78fb d2bc 9902 883d 1898 1f3e dc08 d7bd
000000d0: dbb0 d13d a5f8 acbd 4101 9ebc 4e42 bc3d
000000e0: 4b73 ac3d 47e7 8b3d 2a08 643d b70a 033e
000000f0: 7720 cc3d 8f57 103d 44e3 60bd 6ac5 d9bd
00000100: 0753 083e 0666 eb3c 3fe1 373d 50d1 0d3e
00000110: 40c1 c93d a106 d4bd bb5c fd3d cbb8 2a3e
00000120: 84fe fc3d c7d4 d1bc dc25 373c 67f3 d53d
00000130: fe45 0d3c 1654 c0bc 888e 183e abd7 303c
00000140: e728 72bd 880a 90bc 5c16 bf3d 5319 453d
00000150: 4e16 92bd 6d6f 273d 8fde 51bc 29f9 52bd
00000160: cb03 b5bc 9f07 e43d a1ec 19bd 9f76 afbd
00000170: dfed 473d f616 87bd 4719 0a3d 0a00 b3bc
00000180: c989 80bd 7e94 6e3d 8a0a cdbd 5dd1 5ebd
00000190: 400e 0dbe a3e4 c7bd 120b 523c fa57 8cbd
000001a0: 453f 1dbe 7126 9abd e05f 273d abf6 743d
000001b0: 7432 9fbd db7d d8bd a0cb 123d fa12 13be
000001c0: 3887 e7bd 3891 64bd 6516 0bbd c2b7 ecbc
000001d0: e3a0 9ebd 5047 343d 7164 88bd 5121 9abb
000001e0: 6947 1d3c 9a52 5e3d 1830 403d 0820 7b3d
000001f0: 9ebf bebb 9879 5bbd 6156 97bb 516b b83d
00000200: 1ba9 eb3d e14f 76bd 700a 61bb abe7 27be
00000210: 4335 5e3a eccc b8bc 02c0 12ba 8735 d6bd
00000220: d458 be3d 1f3f 04be 1ca0 18be dbc8 9f3d
00000230: 9cab b3bd 99b8 c53d 633e 85bd 94ec 473d
00000240: 3aac 883a 4676 06be fda7 623b 157f c43d
00000250: c051 06bd 803e 403a 88b2 993d e668 0bbd
00000260: e987 59bd cc62 d0bd c481 f6bd 7250 643d
00000270: a691 99bc 1011 0cbe 53f6 91bd 9664 b33d
00000280: e495 50bd ec42 ac3d cb40 863d 26d8 023d
00000290: 9e31 1fbe b9a6 cf3d 7f8a 8ebd a6df 1fbe
000002a0: ea73 1fbe 30b9 0cbe f692 90bd 4327 5a3c
000002b0: 21ad 303d bf30 2f3c 8c5f a7bc 7b23 94bc
000002c0: 0079 df3b 73e7 993d a66a b23b 525d 893a
000002d0: 5a8b a3bd 92a8 1fbe 3c0e d33d 020a 11bc
000002e0: ec40 edbd 53f1 823d a1e8 f1bc 82f1 ec3d
000002f0: e738 1c3d bcf2 f5bc b743 7fbc fa59 563d

fc2.bias f4 [2]
0.04480982 -0.13708659
00000000: 808a 373d 6d60 0cbe
