input/05_cnn_qsar/01_featurize/01_featurize_fda_world/02_CNN/run_files_0.1/model_6.pth (torch, 634400 bytes, 20 tensors)

conv1.weight f4 [128, 1, 11, 42]
0	0xbc8a5a13	-0.016888654
1	0x3cd66f04	0.026175983
2	0xbccacade	-0.024754938
3	0xbd110a6d	-0.035410333
4	0x3c703089	0.014660009
5	0x3cbc32d3	0.022973454
6	0xbce71aae	-0.028210964
7	0x3b898d55	0.0041977563
8	0x3d29a9a7	0.04142156
9	0x3c4b3b6d	0.012404305
10	0xbd00acdd	-0.031414855
11	0x3c924a30	0.017857641
12	0xbcf51fce	-0.029922392
13	0xbc3fa921	-0.011698038
14	0x3ce73814	0.028224982
15	0xbc6d50c2	-0.014484586
16	0x3c0a33ba	0.008435184
17	0x3c03829f	0.008026748
18	0xbb4f699e	-0.0031648646
19	0x3b432671	0.0029777552
20	0x3cad7c33	0.021177387
21	0x3cf45f7b	0.029830685
22	0xbcf2eb92	-0.029653344
23	0xbc189dd1	-0.00931497
24	0x3abbec2c	0.0014337352
25	0xbd1aeefc	-0.03782557
26	0x3b8ea458	0.0043530874
27	0xbd60b037	-0.05485555
28	0xbcbc47b7	-0.022983415
29	0xbd3a7300	-0.04551983
30	0x3c97524e	0.018471863
31	0x3cf7469a	0.030185033
32	0x3c17db6d	0.009268624
33	0xbd3845b4	-0.04498835
34	0x3d0a2a56	0.03373178
35	0xbd13688d	-0.03598838
36	0xbc548cc4	-0.012973014
37	0x3953a7f5	0.00020185097
38	0x3d272d12	0.040814467
39	0x3d31cbf0	0.04340738
40	0x3c6fa97a	0.014627809
41	0x3b9dae09	0.0048120064
42	0x3b9dbea2	0.004813985
43	0x3aa12c8e	0.0012296604
44	0xbd0c8dad	-0.0343148
45	0xbd00f925	-0.031487603
46	0xbd1688eb	-0.03675167
47	0xbd520106	-0.051270507
48	0xb9d82c7a	-0.00041231868
49	0x3d5d3ca5	0.054012913
50	0x3d02b870	0.031914175
51	0xbc548d02	-0.012973072
52	0x3d04c43c	0.032413706
53	0xbc9c8703	-0.019107347
54	0x3cb8703e	0.022514459
55	0x3cfb4ed8	0.030677244
56	0x3d02bb4f	0.031916913
57	0xbc8a64cb	-0.016893765
58	0xbd3d0dc2	-0.0461557
59	0xbd321535	-0.043477256
60	0xbd2fa4eb	-0.042881887
61	0x3c33b648	0.010968752
62	0x3b869428	0.004107017
63	0x3d3f3fc5	0.046691675
64	0xbd04473d	-0.0322945
65	0x3c81db71	0.015851708
66	0x3ce19baa	0.027540047
67	0xbbdd109c	-0.0067463648
68	0x3cf2bb6f	0.02963039
69	0xba933b23	-0.0011232834
70	0x3ce00ad3	0.027348911
71	0x3ca9c1da	0.020722318
72	0x3cb0afe0	0.021568239
73	0x3d0a2ff6	0.033737145
74	0x3c8af374	0.01696179
75	0xbd64520e	-0.055742316
76	0xbd3df7ca	-0.04637889
77	0x3aecd0c5	0.0018067589
78	0x3be92fde	0.007116302
79	0xbc0f291f	-0.008737831
80	0xbc6ae4c1	-0.014336766
81	0xbc4ca4fc	-0.012490507
82	0xba7a6ef4	-0.00095532765
83	0x3c8407fd	0.01611709
84	0x3d024a69	0.031809244
85	0xbcdf7033	-0.02727518
86	0xbd1b843f	-0.037967917
87	0xbd0eded5	-0.034880478
88	0xbbbbfa1c	-0.0057366025
89	0x3ccd12b4	0.025033332
90	0x3cd54a8d	0.026036525
91	0xbd2b52ca	-0.041827
92	0xbb2d6589	-0.0026458225
93	0x3b997f23	0.0046843453
94	0xbd28cc73	-0.041210603
95	0x3c8da68a	0.017291326
96	0x3cc74631	0.024325462
97	0xbc8e9e4d	-0.017409468
98	0xbd04bd12	-0.032406874
99	0xbcbff886	-0.023433935
100	0x3c89d819	0.016826676
101	0xbc5adba0	-0.013358027
102	0xbc9b8f98	-0.01898937
103	0x3bcefc6d	0.0063167126
104	0xbd0266bd	-0.03183626
105	0xbc9965fe	-0.018725391
106	0xbd29795b	-0.0413755
107	0x3d6ee75d	0.058326114
108	0x3c226c90	0.009913579
109	0x3d34ad99	0.044110868
110	0x3d06c967	0.032906916
111	0xbc504b1e	-0.012713222
112	0xbcbdaac4	-0.023152716
113	0xbd46d311	-0.048541132
114	0xbc9dc73d	-0.019260043
115	0x3c71ba70	0.014753923
116	0xbc18000d	-0.009277356
117	0x3ccd562f	0.02506551
118	0xbc71c611	-0.014756695
119	0x3d073003	0.033004772
120	0x3c8ab215	0.01693062
121	0x3cd7b47f	0.026331184
122	0xbc08f9e1	-0.008360357
123	0xbca0823b	-0.019593349
124	0xbd51ffd3	-0.051269364
125	0x3cd6a806	0.026203167
126	0xbd20769f	-0.039175626
127	0x3b930181	0.0044862633
128	0x3d3b0051	0.0456546
129	0xbce2e35d	-0.027696306
130	0x3cb92964	0.022602744
131	0xbc1e1e3f	-0.009650766
132	0xbd37fe6c	-0.04492037
133	0xbd6718b2	-0.056420036
134	0x3d360e75	0.04444738
135	0xbca672cd	-0.020318413
136	0xbc2f60e9	-0.0107042575
137	0x3d3993b4	0.045306876
138	0xbce402dc	-0.027833395
139	0x3c4ad649	0.012380191
140	0x3c2966c7	0.010339445
141	0x3cfcd588	0.030863538
142	0x3a4bdb9a	0.00077765586
143	0x3d17bedf	0.037047263
144	0xbd7932f4	-0.06083961
145	0xbc8b58e5	-0.017010162
146	0x3d271c23	0.040798318
147	0x3c93b867	0.018032266
148	0xbd0c83a5	-0.034305234
149	0x3d04c604	0.032415405
150	0xbb80cfad	-0.003931007
151	0x3d28a5cb	0.041173737
152	0x3cc540cf	0.024078755
153	0xbc0fdb07	-0.0087802475
154	0xbd4f2a12	-0.05057723
155	0xbbeffee6	-0.0073240874
156	0xbc5790eb	-0.01315711
157	0x3d340822	0.04395307
158	0x3d887b5d	0.06664155
159	0xbc6dd0df	-0.014515131
160	0x3d014f39	0.031569693
161	0xbb8e23b4	-0.0043377522
162	0xbcd2d334	-0.025735475
163	0x3d2e7594	0.0425926
164	0xbbf8f5f0	-0.0075976774
165	0x3d246676	0.040136777
166	0x3c5aa5ef	0.013345226
167	0xbd501aab	-0.050806683
168	0x3bf25379	0.0073952046
169	0xbd298ae8	-0.041392237
170	0xbc099905	-0.008398299
171	0xbcb868f9	-0.022510992
172	0x3ba36bcb	0.004987215
173	0x3cd44b7a	0.025914896
174	0xbc7dd5e6	-0.015492892
175	0xbcf9c8e9	-0.03049131
176	0x3c246b41	0.010035337
177	0xbd3f45c2	-0.046697386
178	0x3cd1196a	0.025524814
179	0x3ba9da99	0.0051835296
180	0x3cd16945	0.025562892
181	0xbced2f54	-0.028953232
182	0xbd15458a	-0.03644327
183	0x3d2ae339	0.041720603
184	0x3cd31f37	0.02577172
185	0xbd55993a	-0.05214808
186	0x3d07fc23	0.03319944
187	0xbd24379d	-0.0400921
188	0x3d01926b	0.031633776
189	0x3ba29e75	0.004962737
190	0xbcab53e9	-0.020914035
191	0xbcf56ede	-0.029960092
192	0xbcaa4ba4	-0.020788021
193	0xbcaff302	-0.02147818
194	0x3d07afc0	0.033126593
195	0x3cf2f419	0.02965741
196	0xbd05bcf7	-0.032650914
197	0xbba0f2d6	-0.004911761
198	0x3cba6b2e	0.022756185
199	0xbb5df5e2	-0.0033868481
200	0x3cbe8269	0.023255544
201	0xbbec8b86	-0.007218781
202	0xbd2b9f9b	-0.04190026
203	0xbce42fc1	-0.027854802
204	0x3ca0b97a	0.019619692
205	0x3aaf3039	0.0013365812
206	0x3cfb1996	0.030651849
207	0x3d3807f7	0.04492947
208	0x3d030be9	0.03199378
209	0xbcbb4d6d	-0.022864068
210	0x3cb12bdf	0.021627365
211	0x3ca5b5f8	0.020228371
212	0xbcecd90f	-0.028912095
213	0x3d4b6a82	0.04966212
214	0xbd272af7	-0.04081246
215	0x3b88ba5b	0.004172606
216	0xbd224ee3	-0.039626013
217	0xbc72caec	-0.014818888
218	0xbca9e254	-0.020737804
219	0x3ce0d2d2	0.027444277
220	0x3ce620e1	0.02809185
221	0xbc69b205	-0.014263635
222	0x3d20cb39	0.03925631
223	0xbc9adce4	-0.018904157
224	0xbd3b8fc7	-0.045791414
225	0xbd1776cd	-0.03697853
226	0xbd1426d8	-0.036169857
227	0x3d58bc3a	0.05291388
228	0x3cacc0d5	0.021088043
229	0x3c226c15	0.009913464
230	0x3c9f1c8d	0.019422794
231	0xbb78b283	-0.0037948198
232	0x3d42e087	0.047577407
233	0xbd065909	-0.032799754
234	0x3d084de0	0.033277392
235	0x3c302c27	0.010752714
236	0x3bc1a315	0.0059093335
237	0xbcde51e8	-0.027138665
238	0xbbd1aebe	-0.0063990047
239	0xbcd2424b	-0.025666377
240	0xbb9321af	-0.0044900994
241	0xbaf4cc67	-0.0018676639
242	0x3c8f4566	0.017489146
243	0xbc9de99c	-0.019276433
244	0x3cd085ff	0.02545452
245	0x3c198fef	0.009372695
246	0x3c9a76d0	0.018855482
247	0x3c9c03b0	0.019044727
248	0x3c41259b	0.011788751
249	0x3d00a173	0.03140397
250	0x3d592a2e	0.05301874
251	0xbd458e86	-0.048231624
252	0xbcf014ce	-0.029306795
253	0xbb8158c8	-0.003947351
254	0xbccfbdd6	-0.025359076
255	0xbd27863b	-0.040899497

conv1.bias f4 [128]
0	0x3d019868	0.031639487
1	0x3af89aa4	0.0018966985
2	0x3d42a484	0.047520176
3	0xbc2d6e83	-0.01058543
4	0xba9dfc1c	-0.0012053284
5	0xbbf1ebbb	-0.0073828376
6	0x3c1ad416	0.009449979
7	0xbc9d3f9b	-0.019195369
8	0xbcb2b693	-0.021815574
9	0x3ce0a9a2	0.027424637
10	0x3cf1aa59	0.029500173
11	0xbcb3ccda	-0.021948267
12	0xbbe38111	-0.006942876
13	0xbd455202	-0.048173912
14	0xbd162dca	-0.03666476
15	0xbcf32360	-0.029679954
16	0xbd3b69ef	-0.045755323
17	0xbd1f3e07	-0.038877513
18	0xbcf792a8	-0.030221298
19	0xbd024169	-0.03180066
20	0x3d375593	0.044759344
21	0xbd1e562e	-0.038656406
22	0x3c4311ce	0.0119061
23	0xbc6a6008	-0.014305122
24	0x3d0df0e7	0.03465357
25	0x3d0dbb91	0.034602705
26	0x3ccd0015	0.025024453
27	0xbd3bfd29	-0.04589573
28	0xbb4e7102	-0.0031500463
29	0xbbedcfea	-0.0072574513
30	0x3ca0afa0	0.019614995
31	0xbcc68c12	-0.024236713
32	0x3cb797c5	0.022411237
33	0xbd04b2cc	-0.032397076
34	0x3d5d8e1a	0.054090597
35	0xbd46d7b5	-0.048545558
36	0xbc9892e5	-0.018624732
37	0xbd075f2d	-0.03304975
38	0x3c2e36f1	0.010633216
39	0x3d1164c8	0.035496503
40	0xbd392be3	-0.04520787
41	0x3bf3ffee	0.0074462807
42	0xbb147a0f	-0.002265576
43	0xbd104878	-0.03522536
44	0xbcabd2a7	-0.02097447
45	0x3d3a6265	0.045503993
46	0xbbb46acd	-0.0055058957
47	0x3cb0391e	0.02151161
48	0x3d1df703	0.038565647
49	0xbd2bc9ea	-0.041940607
50	0xbd2c4ee5	-0.042067427
51	0xbc6c69f4	-0.014429558
52	0x3cfe2fea	0.031028707
53	0xbd103650	-0.035208046
54	0x3c6fdd7d	0.014640209
55	0x3d2a3112	0.041550703
56	0x3d28ca6f	0.04120868
57	0x3b2b95aa	0.0026181736
58	0xbc373093	-0.011181015
59	0x3d1a4299	0.03766117
60	0x3d15d5d3	0.03658087
61	0xbd18049b	-0.037113767
62	0xbcf80f62	-0.030280773
63	0x3d154027	0.036438134
64	0x3d1d4135	0.038392264
65	0x3cdf0c6d	0.027227605
66	0x3b8d34b2	0.0043092603
67	0x3d02df19	0.031951044
68	0xbcf65ffb	-0.030075064
69	0xbd18b4c8	-0.03728178
70	0xbc3117bf	-0.010808884
71	0x3d201a22	0.039087422
72	0xbb283a5f	-0.0025669558
73	0x3cb40344	0.021974213
74	0xbd4915d6	-0.04909309
75	0x3cea144a	0.028574128
76	0xbd110931	-0.035409156
77	0x3d1863d3	0.037204575
78	0xbc396100	-0.0113146305
79	0x3d04d5ea	0.032430567
80	0x3b23513e	0.002492025
81	0x3d325290	0.04353577
82	0x3bf8839b	0.007584048
83	0x3d0ce6da	0.034399845
84	0x3cbe2bac	0.023214184
85	0xba52577c	-0.00080239004
86	0xbbc45150	-0.0059911385
87	0xbd122d5f	-0.0356878
88	0x3cb58463	0.022157853
89	0x3c255e59	0.010093295
90	0xbc220401	-0.00988865
91	0xbca0b283	-0.019616371
92	0x3cf8c9c4	0.030369647
93	0x3ca4c11c	0.020111613
94	0xbcf4e628	-0.029894903
95	0x3c872044	0.016494878
96	0xbc9da08c	-0.019241594
97	0xbc3a9327	-0.011387623
98	0xbc8aea1d	-0.016957337
99	0xbcf4fa7d	-0.029904598
100	0xbc36d4a5	-0.011159097
101	0xbc5ef7d8	-0.013608895
102	0x3d411f31	0.047148887
103	0xbb00c087	-0.0019646005
104	0x3cad33bb	0.021142831
105	0x3ccd6579	0.0250728
106	0xbd15e0ab	-0.036591213
107	0xbd1c7f2c	-0.038207218
108	0xbc081240	-0.008305132
109	0xbc0c52f6	-0.008564701
110	0xbcf2d2a7	-0.029641462
111	0x3bfc11ee	0.007692567
112	0xbc5441b5	-0.012955119
113	0x3d2a3765	0.041556735
114	0xbceaf37d	-0.028680557
115	0xbd0fb8d2	-0.035088368
116	0x3d1c8b2d	0.038218666
117	0x3b81e4fb	0.003964064
118	0xbd1978e9	-0.037468825
119	0xbb757089	-0.003745111
120	0x3d1f243c	0.038852915
121	0x3cd2894e	0.025700238
122	0x3d126f50	0.035750687
123	0xbd135a62	-0.035974868
124	0x3d144f71	0.036208574
125	0x3d00905c	0.03138767
126	0x3d0ef2cb	0.034899514
127	0x3ceaf3ed	0.028680766

bn1.weight f4 [128]
0	0x3f7ab086	0.97925603
1	0x3f7eaa96	0.99479043
2	0x3f7fa5cd	0.99862367
3	0x3f800608	1.000184
4	0x3f836332	1.0264647
5	0x3f801239	1.0005561
6	0x3f81f63a	1.0153267
7	0x3f81c231	1.0137388
8	0x3f8052f7	1.0025319
9	0x3f7dd073	0.99146193
10	0x3f7f5ff3	0.9975578
11	0x3f7d72b6	0.9900316
12	0x3f8213c6	1.0162284
13	0x3f7d2b18	0.9889388
14	0x3f7d32cb	0.9890563
15	0x3f80be31	1.0058042
16	0x3f7ebb25	0.9950431
17	0x3f81fa7f	1.015457
18	0x3f807354	1.0035195
19	0x3f7e62c3	0.9936945
20	0x3f8449fc	1.0335078
21	0x3f80bf21	1.0058328
22	0x3f7fa805	0.9986575
23	0x3f812cd3	1.0091804
24	0x3f829dd5	1.0204417
25	0x3f808db2	1.0043242
26	0x3f7ee77c	0.9957197
27	0x3f7fec57	0.9997
28	0x3f7f9361	0.9983426
29	0x3f8073e5	1.0035368
30	0x3f7eda3a	0.9955174
31	0x3f7fedcc	0.99972224
32	0x3f80ec07	1.007203
33	0x3f7b74e7	0.98225254
34	0x3f7ee2d3	0.99564856
35	0x3f81194d	1.0085846
36	0x3f8074e3	1.0035671
37	0x3f80efb8	1.0073156
38	0x3f7f5578	0.9973979
39	0x3f80f3a5	1.0074354
40	0x3f800849	1.0002528
41	0x3f7eb167	0.99489444
42	0x3f7e291a	0.99281466
43	0x3f7d4624	0.9893515
44	0x3f7ec37a	0.99517024
45	0x3f7e8bf9	0.9943233
46	0x3f7d6836	0.9898714
47	0x3f808b3b	1.004249
48	0x3f7e6282	0.9936906
49	0x3f826aec	1.018888
50	0x3f7bac4b	0.98309773
51	0x3f7f495d	0.9972132
52	0x3f7fa4a0	0.9986057
53	0x3f802abb	1.001304
54	0x3f7feca5	0.99970466
55	0x3f7f7f7a	0.9980389
56	0x3f7f9b95	0.99846774
57	0x3f8004dd	1.0001484
58	0x3f80c58d	1.0060288
59	0x3f81a056	1.0127056
60	0x3f81c6b2	1.0138762
61	0x3f7a9c00	0.9789429
62	0x3f7fe066	0.9995178
63	0x3f80b5bc	1.0055461
64	0x3f7e8211	0.99417216
65	0x3f7eee62	0.99582493
66	0x3f7caa07	0.9869694
67	0x3f8037b1	1.0016996
68	0x3f7e601f	0.9936542
69	0x3f7bda10	0.9837961
70	0x3f80b0c3	1.0053943
71	0x3f8167dc	1.010982
72	0x3f7b24ab	0.98102826
73	0x3f805bf4	1.0028062
74	0x3f7fbcde	0.99897563
75	0x3f7fe0df	0.999525
76	0x3f809f1e	1.0048559
77	0x3f7f9ef0	0.99851894
78	0x3f803fb7	1.0019444
79	0x3f807dcc	1.003839
80	0x3f808f9f	1.004383
81	0x3f80fe09	1.0077525
82	0x3f81e4ae	1.0147913
83	0x3f817152	1.0112708
84	0x3f7e7ae4	0.99406266
85	0x3f81451e	1.0099218
86	0x3f800e79	1.0004417
87	0x3f82ebcb	1.0228208
88	0x3f7fd042	0.9992715
89	0x3f81c596	1.0138423
90	0x3f7f4a61	0.9972287
91	0x3f7ed872	0.9954902
92	0x3f7fa05e	0.99854076
93	0x3f806d19	1.0033294
94	0x3f7f043b	0.9961583
95	0x3f7f2282	0.9966203
96	0x3f81728d	1.0113083
97	0x3f7ef81e	0.99597347
98	0x3f80b78f	1.0056018
99	0x3f81cd07	1.0140694
100	0x3f815512	1.0104086
101	0x3f7fc0dd	0.9990366
102	0x3f7fa9c3	0.9986841
103	0x3f7f83c8	0.9981046
104	0x3f803536	1.0016239
105	0x3f7e8a06	0.9942936
106	0x3f8074ea	1.0035679
107	0x3f8048e3	1.0022243
108	0x3f7e9b72	0.9945594
109	0x3f812793	1.0090202
110	0x3f7e81d2	0.9941684
111	0x3f80e122	1.0068705
112	0x3f811482	1.0084383
113	0x3f7ea751	0.99474055
114	0x3f7fd9ab	0.9994151
115	0x3f8180b3	1.0117401
116	0x3f7e6826	0.9937767
117	0x3f7e7813	0.9940197
118	0x3f80bb1f	1.0057105
119	0x3f802341	1.0010759
120	0x3f7fecb0	0.9997053
121	0x3f808f16	1.0043666
122	0x3f7fa9bc	0.9986837
123	0x3f7e5499	0.99347836
124	0x3f7f8687	0.9981465
125	0x3f811c75	1.0086809
126	0x3f7f22eb	0.99662656
127	0x3f7f490d	0.9972084

bn1.bias f4 [128]
0	0xbb520730	-0.003204774
1	0x3b3cf4dc	0.002883247
2	0xbb9cbf79	-0.0047835675
3	0x3bba6ad2	0.0056890035
4	0xbbf91b50	-0.007602133
5	0xbab8e22b	-0.0014105489
6	0xb9b18a83	-0.0003386327
7	0x3aa84bb9	0.001283995
8	0x3c103745	0.00880224
9	0xbc07d1f9	-0.0082898075
10	0xbc5a4ae6	-0.013323521
11	0xbb931612	-0.004488715
12	0xbc833890	-0.016018182
13	0xbbb69ada	-0.005572659
14	0xbbb2d42f	-0.005457423
15	0xbc0bfd57	-0.008544288
16	0xbc2aefa7	-0.010433114
17	0xbba89c34	-0.005145574
18	0xbb9bb991	-0.004752346
19	0x3c8a5023	0.016883915
20	0xbb82163d	-0.003969936
21	0xba4c3145	-0.0007789324
22	0xbbc7a723	-0.0060929223
23	0xbc29283c	-0.010324534
24	0x3aa3c8b9	0.0012495733
25	0xbc5e0d21	-0.013552935
26	0xbc34eb76	-0.011042466
27	0xbb8d5247	-0.0043127867
28	0x3c003e87	0.007827408
29	0x3c16db50	0.009207562
30	0xbca6761f	-0.020319996
31	0xbc87086a	-0.016483504
32	0x3ba93af4	0.0051644985
33	0xbc8be592	-0.017077241
34	0xbc5867a8	-0.013208307
35	0xba7dccb5	-0.0009681688
36	0xbc333364	-0.010937545
37	0xbaf95af3	-0.0019024297
38	0xbc03523e	-0.0080152135
39	0xbba964ae	-0.0051694727
40	0xbcade6e9	-0.02122827
41	0xbc7565d7	-0.014977894
42	0xbbb22cff	-0.005437493
43	0xbba9d902	-0.00518334
44	0xbb6cdd15	-0.0036142517
45	0xbc0a16b0	-0.008428261
46	0xbc1609dc	-0.009157624
47	0xbb7bbc68	-0.003841186
48	0x3b8b2e82	0.0042474875
49	0xba9f2ba5	-0.0012143744
50	0xbc07a87c	-0.008279916
51	0xbb8a1c50	-0.004214801
52	0x3b0230d0	0.001986552
53	0xbb4d15fd	-0.0031293624
54	0xbc14ff23	-0.009094032
55	0xbb796db4	-0.0038059773
56	0x3b3b3d66	0.0028570532
57	0xbab1a430	-0.001355296
58	0xbc4a3edf	-0.012344091
59	0xb67ddb00	-3.7827413e-06
60	0xbc292c86	-0.010325557
61	0xbba3a19d	-0.004993631
62	0xbb5eb9b4	-0.00339852
63	0xbc9ad0a4	-0.018898316
64	0xbc8df6d2	-0.017329607
65	0xbace7dd2	-0.001575405
66	0xbb947238	-0.0045302175
67	0xbc397390	-0.011319056
68	0x38b7ef36	8.7706765e-05
69	0xbc0e9a10	-0.008703724
70	0xbc0a618d	-0.0084461095
71	0x3a8fadc0	0.0010961816
72	0xba2d80f8	-0.0006618644
73	0xbb3d6b3b	-0.0028903026
74	0xbc0bbb5b	-0.008528556
75	0xbc4ff309	-0.012692221
76	0xbb013af7	-0.0019718984
77	0x3b66bc10	0.0035207309
78	0xbbf82969	-0.007573296
79	0xbc4281d0	-0.01187177
80	0x3be724bb	0.007053939
81	0xbc07b066	-0.008281803
82	0xbc77b0b7	-0.015117816
83	0x3c553936	0.013014128
84	0x3b6e6cea	0.0036380836
85	0x3b5bad1c	0.003351993
86	0x3c08ca0c	0.008348953
87	0xbbf65e30	-0.0075185522
88	0xbc1f9a96	-0.009741446
89	0xbc67abca	-0.014140079
90	0x3b49ec11	0.0030810873
91	0xbbd4accc	-0.0064903256
92	0xbc49e3e4	-0.0123224
93	0xbc3afeb4	-0.011413265
94	0xbc1b591a	-0.009481693
95	0xbc03fb6e	-0.008055551
96	0xbab940bc	-0.0014133672
97	0xbc10cdc7	-0.008838124
98	0x3c76a68c	0.015054356
99	0xbcaeee38	-0.021353826
100	0x3bd1b6b4	0.0063999537
101	0xbc251089	-0.010074743
102	0xbc9c7b0b	-0.01910164
103	0xbb353744	-0.002765135
104	0xbb81d7cb	-0.003962492
105	0xbc18b4d8	-0.00932046
106	0xbb5d7b78	-0.0033795517
107	0xbba74850	-0.005105056
108	0xbc40874b	-0.011751006
109	0x3ac7b661	0.0015236848
110	0xbb31858a	-0.0027087652
111	0xbc2d30b8	-0.0105706975
112	0x3b59cd05	0.0033233773
113	0xbbe7bf3a	-0.0070723565
114	0x3be3740c	0.006941324
115	0x3bd18efc	0.006395219
116	0xbbccb585	-0.0062472248
117	0xbc0faa13	-0.008768576
118	0x3b852274	0.004062945
119	0xbb87955a	-0.004137677
120	0xbc513b5c	-0.0127705
121	0x3a8d3bfe	0.0010775325
122	0xbc4910e4	-0.012272093
123	0xbc45d6e9	-0.012075164
124	0xbb89010c	-0.004181033
125	0x3badd8bd	0.005305378
126	0xbc1dcba2	-0.009631069
127	0x3c17c9a1	0.009264381

bn1.running_mean f4 [128]
0	0x3c874221	0.016511025
1	0xbc570d8f	-0.013125791
2	0x3d807eb4	0.06274167
3	0xbca2a110	-0.019852191
4	0xbbe3c4cd	-0.0069509507
5	0xbc85340d	-0.016260171
6	0x3bb43e4e	0.0055005914
7	0xbd033818	-0.032035917
8	0xbccd30e2	-0.025047723
9	0x3c85ea9c	0.016347222
10	0x3d2fad31	0.042889778
11	0xbd167857	-0.03673586
12	0xbc848bb2	-0.016179893
13	0xbd6c9b9c	-0.05776559
14	0xbd2a8198	-0.041627496
15	0xbd072d0c	-0.033001944
16	0xbd2c254b	-0.042027753
17	0xbd4c8314	-0.049929693
18	0xbcda88fc	-0.026676647
19	0xbd085f1f	-0.03329384
20	0x3d1bb9f3	0.038019132
21	0xbce649ab	-0.0281113
22	0x3c9008b2	0.017582271
23	0xbcb201ec	-0.021729432
24	0x3cf199ea	0.029492337
25	0x3d0fa9b7	0.035073962
26	0x3cec299f	0.02882844
27	0xbd17c68a	-0.037054576
28	0xbc8b9fbd	-0.017043943
29	0xbc88678b	-0.016650936
30	0x3cd439f2	0.025906537
31	0xbc6dce55	-0.014514525
32	0x3c01bcde	0.007918565
33	0xbcd560de	-0.026047166
34	0x3d8bffb8	0.06835884
35	0xbd4915c0	-0.049093008
36	0xbce0df1d	-0.027450139
37	0xbcf54a65	-0.0299427
38	0x3bf2cf23	0.0074099465
39	0x3cca87c5	0.024722943
40	0xbd041550	-0.032246888
41	0x3c135ecf	0.008994772
42	0x3c3bd2bf	0.01146382
43	0xbd0db79e	-0.03459894
44	0xbd268ac3	-0.040659677
45	0x3d4c3d6e	0.04986327
46	0xbc925bac	-0.017865978
47	0x3ca48a0d	0.020085359
48	0x3cc6c875	0.024265507
49	0xbd2f4d99	-0.042798612
50	0xbd12f5b7	-0.035878863
51	0xbcc5c550	-0.024141937
52	0x3cd6c26e	0.026215758
53	0xbd0f7cea	-0.035031237
54	0xba8396ca	-0.0010039445
55	0x3d0d6c44	0.03452708
56	0x3d64b32e	0.05583494
57	0x3c43a159	0.011940324
58	0xbc922faf	-0.017845003
59	0x3d3732ce	0.044726186
60	0x3d284395	0.041080076
61	0xbc8159ba	-0.015789855
62	0xbcbc6c9b	-0.023001006
63	0x3cef5066	0.029213142
64	0x3d277e3a	0.040891863
65	0x3c85a7e2	0.016315404
66	0x3ca8a888	0.020588174
67	0x3ce90ec1	0.028449418
68	0xbd55a670	-0.05216068
69	0xbd6bd23d	-0.057573546
70	0xbc434562	-0.011918398
71	0x3d311e68	0.04324189
72	0xbcaad4ab	-0.020853361
73	0x3c9625e7	0.01832862
74	0xbd3ef838	-0.04662344
75	0x3cba8853	0.022770083
76	0xbd13a8de	-0.036049716
77	0x3d17accc	0.037030026
78	0xbcf7e5cb	-0.030260941
79	0x3d03347b	0.03203247
80	0xbbd731cc	-0.0065672155
81	0x3d2d60f7	0.0423288
82	0xbbbd61ea	-0.0057794945
83	0x3d0ce37d	0.034396637
84	0x3b5c041e	0.003357179
85	0xbce04cd0	-0.027380377
86	0xbca46205	-0.02006627
87	0xbd00f50b	-0.03148369
88	0x3cdc3f73	0.026885724
89	0x394d08a5	0.00019553544
90	0xbcc2507d	-0.02372002
91	0xbc8ea415	-0.017412225
92	0x3d1f35ad	0.03886955
93	0x3c826911	0.01591924
94	0xbd0a6c1b	-0.033794504
95	0x3d01d60e	0.03169828
96	0xbc692a28	-0.014231242
97	0xb915c410	-0.00014282786
98	0xbc9865ec	-0.018603288
99	0xbcf0bfd5	-0.029388348
100	0xbc86ff1c	-0.016479068
101	0xbc8828fb	-0.016621104
102	0x3d24b259	0.040209148
103	0x3997bc24	0.0002894114
104	0x3c3338fe	0.010938881
105	0xb9faacce	-0.00047812465
106	0xbcabd59f	-0.020975886
107	0xbcf77dac	-0.030211292
108	0xbb065223	-0.0020495735
109	0x3c4be7fe	0.012445448
110	0xbcf85906	-0.030315887
111	0x3bef031e	0.007294073
112	0xbc94efb3	-0.018180704
113	0x3d0bd40e	0.034137778
114	0xbbdafe7b	-0.0066831685
115	0xbd4e4f61	-0.05036867
116	0x3d501d41	0.05080915
117	0xba093af9	-0.0005234923
118	0xbd19db0b	-0.03756241
119	0xbc032796	-0.0080050435
120	0x3d18bb69	0.037288103
121	0x3b921bb0	0.004458867
122	0x3ce83400	0.028345108
123	0xbd2d5719	-0.04231939
124	0x3d159f39	0.0365288
125	0x3d407ece	0.04699593
126	0x3cfa46e0	0.030551374
127	0x3ca40589	0.02002217

bn1.running_var f4 [128]
0	0x3b7a04e0	0.0038149878
1	0x3ba47d2e	0.0050198054
2	0x3b9ea737	0.004841711
3	0x3b2a1b5c	0.002595625
4	0x3b1cc344	0.0023920098
5	0x3b8a53cd	0.0042214156
6	0x3b3366df	0.0027374548
7	0x3b2184e8	0.0024645869
8	0x3b47ed59	0.003050646
9	0x3b4d91a1	0.003136732
10	0x3b965510	0.004587777
11	0x3b68525f	0.0035449488
12	0x3b370410	0.0027926005
13	0x3b50de5f	0.0031870825
14	0x3b58fa97	0.0033108348
15	0x3b272137	0.0025501975
16	0x3b3076a6	0.0026926189
17	0x3b45548f	0.0030110215
18	0x3b070513	0.002060239
19	0x3b34ff95	0.002761816
20	0x3b41c7e8	0.0029568616
21	0x3b550ebb	0.003251
22	0x3b6aa630	0.0035804622
23	0x3b027226	0.0019904464
24	0x3b1d7666	0.002402687
25	0x3b31a2f7	0.0027105191
26	0x3b337f4b	0.0027389105
27	0x3b14127d	0.0022594028
28	0x3b85f07b	0.0040875054
29	0x3b3d6a9d	0.0028902658
30	0x3b3a741d	0.0028450557
31	0x3b3b11a7	0.0028544457
32	0x3b8b57db	0.0042524165
33	0x3b2e63bb	0.0026609737
34	0x3ba1236f	0.004917554
35	0x3ae07064	0.0017123339
36	0x3b83e412	0.004024991
37	0x3b4bc47a	0.003109245
38	0x3b3354dc	0.0027363813
39	0x3b550c6b	0.0032508622
40	0x3b686ceb	0.003546531
41	0x3b245a9e	0.0025078426
42	0x3b84657a	0.0040404173
43	0x3b1dd693	0.0024084195
44	0x3bd50cda	0.006501776
45	0x3b4da816	0.0031380705
46	0x3b6d720e	0.0036231312
47	0x3b20da2e	0.0024544108
48	0x3b51e1b4	0.0032025399
49	0x3b156ef4	0.002280173
50	0x3b2334e3	0.002490335
51	0x3b2cfbc7	0.0026395188
52	0x3b64e322	0.003492542
53	0x3b2f856c	0.0026782406
54	0x3b6a0222	0.0035706838
55	0x3b3c5b6b	0.0028741013
56	0x3b424136	0.002964092
57	0x3b730a6b	0.0037085067
58	0x3b18bfe2	0.002330773
59	0x3b436078	0.0029812139
60	0x3b400a5b	0.0029303047
61	0x3b9f6067	0.004863787
62	0x3b5e9d12	0.0033968133
63	0x3b8793da	0.0041374983
64	0x3b3e9eaa	0.002908627
65	0x3b466c56	0.0030276976
66	0x3b5faa8b	0.003412875
67	0x3b340767	0.0027470232
68	0x3bc90e3d	0.0061357305
69	0x3b9c22b8	0.004764881
70	0x3b3f54c7	0.0029194818
71	0x3b1c1e02	0.0023821597
72	0x3ba5f512	0.005064615
73	0x3b2bdeef	0.0026225408
74	0x3b8202dc	0.003967626
75	0x3b2c8787	0.0026325898
76	0x3affcf1f	0.0019516683
77	0x3b224e3d	0.0024765872
78	0x3b985a75	0.004649455
79	0x3b301d4f	0.0026872938
80	0x3b324801	0.0027203562
81	0x3b188e63	0.0023278228
82	0x3b943965	0.0045234435
83	0x3b433ce2	0.0029790928
84	0x3b96dad3	0.0046037226
85	0x3bbf400f	0.005836494
86	0x3b594598	0.0033153053
87	0x3b0e44e2	0.0021708538
88	0x3b27d47b	0.0025608826
89	0x3b246dc6	0.0025089844
90	0x3b745539	0.0037282242
91	0x3b5152c3	0.00319402
92	0x3b298c23	0.0025870882
93	0x3b65f3ab	0.0035087864
94	0x3b355f2b	0.0027675133
95	0x3b92fdc5	0.004485818
96	0x3b3f537a	0.0029194043
97	0x3b2e856a	0.0026629814
98	0x3b4ca0f1	0.0031223858
99	0x3b44d637	0.0030034909
100	0x3b714240	0.003681317
101	0x3b44d9c7	0.0030037032
102	0x3b7c5945	0.0038505357
103	0x3b2f0c6f	0.0026710292
104	0x3b5fbec9	0.0034140816
105	0x3bae2ada	0.005315167
106	0x3b972ec9	0.0046137315
107	0x3b3dd3fc	0.0028965464
108	0x3b6cb9ff	0.0036121604
109	0x3bab6456	0.005230467
110	0x3b0bed30	0.0021351092
111	0x3afb728f	0.0019183921
112	0x3b2b0664	0.0026096338
113	0x3b5a1df1	0.0033282007
114	0x3b9e1f94	0.0048255417
115	0x3b6182c9	0.003441023
116	0x3b9e6447	0.0048337313
117	0x3b2110e3	0.0024576716
118	0x3b22f3f3	0.0024864643
119	0x3b306936	0.002691818
120	0x3b5edaae	0.0034004855
121	0x3bb75a54	0.0055954847
122	0x3b17fbf1	0.002319094
123	0x3b4b9944	0.0031066695
124	0x3b27b19f	0.0025588048
125	0x3b89e708	0.0042084493
126	0x3b061e33	0.0020464777
127	0x3b46f270	0.0030356906

conv2.weight f4 [64, 128, 11, 1]
0	0xbb1c962b	-0.0023893218
1	0xbcf42255	-0.029801527
2	0xbc8bf4b4	-0.017084457
3	0xbbae2e9a	-0.005315614
4	0xbbef3ddc	-0.0073010754
5	0x3ca65b8d	0.020307327
6	0xbc9ea526	-0.019365858
7	0x3ba3df77	0.0050010043
8	0xbc850e09	-0.016242044
9	0xbc8b9aef	-0.017041652
10	0x3c9e9cb4	0.019361831
11	0xbc384e5a	-0.011249149
12	0x3caafbe4	0.020872064
13	0x3b9d2f36	0.0047968877
14	0xbb111525	-0.0022137847
15	0x3ba3746d	0.0049882443
16	0x3c6ae3b8	0.014336519
17	0x3c39a627	0.011331118
18	0x3be7ea4d	0.0070774914
19	0xbbd628c3	-0.006535621
20	0xbc731508	-0.014836557
21	0x3c91fdb6	0.017821174
22	0x3cf23a8c	0.029568933
23	0x3ba1d318	0.0049384944
24	0x3cd95d3e	0.02653372
25	0x3c5802d5	0.013184269
26	0xbc8c5804	-0.017131813
27	0xbc7fac95	-0.015605112
28	0xbc62e2de	-0.013848035
29	0x3b8ea999	0.0043537137
30	0x3a6b188a	0.0008968195
31	0xb9170cc0	-0.00014405232
32	0xbcae9b64	-0.02131433
33	0x3cc06dd9	0.02348988
34	0x3c7eeecc	0.015559863
35	0x3cfb4546	0.03067268
36	0x3b856e31	0.0040719737
37	0x3c0793a1	0.008274944
38	0x3bc441ec	0.005989304
39	0xbc836fc0	-0.016044497
40	0x3c95dd00	0.018293858
41	0xbbafcbc9	-0.0053648693
42	0xbc8305a3	-0.015993899
43	0x3cbedc57	0.023298426
44	0x3ce1383d	0.027492637
45	0x3d0a34e0	0.03374183
46	0x3ccfd07a	0.025367964
47	0xbc2a2e8c	-0.010387074
48	0xbc9715d6	-0.01844303
49	0x3b9c4d40	0.004769951
50	0xbb890887	-0.0041819247
51	0x3acff2d0	0.001586521
52	0x3aeea7e2	0.0018207992
53	0xbce86c3a	-0.028371919
54	0x3ca40cab	0.020025572
55	0x3c7d0caa	0.015444914
56	0x3b542aea	0.0032374212
57	0x3ba422da	0.0050090374
58	0x3d03aea3	0.03214897
59	0x3c0c34ce	0.0085575115
60	0xbb8df7a2	-0.0043324986
61	0xbc4e3b0a	-0.012587318
62	0x3c8867f0	0.016651124
63	0x3c325e3b	0.010886724
64	0x3ce3aa52	0.027791176
65	0x3cb29960	0.02180165
66	0xbca3fd79	-0.020018326
67	0xbbe58fb9	-0.0070056585
68	0xbc926d31	-0.017874332
69	0xbbbfd514	-0.0058542583
70	0xbc8dac4a	-0.017294068
71	0xbbfef66b	-0.00778084
72	0x3c2d71ac	0.0105861835
73	0x3ca39f63	0.019973462
74	0x3cdb22e5	0.026750037
75	0x3c9f227b	0.019425621
76	0x3cfb7996	0.030697625
77	0x3c048db8	0.008090429
78	0x3beb000b	0.007171636
79	0xb7e25b48	-2.6983806e-05
80	0x3c7ec8c0	0.015550792
81	0x3c8e4ef0	0.017371625
82	0x3c86d747	0.016460074
83	0xbcb5ddf3	-0.02220056
84	0xbae97cd7	-0.0017813694
85	0x3c257ac1	0.010100068
86	0xbcaf23b2	-0.021379326
87	0x3c8de33b	0.017320266
88	0xb9f32e0f	-0.00046382888
89	0xbbe121d9	-0.00687049
90	0x3c06ecfb	0.0082352115
91	0xbbf2a8a2	-0.0074053565
92	0xbcad31f3	-0.021141982
93	0x3ca22660	0.01979369
94	0x3c251ab6	0.010077169
95	0xbbcfcba5	-0.006341415
96	0x3a72127c	0.0009234322
97	0xbadfa5ce	-0.0017062963
98	0x3cb407ae	0.021976318
99	0x3b83bbc8	0.004020188
100	0xbb8c5e36	-0.0042836918
101	0x3c9e3938	0.019314393
102	0x3c82cf1b	0.015967896
103	0xbc067e0f	-0.008208766
104	0x3b005ad4	0.0019585388
105	0x3cd19a2b	0.025586208
106	0xbc2ea9cc	-0.0106606
107	0x3c69c57d	0.014268276
108	0x3c58a732	0.013223456
109	0x3b2abb12	0.0026051444
110	0xbc3096ec	-0.01077817
111	0xbb8b8528	-0.004257817
112	0x3c3903c2	0.0112924
113	0xbc784cd2	-0.015155034
114	0xbcccce6b	-0.025000772
115	0xbcdbfad5	-0.026853004
116	0x3c72e849	0.014825889
117	0xbc74059f	-0.014893918
118	0x3c418f72	0.011813985
119	0x3c296205	0.010338311
120	0x3bde9638	0.00679281
121	0xbb8a2626	-0.0042159734
122	0xbccfe61b	-0.025378278
123	0xbc0822bc	-0.008309063
124	0xbcecf760	-0.028926551
125	0xb9a4ab94	-0.00031408353
126	0xbccc3c4e	-0.0249311
127	0xbcdc9ac1	-0.026929261
128	0x3c074a84	0.008257512
129	0xbc4504fb	-0.012025113
130	0x3ca0578a	0.019572992
131	0x3cb537be	0.022121307
132	0xba10b2d9	-0.00055198144
133	0x3cb26d30	0.02178058
134	0x3c966fd1	0.018363865
135	0x3bf324e0	0.0074201673
136	0x3cb46653	0.022021448
137	0xbaf14203	-0.0018406514
138	0x3c399ead	0.011329335
139	0xbc238fa8	-0.009982981
140	0xbc9587f7	-0.01825331
141	0xbc12fb74	-0.008971084
142	0xbceab99e	-0.028652962
143	0x3c2da971	0.01059948
144	0x3d0c1192	0.034196444
145	0xbb6b8ced	-0.0035942153
146	0x3c7ef882	0.015562179
147	0xbcf14027	-0.029449536
148	0xbc11a1c1	-0.008888663
149	0xbc67f789	-0.014158138
150	0xbbac1bdd	-0.005252345
151	0xbca91841	-0.020641448
152	0xba3653b0	-0.00069552194
153	0xbc260616	-0.010133287
154	0x3d16cb3c	0.036814913
155	0x3cc5c76d	0.024142945
156	0x3ce39e85	0.027785549
157	0xbc1a88a4	-0.009431992
158	0x3c74fbf9	0.014952653
159	0x3d21ba59	0.039484356
160	0x3bc6f0d5	0.00607119
161	0x3d0bd14e	0.034135155
162	0x3c604f4c	0.013690781
163	0x3bd80811	0.0065927585
164	0x3c75dd0f	0.015006318
165	0x3cd7e1b7	0.026352746
166	0x3d0e9819	0.03481302
167	0xbc088616	-0.00833275
168	0x3d00aa95	0.03141268
169	0xbc242259	-0.010017955
170	0x3b93bbff	0.004508495
171	0xbc64a71f	-0.01395586
172	0x3a5ada22	0.00083485444
173	0xbc6cb0e8	-0.014446475
174	0xbb0e3c29	-0.0021703339
175	0xbbad8e92	-0.0052965367
176	0x3c974ccf	0.018469242
177	0xbc9fd363	-0.019509977
178	0x3ce9f5fc	0.028559677
179	0xbcb43ac6	-0.022000682
180	0x3cae874e	0.021304753
181	0xbc86286f	-0.016376702
182	0x3c45c6a3	0.012071284
183	0x3be2fd95	0.006927202
184	0x3ba78e5d	0.0051134066
185	0x3c638e61	0.013888926
186	0x3c64fd87	0.013976461
187	0x3bff10a9	0.0077839685
188	0xbca28a27	-0.019841267
189	0xbc1a66a2	-0.009423884
190	0x3c710d99	0.014712715
191	0x39fea3f4	0.0004856881
192	0xba80966c	-0.0009810454
193	0xbbc75562	-0.0060831765
194	0xbcea4444	-0.028597005
195	0x399d352c	0.0002998499
196	0xbcb6136a	-0.022226054
197	0x3d0582fe	0.032595627
198	0x3c4956a9	0.012288728
199	0x3ce20688	0.027591005
200	0x3abb9318	0.0014310805
201	0xbbddd8df	-0.006770238
202	0xbc3eff79	-0.011657589
203	0xbd046865	-0.03232612
204	0xbca93a86	-0.020657789
205	0xbc9a3e28	-0.018828467
206	0xbcb4a928	-0.022053316
207	0xbc9f424a	-0.019440789
208	0x3ca345c9	0.019930737
209	0x3caec0c9	0.021332162
210	0x3cc8ab2a	0.02449568
211	0x3d22ea7e	0.03977441
212	0xbb412ccc	-0.0029476164
213	0x3c163fce	0.009170486
214	0x3d0acbfd	0.033885945
215	0xbb05b175	-0.0020399962
216	0x3c816b7e	0.015798327
217	0xbcb5910b	-0.022163888
218	0xbc50b1c2	-0.012737693
219	0x3b69b45d	0.0035660483
220	0x3ca47788	0.020076528
221	0x3d2d4b95	0.04230841
222	0x3c51cf76	0.01280581
223	0x3d247944	0.04015471
224	0x3d31aaaa	0.04337565
225	0x3c595b88	0.013266452
226	0x3c1f3f4f	0.009719684
227	0x3cb503a1	0.022096457
228	0xbc085f10	-0.008323446
229	0x3cd5357f	0.026026485
230	0xbb7b208f	-0.0038318967
231	0x3d0dbcdd	0.034603942
232	0x3d024704	0.031806007
233	0x3d041708	0.032248527
234	0x3cb18fb7	0.021674974
235	0xbbdaedc7	-0.0066811773
236	0x3c2824c8	0.010262676
237	0xbccedf41	-0.02525294
238	0xbcd46777	-0.025928242
239	0xbc8d30b4	-0.017235138
240	0xbc74c495	-0.014939447
241	0x3cae21b4	0.021256305
242	0xbc1fc3db	-0.009751285
243	0x3c581784	0.0131892
244	0xbc85b176	-0.016319972
245	0xba4895c8	-0.00076517137
246	0x3b821e77	0.003970917
247	0xbc9afb8a	-0.018918771
248	0xbcb8a85c	-0.022541218
249	0x3ca98acc	0.020696066
250	0xbcaa702a	-0.020805437
251	0xbbb58d2c	-0.0055405106
252	0xbb80da7c	-0.0039322954
253	0xbc929a9a	-0.017895985
254	0xbcff1f71	-0.031142922
255	0xbba0d5c7	-0.0049082967

conv2.bias f4 [64]
0	0xbd160c7f	-0.03663301
1	0xbced87c8	-0.02899541
2	0xbc818887	-0.015812172
3	0xbcfab7cc	-0.03060522
4	0xbbdf0843	-0.006806405
5	0xbc3579b7	-0.011076382
6	0x3a5a5e9b	0.00083301374
7	0xbc8171ce	-0.015801337
8	0x3c127cbb	0.008940871
9	0x3b26e16c	0.0025463952
10	0x382b326a	4.081653e-05
11	0x3b885d49	0.004161511
12	0xbba185fe	-0.004929303
13	0x3c5d13e5	0.013493513
14	0xbbd05999	-0.006358337
15	0xbbfe47aa	-0.007760008
16	0x3b4b9505	0.0031064164
17	0x3a98c40f	0.001165511
18	0xbc5965b4	-0.013268877
19	0x3a640753	0.0008698601
20	0xbcb65a51	-0.022259863
21	0x3b84e10c	0.004055148
22	0x3c7738e1	0.015089245
23	0xbb9fda67	-0.0048783305
24	0xbce4756a	-0.027888019
25	0xbc7805c8	-0.015138097
26	0xbcae91c8	-0.021309748
27	0xbcd69ad0	-0.026196867
28	0xbc3b1c28	-0.011420287
29	0x3b90d631	0.004420065
30	0xbc6f9d3d	-0.014624891
31	0xba9f80e3	-0.0012169149
32	0xbcf058d9	-0.02933924
33	0x3c7c5701	0.015401603
34	0x399491ff	0.00028337535
35	0xbc79f413	-0.015255946
36	0xbb129206	-0.0022364869
37	0x3b48983e	0.0030608322
38	0xbbbdc6fb	-0.0057915426
39	0x3c1c1547	0.009526557
40	0x3b107110	0.0022040047
41	0xbc3e03d4	-0.011597592
42	0xbc2d5d54	-0.010581333
43	0xbc78f795	-0.015195747
44	0x3cb26039	0.021774398
45	0xbba62534	-0.005070353
46	0x3c93955b	0.018015554
47	0xbcc6c2e5	-0.024262855
48	0x3c7ae914	0.015314359
49	0x3b87189f	0.004122808
50	0xbc8ab0e7	-0.016930057
51	0xbc8dd082	-0.017311338
52	0xbc31456f	-0.010819777
53	0xb9927bd2	-0.00027939543
54	0x3d19a144	0.03750731
55	0xbce62022	-0.028091494
56	0x3d08f9fa	0.03344152
57	0xbbd55559	-0.0065104184
58	0xbc8784e3	-0.016542858
59	0x3c8003c0	0.015626788
60	0xbcf3cf92	-0.029762063
61	0x3ba5c9ff	0.00505948
62	0xbcab6566	-0.020922374
63	0xbc4b2bc3	-0.01240057

bn2.weight f4 [64]
0	0x3f8084d3	1.0040535
1	0x3f802033	1.0009826
2	0x3f804869	1.0022098
3	0x3f7e6fcc	0.9938934
4	0x3f7ebedc	0.9950998
5	0x3f80be9c	1.0058169
6	0x3f805c2d	1.002813
7	0x3f82d944	1.0222554
8	0x3f804a59	1.0022689
9	0x3f7fdda6	0.99947584
10	0x3f7e9360	0.99443626
11	0x3f7de2a7	0.9917397
12	0x3f810817	1.0080594
13	0x3f7a6d58	0.97823095
14	0x3f80d5ab	1.0065206
15	0x3f82c229	1.0215503
16	0x3f8039a7	1.0017594
17	0x3f8016b6	1.0006931
18	0x3f7eaecc	0.9948547
19	0x3f7e1bdf	0.9926128
20	0x3f80ac24	1.0052533
21	0x3f7ee13a	0.9956242
22	0x3f7e766e	0.9939946
23	0x3f802489	1.001115
24	0x3f7f1ff0	0.9965811
25	0x3f80c4c5	1.0060049
26	0x3f7d8c30	0.99042034
27	0x3f8265b9	1.0187293
28	0x3f816a61	1.0110589
29	0x3f81c60f	1.0138568
30	0x3f7f37ea	0.99694693
31	0x3f7d6a2e	0.9899014
32	0x3f7fd12c	0.99928546
33	0x3f7f8ffb	0.9982907
34	0x3f7e7622	0.99399006
35	0x3f7e9eba	0.9946095
36	0x3f7e766f	0.99399465
37	0x3f846d3f	1.0345839
38	0x3f7f570a	0.99742186
39	0x3f7ea894	0.9947598
40	0x3f7e77d0	0.9940157
41	0x3f7c3869	0.98523575
42	0x3f811d8b	1.0087141
43	0x3f808884	1.0041661
44	0x3f802efe	1.0014341
45	0x3f7bdf7c	0.98387885
46	0x3f7e1efb	0.9926602
47	0x3f7e4fde	0.9934062
48	0x3f7dded1	0.99168116
49	0x3f8001fc	1.0000606
50	0x3f7d87f0	0.9903555
51	0x3f7fb5fc	0.9988706
52	0x3f808658	1.0040998
53	0x3f7df117	0.99196
54	0x3f80218f	1.0010241
55	0x3f7ef139	0.99586827
56	0x3f802647	1.0011681
57	0x3f7fb9ee	0.9989308
58	0x3f7e1114	0.9924481
59	0x3f80f7f2	1.0075667
60	0x3f7db8d5	0.99110156
61	0x3f7e163a	0.99252665
62	0x3f7a4e32	0.97775567
63	0x3f8014f8	1.0006399

bn2.bias f4 [64]
0	0xbc0cc754	-0.008592445
1	0x3a78f9f9	0.0009497698
2	0xba09070c	-0.00052271853
3	0xbc800e10	-0.015631706
4	0xba9013e2	-0.0010992254
5	0xb714b7de	-8.864297e-06
6	0xbb98b845	-0.0046606385
7	0xbb1775c7	-0.0023110972
8	0xbcc6d892	-0.02427319
9	0x3a57026e	0.0008201961
10	0xbbc4cd86	-0.0060059456
11	0xbb14aa97	-0.0022684687
12	0x3b662233	0.00351156
13	0x3bc464ae	0.0059934473
14	0xbbd521bd	-0.006504266
15	0xbbc4c0e6	-0.0060044406
16	0x3bb5164f	0.005526341
17	0x3aa8993f	0.0012863054
18	0x3b81a12a	0.00395598
19	0x3b95d092	0.0045719827
20	0x3b934b27	0.004495043
21	0x3beda88e	0.0072527593
22	0x3bc4c28f	0.0060046385
23	0xbcfd33f2	-0.030908559
24	0x37d8bf42	2.5838268e-05
25	0xbbc4c905	-0.0060054087
26	0xbc52d8a0	-0.01286903
27	0xbbb336cc	-0.005469179
28	0x3bafee54	0.005368987
29	0x3ba4eef4	0.0050333682
30	0xb9d2c731	-0.0004020273
31	0xbb8cede6	-0.0043008206
32	0x3b628593	0.003456448
33	0x3b3234d8	0.0027192142
34	0xba4a09cc	-0.00077071483
35	0xba287a5e	-0.00064269255
36	0x3bc4b6b2	0.0060032243
37	0x3bc199d1	0.005908229
38	0xbaa912e6	-0.0012899309
39	0x3bbcf1ee	0.005766145
40	0xba167f9a	-0.000574106
41	0xbad34210	-0.0016117711
42	0xbb7ebd61	-0.0038870203
43	0xbb0d43ab	-0.0021555226
44	0x3b5aae5e	0.003336809
45	0x3bc4cac5	0.0060056173
46	0xbbc4bdbd	-0.006004064
47	0xbb1f3f2e	-0.0024299133
48	0xbc5b21e7	-0.013374782
49	0x3aba5d62	0.0014218504
50	0xbc05e767	-0.008172846
51	0xbb8212fb	-0.003969548
52	0x3bc4c495	0.0060048797
53	0x3be1af0b	0.006887322
54	0x398d3b44	0.00026937772
55	0x3c027ba3	0.007964048
56	0x3c1c95e8	0.009557225
57	0x3badc0f0	0.005302541
58	0x3a9c1488	0.0011907974
59	0x3bc4c4ea	0.0060049193
60	0xbc834355	-0.016023317
61	0xbba4f03e	-0.005033522
62	0xbb060fef	-0.0020456275
63	0xbbc485b0	-0.005997382

bn2.running_mean f4 [64]
0	0x3e87b1f2	0.2650295
1	0x3ef64d33	0.48105773
2	0xbeb405bf	-0.35160634
3	0x3e81a5b7	0.25321743
4	0xbf81231f	-1.0088843
5	0x3e8fcab3	0.28084335
6	0x3f366cea	0.7125994
7	0xbc5b5a8a	-0.013388285
8	0x3df85d5e	0.121271834
9	0xbf520c80	-0.82050323
10	0xbfb27308	-1.3941355
11	0xbedc11ba	-0.42982274
12	0xbf7fbd70	-0.99898434
13	0x3fc8aeeb	1.5678381
14	0xbf7722a4	-0.9653723
15	0x3f3b2356	0.73100793
16	0xbfd33ff1	-1.6503888
17	0x3f4379c8	0.763577
18	0x3f8347d1	1.0256292
19	0xbfb184f2	-1.3868697
20	0x3f6ee3f0	0.93316555
21	0xbfb52269	-1.4151126
22	0xbfd998d4	-1.6999764
23	0xbda0b5e2	-0.078471914
24	0x3f862cc0	1.0482407
25	0xbfaa454a	-1.3302395
26	0x3e8da62d	0.27665845
27	0x3f4356ff	0.7630462
28	0x3ee0a01c	0.43872154
29	0x3e0267c8	0.12734902
30	0x3f865ee2	1.0497706
31	0x3f88e735	1.0695559
32	0x3f75e5d2	0.960538
33	0xbf4ab3fc	-0.79180884
34	0xbfe0af72	-1.7553542
35	0x3f8510df	1.0395774
36	0xbff0f9d2	-1.8826239
37	0x3f3d0457	0.7383475
38	0x3f7d5193	0.989526
39	0x3f45a4dd	0.77204686
40	0xbfee9a44	-1.8640828
41	0x3f636950	0.8883257
42	0x3f7aea46	0.9801372
43	0x3f3d545a	0.73956835
44	0x3f5e544c	0.86847377
45	0x3f8d7d71	1.1053907
46	0x3f8d42bd	1.1035992
47	0xbf5e6456	-0.8687185
48	0x3f0bd1e1	0.54617125
49	0x3de7522b	0.11294969
50	0xbf67d318	-0.9055648
51	0x3f694768	0.9112458
52	0x3f0cf724	0.55064607
53	0x3f2d0bb7	0.67596
54	0x3f82fccc	1.0233397
55	0xbf613773	-0.87975234
56	0x3de39d02	0.11113931
57	0x3f617084	0.8806231
58	0x3f74d958	0.9564414
59	0x3f7e99c8	0.994534
60	0xbeeacfd4	-0.45861685
61	0x3f8d7bee	1.1053445
62	0x3fa0ef80	1.257309
63	0x3f7af229	0.9802576

bn2.running_var f4 [64]
0	0x3f2f0e5a	0.68381274
1	0x3f4ee68f	0.80820554
2	0x3fab2a09	1.3372203
3	0x3ed83542	0.42228132
4	0x406c7ab4	3.6949892
5	0x3ef22341	0.47292522
6	0x3fb784d5	1.4337412
7	0x3e90f8d9	0.28314856
8	0x3f019dab	0.5063121
9	0x4083abf6	4.1147413
10	0x40889616	4.268321
11	0x3fb296b9	1.3952247
12	0x407d3b92	3.956761
13	0x40c21c32	6.065942
14	0x40507076	3.256864
15	0x3ff107d1	1.883051
16	0x40df4e5e	6.9783163
17	0x3fd01284	1.625565
18	0x4025fd78	2.5935955
19	0x40b7ed0c	5.7476864
20	0x40011219	2.0167296
21	0x40a3c732	5.118066
22	0x40f643df	7.695785
23	0x3ed238f2	0.4105907
24	0x40761e0e	3.8455844
25	0x40a0583a	5.01077
26	0x3f53c044	0.8271525
27	0x3fed8d9d	1.8558842
28	0x3f812119	1.0088226
29	0x3e49758c	0.19673747
30	0x405eac69	3.479273
31	0x40892a75	4.2864327
32	0x400c4f2d	2.1923325
33	0x40240b5e	2.5631938
34	0x40d32788	6.5985756
35	0x403c7f42	2.9452672
36	0x40d4b99c	6.6476574
37	0x3faf63a7	1.3702286
38	0x40a091af	5.0177836
39	0x3fc1deea	1.5146153
40	0x410be354	8.743
41	0x40457bbb	3.085677
42	0x4005fbbe	2.0934901
43	0x3fe51478	1.7896872
44	0x3f7cc0ca	0.9873167
45	0x406d0ded	3.703975
46	0x402cbd6d	2.6990616
47	0x404aa9db	3.1666172
48	0x3f546c9b	0.8297822
49	0x3ecc7247	0.39930937
50	0x402f67ab	2.7407024
51	0x40738d3c	3.8054953
52	0x3feff09f	1.8745307
53	0x3fc069f2	1.5032332
54	0x4032ea76	2.7955604
55	0x400b33eb	2.1750438
56	0x3eaa110d	0.33216134
57	0x3fd7cee8	1.6860018
58	0x4033a13c	2.806716
59	0x4009dfee	2.1542926
60	0x3f68eb75	0.9098428
61	0x3fe6881f	1.8010291
62	0x408b653b	4.356107
63	0x406827f5	3.6274388

fc1.weight f4 [96, 64]
0	0x3d4b360d	0.049612094
1	0xbe041eaf	-0.1290233
2	0x3d1e842b	0.038700264
3	0xbd82706c	-0.06369099
4	0xbcdd14a6	-0.026987385
5	0x3df8e1b9	0.12152428
6	0xbdc12a4a	-0.09431894
7	0x3daf2f5a	0.085539535
8	0x3d92e753	0.07173028
9	0x3bf1841f	0.0073704864
10	0x3dbf1ac4	0.09331277
11	0x3ca532ad	0.020165766
12	0xb9ee43d2	-0.00045445428
13	0x3d92126b	0.07132419
14	0xbda90d55	-0.08254496
15	0xbc2e374c	-0.010633301
16	0xbdac68db	-0.08418437
17	0x3ddfe464	0.10932234
18	0x3db3bd62	0.08776356
19	0x3b8ace06	0.0042359857
20	0x3d9365a5	0.071971215
21	0x3de4c432	0.11170234
22	0x3dd7ed93	0.105433606
23	0x3dcc933d	0.09989021
24	0xbbe2dae4	-0.0069230665
25	0x3d6ca02b	0.057769936
26	0xbdbb6b15	-0.09151284
27	0x3d8ac341	0.06775523
28	0xbdde4a75	-0.10854045
29	0xbdf81a69	-0.12114412
30	0xbd917e85	-0.0710421
31	0x3dd6ac8b	0.10482129
32	0x3d3e50b2	0.046463676
33	0x3d245003	0.040115368
34	0x3ca83ea8	0.02053769
35	0xbc8f5e55	-0.017501036
36	0xbd11323c	-0.035448298
37	0x3d5a803b	0.053344946
38	0xbdb430a2	-0.087983385
39	0xbd866359	-0.06561918
40	0x3c1b3979	0.009474152
41	0x3ce20c3d	0.027593726
42	0xbd08a96d	-0.033364702
43	0x3d9e5bdc	0.077323645
44	0xbcbc302f	-0.022972194
45	0x3daab037	0.083343916
46	0xbcd67db5	-0.026182989
47	0x3daf1f14	0.085508496
48	0xbd8273fc	-0.063697785
49	0xbd93d842	-0.07218982
50	0x3e06d723	0.13168006
51	0xbd8fba14	-0.070179135
52	0xbd2379df	-0.039911147
53	0xbdf73c28	-0.12072021
54	0x3d867d49	0.06566865
55	0x3b97d39e	0.004633381
56	0x3e006560	0.12538671
57	0x3d2f5bf9	0.04281232
58	0xbd10a09c	-0.03530942
59	0xbddf7493	-0.10910907
60	0x3d0c7936	0.034295283
61	0x3d0b6afd	0.03403758
62	0x3da82d6e	0.0821179
63	0x3d4f616a	0.05063001
64	0xbe0772d9	-0.13227405
65	0x3dc5c81a	0.09657307
66	0xbcd261c3	-0.025681382
67	0x3da826a2	0.082104936
68	0x3d43ccb1	0.04780263
69	0xbde6152c	-0.11234507
70	0x3df3f0c0	0.11911154
71	0x3da8bc1a	0.082390025
72	0x3db2519e	0.087069735
73	0xba9932bc	-0.0011688094
74	0x3cf38a22	0.029728953
75	0x3db52177	0.088442735
76	0x3d678eec	0.056532785
77	0x3def7c7d	0.11693666
78	0xbdaba6b9	-0.08381409
79	0x3bb13752	0.005408206
80	0xbbde9c06	-0.006793502
81	0x3cef0333	0.02917633
82	0xbdc5fb91	-0.09667123
83	0xbdf9f9c6	-0.122058436
84	0xbda15325	-0.07877187
85	0x3c05df66	0.008170938
86	0xbdbf62a6	-0.093449876
87	0xbd6025ed	-0.05472367
88	0xbe0a11f5	-0.13483413
89	0xbda74205	-0.08166889
90	0x3c04bee0	0.008102149
91	0x3dbbbc93	0.09166827
92	0x3d89b3b0	0.06723726
93	0xbd3e948b	-0.04652838
94	0xbdf975da	-0.121806815
95	0x3d862314	0.06549659
96	0x3d095a66	0.033533476
97	0xbdab7d65	-0.083735265
98	0x3d8c185e	0.06840585
99	0x3d0c00a2	0.03418029
100	0x3d90a0ef	0.07061946
101	0x3c52fd1a	0.012877727
102	0x3decb1fd	0.11557386
103	0x3cb1f23a	0.021721948
104	0x3dcfa7c6	0.10139422
105	0xbad9b438	-0.0016609496
106	0xbd044be3	-0.032298934
107	0x3dc61e7a	0.09673782
108	0x3cd16392	0.025560174
109	0xbdefe0d3	-0.11712804
110	0x3dea98f5	0.114549555
111	0xbca43e02	-0.020049099
112	0x3dc1ee36	0.09469263
113	0x3ddfe387	0.10932069
114	0xbdb7f8e5	-0.0898302
115	0x3c53a9e2	0.012918921
116	0x3dc7906e	0.09744345
117	0xbc27da31	-0.010244892
118	0xbd1ff421	-0.03905118
119	0xbda1d975	-0.07902805
120	0x3cbda0ec	0.023148023
121	0xbddd9506	-0.108194396
122	0x3de1c892	0.11024584
123	0x3c5b987f	0.013403057
124	0x3c5088a7	0.012727893
125	0x3d4ee44b	0.050510686
126	0x3db06f69	0.08615
127	0xbc748ad3	-0.014925676
128	0xbd8ee0e3	-0.069764875
129	0x3dabfc20	0.083976984
130	0x3d4d378c	0.0501018
131	0x3dfef9a4	0.12449959
132	0x3bdfea51	0.0068333526
133	0xbdd9c68b	-0.10633572
134	0xbd24c835	-0.040229995
135	0xbcb1cba8	-0.021703556
136	0xbd0ee502	-0.034886368
137	0xbde8760a	-0.11350639
138	0x3d243623	0.04009069
139	0xbcec11c6	-0.028817069
140	0x3befc020	0.0073166043
141	0x3d3fcfb4	0.04682894
142	0xbd7c62d2	-0.06161768
143	0x3d096f8f	0.033553656
144	0xbdaeb13d	-0.08529899
145	0xbbe9d0ea	-0.0071355
146	0xbdb4e22f	-0.088322036
147	0xbdedcfae	-0.116118774
148	0xbd1da610	-0.038488448
149	0xbdb829da	-0.089923576
150	0xbcc5e0ce	-0.024155047
151	0xbc848b7b	-0.01617979
152	0xbd300e38	-0.04298231
153	0x3dca8016	0.09887712
154	0x3be6be01	0.007041693
155	0xbc8b0a3f	-0.01697266
156	0xbbaf986e	-0.005358747
157	0x3cf6e492	0.030138288
158	0x3d62c628	0.055364758
159	0xbdeeae30	-0.116543174
160	0x3d6502c0	0.055910826
161	0x3d7bccb0	0.061474502
162	0xbd04f49e	-0.032459848
163	0x3b2afea0	0.002609171
164	0x3d45e09e	0.048309915
165	0x3d5fbf45	0.05462577
166	0x3b915eb5	0.004436339
167	0x3dd3e727	0.10346823
168	0xbbaf0f8e	-0.0053424304
169	0xbb84af8e	-0.004049248
170	0x3e0c6c40	0.13713169
171	0xbcd3a686	-0.02583624
172	0x3da7b494	0.081887394
173	0xbc94404d	-0.018097067
174	0xbd108807	-0.035285976
175	0xbddcb5e2	-0.10776879
176	0xbdd762c7	-0.10516887
177	0x3dfc1741	0.12309123
178	0x3cd11345	0.025521884
179	0xbde95969	-0.11394007
180	0xbdb625c4	-0.08893922
181	0xbd1f09ec	-0.03882782
182	0xbd80d5a0	-0.06290746
183	0xbd683844	-0.056694284
184	0x3dd8ad6b	0.10579952
185	0x3cc1e54f	0.023668913
186	0x3c69cd34	0.014270116
187	0xbda63f88	-0.081175864
188	0x3d3dd92e	0.046349697
189	0xbd801813	-0.06254592
190	0x3dc84da1	0.097804315
191	0x3d813180	0.063082695
192	0xbd2c8064	-0.04211463
193	0x3d1a705b	0.037704807
194	0xbd32f395	-0.04368933
195	0x3d4c55ec	0.04988663
196	0x3d6bd8b7	0.057579722
197	0xbdebda30	-0.11516225
198	0xbdc6332e	-0.096777305
199	0x3da4e77c	0.08051965
200	0x3dc95a49	0.09831674
201	0x3d267482	0.040638454
202	0x3d56fe75	0.052488763
203	0x3d16e213	0.036836695
204	0xbd8fd161	-0.07022358
205	0xbdb52398	-0.088446796
206	0x3d1637fb	0.03667448
207	0xbde86fb4	-0.11349431
208	0xbd8e1135	-0.06936876
209	0x3a307853	0.0006731797
210	0xbdb9dbb5	-0.09075109
211	0x3d3edd4a	0.046597756
212	0x3d988f8f	0.07449257
213	0xbd5654df	-0.052327033
214	0x3d33026d	0.043703485
215	0xbd938c19	-0.07204456
216	0x3cbd2e04	0.023093231
217	0x3c89f6ce	0.016841318
218	0x3d7d043f	0.061771628
219	0xbcd20cec	-0.025640927
220	0xbda92f83	-0.08261015
221	0x3df244de	0.118295416
222	0xbd8f0a5f	-0.069844
223	0xbd743ea0	-0.059630036
224	0x3d97ea9c	0.07417795
225	0x3d611765	0.05495395
226	0x3d985e91	0.07439912
227	0x3dd1594e	0.10222112
228	0x3d90ab18	0.070638835
229	0xbd5cb363	-0.053882014
230	0xbdca77b4	-0.09886113
231	0xbc8921d4	-0.016739763
232	0x3da862b5	0.08221952
233	0x3cf3294f	0.029682783
234	0x3dfc1daa	0.123103455
235	0x3dd4a8eb	0.10383781
236	0xbcacd0bf	-0.021095632
237	0xbd36e4e9	-0.0446519
238	0xbde33179	-0.110934205
239	0x3dd5a915	0.104326405
240	0xbd1054aa	-0.035236992
241	0x3df52018	0.11969012
242	0xbdbb1bd9	-0.09136171
243	0xbe106b92	-0.14103535
244	0x3de2064c	0.11036357
245	0xbd97e02d	-0.07415805
246	0x3d375e94	0.04476793
247	0xbc005320	-0.007832319
248	0x3cb2ccbb	0.021826139
249	0xbdb6ae8e	-0.089200124
250	0x3d3dd172	0.04634232
251	0xbd5f9294	-0.054583147
252	0x3dacb649	0.08433206
253	0x3de52a8f	0.11189758
254	0xbdb261f7	-0.087100916
255	0x3cb085c3	0.021548158

fc1.bias f4 [96]
0	0x3d768efd	0.060194958
1	0x3de680ad	0.11255012
2	0xbb049522	-0.0020230492
3	0x3d930b4f	0.07179891
4	0x3cc4819b	0.023987582
5	0x3de17335	0.11008302
6	0x3df302ad	0.11865745
7	0xbc3643f0	-0.011124596
8	0xbd9c4d7a	-0.07631965
9	0x3c0434f2	0.008069264
10	0x3ca916dc	0.020640783
11	0x3d5c3925	0.053765435
12	0x3d7e4b9b	0.06208382
13	0xbdf1d40e	-0.11808024
14	0x3d77108c	0.060318515
15	0x3dc48f2e	0.09597622
16	0xbc1ea844	-0.009683672
17	0xbdc5b880	-0.09654331
18	0x3d4aa8d8	0.04947743
19	0x3dabd969	0.08391077
20	0xbd8b99ff	-0.06816482
21	0xbd99c50e	-0.07508288
22	0xbd735c04	-0.059413925
23	0x3da8bb60	0.08238864
24	0xbd473602	-0.04863549
25	0x3d466bbd	0.04844259
26	0x3df70098	0.1206066
27	0xbd763445	-0.06010844
28	0x3d316d6f	0.043317255
29	0x3deeef75	0.116667666
30	0x3d298ded	0.041395117
31	0x3ddf00a0	0.10888791
32	0x3d52a757	0.05142912
33	0x3dbc93bd	0.09207866
34	0x3d5495c3	0.051900636
35	0x3d1822a2	0.037142403
36	0x3de14ea0	0.11001325
37	0x3d771bce	0.06032925
38	0xbdab1ffb	-0.08355709
39	0x3d355ab9	0.044275973
40	0x3d8535d3	0.06504407
41	0xbd2ccc5b	-0.042187076
42	0x3df00ed8	0.11721581
43	0x3dd12437	0.102119856
44	0xbd7ec12d	-0.062195946
45	0xbdb2b37b	-0.087256394
46	0x3de4037b	0.11133476
47	0xbca5e606	-0.020251285
48	0x3ddc9603	0.107708
49	0xbd2d9af5	-0.042384107
50	0x3d8119fc	0.06303784
51	0x3da430a5	0.08017091
52	0xbdb6c402	-0.08924104
53	0x3dc7f4c7	0.097634844
54	0x3cd1be00	0.025603294
55	0x3d9f4bd5	0.07778136
56	0x3dc075e2	0.09397484
57	0x3d019cdb	0.03164373
58	0x3dd8a1db	0.105777465
59	0x3d8ca544	0.068674594
60	0xbcd3bc81	-0.025846722
61	0x3d5772e3	0.0525998
62	0x3d6e9d24	0.05825533
63	0xbd13cad9	-0.036082122
64	0x3c215964	0.009847973
65	0xbbc582f6	-0.0060275747
66	0xbdd42e08	-0.10360342
67	0xbd966c22	-0.073448434
68	0xbdda0cd1	-0.10646976
69	0x3dcce95b	0.100054465
70	0xbbcae0ba	-0.0061913403
71	0xbbe6765d	-0.007033153
72	0xbc95cda9	-0.018286543
73	0xbcfddc12	-0.030988727
74	0xbde487cb	-0.11158713
75	0x3dcc15e8	0.09965116
76	0xbdc41694	-0.09574619
77	0x3d775019	0.06037912
78	0xbdbaff2b	-0.09130701
79	0xbddf748d	-0.10910902
80	0x3daf8cbd	0.085717656
81	0x3dee1a56	0.11626117
82	0xbd1ffecb	-0.03906135
83	0x3ddbe36b	0.10736736
84	0xbdce78d1	-0.10081638
85	0x3b4dfb6c	0.0031430377
86	0xbddc4e91	-0.10757173
87	0xbceded89	-0.02904393
88	0xbcf3efaf	-0.029777376
89	0x3db72dc1	0.08944274
90	0xbd235e77	-0.03988501
91	0xbd9f0ec9	-0.07766492
92	0xbdf215a4	-0.11820534
93	0x3da5879e	0.080825076
94	0xbde6df1b	-0.11273023
95	0x3d90ab31	0.07063902
