input/05_cnn_qsar/01_featurize/01_featurize_fda_world/02_CNN/run_files_0.1/model_5.pth (torch, 634400 bytes, 20 tensors)

conv1.weight f4 [128, 1, 11, 42]
000000 da e2 17 3d dd e5 10 3d b6 57 4a 3d 54 9d 70 bc
       0.037081577 0.035375465 0.049400054 -0.014685947
000010 af 60 f7 bc 40 7d 8d 3c 7c c6 8d 3c 99 11 b1 bc
       -0.03019747 0.017271638 0.017306559 -0.021614837
000020 1e 52 1d 3d 26 75 b5 3c 63 ef b9 3c 95 80 74 3c
       0.03840839 0.022150587 0.022697156 0.0149232345
000030 f2 54 4f 3c 7e b4 e2 3c bf 8a 1b 3c 2b 6b 27 3d
       0.01265453 0.027673956 0.009493529 0.040873688
000040 13 68 13 bd 77 89 8d 3c 54 17 0d 3d 5a 13 13 bd
       -0.035987925 0.017277462 0.034446076 -0.035907127
000050 a0 f5 31 3d fa 79 76 bd 30 b4 11 bd 5d 15 7c 3c
       0.043447137 -0.06017492 -0.03557223 0.015385953
000060 30 87 4f bc ca e5 fc bb b8 f6 84 bc 3f 64 6b bd
       -0.012666509 -0.0077178227 -0.016230926 -0.05746865
000070 24 42 fd bc 55 c7 09 3c c2 cb 95 3c b6 cf 58 bd
       -0.030915327 0.008409341 0.018285636 -0.052932464
000080 69 e6 20 3b 90 28 7d 3c 16 26 39 3d 42 ac ad bb
       0.0024551398 0.015451565 0.045202337 -0.0053000757
000090 b8 24 3a 3d 02 e8 20 3d 5d a6 35 3d af ae 1f 3d
       0.045445174 0.03928376 0.04434811 0.03898495
0000a0 8c db 6b bd 4a 99 d1 3c 49 45 61 bc 5e 4b 57 3c
       -0.057582423 0.02558579 -0.013749429 0.0131405275
0000b0 83 45 fe bc 20 c4 12 3d 01 49 b1 3c 67 02 14 bd
       -0.031039005 0.03583157 0.021641256 -0.036135104
0000c0 eb 70 a7 bc 79 00 0f 3d f6 de 53 3b b6 6c 24 3d
       -0.020439586 0.03491256 0.003232894 0.040142737
0000d0 13 e2 bf 3c 7a 76 5b 3c a2 fc ae bc de a8 82 bd
       0.02342323 0.013394946 -0.0213607 -0.06379865
0000e0 cb 50 59 bc 9e c9 1e bd b4 7b d3 3c e1 1a 48 bc
       -0.013263891 -0.038766496 0.025815822 -0.01221344
0000f0 98 84 1d bc 68 06 e1 bc 25 a7 10 bd be 85 6a bd
       -0.009614132 -0.027468875 -0.03531565 -0.057256453
000100 65 08 30 3d 8b e4 59 bd 49 48 d2 bc b8 24 c7 bb
       0.042976756 -0.05319647 -0.025669234 -0.0060773753
000110 4a f9 2e 3d c6 77 7d 3b d6 67 40 bd d2 fb e8 3c
       0.04271821 0.0038676127 -0.046974026 0.02844039
000120 2a 39 32 3c ce 03 a9 3c 15 b6 13 bd 77 ef d7 bb
       0.010877887 0.020631697 -0.03606232 -0.0065898257
000130 30 fa 11 3d 4a f7 0e bd b8 b8 3f 3b 6f 8c 02 bc
       0.035638988 -0.034903802 0.0029254388 -0.007968052
000140 55 50 e7 3c 3b e5 a7 3c 06 d6 c0 bc 19 96 5c 3b
       0.028236547 0.020495048 -0.023539554 0.00336588
000150 75 be d1 3c bc 7f 33 3d fd bf 62 bc 6e 2b d8 bb
       0.025603512 0.04382299 -0.013839719 -0.006596974
000160 7e f9 05 bd 34 c2 39 bd ca 11 1e 3d c2 11 a4 3b
       -0.032708637 -0.045351222 0.038591184 0.0050069997
000170 6a d4 39 bd fc 7b 76 ba c5 5e 8e bc ca 00 2d 3d
       -0.04536859 -0.00094026304 -0.017379174 0.04223708
000180 c0 71 d7 bc 8f 59 a8 bc 4b c3 d2 3b cc e5 f2 bb
       -0.026299357 -0.020550517 0.006431972 -0.007412648
000190 04 82 6f 3c 2b 19 94 bc d0 bb 32 bd 04 a5 e9 38
       0.0146184005 -0.018078407 -0.043636143 0.00011141042
0001a0 7c 53 2e 3d b1 0f 65 bd c5 81 4e bd 92 0f 7a 3b
       0.042560086 -0.055923168 -0.050416727 0.0038156253
0001b0 ff f2 55 bd 9b 69 a1 3c f3 d8 28 3c 70 fa c6 bc
       -0.052233692 0.019703677 0.010305631 -0.02428934
0001c0 cc 9b 2f 3c c0 da e6 3b e6 62 10 3d e1 f8 4d bd
       0.010718297 0.00704512 0.035250567 -0.050286178
0001d0 b6 7a 38 bd 2f 0b e2 3c fd dd e4 bc 36 81 0d bd
       -0.0450389 0.027593223 -0.027937884 -0.034547053
0001e0 5c 87 88 bb dd 71 8e ba a7 64 2e 3d a9 ea 07 3d
       -0.0041665267 -0.0010867674 0.04257646 0.033182774
0001f0 1a d8 44 bd 11 a6 b1 bc 67 6f bc 3b 64 e9 7e bb
       -0.048057653 -0.021685632 0.005750585 -0.0038896436
000200 ef 40 a4 bb 8d 4c 19 3c 5d fb 2c bd 7c d4 02 bd
       -0.0050126235 0.00935663 -0.042231906 -0.031940922
000210 2b 7e 0b 3d 4a b7 53 bd 00 52 04 bd e1 9f 00 3d
       0.03405587 -0.05168847 -0.032304764 0.031402472
000220 78 c9 b9 3c f7 ce 23 3d 32 e3 d8 ba 94 f4 2b bd
       0.022679076 0.0399923 -0.0016547202 -0.041981295
000230 1a 04 0b bd 79 7e 17 bd e9 3c 2b bb 13 b0 9f 3c
       -0.03393946 -0.036985848 -0.0026128835 0.019493138
000240 23 3d 29 3c 12 40 01 bd 53 bb 68 3c c2 e6 8f 3c
       0.010329518 -0.031555243 0.014204818 0.017566089
000250 b1 6f 67 bd d7 45 57 bc ff d9 98 3c 72 78 8f 3a
       -0.056503 -0.01313921 0.018658636 0.001094593
000260 57 e0 3a bd cb b2 83 3c 9d 8e 7e bc f7 58 0e 3c
       -0.045624103 0.016076466 -0.015536931 0.008688203
000270 c4 3d 3f bb fa 2b c7 3c 63 08 f1 3c 91 44 9d bc
       -0.0029181102 0.024312962 0.029422944 -0.019197734
000280 ee f1 be bc 9a 07 1c bd 42 4a bd bc 0e 93 15 bc
       -0.02330872 -0.038093187 -0.023106698 -0.009129299
000290 81 4b 8f 3b b4 74 8d bc 9c 73 86 3c 77 50 f4 bc
       0.0043730144 -0.017267562 0.016412549 -0.029823525
0002a0 0a 55 6f 3c c8 b7 ab 3c 3a b7 91 3c d2 a3 07 bd
       0.014607677 0.020961657 0.017787565 -0.033115216
0002b0 39 ac 84 bc 9e e7 33 3d ec c6 73 bc 39 34 55 3c
       -0.016195403 0.04392206 -0.01487897 0.013012939
0002c0 c7 aa 00 3d 55 cf c7 3c 47 70 ab bc 42 c1 a4 bc
       0.031412866 0.024390856 -0.020927561 -0.020111684
0002d0 ac b8 32 bd 13 05 7a 3c b4 84 d2 3c 71 28 1c bc
       -0.043633148 0.015259999 0.025698043 -0.009531126
0002e0 d4 47 a2 bc 52 bc 0a 3b 50 ba 28 bd 83 4c a9 bc
       -0.019809641 0.0021169377 -0.041193306 -0.020666366
0002f0 3d a1 fc 3c 90 fa ff 3c 75 d3 7b bc a0 e6 25 3d
       0.030838603 0.031247407 -0.0153702395 0.040503144
000300 b9 1e 0b bd bd 2c 54 bc 9c 08 9a bc 43 22 43 bb
       -0.033964846 -0.01295012 -0.018802933 -0.002977506
000310 30 bc 93 3c 73 da c2 3c 09 6f 81 3c b0 00 2c bd
       0.01803407 0.023785805 0.015800016 -0.041992843
000320 70 16 bb 3c e6 23 a3 3c d5 13 9a bb c1 2c a3 3c
       0.022837847 0.019914579 -0.004702071 0.019918801
000330 14 f1 1c bc e7 85 94 bc 65 ad b7 bc ed 7e fc bb
       -0.009578962 -0.018130256 -0.022421548 -0.0077055604
000340 91 4a af bc 51 19 13 3c 4f ae b9 bc 98 c7 ae 3b
       -0.02139786 0.008978204 -0.022666125 0.005333852
000350 30 77 03 3c 7f 43 21 3d 61 7c 85 3c 17 4a 30 bd
       0.008024022 0.03937101 0.01629466 -0.043039408
000360 4e 5f f3 bc 0c 6a de 3c d4 e4 c7 3b 90 8d 7d 3b
       -0.02970853 0.027150176 0.0061002765 0.0038689114
000370 cb 4c e5 3c 7b 4c 22 bd 0a 65 f3 3c cb 73 43 bd
       0.02799072 -0.03962372 0.029711265 -0.04771785
000380 d0 a5 34 b9 81 38 f2 bc 0c 73 db 3b 68 d0 d1 3c
       -0.00017227908 -0.029567959 0.0066970643 0.025612071
000390 23 d7 d8 3c 6b a1 02 3d e9 a6 a6 bc 27 8d 0f bd
       0.026469773 0.03189222 -0.02034326 -0.035046723
0003a0 f4 95 37 bd 2d 37 f7 bb 49 43 16 bd 53 1c d5 bc
       -0.04482074 -0.0075444193 -0.036685262 -0.026014483
0003b0 83 d5 84 bc 53 ed e0 bc 86 6d ab bc 3a 9f 3c bd
       -0.016215092 -0.027456915 -0.020926248 -0.046050288
0003c0 41 54 c6 bc d6 f7 51 bd 65 9b 05 bd ca ef 80 bc
       -0.024210097 -0.051261745 -0.0326189 -0.01573934
0003d0 ee 0d bb bb 20 b4 a6 3c 92 29 96 3c 42 16 39 3c
       -0.0057084477 0.020349562 0.01833037 0.011296811
0003e0 29 ad 17 3d ad be d2 3c 86 33 6a 3c 19 c4 b7 bc
       0.037030373 0.025725687 0.014294511 -0.022432374
0003f0 21 98 4f bc a4 38 e7 3c d4 41 41 bd f7 5b 1d 3c
       -0.012670548 0.02822525 -0.04718192 0.009604446

conv1.bias f4 [128]
000000 2b 3f fa 3c 1e 58 2c 3d 4b b1 9a bc a2 55 09 3d
       0.030547699 0.042076223 -0.018883368 0.03352893
000010 4a 17 cb 3c bd 63 ac 3c 45 78 1c bd 78 0f 51 bd
       0.024791379 0.021043653 -0.038200635 -0.051040143
000020 fe e3 9b 3c b7 4a 04 bd 31 b3 d2 3c 1c c7 c9 3c
       0.019029614 -0.032297816 0.02572021 0.024631076
000030 9b 02 f5 3c b5 b2 d2 3c 04 35 0d 3d 34 f7 82 3c
       0.029908469 0.02571998 0.034474388 0.015987016
000040 33 f2 85 3c d6 02 5a bc 2f 2a d2 bc 5a b8 c0 3b
       0.016350841 -0.01330634 -0.02565488 0.0058813514
000050 c6 4c 60 bd 72 cf 0d bd 08 ac 80 3b 8c 1e e5 bc
       -0.054760717 -0.034621663 0.0039267577 -0.027968667
000060 9e 93 cf bc 74 1a 58 bd a5 1b fb ba 83 c1 a4 bc
       -0.025338944 -0.052759603 -0.0019158019 -0.020111805
000070 91 4c 15 3d f4 be 46 3d 0e 25 8e 3c ce bf 0f 3d
       0.036449973 0.04852195 0.017351653 0.03509503
000080 7d f2 ff ba a5 3d a9 bc ee c5 85 3a ab c8 17 bd
       -0.0019527223 -0.020659277 0.0010206082 -0.037056606
000090 52 78 0e 3d 3f 5d 2b 3d e8 56 b0 3c bb be fa 3c
       0.034782715 0.041836973 0.021525815 0.030608525
0000a0 ff 16 cf bc 0f da f0 3c 4e 4f d0 bc 0f 21 c6 bc
       -0.02527952 0.029400853 -0.02542844 -0.024185685
0000b0 e4 dc 1e 3d fd 01 2f bd 0c 7c 05 3d 86 3f 63 bc
       0.038784876 -0.042726506 0.032589003 -0.013870126
0000c0 8d 1b bb 3c fe 85 e2 ba 49 1b e4 3c ce f5 4e 3c
       0.022840286 -0.0017282364 0.027845042 0.012631847
0000d0 9f 30 ca bc e8 65 8d bb 70 33 61 bd 0b 79 01 bd
       -0.024681387 -0.0043151267 -0.054980695 -0.031609576
0000e0 37 81 31 3c 5c 35 32 bd 78 ab f6 bb e7 29 aa 3a
       0.01083403 -0.04350792 -0.007527765 0.0012982459
0000f0 d6 d8 76 3c fe ae b0 bb 33 38 c4 3c 18 9a de ba
       0.015066346 -0.0053919544 0.02395258 -0.0016983179
000100 f5 d3 dd bc 97 38 53 3d 4c ab 7a 39 bb bd 0e 3d
       -0.027078608 0.05156764 0.00023905671 0.03484891
000110 d6 43 e4 3b c4 52 67 bc b8 ba 4f bd a7 93 d8 3b
       0.0069660945 -0.014118854 -0.05071518 0.0066093984
000120 f7 3e 8a 3b c4 4d 74 bb fc be 83 39 ea 68 08 3d
       0.004218932 -0.0037277797 0.00025128562 0.03330318
000130 26 44 4a bc 94 74 cb 3c de ec e7 3b b6 d2 13 3d
       -0.012345349 0.024835862 0.0070777973 0.03608962
000140 7f ab 99 bc 32 53 01 bc b1 3e 40 3d 7d fd 32 3c
       -0.018758534 -0.00789337 0.046934787 0.010924694
000150 6f cd 8c bc 98 73 c0 bc 7f 95 cc 3c 2d 48 5f bc
       -0.017187802 -0.02349262 0.024973629 -0.013628048
000160 9a 53 f7 bc 35 ac 1a 3d d6 ab c1 3c a9 64 65 bd
       -0.030191232 0.037761886 0.023641508 -0.0560042
000170 a5 fc 1f bd 86 d6 e7 3c 36 0e a1 3c 4a eb 24 3c
       -0.0390593 0.028300535 0.019660097 0.010065863
000180 eb 22 8c bb e8 b2 1e bd 93 25 d9 3c d3 ed f8 bc
       -0.0042766235 -0.038744837 0.026507175 -0.03038684
000190 d0 90 c8 bc 44 1c 2e bc fe 22 9c bc b7 f7 3d bd
       -0.024483114 -0.010626856 -0.019059654 -0.046378817
0001a0 7c a8 68 bc 60 65 b5 37 6b 8d 20 3d af 63 58 3b
       -0.014200326 2.1624088e-05 0.039197367 0.00330184
0001b0 1e b7 5d 3c 61 95 5f bd 9b 84 51 3c c9 b7 3b 3c
       0.013532428 -0.05458582 0.012787963 0.011457392
0001c0 73 a9 14 bd 40 a6 5d 3c c8 79 de bc 78 66 2a bd
       -0.036294412 0.013528407 -0.02715768 -0.041601628
0001d0 a7 cd ae 3c 64 be 08 3d 0d af 3a bd 96 4f 52 bd
       0.021338297 0.033384696 -0.045577098 -0.05134543
0001e0 87 b2 58 ba 11 b2 ef bc 6a d4 d2 3c 34 b9 88 3c
       -0.0008266349 -0.029259713 0.025736053 0.016689874
0001f0 fe d7 23 bb 0f 47 8b bc 7a f3 6b 3d 42 2c 4d bd
       -0.0025000568 -0.017001657 0.057605244 -0.050091036

bn1.weight f4 [128]
000000 38 58 7d 3f d0 36 81 3f b2 09 81 3f f0 f1 80 3f
       0.98962736 1.0094852 1.0081084 1.0073833
000010 95 2a 80 3f bb 16 7c 3f b1 b8 7f 3f 9e 6c 80 3f
       1.0012995 0.98472184 0.9989119 1.0033147
000020 73 c2 7e 3f 6b a9 7d 3f 5c 65 80 3f c0 d2 7e 3f
       0.99515456 0.99086636 1.0030932 0.9954033
000030 31 81 80 3f 68 fe 7e 3f 0a a7 7d 3f c0 a0 7e 3f
       1.0039426 0.99606943 0.99083006 0.99464035
000040 8d f2 7f 3f bd 82 80 3f 6c de 80 3f 37 d3 7b 3f
       0.9997948 1.0039898 1.0067878 0.98369163
000050 45 c1 7f 3f 8b 23 81 3f 76 17 7f 3f a6 3d 81 3f
       0.9990428 1.0088972 0.99645174 1.0096939
000060 85 c4 82 3f 8f 36 7f 3f 07 20 80 3f dd 0b 81 3f
       1.0216223 0.99692625 1.0009774 1.0081745
000070 86 74 7b 3f b8 d2 7e 3f 0b ae 7d 3f a3 5d 80 3f
       0.98224676 0.9954028 0.99093693 1.0028576
000080 46 42 80 3f e2 14 81 3f 5a 16 80 3f f9 44 81 3f
       1.0020225 1.0084498 1.0006821 1.0099174
000090 bc 73 80 3f 23 cb 7d 3f 76 15 7f 3f 5c 28 7f 3f
       1.0035319 0.9913809 0.9964212 0.9967096
0000a0 ec 7f 81 3f a6 de 81 3f dd 3a 7e 3f b1 60 7f 3f
       1.0117164 1.0146072 0.9930857 0.99756914
0000b0 21 be 7f 3f b4 89 7f 3f aa 01 80 3f a3 4e 80 3f
       0.9989949 0.99819493 1.0000508 1.0023998
0000c0 85 9f 80 3f 76 18 82 3f 99 23 81 3f 70 cc 7e 3f
       1.0048681 1.0163715 1.0088989 0.99530697
0000d0 c5 77 7f 3f 81 e4 80 3f 36 25 81 3f f1 3c 80 3f
       0.9979213 1.0069734 1.0089481 1.0018598
0000e0 74 be 80 3f 44 85 7d 3f f5 9f 7e 3f 1d cd 7d 3f
       1.0058122 0.9903147 0.99462825 0.99141103
0000f0 1b 70 80 3f 7e f5 7e 3f a3 dd 80 3f 62 ff 81 3f
       1.0034212 0.9959334 1.0067638 1.0156062
000100 03 df 7f 3f 8a b6 7f 3f ca 54 82 3f 5f 67 80 3f
       0.99949664 0.9988791 1.0182126 1.0031546
000110 6e d7 80 3f b8 92 80 3f db 7e 7f 3f a0 b2 80 3f
       1.0065744 1.0044775 0.9980294 1.0054512
000120 65 10 80 3f d4 25 80 3f b6 23 7f 3f 35 f5 7f 3f
       1.0005003 1.0011544 0.99663866 0.9998353
000130 a2 f5 7d 3f 43 5e 7e 3f d2 6a 80 3f f0 8e 80 3f
       0.9920293 0.9936258 1.0032599 1.0043621
000140 c9 b7 80 3f fc af 7d 3f 79 d1 7d 3f 13 89 7f 3f
       1.0056087 0.99096656 0.99147755 0.99818534
000150 3c a8 80 3f 2b 5c 7d 3f 9c 48 7f 3f a3 60 81 3f
       1.0051341 0.9896876 0.9972017 1.0107616
000160 03 10 7e 3f 21 0c 80 3f cd 3f 80 3f b8 79 7d 3f
       0.9924318 1.0003701 1.001947 0.99013853
000170 a6 89 80 3f ba 92 80 3f b2 ef 7f 3f 26 d5 7e 3f
       1.0042007 1.0044777 0.9997512 0.9954399
000180 4b 31 80 3f 48 48 7d 3f 9a 67 7d 3f da 5c 80 3f
       1.0015043 0.9893842 0.9898621 1.0028336
000190 db 45 81 3f c2 09 80 3f f8 36 80 3f be 91 80 3f
       1.0099443 1.0002978 1.0016775 1.0044477
0001a0 c8 22 81 3f f7 bc 80 3f 85 11 81 3f a5 29 7f 3f
       1.0088739 1.0057667 1.0083472 0.9967292
0001b0 37 76 7e 3f bf cf 80 3f c7 4a 80 3f 5d e1 80 3f
       0.9939913 1.0063399 1.002282 1.0068775
0001c0 d5 1f 7e 3f d2 6a 80 3f 1b 86 7f 3f 86 20 81 3f
       0.9926732 1.0032599 0.99814004 1.008805
0001d0 dd e0 7f 3f 5a a9 80 3f 42 4a 7e 3f 11 a4 7d 3f
       0.9995249 1.0051682 0.9933206 0.9907847
0001e0 8b 2a 7d 3f 28 31 80 3f 57 9d 7d 3f a1 85 80 3f
       0.9889304 1.0015001 0.99068207 1.004078
0001f0 33 ee 80 3f 21 f4 7f 3f 75 37 7e 3f 06 40 7d 3f
       1.0072693 0.99981886 0.9930337 0.98925817

bn1.bias f4 [128]
000000 9b eb d8 bb 5a 93 bc ba 7e d1 c1 bb 85 1a 21 bc
       -0.0066198832 -0.0014387176 -0.005914866 -0.009832983
000010 4e 39 5e bb 42 5f 98 bc 3d 70 71 bb 00 f1 98 ba
       -0.0033908668 -0.01860011 -0.003684058 -0.0011668503
000020 cb bd 58 bc cb c0 da 3b 3f 1d c6 3a 96 e3 db bb
       -0.013228844 0.0066758147 0.0015114917 -0.00671048
000030 ce 74 38 bb 4b 15 ad bb 96 67 26 bc b0 38 0e bc
       -0.0028145793 -0.0052820793 -0.010156533 -0.008680508
000040 9d f6 8f 3b 98 69 42 bb 8d 61 dc 3b 2d 00 5d bc
       0.0043934123 -0.002966499 0.006725496 -0.013488811
000050 aa 8f 92 bb fd cb 0d 3b a1 67 64 3c b3 94 03 bc
       -0.0044726925 0.002163648 0.013940723 -0.008031058
000060 b3 30 05 3c 2e 49 78 bc d5 7d bd 3b 5e c3 c4 3b
       0.008129287 -0.015154166 0.0057828226 0.006004735
000070 9c 44 9a bc f9 63 ae bb f2 47 29 bb 38 d1 e0 39
       -0.018831544 -0.0053219763 -0.0025830236 0.0004288049
000080 9a c7 d5 3a fc 0e 92 3b 1e 35 95 bb 18 98 fb bb
       0.0016310096 0.0044573527 -0.004553451 -0.007678043
000090 93 95 f3 bb 0e ee 68 bb a7 77 3f ba 39 58 f8 bb
       -0.007433602 -0.0035542282 -0.00073039014 -0.0075788763
0000a0 3d 68 e5 3b 42 79 0c 39 3b 1d 59 bc 6f fc 25 bc
       0.0070009516 0.00013396612 -0.013251598 -0.010130986
0000b0 11 38 f3 3a 8d 4d cd bb 35 53 16 bc cc f7 1f 3c
       0.0018556138 -0.0062653483 -0.009175112 0.009763669
0000c0 b2 e9 8b bb 7c 0d 8f 3b 49 e9 c7 bb f8 ed 43 bc
       -0.004269802 0.004365621 -0.006100808 -0.011958592
0000d0 cc 41 d5 bb 4f cd 14 ba 06 23 24 bc 07 67 76 bb
       -0.0065080877 -0.00056763453 -0.010018116 -0.003759803
0000e0 27 36 09 bc ca 7a 6a 3b 27 d9 c9 bb c0 6d 57 bc
       -0.008374727 0.0035778754 -0.00615992 -0.013148725
0000f0 60 59 14 3b b6 1e cc bb fb 1b 20 3c f8 69 03 3b
       0.002263628 -0.006229247 0.009772296 0.0020052176
000100 f1 c3 91 3b 7e 30 20 3c cc f4 6a 3b 92 1d 88 bc
       0.004448407 0.009777186 0.0035851477 -0.016615663
000110 1c 16 25 3b 38 2a 55 39 09 f9 92 bb 68 88 f4 3a
       0.002519018 0.0002032899 -0.0044852537 0.0018656375
000120 90 41 05 bc 82 44 f3 bb cc 99 8c bc 6f 6d 69 3b
       -0.008133307 -0.0074239383 -0.01716318 0.0035618206
000130 24 2b f0 38 97 8f 04 3b b7 a0 ba 3a 99 de a4 3a
       0.000114521274 0.0020227188 0.0014238571 0.0012578546
000140 ac 9c 7e bb 58 bb 43 3c 3b 85 2b bc 05 49 4c bc
       -0.0038850708 0.011946522 -0.010468776 -0.012468581
000150 68 f7 3d bb a3 ec 23 bc d2 49 0c 3c 93 9a 5f ba
       -0.0028986577 -0.010005149 0.008562522 -0.0008529808
000160 b2 29 04 bb 62 7f 50 3b 08 71 fe b9 9f a9 0a 3c
       -0.0020166454 0.0031814207 -0.0004853087 0.008463292
000170 3f c1 f7 bb 00 ba ac 39 39 76 5b bc 48 ea ec bb
       -0.0075608785 0.00032944977 -0.013394886 -0.007230077
000180 3f 50 03 bb 1f c2 eb 3a f7 ae cc ba d0 76 fd 3b
       -0.0020036844 0.001798693 -0.0015616108 0.007735111
000190 f6 c3 7a ba 77 08 f4 b9 e6 5a 02 bc de 8f dc ba
       -0.00095659436 -0.00046545613 -0.007956242 -0.0016827544
0001a0 43 b0 0c ba 69 eb 15 bc 97 ce 06 3c 4c f0 57 3c
       -0.0005366841 -0.009150364 0.008227966 0.01317985
0001b0 8b f3 b6 bb 90 51 e3 bb ec d3 1c 3b 46 95 06 bb
       -0.005583232 -0.0069372132 0.0023930026 -0.0020535751
0001c0 4e 75 f2 bb d7 3c 0b bc 01 10 20 bb a0 11 59 bc
       -0.0073992377 -0.008498392 -0.0024423602 -0.013248831
0001d0 2c 6d 7e ba bd 40 13 3b f8 1e 05 bc a0 d8 5b bc
       -0.0009705599 0.0022469007 -0.008125059 -0.013418347
0001e0 2f ef 12 bc 62 d2 ee 3b 92 71 6c bc c6 15 86 bb
       -0.008968159 0.007288263 -0.014431374 -0.004091951
0001f0 73 60 e1 ba bc 70 f6 ba 97 1f 80 3b f2 0a a6 bb
       -0.0017194882 -0.0018801908 0.003910016 -0.0050672228

bn1.running_mean f4 [128]
000000 e3 57 ec 3c ba 0c ed 3c 5e fa bc bc 4c ec e2 3c
       0.028850501 0.028936733 -0.023068603 0.027700566
000010 7d d7 ce 3c 70 d4 ba 3c 7c 31 08 bd 0a a2 cc bc
       0.025249237 0.022806376 -0.033250317 -0.02497961
000020 1f ce 3d 3c 08 6c 30 bd ee 7e 4a 3c 8a b7 7d 3c
       0.011584788 -0.043071777 0.012359364 0.015485654
000030 67 67 f7 3c a7 4c cc 3c dc a8 90 3c 27 ee d0 3c
       0.030200673 0.024938894 0.017658643 0.025504185
000040 62 19 8d 3c 7a ea ab bc 8a f7 a9 bc 84 b2 f9 3c
       0.017224018 -0.02098583 -0.020747919 0.03048063
000050 a1 96 98 bd 23 da 77 bc d7 9b 9f 3c ac 88 d1 bc
       -0.07450605 -0.015127691 0.01948349 -0.025577866
000060 44 fc 12 bd e6 2f 54 bd 9f 7a 3e bc 32 b2 05 bc
       -0.03588511 -0.051803492 -0.011625915 -0.008160161
000070 fe 9f 1c 3d 06 f0 6b 3d d8 7d c9 bb ea bf a8 3c
       0.038238518 0.05760195 -0.006149035 0.020599324
000080 ed 3e 4c 3c 27 dd eb bc 70 a5 06 3c f6 7a 20 bd
       0.012466175 -0.028791977 0.008218154 -0.039179765
000090 f9 0c f8 3c 50 c4 28 3d d3 55 d9 3b df a8 ca 3c
       0.030279623 0.041202843 0.0066325455 0.024738727
0000a0 34 d3 c5 bc 8a d1 d6 3c bf 54 0b bd ae 85 d2 bc
       -0.024148561 0.026222963 -0.034016367 -0.025698509
0000b0 74 99 43 3d 33 91 1f bd b5 a5 06 3d e6 a8 ca bc
       0.047753766 -0.038956832 0.032872874 -0.02473874
0000c0 50 78 ee 3c fa b1 9d bb 1e 25 bd 3c 7a 27 99 3c
       0.029110104 -0.004812476 0.023088988 0.018695582
0000d0 1a 56 fc bc bb 62 89 3a 7d a5 60 bd 68 4a 3e bc
       -0.030802775 0.0010481694 -0.054845322 -0.0116144195
0000e0 bc c3 63 3c 6b a4 46 bd c1 cc 0f bc e5 59 d8 3b
       0.013901647 -0.048496645 -0.0087768445 0.006602513
0000f0 fd e7 4a ba e4 89 1e bc 01 58 15 3d bf b2 13 bc
       -0.00077402574 -0.00967643 0.03646088 -0.009014784
000100 9f c3 f5 bc 6d 69 32 3d b9 4e ad bc b3 56 02 3d
       -0.030000506 0.043557573 -0.021155702 0.031820964
000110 a7 0f 8a ba c2 93 17 bd 26 9a 85 bd 1e eb 65 3c
       -0.0010533229 -0.037006147 -0.06523542 0.014033107
000120 b5 4c a7 3b 02 9d 0a bb 21 72 83 bc 18 c7 13 3d
       0.0051055797 -0.0021150713 -0.016045632 0.036078542
000130 fe 2f 82 3a f8 d2 f2 3c 5c 89 c3 3b c7 82 e8 3c
       0.0009932516 0.029641613 0.0059673022 0.028382672
000140 ad a7 a4 bc 8c 65 c2 bc a3 9c b4 3c b7 f3 09 3c
       -0.020099485 -0.023730062 0.022047346 0.008419923
000150 9e 52 98 bc e3 55 1c bc 43 c7 de 3c 54 d1 b6 bc
       -0.018594082 -0.009541961 0.027194625 -0.022316612
000160 f5 6d 9a bc 50 bb 36 3d b6 dd d5 3c 77 f5 96 bd
       -0.01885126 0.04461223 0.026106697 -0.073710375
000170 2a 2b 11 bd 45 ec a6 3c 88 42 b0 3c 50 c5 f9 39
       -0.035441555 0.020376334 0.0215161 0.0004763999
000180 67 b0 12 3a e3 85 a9 bc 9b 1d 02 3d 0d 31 37 bd
       0.0005595744 -0.020693725 0.031766515 -0.044724513
000190 bd 82 d7 bc 9c f4 87 bc 76 c7 d2 bc d3 b3 26 bd
       -0.026307458 -0.016596131 -0.025729876 -0.040698837
0001a0 cf 6b b7 bc 49 bf 83 3b 23 18 49 3d e1 52 49 bb
       -0.022390274 0.0040206057 0.049095284 -0.0030719566
0001b0 82 1e a6 3c 36 90 7d bd 45 2b c7 3c 42 f7 7a 3c
       0.02027822 -0.06190511 0.024312625 0.01531774
0001c0 2e d4 3c bd 37 12 7e 3c 5a 37 d6 bc 10 1f 4f bd
       -0.046100788 0.015507272 -0.02614944 -0.050566733
0001d0 26 d9 38 3d a9 6b 53 3d 8c 87 8e bd c9 35 8a bd
       0.045128964 0.051616345 -0.06959447 -0.0674854
0001e0 4a f5 06 bb ba e0 2f bd 98 5b c2 3c 86 78 b4 3c
       -0.002059298 -0.042938925 0.023725316 0.022030126
0001f0 37 f1 30 3a aa d4 8b bc 1a 3e 20 3d 9e 69 52 bd
       0.0006749811 -0.01706918 0.039121725 -0.051370256

bn1.running_var f4 [128]
000000 5e 7e 57 3b 25 70 38 3b 64 2d 15 3b b3 7a 0a 3b
       0.0032881717 0.0028143015 0.002276265 0.0021130263
000010 66 6e 80 3b f6 e7 2f 3b 0f 76 06 3b c5 2b d3 3b
       0.0039194105 0.002684114 0.0020517146 0.0064444267
000020 9c 0f 14 3b c7 ff 50 3b 94 dc 67 3b dd 0e 50 3b
       0.0022592312 0.0031890736 0.0035379278 0.003174714
000030 25 b9 0c 3b 45 48 29 3b b0 cb 95 3b 0d 2a 6d 3b
       0.002147266 0.002583043 0.0045714006 0.0036188394
000040 21 7a 15 3b 7d 4e 41 3b d9 87 f2 3a 50 1f c1 3b
       0.002280839 0.0029496246 0.001850362 0.0058936253
000050 8f 3e 9e 3b 3a 0d 8b 3b 56 05 3f 3b 12 cc 19 3b
       0.004829235 0.00424352 0.0029147468 0.0023467583
000060 36 dc 11 3b 5e 59 c9 3a 4b 32 65 3b 3d 54 36 3b
       0.00222565 0.0015361717 0.0034972604 0.0027821206
000070 8b 32 2e 3b 7a 31 10 3b 70 8a ca 3b 9e 70 4b 3b
       0.002658042 0.0022002147 0.006181054 0.0031042467
000080 de af 57 3b ea c8 29 3b 2c e3 69 3b 35 51 5d 3b
       0.0032911221 0.0025907108 0.0035688384 0.0033770327
000090 76 00 1a 3b e6 5a 82 3b 66 51 76 3b 46 37 11 3b
       0.002349881 0.003978121 0.0037585138 0.002215819
0000a0 95 a5 58 3b 7c bf 53 3b 93 fc 3b 3b 84 56 33 3b
       0.003305768 0.0032310179 0.0028684482 0.00273648
0000b0 5c 94 02 3b bf 26 07 3b b9 f2 41 3b fa 1e 2b 3b
       0.0019924855 0.002062246 0.0029594137 0.0026110993
0000c0 4b 2b 40 3b 01 7a 01 3b 42 77 33 3b a5 0e 40 3b
       0.002932268 0.0019756558 0.0027384316 0.0029305604
0000d0 68 42 1d 3b 43 ef 52 3b 44 20 2f 3b 5a 50 95 3b
       0.002399588 0.0032186068 0.0026722113 0.004556698
0000e0 ca aa 00 3b 92 80 7f 3b 96 95 34 3b 84 ec 11 3b
       0.0019633048 0.0038986546 0.002755498 0.0022266218
0000f0 c6 7c 8d 3b 2f e0 48 3b 85 0d 8b 3b 66 ca 37 3b
       0.0043178527 0.0030651202 0.004243555 0.0028044223
000100 81 04 2b 3b 3f a0 31 3b 7a ff 83 3b 08 32 27 3b
       0.0026095214 0.002710357 0.004028258 0.0025511999
000110 f4 98 10 3b 29 b2 9c 3b cf 22 8b 3b bf 39 29 3b
       0.0022063823 0.0047819805 0.004246093 0.0025821773
000120 f9 e7 0e 3b f4 30 05 3b ec b6 78 3b ab 6f 80 3b
       0.0021805747 0.0020323368 0.0037950827 0.003919562
000130 68 a8 78 3b 73 99 51 3b 9e d6 28 3b b0 76 3b 3b
       0.0037942175 0.0031982332 0.0025762687 0.0028604679
000140 cc 6c 29 3b 34 f5 b3 3b 70 eb b9 3b ef df 06 3b
       0.0025852202 0.005491877 0.0056738183 0.0020580252
000150 b8 4a 21 3b 4f b7 66 3b 9e b1 23 3b 7b 9d 38 3b
       0.0024611186 0.0035204475 0.0024977694 0.0028170038
000160 3c 8f 37 3b 5e 0a 24 3b f2 91 40 3b b9 ec a6 3b
       0.0028008958 0.0025030593 0.0029383865 0.0050941375
000170 bb 77 19 3b 57 3e 12 3b 24 57 05 3b 0f b8 60 3b
       0.0023417312 0.002231499 0.002034613 0.0034289395
000180 24 2c 36 3b e1 46 94 3b de a1 2b 3b 92 60 88 3b
       0.0027797306 0.004525051 0.002618901 0.0041619027
000190 e3 35 5b 3b 44 75 0f 3b 35 d2 66 3b 02 21 36 3b
       0.0033448867 0.0021889964 0.0035220508 0.002779067
0001a0 7a e1 59 3b ed a4 08 3b 31 7f 1e 3b 9a 32 59 3b
       0.0033245967 0.0020850257 0.0024184699 0.0033141733
0001b0 5d be 50 3b bf d9 1a 3b 69 37 97 3b 19 4e 56 3b
       0.0031851747 0.0023628322 0.0046147597 0.0032700358
0001c0 e1 bc 81 3b 66 6e 13 3b d4 9a 53 3b eb cb 08 3b
       0.0039592837 0.0022496223 0.003228833 0.0020873498
0001d0 f6 1f ba 3b 0f 1a 9a 3b 83 02 c5 3b 2e a9 74 3b
       0.0056800796 0.0047028135 0.0060122623 0.0037332284
0001e0 88 99 0c 3b 75 65 a9 3b c7 7d 26 3b 62 41 4c 3b
       0.0021453816 0.0051695653 0.002540456 0.00311669
0001f0 4a 90 d5 3a 41 17 0f 3b aa 19 95 3b a1 84 36 3b
       0.0016293612 0.0021833929 0.0045501785 0.002785005

conv2.weight f4 [64, 128, 11, 1]
000000 b2 57 bc bc 6a b3 84 3a d5 e4 6a bc 45 da 70 3c
       -0.022991035 0.001012427 -0.014336784 0.014700477
000010 5a 5a c1 b9 e7 84 5d 3c 27 9f 76 3a 09 da 2e 3c
       -0.00036879146 0.013520456 0.0009407871 0.010672101
000020 6d 4b b3 3a c1 63 01 bc e2 e0 4c bc 07 26 08 bc
       0.0013679095 -0.007897318 -0.012504788 -0.008309848
000030 37 39 d1 bc d8 89 bf bb 8d cc 0a bc 1a da 3a bb
       -0.025539977 -0.0058452897 -0.00847162 -0.0028511346
000040 06 b2 22 3c df 7c 23 3c 90 9e 7c 3c 86 dd 77 b9
       0.009930139 0.009978502 0.015418664 -0.0002363828
000050 6e 5b 1a 3b ff 0c ff 3b bc 05 c2 bb a9 9e 9a 3c
       0.0023553031 0.0077835317 -0.0059210937 0.018874483
000060 86 08 c5 3c fa ee a7 bc 9c ae 2b 3b 47 07 8f bc
       0.024051916 -0.020499695 0.0026196605 -0.017459525
000070 52 62 7f bc e4 0f 84 3c 8c d4 e1 bc a3 55 38 bc
       -0.015587406 0.016120858 -0.02756717 -0.011250886
000080 c1 5e 1b bc 42 7b b7 b9 dc 38 5d 3c 1f 9c 8a 3b
       -0.00948304 -0.00034996314 0.013502326 0.004230037
000090 c1 69 66 3c c5 1c b9 ba a2 78 52 bc 22 d5 66 bc
       0.0140633 -0.0014122954 -0.012846144 -0.014088901
0000a0 96 db b3 bc cd 02 06 3b d2 b8 dc 3c e3 27 e5 3c
       -0.021955293 0.0020448447 0.026943598 0.027973121
0000b0 2e 08 c9 3c 76 18 a5 3b a1 98 2b bc 29 a0 e2 3c
       0.024540033 0.0050383164 -0.010473401 0.027664261
0000c0 7d f8 c8 3c 76 b4 e0 3c 39 a9 51 3c 5d a3 4e 3c
       0.024532551 0.0274298 0.0127966935 0.012612191
0000d0 28 73 ae bc 87 c5 35 3c ae 4f 9e 3b df 6d 5c 3c
       -0.021295145 0.0110944575 0.004831276 0.01345393
0000e0 1f 53 1b 3c ce 03 80 3a 06 e3 cb bc c7 29 8b 3c
       0.009480267 0.0009766759 -0.024888527 0.016987694
0000f0 72 89 b7 bc 3d 60 6f bc cc a8 09 3c 59 7a 84 3b
       -0.022404406 -0.014610347 0.008402061 0.0040429053
000100 2d c2 1d 3c 41 83 ff bc 6e 7a cf 3c 0b 97 ae 3b
       0.009628815 -0.031190516 0.025326934 0.0053280643
000110 68 db bd bc 7c 68 f1 bb 5e c3 53 3c fc fc 34 3c
       -0.02317591 -0.007367192 0.012924997 0.011046644
000120 b4 77 75 3c ac 7d b7 bc 8c ee d3 3c 56 c7 14 3c
       0.014982153 -0.022398792 0.025870584 0.0090807285
000130 4c 88 65 3c 82 35 90 bc 83 b6 c4 bb 8d dc 79 3c
       0.0140095465 -0.01760364 -0.0060032024 0.015250337
000140 84 71 d4 3b 9b 3c c3 3c 97 91 b3 3c e3 0e a1 bc
       0.0064832587 0.02383261 0.021920009 -0.019660419
000150 53 26 95 bc c3 43 08 bc 8b 14 53 3c 22 0c 72 3c
       -0.018206751 -0.008316937 0.012883316 0.0147734005
000160 a8 19 1d 3c da 59 95 3c d3 9c d3 bc 9b dc e5 bb
       0.009588636 0.018231321 -0.025831616 -0.0070148236
000170 3a b1 ec bc 21 0d 5f 3c 5b 41 ef 3b 04 dc a1 3b
       -0.028893102 0.01361397 0.007301492 0.004939558
000180 ee 85 f0 bc 1b 4a 4e 3c d0 59 ec bc 6e 98 d3 3c
       -0.029360738 0.01259091 -0.02885142 0.02582952
000190 df 82 7e 3c 82 1e 29 bc e5 ba 6e bb ad 23 82 bb
       0.015534132 -0.010322215 -0.0036427316 -0.003971538
0001a0 7a 06 92 bc f4 b8 42 3c 8a 20 6f 3c 2e 77 14 3c
       -0.017825354 0.011884917 0.01459516 0.009061618
0001b0 04 9c 95 3c be b0 5b 3c 5f d0 18 3d 82 8f 27 bc
       0.01826287 0.013408838 0.037308093 -0.010227086
0001c0 42 00 ee 3c 56 44 8d 3b a9 21 e4 3c 6a f8 8a bc
       0.029052857 0.004311125 0.027848082 -0.016964156
0001d0 f2 c3 5e bc 2f 86 c2 bc 31 91 d9 bc e8 a0 33 3c
       -0.013596522 -0.023745624 -0.02655849 0.010963656
0001e0 d3 df a6 bc 57 98 7c bc 0a cf 75 bb 87 25 09 bc
       -0.0203704 -0.01541718 -0.0037507438 -0.008370764
0001f0 10 44 5d bb aa d7 99 3c 09 66 ca 3b 5e 3f d6 3c
       -0.0033762492 0.018779594 0.0061767143 0.026153263
000200 7d 3d b1 3c e6 f7 a4 39 d5 c5 4a bc 15 78 b5 bc
       0.021635765 0.00031465216 -0.012376268 -0.022151986
000210 d9 51 9f bb 9b ff 83 3c 92 4b 05 bb 5b 04 c9 3c
       -0.004862052 0.016113093 -0.0020339233 0.02453821
000220 9d 9d 9c 3c b3 68 9a bc a9 7f 05 3d 71 ce 27 3c
       0.019118125 -0.018848753 0.03259245 0.010242091
000230 00 a3 00 3d 94 46 90 bb b1 dd f4 3c 18 97 d2 3b
       0.03140545 -0.004402945 0.029890867 0.006426703
000240 eb 68 d3 bc e1 63 af 3c ee 30 27 ba 2c 06 ad bc
       -0.025806865 0.02140993 -0.00063778355 -0.021121107
000250 fc 5d 67 3c b9 a7 c4 3c 5e 84 a6 3c 82 37 04 bc
       0.014121529 0.024005758 0.02032679 -0.008069875
000260 d6 12 a4 bb a5 8b 67 bc 60 84 fa 3a 48 6f 01 3b
       -0.005007128 -0.014132415 0.0019112937 0.0019750167
000270 bd 7f 3e bc 16 e6 9a 3c 00 48 b3 3c 4c 10 e5 bc
       -0.011627135 0.018908542 0.021884918 -0.027961873
000280 27 b2 79 b9 56 7d 07 3c ae 41 cb 3b 66 87 f0 3a
       -0.00023812857 0.0082696285 0.006202898 0.0018350899
000290 f3 5c bc bc c5 32 ca ba 73 8c 3d 3c 16 49 3a bb
       -0.02299354 -0.0015426507 0.01156913 -0.002842491
0002a0 d1 17 30 3b c4 63 ae 3c 93 e0 90 3c 74 14 20 bc
       0.0026869664 0.021287806 0.01768521 -0.009770501
0002b0 31 17 9f 3c d8 46 7b bc 74 8d 92 bc 42 69 ce 3c
       0.019420238 -0.015336715 -0.017889716 0.025196675
0002c0 f6 e1 72 3a 44 07 1a 3d 2d 44 3c bb 96 11 af 3c
       0.0009265238 0.037604585 -0.002872716 0.02137069
0002d0 bb f1 4d 3c 31 07 85 3c 9e ef b1 3c 04 23 98 ba
       0.01256984 0.01623878 0.021720704 -0.0011607115
0002e0 c1 c2 8c 3c a8 0e 47 bc 1e 8d 9d bc b4 b5 73 3c
       0.01718271 -0.01214949 -0.019232329 0.014874864
0002f0 20 07 b0 ba 0f 5b a0 bc af 46 86 bc 89 aa 92 ba
       -0.0013429858 -0.01957467 -0.016391126 -0.001118974
000300 70 d3 de 3a c4 02 96 bb f4 34 5e ba d7 e8 42 bc
       0.0017000269 -0.0045779664 -0.00084765186 -0.011896334
000310 14 14 b3 3c d5 de 1e 3d c0 6b 0d bc 7c 00 6b 3c
       0.02186016 0.038786728 -0.008631647 0.014343377
000320 15 85 dd bc 19 42 96 bc 50 96 6f 3c 7c 4c 5f 3b
       -0.027040998 -0.018342065 0.01462324 0.0034072688
000330 37 02 b7 3c 0e 19 7e 3c 73 8c 98 3c fa a2 9f bc
       0.022339923 0.015508903 0.018621659 -0.019486893
000340 21 93 98 39 70 d5 e5 3c 08 fa 99 3c eb 3c 79 3c
       0.0002910132 0.028055876 0.018795982 0.015212278
000350 70 32 96 3c 05 97 3f 3c 1f bb 83 bc 54 74 8f bc
       0.018334597 0.011693721 -0.016080437 -0.017511524
000360 31 f4 21 3a 35 36 71 bb 86 cc 1e bc 0f e8 4e ba
       0.000617805 -0.0036805992 -0.009692317 -0.0007892856
000370 12 49 98 3c 6c e6 61 3c 43 0b b7 3c cc ce 94 3c
       0.01858953 0.013787847 0.022344237 0.018165015
000380 25 86 81 3c e9 de 28 bc a5 99 b3 3c 07 08 81 bb
       0.015811035 -0.010307052 0.02192385 -0.0039377245
000390 71 e7 2e bc 2d 35 58 3c 80 89 3b 37 55 c2 80 3c
       -0.010675297 0.013196272 1.1178083e-05 0.015717665
0003a0 1e 46 85 bc 7a e3 ad 3c df 94 fb ba 95 fd b4 3c
       -0.016268786 0.021226633 -0.0019194147 0.022093574
0003b0 a3 ee b4 3c ee 32 4a bc 84 fc 48 bc 95 b1 62 bb
       0.022086447 -0.012341244 -0.012267236 -0.003459071
0003c0 62 68 11 bc c8 b3 d2 ba 61 88 1e bc 36 3b 07 3d
       -0.008874984 -0.0016075308 -0.00967607 0.033015452
0003d0 b4 62 b8 3b c7 e5 d0 3c ed 3d 8e bc 05 d4 aa bc
       0.0056270007 0.025500191 -0.017363513 -0.020853052
0003e0 93 88 0f bb 4f 27 6d 3c e9 90 84 3c bb c3 b5 bb
       -0.0021901473 0.014474704 0.01618238 -0.0055470145
0003f0 21 fa bb bc f4 af b3 bb 3c bb a5 3c 14 a4 77 3c
       -0.02294642 -0.0054836217 0.020230882 0.015114803

conv2.bias f4 [64]
000000 15 43 51 bc 7d 4c 31 b9 10 37 ea bc c1 3a 12 3b
       -0.012772341 -0.0001690853 -0.028590709 0.0022312852
000010 0e 08 5b 3c b2 fd b4 bb be 4e e4 38 23 97 ad 3c
       0.01336862 -0.005523407 0.00010886554 0.021190232
000020 bd c2 ad bc 32 6f a4 3c 09 47 84 bc 7a 59 97 3c
       -0.021211023 0.020072553 -0.016147153 0.018475283
000030 4c 62 9d bc 16 61 c4 3c 7f ff 8c bc 66 14 fa bc
       -0.01921191 0.023972075 -0.017211674 -0.030527305
000040 13 f9 0f bc d8 43 04 bd 17 1b 99 bc a8 bb 15 bc
       -0.008787411 -0.032291263 -0.018689675 -0.009138979
000050 0a 75 9d bc ac 25 be bc 16 d0 8a 3c d3 bd 84 3c
       -0.019220848 -0.023211323 0.016944926 0.016203796
000060 a9 94 d4 3c ed b8 82 3c f1 db d1 bc 62 41 b2 bc
       0.025949793 0.01595732 -0.025617572 -0.021759693
000070 7f 4c 29 3b f3 8a 32 3c 65 a3 05 bc fe 21 41 3b
       0.0025832949 0.010897386 -0.008156632 0.0029469724
000080 84 07 bc 3c ed b8 5e 3c ee 7c 4c bc 8a 5d 1b 3c
       0.022952802 0.013593894 -0.012480957 0.009482751
000090 a8 51 ae 3c e3 89 01 bc 61 b6 80 bb a3 40 2c 3a
       0.021279171 -0.00790641 -0.0039279913 0.0006570911
0000a0 b4 96 6e 3c 5f 62 e4 ba 30 d5 df 3b 14 9f c2 3b
       0.014562298 -0.0017424336 0.006830834 0.0059393737
0000b0 d8 1c 6f bc e8 72 a5 3c a3 7a 70 ba d8 89 8c 3c
       -0.014594279 0.020196393 -0.0009173548 0.017155573
0000c0 dc 27 07 bd 69 98 c8 bc 9c 3e 02 bb 12 59 e5 bc
       -0.032996997 -0.024486737 -0.0019873744 -0.027996574
0000d0 f5 75 e0 bc 1e b6 d5 3c 0e 89 44 3b 16 4c af 3c
       -0.027399996 0.026087817 0.0029988918 0.021398585
0000e0 95 ea fa 3c 80 03 c2 bc da 4e da 3a f4 9b 96 3c
       0.030629436 -0.02368331 0.001665558 0.018384911
0000f0 e2 55 78 3c 3e 5a 56 b9 16 30 ef 3b ff b2 19 3c
       0.015157195 -0.00020442248 0.0072994335 0.009381055

bn2.weight f4 [64]
000000 72 2c 80 3f 37 c2 80 3f fd f7 7e 3f 7f 60 82 3f
       1.0013564 1.005927 0.9959715 1.0185698
000010 48 34 80 3f d9 df 80 3f 86 0e 82 3f 96 76 7e 3f
       1.0015955 1.0068313 1.0160682 0.993997
000020 e5 3c 7e 3f 9c 76 7e 3f ff c2 7e 3f 3a e4 80 3f
       0.9931167 0.99399734 0.9951629 1.0069649
000030 15 00 7d 3f 3c 55 7f 3f 38 31 81 3f 2f 7f 80 3f
       0.9882825 0.9973943 1.0093145 1.0038813
000040 87 95 7d 3f f9 7b 7e 3f 7c c2 80 3f d9 02 82 3f
       0.99056286 0.9940792 1.0059352 1.0157119
000050 37 fb 7e 3f 11 33 80 3f de 7f 81 3f f2 27 80 3f
       0.99602073 1.0015584 1.0117147 1.001219
000060 46 1f 81 3f 44 db 7e 3f 9e 38 80 3f 42 99 80 3f
       1.0087669 0.9955332 1.0017278 1.004677
000070 1b 80 7c 3f ab 71 7e 3f 4e 1e 81 3f 20 08 80 3f
       0.98632973 0.99392194 1.0087373 1.000248
000080 cf ea 81 3f 9a bd 80 3f c6 8b 7e 3f 4f 36 7e 3f
       1.0149783 1.0057862 0.9943203 0.9930162
000090 23 28 7f 3f df 6b 80 3f 31 76 80 3f 0e 73 80 3f
       0.9967062 1.003292 1.0036069 1.0035112
0000a0 78 b7 7e 3f 71 76 7e 3f ad 45 7e 3f 3c 5b 82 3f
       0.994987 0.9939948 0.99325067 1.0184093
0000b0 74 4c 80 3f 8a 7d 80 3f 21 5d 7e 3f 1b 4a 80 3f
       1.0023332 1.0038311 0.99360853 1.0022615
0000c0 48 ed 7d 3f 75 96 7f 3f 8b 85 7d 3f d0 8a 80 3f
       0.9919019 0.99838954 0.99031895 1.0042362
0000d0 7a 76 7e 3f 07 5a 80 3f ed 92 80 3f e0 31 80 3f
       0.9939953 1.0027474 1.0044838 1.0015221
0000e0 ed 5f 81 3f b2 c7 80 3f 5d 9b 7e 3f fe 56 7c 3f
       1.0107399 1.0060942 0.99455816 0.9857024
0000f0 1f b7 7d 3f b5 fd 7d 3f 66 38 7e 3f 66 f0 7e 3f
       0.99107546 0.9921525 0.9930481 0.9958557

bn2.bias f4 [64]
000000 30 ab 5e ba 80 03 e0 3b 44 f0 76 ba c9 51 07 3c
       -0.0008494137 0.0068363547 -0.00094199576 0.008259245
000010 8e 33 ea 3b f8 00 c2 b9 6b a6 88 bb 87 b3 d0 bb
       0.007147259 -0.00037003285 -0.004170229 -0.0063690576
000020 40 c3 c4 3b c0 56 9c ba 82 bc c4 3b 06 b1 9f bb
       0.006004721 -0.0011927709 0.006003917 -0.0048733978
000030 63 c3 c4 bb 40 ad b5 b9 f8 f1 44 3c 39 ce c3 bb
       -0.006004737 -0.00034652092 0.0120205805 -0.0059755114
000040 0c 92 51 bb 84 db 75 bb 56 7c ce ba c1 e8 9e bb
       -0.003197792 -0.0037514875 -0.0015753608 -0.004849524
000050 41 e8 91 3b 91 cc c4 bb 30 49 5f bc a6 11 32 bb
       0.0044527357 -0.0060058315 -0.013628289 -0.0027171164
000060 fb cd 3f ba f3 c2 c4 3b f9 0e bf 3a e1 e2 ac bb
       -0.0007316765 0.006004685 0.0014576606 -0.0052760695
000070 f0 a3 9c bc f1 8a 82 bc c0 92 9c 3c 1d 43 c7 3a
       -0.01912114 -0.015935393 0.019112945 0.0015202496
000080 c9 b9 92 bb c5 af a3 3b 89 b9 4a 3b 01 cd ec b9
       -0.0044777137 0.0049953186 0.0030933341 -0.00045166168
000090 7d ff a4 b9 44 52 a5 bb f9 69 9d bb 25 c8 c4 bb
       -0.0003147087 -0.005045207 -0.0048038927 -0.0060053044
0000a0 45 9b e4 ba 06 c5 c4 bb d3 6e 18 bb db a2 08 bc
       -0.0017441293 -0.0060049323 -0.0023259416 -0.008339609
0000b0 ae c4 c4 3b 70 af c0 3b 0f 66 08 bc 55 f6 cb ba
       0.0060048914 0.005880289 -0.008325114 -0.0015561084
0000c0 c3 ac fa ba 38 6e c4 3b 3f c7 c4 3b 99 39 ff ba
       -0.0019124973 0.0059945844 0.0060051973 -0.0019472121
0000d0 21 f6 31 3b cf 66 13 bb 0d bc c4 3b b1 8a 09 bc
       0.002715476 -0.0022491699 0.0060038627 -0.008394883
0000e0 48 ea 24 3c 60 13 f0 3b af ac 37 bc 63 c1 48 3b
       0.010065623 0.0073265284 -0.011210605 0.0030632846
0000f0 44 d8 0e bc 95 e7 fd bb 86 14 5d bb f9 48 0c bb
       -0.008718554 -0.007748554 -0.0033734157 -0.00214058

bn2.running_mean f4 [64]
000000 f9 1e c0 3e 88 76 95 bf 38 cf cc bf f3 e1 d8 3e
       0.3752363 -1.1676798 -1.6000738 0.42359886
000010 2c 40 8e 3f 33 e9 a4 3f e4 b2 a6 3e 72 f2 a9 bf
       1.1113334 1.2883667 0.32558358 -1.3277113
000020 eb ca aa bf d1 d3 e0 bf a4 c1 b7 bf 35 87 6a bf
       -1.3343176 -1.7564641 -1.435597 -0.9161256
000030 30 79 2d 3f 24 4d 57 bf 6a db 17 3f d9 97 3b bf
       0.6776304 -0.8410208 0.59319174 -0.73278576
000040 44 fe 58 bf 72 39 d1 bf f6 e5 8e bf 26 c9 34 3e
       -0.8476298 -1.6345656 -1.1163929 0.17654857
000050 9a e5 4f 3f fc f9 64 3f 7d f4 b9 3e d8 ad c9 bf
       0.8120972 0.89443946 0.36319342 -1.5756178
000060 eb 77 79 3f 9f f7 be 3f b5 4b 32 bf fb 2d 65 3f
       0.97448605 1.4919318 -0.6964677 0.89523286
000070 c3 cc 8e be dd ec a5 3e be d3 0a 3f 96 40 76 3e
       -0.27890596 0.32407275 0.5422934 0.24048075
000080 03 4d fc 3d d0 8c d1 3f eb b4 a0 bf 3a 02 d6 bd
       0.12319376 1.6371098 -1.2555212 -0.104496434
000090 6c 8a f2 3e e6 ef 71 bf 6d 8f a8 3e b8 01 9e 3f
       0.47371233 -0.9450668 0.32921925 1.2344275
0000a0 8a 37 38 3f e8 dc aa bf c5 41 6f bf 29 04 9c 3e
       0.71959746 -1.3348665 -0.9345973 0.30471924
0000b0 67 58 5e 3f ef f6 de bf 96 86 93 bf 0d fb 00 3f
       0.8685364 -1.7419108 -1.1525447 0.50383073
0000c0 6d 61 92 bf c3 2c 5c 3f b4 9a 98 3f 33 92 80 3e
       -1.1435982 0.860058 1.1922212 0.2511154
0000d0 fe d5 e1 bf 94 0f aa be ac de 32 bf 6a af 40 be
       -1.764343 -0.3321501 -0.6987102 -0.18816915
0000e0 d0 3e d2 be 7e fa 44 3e 23 fa 57 bf 03 52 87 3f
       -0.41063547 0.1923618 -0.84366053 1.0571903
0000f0 d5 3c 93 bf ce 7a fb 3d 16 a5 81 bf 32 57 83 3f
       -1.150294 0.122792825 -1.0128505 1.0260985

bn2.running_var f4 [64]
000000 2b 0b c0 3f 6e ab 4c 40 18 31 c3 40 47 41 19 3f
       1.5003408 3.1979632 6.099743 0.5986523
000010 6c 08 b2 40 d9 6a 91 40 d5 27 48 3e 2a a0 73 40
       5.563528 4.544293 0.19546445 3.8066506
000020 bf 33 b2 40 50 95 e9 40 4e d6 98 40 eb e0 38 40
       5.5688167 7.2994766 4.7761602 2.888728
000030 95 40 38 40 83 94 6a 40 1c 34 79 3f 14 d0 3e 40
       2.8789418 3.6653144 0.9734514 2.98145
000040 b2 85 84 40 b4 09 bf 40 2b e3 38 40 f7 01 68 3f
       4.14132 5.9699345 2.8888652 0.90628
000050 8c d0 5c 40 74 31 2f 40 db 44 10 3f f1 1d fd 40
       3.4502287 2.7373934 0.56355065 7.909905
000060 16 c6 0b 40 8c cf c7 40 9a 7d 35 40 2f c8 f8 3f
       2.1839652 6.2440853 2.835791 1.9436091
000070 29 27 f1 3e 54 1d 74 3e 40 99 a5 3f 0d c9 76 3f
       0.4710019 0.23839313 1.2937393 0.9640053
000080 2e 80 d0 3e b9 6b 0a 41 b3 ef 94 40 f2 5e 85 3e
       0.40722793 8.651299 4.65426 0.26049
000090 fd 43 1c 3f de c8 79 40 30 cd 36 3f c0 9d 8d 40
       0.6104124 3.902885 0.7140684 4.4255066
0000a0 13 11 16 40 af e0 b2 40 41 fd 77 40 7e 44 70 3f
       2.3447921 5.589927 3.8748324 0.9385451
0000b0 51 a1 05 40 05 17 00 41 8a 1d 3d 40 e4 c1 95 3f
       2.087971 8.00562 2.954928 1.1699796
0000c0 6d bc 6c 40 76 7a 95 40 dc f9 52 40 ae 12 25 3f
       3.6990006 4.671199 3.2965002 0.6448163
0000d0 d8 78 c7 40 37 d2 52 3f 99 c6 52 40 9d 05 0c 3f
       6.2335014 0.8235201 3.2933714 0.54696065
0000e0 04 9b 36 3f fa 60 da 3e fe 01 5e 40 e8 98 81 40
       0.71330285 0.42652112 3.4688716 4.0499153
0000f0 47 ff 93 40 8c d4 be 3e df 9e 8a 40 9d d1 01 40
       4.624912 0.37271535 4.3318934 2.0284188

fc1.weight f4 [96, 64]
000000 a3 d9 92 3c a0 23 c8 3d 1a 49 bd 3d 97 f1 46 bc
       0.017926043 0.0977242 0.09242459 -0.01214256
000010 45 b1 68 bc c1 dc 5e 3c 35 87 a1 bd 38 46 eb bd
       -0.014202421 0.0136024365 -0.07887117 -0.114880025
000020 ec ba 75 bd 7a 9d 0e bc b3 af 8b bd 85 a8 f2 3d
       -0.059992716 -0.0087045375 -0.06820621 0.11848549
000030 d5 3b 9b 3d a0 e3 bc 3d a7 20 70 3c ec ed 2e 3d
       0.075797714 0.092231035 0.014656222 0.04270737
000040 2b 64 c9 bd 34 bd ce bd 01 69 b5 bd 4e 06 45 3d
       -0.09833559 -0.100946814 -0.088579185 0.048101716
000050 ac a3 d4 bd 14 bf de bd ad 45 09 3d 0e cf 45 bd
       -0.103827804 -0.10876289 0.033513714 -0.048293166
000060 d5 95 c1 b9 dc 2e 2c 3d de e9 18 bb eb 24 67 bd
       -0.00036923462 0.042036876 -0.0023332755 -0.056431692
000070 a7 eb c5 3d 7b b9 ab 3d a0 cf 74 bc f4 be 32 bd
       0.09664088 0.08384987 -0.01494208 -0.04363914
000080 b9 bf a0 bd b8 bd 9a 3d 0c ec a7 3d 71 49 92 3d
       -0.07849068 0.07555717 0.08199319 0.07142914
000090 61 25 5f 3d aa 18 a3 3d 75 19 c3 3d 6b e7 23 3d
       0.054479007 0.07963689 0.0952634 0.04001562
0000a0 cb 6b 17 3d c1 1f fb 3c f8 a5 55 bd 4d 03 f7 3d
       0.036968034 0.03065479 -0.052160233 0.120611764
0000b0 37 7b 04 3e 73 d5 c8 3c c3 95 46 bd 05 cb 74 bd
       0.12937628 0.024515843 -0.048482668 -0.059763927
0000c0 ed 58 6c bc 9b 4f 3b bd 61 b5 3e 3d 0f 2e db bc
       -0.014425498 -0.045730215 0.046559695 -0.02675536
0000d0 14 41 91 ba 35 2f 98 3d 97 9e b3 bb 5b 97 93 bc
       -0.0011082017 0.07430879 -0.005481552 -0.018016508
0000e0 48 4d 05 be 24 86 8f bc 57 0c cf bd 60 60 ea bd
       -0.13017762 -0.017520018 -0.101097755 -0.11444163
0000f0 b2 3d 8f 3d 15 3c a3 3d 60 cf b0 bd 2c ad 4a bd
       0.06994189 0.07970444 -0.08633304 -0.049481556
000100 0f 7d 20 3d 73 a0 ce bd 12 1f 8b bc 27 33 f0 bc
       0.039181765 -0.10089197 -0.016982589 -0.029321266
000110 8d 1f a4 bd 9a ea f5 3c b4 df c1 3c c6 46 1e bd
       -0.0801383 0.030019093 0.02366624 -0.038641714
000120 f6 00 9b bd a2 eb 38 bc 71 48 9c 3d 11 bd fd bd
       -0.07568543 -0.011286648 0.076310046 -0.12389577
000130 19 16 23 bd 9d 24 a4 bd f6 b5 09 3e 6e 6a c4 bd
       -0.039815996 -0.08014796 0.13448319 -0.09590612
000140 16 51 ef 3c 86 56 d0 3d cc a6 96 bd 5b 19 c1 3c
       0.02921347 0.10172753 -0.07356033 0.02357166
000150 a8 6b 7d 3d f6 11 d7 bc 6f a7 07 3e 5b a4 ac 3c
       0.061870247 -0.026253682 0.13247465 0.021074465
000160 49 4b d0 3d 61 da 4d 3c 54 e2 0d 3d a4 67 fc 3b
       0.101706095 0.012564273 0.03463967 0.0077027846
000170 ea fb dc 3b 22 16 e1 bd 36 06 0a bd ac 9a 74 3b
       0.0067438977 -0.109905496 -0.03369733 0.0037323637
000180 7a 33 38 3b 43 df 14 3c ad 49 28 bd b3 9f 56 bd
       0.0028106854 0.009086433 -0.041085888 -0.052398395
000190 df 91 0b bc 31 a7 25 bc f0 64 a9 3d 25 88 5a bd
       -0.008518665 -0.010110662 0.082712054 -0.053352494
0001a0 74 9c c4 3d ac dc c7 3c fc 71 84 3d 03 de db 3d
       0.096001536 0.024397217 0.06467053 0.10735705
0001b0 ea d9 c4 bd 2c 4b ef 3d 91 16 6a 3d 27 c3 08 bd
       -0.09611876 0.1168426 0.057150427 -0.033389237
0001c0 63 2a a9 3d 07 3a 7d 3d c7 00 c3 3d 6d f6 77 bc
       0.08260038 0.061822917 0.09521633 -0.015134436
0001d0 fc b2 ad 3c 8f 1d 99 bd f1 86 98 3d a2 3e 83 3c
       0.02120351 -0.07476341 0.07447613 0.016021077
0001e0 eb 55 85 3d 65 21 e7 3d 76 a9 cd bd 9d dd 21 bc
       0.06510528 0.112856664 -0.10042088 -0.009879497
0001f0 01 23 8f bd e0 5a c5 3d 56 c7 a3 3d 79 cb de 3d
       -0.06989098 0.09636474 0.07997005 0.10878653
000200 24 e2 60 3b 8d cd 4c 3d 6d db 19 bd d4 7e c4 bd
       0.0034314478 0.050000716 -0.037562776 -0.09594503
000210 95 c6 8e bd d6 fa c0 3c ce 88 9a 3d 43 4b ba bd
       -0.0697147 0.023557108 0.07545625 -0.09096386
000220 b9 50 c1 3c 46 6e 04 be 3e 4b 04 be e0 1f ea bb
       0.023598062 -0.12932691 -0.12919328 -0.007144913
000230 70 23 fc 3d 66 4f d7 bd 2a bc d6 3d da 2a 2c 3d
       0.12311447 -0.10513191 0.10485108 0.042033054
000240 b5 b0 73 bd 82 26 96 3c b1 7d d9 3c 38 32 82 bd
       -0.059494693 0.018328909 0.026549192 -0.06357235
000250 a0 46 c8 3d 61 ee de 3d d4 60 20 bc 39 e7 b1 3d
       0.09779096 0.10885311 -0.009788711 0.0868668
000260 8a 7d a1 3d 6a 6d 61 3d 41 ea 3b 3d 4f c9 b4 3d
       0.07885273 0.055035986 0.0458777 0.08827459
000270 4e b3 9f 3c f8 5c d4 bd 43 e2 43 3c 71 15 d8 3d
       0.019494679 -0.10369295 0.0119558005 0.105509646
000280 c2 d6 06 3d 1c 7a 0e 3d 1b 2f 9a bd b1 54 4e 3d
       0.032919653 0.03478442 -0.07528516 0.050373737
000290 67 27 46 bd 00 e9 f1 3d 1d 68 a0 3d a7 6d 93 bd
       -0.04837742 0.11812019 0.07832358 -0.07198649
0002a0 35 1e 02 3e 12 7f 9a 3c a9 59 24 3d 7d fb c6 3d
       0.12706836 0.01885942 0.04012457 0.09715936
0002b0 48 d5 6c bc 80 d0 6c bd c5 e2 d0 3d 60 61 4d 3c
       -0.014455147 -0.05781603 0.10199503 0.012535423
0002c0 c6 f4 48 bc d8 aa 41 bc 12 6d d7 3d ba f5 4c 3d
       -0.01226539 -0.0118205175 0.105188504 0.05003903
0002d0 b6 5e 00 3e ea 23 77 bd 53 a6 ba bd 2c d3 3e 3d
       0.1253613 -0.060336985 -0.09113755 0.046588108
0002e0 aa 8f c3 bd 1e 00 cc bd 7f 15 d0 bd 70 80 a6 bd
       -0.09548886 -0.0996096 -0.1016035 -0.08129966
0002f0 4d 80 52 bc 39 8e 77 bd 25 6c cd bd 8b 0a 2b bd
       -0.012847972 -0.06043837 -0.100303926 -0.0417581
000300 de d9 d7 3d 98 ff 83 bd f3 a8 89 bd 3c 10 3c bd
       0.10539602 -0.06445235 -0.06721678 -0.04591392
000310 54 f4 ad 3d 35 f0 4d 3b 9f 3a a3 bd 83 a2 b9 3d
       0.084938675 0.0031423692 -0.079701655 0.090642
000320 a6 a8 ed 3d 5a a3 ba bd 16 82 39 3d 8f 74 bc 3d
       0.11604433 -0.09113188 0.045290075 0.09201919
000330 32 c5 45 3c aa b8 e1 3d c0 12 ef bd 0e 2e 79 bd
       0.012070941 0.1102155 -0.11673498 -0.060834937
000340 a4 3b 09 3d 81 23 eb bd a7 c0 01 be 65 ac 74 bd
       0.033504143 -0.11481381 -0.12671147 -0.05973472
000350 7a 48 ad 3d 0b ff 7a 3d a7 1a 00 bd 5d 8f ce 3c
       0.084610894 0.061278384 -0.031275418 0.025214845
000360 11 0b 6f bd 1d f3 6a 3d 75 ca 7c 3d 24 f0 e6 bc
       -0.058360163 0.057360757 0.061716516 -0.02819068
000370 3e b5 a6 bd 56 f8 d0 bd e5 13 dd 3d 4a d3 b8 3d
       -0.08140038 -0.10203616 0.1079481 0.09024675
000380 0a 43 be bd bd 26 04 3c d1 be b4 3c 4e 86 11 3d
       -0.092901304 0.008065877 0.022063645 0.035528474
000390 df bb cf 3d 74 d2 c1 3d 32 81 9a bd bc 1c d9 bd
       0.101432554 0.09463969 -0.07544173 -0.10601184
0003a0 38 fa 9b 3d 58 f6 c1 3c 9c be 01 be cd 30 42 3d
       0.07616085 0.023677036 -0.12670368 0.04740982
0003b0 47 24 03 be 97 a0 47 3c 77 55 a8 bc dd fb 60 bd
       -0.12806807 0.012184284 -0.020548565 -0.054927696
0003c0 e2 7e 22 3d 4d c3 e6 3d 03 f3 b8 3d d9 92 ee bd
       0.039671786 0.112677194 0.09030726 -0.11649103
0003d0 68 b7 57 bc d3 22 0d 3e 41 ac e3 3d c5 e0 64 3c
       -0.013166286 0.13782816 0.11116839 0.013969605
0003e0 b2 8d c4 3d d4 44 ef 3b a9 76 02 bd 43 6d 67 bd
       0.09597339 0.007301906 -0.031851444 -0.056500684
0003f0 62 42 4a 3d f1 3d 22 bd 83 9d 0b 3d c9 7c f5 3d
       0.049379714 -0.039609853 0.03408576 0.119866915
