input/05_cnn_qsar/01_featurize/01_featurize_fda_world/02_CNN/run_files_0.1/model_1.pth (torch, 634400 bytes, 20 tensors)

conv1.weight f4 [128, 1, 11, 42]
00000000: de76 183d 5959 313d 1902 1ebb d973 a73c
00000010: 272e 29bd 4180 c0bb 1958 f4bc 6836 1abd
00000020: c03c bf3c 5ffe 99bb e746 19bd d5d0 d03c
00000030: fc06 1b3d 5642 e93b 54c7 fbbc e30b ddbc
00000040: 495d 5a3c 334b e7bc 0037 0f3d 5da3 c13b
00000050: ea3e 46bc 6437 f03c 1c5a 733d 667e 043d
00000060: 5dff 5cbc 0246 74bc a7f9 bebc 446c 20bd
00000070: 5648 0dbd 0e99 283d d544 5d3c 55cb 053d
00000080: 38ed 543d e216 023d c4ba 69bc 893d 06bd
00000090: 7813 86bc 9a17 ef3c b614 a0bc b313 d13c
000000a0: 9af0 95bc 1c7e 57bd c655 ea3c 12d5 01bc
000000b0: b27f 26bd 0e93 3d39 1733 74bc cbf5 25bd
000000c0: 637e 7fbc 7084 0a3c d1e6 28bc 07d1 15bd
000000d0: 63af 17bd 3ea5 f73b 7362 29bd 4c73 3abd
000000e0: 6e92 05bd dadc 19bd c6c5 0d3d ec99 603d
000000f0: c2c1 533c 70ba c3bc 616f 24bd 84f5 163d
00000100: d4d7 65bc 468b 623b d9f6 e3bc 2e2d 213d
00000110: 3977 53bc 234b 233d c67d 49bd 06db 873c
00000120: 78ff 843c 4ef3 ebbc 0a93 1bbd 0354 61bb
00000130: 42ec a6bc e5fe 253d 6b31 08bd 4fe4 03bd
00000140: 7658 0f3d a558 143d 56b6 fc3a 1846 eb3c
00000150: 8695 9fbc d79f ae3c d011 eabb a600 13bd
00000160: 62d2 b7bc 5426 1e3d abef e03b 4246 023d
00000170: d438 803c 9a8d d83b 7bd3 32bd 7656 b73c
00000180: 85a9 a23c 5ea8 a4bc 4ff1 1a3c bc11 873c
00000190: 5f19 143b 2ff4 473d 9a7c cd3b 1f3a da3c
000001a0: 86ef fe3c 813a 40bd d060 4b3c 0c61 ecbc
000001b0: a0c8 cfbc cb43 17bd 4cd3 213d c8c7 1c3d
000001c0: 658e 01bd 1509 4ebd 20d4 4b3d a158 e4bc
000001d0: 179a d6bc 0df0 fabc 05a9 cd3c 0350 953c
000001e0: 967f 90b9 4806 2e3c d893 70bc 7c0a 6dbc
000001f0: 3ff5 593d 7819 523b fbe9 4b3d b8ab 17bd
00000200: 0c13 843c 196f 40bd 39a3 ff3c 23c5 a4bc
00000210: 97aa 923c 94c9 053d c836 32bc 2918 aebc
00000220: dcba c03c ef9a cbbb 3ce6 403c b431 063c
00000230: 3df5 8dbc 4de4 7c3b a36b 68bb c36c 083d
00000240: 58dd 133d 2c44 19bd defe 373d a471 bebc
00000250: bfe1 663d 862a 713c b325 283d eef1 2dbd
00000260: 54fa ea3c 80dc 34bb f75c cf3b c8fd d5bc
00000270: bdb8 ad3c aca0 bc3c d50d a53c 6293 cc3c
00000280: 1190 c2bc 964e bebc b51e c5bc 8605 1d3d
00000290: 769d 83bc 0e0a 3b3d 4cb6 503d b4b8 c33c
000002a0: 0756 09bd ad26 2abd 3127 dbbc 200d a73a
000002b0: b7d9 5d3c 6d6d a5bc 1d0f 06bd 3b04 023d
000002c0: f903 74bc 5a70 8cbc 0435 d23c e47d b8ba
000002d0: 5e3f 753b d02a 2fbd f0a6 a2bb 29d3 2cbd
000002e0: c3b7 d0bb 2459 2d3b 05cd eb3c 61ef 443c
000002f0: af9e 2f3d b5d4 073d 3ab7 2d3c aae2 2e3c
00000300: 1eca 53bc 8499 78bc cab8 1c3d 8287 3c3d
00000310: 35fd 963c 347f 90bc 8390 cebc 4d8b dfbc
00000320: 9739 babc 2c74 a13c 74ab 1d3d af4a 303d
00000330: 27f7 6f3c a0e7 eebc e14f 143d b4de 143d
00000340: 6181 c63c e8a9 193d ce74 a7bc 5d34 d93c
00000350: 1043 4cbc 3179 923c c2c7 5b3d 4c4c e23c
00000360: 46d1 a13c 1931 ec3c 8ad6 ed3c 8f01 10bd
00000370: 166d 3bbd 551c c93c 9727 113d c7a7 2cb9
00000380: f4df 4bbc 1046 19bd ed22 823c d2f1 ac39
00000390: 6cb4 b7bc a2e5 b23c 0318 1abd 661b f7bb
000003a0: f4ab 80bc 87e2 adbc 5683 c7bc 0c14 1c3d
000003b0: 7d1a 14bc fd62 083d 2061 113d caef 023c
000003c0: f260 0bbd c811 823c 9770 323d 8295 06bd
000003d0: 942d 1fbc 5922 b0bc 8db8 463a 050b d53c
000003e0: 29f6 31bd 59da b23c 2c21 2bbd 90d9 01bc
000003f0: cb53 18bc c36c 23bd e58e 2d3c 4a37 233d
0.037222736 0.0432981 -0.0024110137 0.020440983 -0.04130378 -0.005874664 -0.029827164 -0.037649542
0.023344398 -0.004699513 -0.037421133 0.025490204 0.037848458 0.0071185036 -0.030734695 -0.026983207
0.013327905 -0.0282341 0.03496456 0.005909367 -0.012099961 0.029323287 0.059412107 0.032347105
-0.013488618 -0.014909269 -0.023312403 -0.03916575 -0.034492813 0.04116159 0.01350518 0.032664616
0.051984042 0.031760104 -0.01426572 -0.03277353 -0.016366705 0.029186059 -0.019541126 0.025522089
-0.018303204 -0.0526105 0.028605353 -0.007924335 -0.040649123 0.00018079227 -0.014904759 -0.04051761
-0.015594098 0.008454427 -0.010308937 -0.036576297 -0.037032496 0.00755754 -0.041353654 -0.045520112
-0.03261035 -0.037564136 0.03461244 0.05483429 0.012924613 -0.023892611 -0.04014528 0.036855236
-0.014028508 0.0034567877 -0.027827667 0.039349727 -0.012906843 0.039866578 -0.049192213 0.01658393
0.016235098 -0.02880254 -0.037982024 -0.003438235 -0.020376328 0.04052629 -0.033250254 -0.032200154
0.034996472 0.03621735 0.0019280415 0.028719947 -0.019480478 0.021316452 -0.0071432367 -0.03588929
-0.022439186 0.03861077 0.006864508 0.031805284 0.015652098 0.006608677 -0.043658715 0.022380095
0.019856224 -0.020099815 0.0094569465 0.016487949 0.002259813 0.048816856 0.006270957 0.026639042
0.031120073 -0.046930794 0.012413219 -0.02885487 -0.02536422 -0.036929887 0.03950815 0.038276464
-0.03162994 -0.05030163 0.049762845 -0.027874293 -0.026196523 -0.030632043 0.025105009 0.01822663
-0.0002756088 0.010621615 -0.014683686 -0.014467832 0.0532124 0.0032058638 0.049783688 -0.037028998
0.016122364 -0.04698095 0.03120576 -0.020113533 0.01790361 0.032662943 -0.010877319 -0.021251755
0.023526601 -0.006213538 0.011773642 0.008190561 -0.017328853 0.0038588226 -0.0035464547 0.03330685
0.03609976 -0.03741853 0.044920795 -0.023247547 0.056367632 0.014719611 0.041051578 -0.04246705
0.028683819 -0.0027597249 0.006328221 -0.026121989 0.021206254 0.023025833 0.020148197 0.024972621
-0.023750337 -0.023230832 -0.024062494 0.038335346 -0.016066294 0.045663886 0.0509551 0.023891784
-0.033529308 -0.04154079 -0.026752086 0.0012745 0.013540677 -0.02019378 -0.032729257 0.031742316
-0.014893525 -0.017143417 0.025660045 -0.0014075604 0.0037421803 -0.04276544 -0.004963748 -0.042193566
-0.0063695624 0.0026450837 0.028784284 0.012019963 0.04287594 0.033161838 0.010602767 0.010674158
-0.012926606 -0.01517332 0.038262166 0.046027668 0.018431285 -0.01763878 -0.025215393 -0.027288103
-0.02273254 0.019708715 0.03849359 0.043039974 0.014646328 -0.029163182 0.03620899 0.0363452
0.024231615 0.03751555 -0.020441439 0.026514227 -0.012467161 0.017880054 0.0536573 0.027624272
0.01975311 0.028832005 0.029032964 -0.035157736 -0.04575833 0.024549643 0.035438146 -0.000164657
-0.012443531 -0.037420332 0.015885795 0.00032986567 -0.022424899 0.021838013 -0.037620556 -0.007541108
-0.015706994 -0.02122618 -0.024354618 0.038105056 -0.009039518 0.033297528 0.035493016 0.0079917405
-0.034028 0.01587762 0.043564405 -0.032857426 -0.0097154565 -0.021500753 0.0007580601 0.026006231
-0.043447647 0.021832632 -0.041779682 -0.007925406 -0.009297322 -0.039898645 0.010593151 0.03984765

conv1.bias f4 [128]
00000000: 3dca 46bd 8133 7d3a 25c5 91bc e503 bb3c
00000010: 1342 08bd c963 d93c 6655 0fbd 3a80 673d
00000020: 162a ffbb 0f8d 863c cfcf 253c 80b9 ccbc
00000030: 9bd1 01bd d854 babc 0a16 e0bc 4860 e03b
00000040: 8dfa 303c a251 46bc ddbc 4b3d bfb7 8b3c
00000050: ba0c 2fbd 1beb 6f3b 373c 3e3d f374 a03c
00000060: 34a1 ae3a b859 c5bb 6387 acba 6498 ac39
00000070: f9ff 76bc 78a8 033d 9654 1fbd e01b b5bc
00000080: 611f d9bc 8d99 9dba 8138 b13c d464 363d
00000090: 6e0d e8bc e3a5 8dbc 78f9 443d 9f5a fabc
000000a0: d750 753c cec0 c53c 96f3 203c 4926 f83c
000000b0: 7a8f f4bc e08e b1bc 4330 3b3c e6e2 16bd
000000c0: 4430 8aba b925 0d3d ee2c 10bd 4a5f ce3c
000000d0: 65c0 02bd 35c4 163a 9376 53bc 4728 643c
000000e0: 76db 7bbb 7c0c 14bd df99 883a 4d2a 69bc
000000f0: 26cb 49bd 047b 233b 3574 4cbd 5e05 293a
00000100: 84ff 33bd 5ccc 10bc 9b2d abbb 7336 bd3c
00000110: 82e4 bebc eb2a a9bc a989 383b d8c3 9abc
00000120: 6252 a3bc b25d c03c 9ef8 cfbb b207 e53c
00000130: 2027 773d a750 0dbd 900c f13c 6769 513d
00000140: 01d3 66bb 8e45 08bd 6ceb a53c e740 133c
00000150: bc62 97bc 4903 863c 6879 0bb7 48d5 70bc
00000160: acf5 95bc 0ef0 37bd 2223 44bd 4f58 c8bc
00000170: fc37 063d a08b 033d eee7 d13b aafe 27bd
00000180: aceb c43c 524b 43bc 95d8 9fbc 46dc 683c
00000190: 6aca 213a 553b 35bc 5fba 123d 1bd1 1dbc
000001a0: 356c 523c 0a7b 063d 0635 c23c 8f4c a1bc
000001b0: 973c aebc 1370 30bd 0614 963c f8cb 3b3c
000001c0: 4cf8 93bc 4f5e 1bba 112f fd3c 56d7 6cb9
000001d0: 3c2c 40bb 77e9 74bc 8216 2abd c7a2 77ba
000001e0: 6c85 763c 308e ec3c 1bd8 f2ba eb3c 9cbc
000001f0: 78fa 3a3c 18cf 2d3c ebf0 2cbd 867a 9f3b
-0.048532713 0.0009658859 -0.017794201 0.022829005 -0.03326614 0.02653684 -0.03499355 0.05651877
-0.0077869995 0.016424684 0.010120346 -0.024990797 -0.031694036 -0.022745535 -0.027354259 0.006847415
0.010801923 -0.012104424 0.04974066 0.01705539 -0.042736746 0.003660864 0.046444144 0.019587016
0.0013323189 -0.006022658 -0.0013162907 0.00032919936 -0.015075677 0.032143086 -0.038899027 -0.022108018
-0.02650422 -0.0012023911 0.021633388 0.04452975 -0.028326716 -0.017291015 0.048089474 -0.03056079
0.014972887 0.024139788 0.0098237 0.030291693 -0.029853571 -0.021674573 0.011425081 -0.03683748
-0.0010542949 0.034459803 -0.0351991 0.025191922 -0.031921763 0.0005751283 -0.012906688 0.0139256185
-0.003843037 -0.03614472 0.0010421834 -0.014231277 -0.049266003 0.002494515 -0.04991551 0.0006447638
-0.04394485 -0.008837786 -0.0052239425 0.023097252 -0.02330232 -0.020650348 0.0028158224 -0.018892214
-0.019936744 0.023482177 -0.006346776 0.027957771 0.060340047 -0.034500744 0.029424936 0.05112591
-0.0035220983 -0.033269458 0.02025386 0.008987642 -0.018479697 0.016358988 -8.313313e-06 -0.014699288
-0.018305622 -0.04490667 -0.047885068 -0.024456171 0.032768235 0.03211558 0.006405822 -0.04101435
0.024038158 -0.011919813 -0.019512454 0.0142126735 0.00061718246 -0.011061509 0.03582227 -0.009632374
0.012843181 0.032832183 0.023706924 -0.019689826 -0.021269126 -0.043075632 0.018320095 0.011462204
-0.018062733 -0.0005926834 0.030906232 -0.00022586933 -0.002932324 -0.0149482405 -0.04152537 -0.0009446558
0.015046459 0.028876394 -0.0018527539 -0.019072017 0.0114122555 0.010608457 -0.042221945 0.004866901

bn1.weight f4 [128]
00000000: d231 803f f7c2 803f c83c 7d3f 0fd1 803f
00000010: 61a1 823f d6f7 803f 187f 7e3f e1e2 803f
00000020: 7948 803f a2fd 7e3f 3542 803f ce56 803f
00000030: d0e1 7b3f 4a16 803f 1088 813f 7634 803f
00000040: db72 7e3f 25bc 833f cbe0 7e3f 4341 803f
00000050: e950 7e3f 5b78 7d3f 41e4 7f3f 636b 803f
00000060: d905 803f 122f 803f 32ea 7a3f b5ce 803f
00000070: 13d7 803f 64ea 7e3f 30ee 7c3f 44eb 7e3f
00000080: ac73 803f aa56 7d3f 1532 7f3f 3f7b 7f3f
00000090: f68a 7e3f fae8 803f 8fb6 7e3f 0c13 803f
000000a0: 340d 7e3f c46f 803f 9886 813f eaf8 7d3f
000000b0: 9569 803f f78a 7f3f 55ae 7e3f bceb 813f
000000c0: e6a2 7d3f 7e7c 803f 907c 803f f8e5 803f
000000d0: cc82 813f 902e 813f 17a6 813f 5db7 803f
000000e0: 6583 803f 9ccf 803f f772 813f eb18 823f
000000f0: 813c 803f 23ff 803f 4299 813f 0372 7e3f
00000100: 4ec2 803f bf7e 7e3f 331a 803f d5e2 7f3f
00000110: c558 803f 11c2 7e3f 2ed2 803f 2c9d 7f3f
00000120: 668b 7f3f a6ec 813f c22d 7e3f 3867 7f3f
00000130: 387b 803f df07 7d3f 2ff1 7f3f 6728 7f3f
00000140: 8ee3 803f f06b 7e3f 7a19 7f3f 41f8 813f
00000150: 3e82 7f3f 6338 803f b75d 7f3f d1e5 813f
00000160: 8f6a 803f eba6 7e3f e28f 803f 85c5 7d3f
00000170: 65a6 7e3f 6f8a 7d3f 4b01 7f3f bbf0 803f
00000180: bec6 823f 111a 803f 8e12 803f 2713 803f
00000190: fa2f 803f 862c 7f3f f9f0 803f d8fb 7c3f
000001a0: 4e65 803f 69a8 803f b930 7e3f 808e 7f3f
000001b0: 0ef9 7f3f d239 7f3f a73f 813f fb46 823f
000001c0: accc 7e3f 8072 823f df62 7f3f e03c 813f
000001d0: 641b 813f c7c3 803f 3ad7 7d3f f49c 813f
000001e0: 388d 803f 86ee 7c3f c001 803f 3f36 803f
000001f0: 9ef7 7d3f 6c56 803f b0bf 7f3f e4a6 803f
1.0015204 1.0059499 0.9892087 1.00638 1.0205499 1.0075634 0.9941268 1.0069238
1.0022117 0.9960576 1.0020205 1.0026491 0.9839144 1.0006802 1.0119648 1.001601
0.99394006 1.0291792 0.99561757 1.0019916 0.9934221 0.9901177 0.9995766 1.0032772
1.0001785 1.0014365 0.98013604 1.0063082 1.0065635 0.995764 0.98800945 0.99577737
1.00353 0.98960364 0.99685794 0.99797434 0.9943079 1.0071099 0.9949731 1.0005813
0.99238896 1.0034108 1.01192 0.9920794 1.0032221 0.9982142 0.9948476 1.0150065
0.9907669 1.0037992 1.0038013 1.0070181 1.0118041 1.0092335 1.0128812 1.0055958
1.0040098 1.0063357 1.011321 1.0163854 1.0018464 1.0077862 1.0124896 0.9939272
1.0059297 0.9941215 1.0007995 0.99955493 1.002709 0.9951487 1.0064142 0.998492
0.9982208 1.0150344 0.9928857 0.99766874 1.0037603 0.98840135 0.9997739 0.99671024
1.0069444 0.9938345 0.9964825 1.0153886 0.9980811 1.0017208 0.9975237 1.0148259
1.0032519 0.99473447 1.004391 0.99129516 0.9947265 0.9903936 0.9961135 1.0073465
1.0216901 1.0007955 1.0005662 1.0005845 1.0014641 0.9967731 1.0073539 0.98821783
1.0030916 1.0051395 0.99293095 0.9982681 0.999894 0.996976 1.009755 1.0177912
0.99531054 1.0191193 0.9976024 1.0096703 1.0086484 1.0059747 0.99156535 1.0126023
1.0043097 0.9880146 1.0000534 1.0016555 0.9920596 1.0026374 0.99901867 1.0050931

bn1.bias f4 [128]
00000000: 73a5 5abc 4e68 773c 631c d23b 4261 2cbb
00000010: d001 943b 51e7 21bc 7d6b 15bc 9af4 1fbc
00000020: acc2 273b 2a29 d13a bd86 8fbb e95f 343a
00000030: 4bf1 38bc a824 ea3b ab6c 3b3c cd73 36bb
00000040: d92f 2dbc 3c47 0a3c 5e58 073b 9a97 2e3c
00000050: 286e a4bb 762e 8dbc 7798 9fbb 17f0 2ebb
00000060: 34b7 55ba f836 48bc af8e 23bc db8d 8a3b
00000070: cea5 1dbc b220 bab9 a4a9 e3bb 75c7 6abc
00000080: d8bc abbb b4ad 9ebb 537f 08bc b46b 2e3b
00000090: 3715 94bb c3cc 17bc 13b8 61bc a9f8 3e3c
000000a0: 60af 31bc 138c fabb 094e e4bb 7ce3 d8b9
000000b0: c1b4 9dbb 647a 99bb b2c3 9fbb f80e 073b
000000c0: 9cff 37bb a010 14bc b1f8 a3bb 3118 39ba
000000d0: 2bdd a13b bfaf b63b 7d49 6c3a eb10 6d3c
000000e0: ac5a 8fba d2d5 16bb 7b23 fbbb 7200 36bc
000000f0: 8300 ac3b 9937 2bbc 102d 66bb 4c6b 0aba
00000100: 8d0b 473c f803 bdbb b629 09bc 7465 0abc
00000110: 84e7 493b d275 0ebc e270 8f3a 6787 ebb9
00000120: ecf6 94bc e70a df3b 0a82 84b9 b1eb 113b
00000130: e2bb 66bc 2560 27bc 4b7f 62bc fe82 76bb
00000140: e300 66bc 767c d3bb 71c5 00bb 4cad 62bb
00000150: 7ad1 6839 c496 983c a0f6 0ebc 66be e4ba
00000160: d9d0 d0ba 4225 c2bb 69d3 a83b ceab 24bc
00000170: ffca 77bc 1e04 80bc 22ba 60bb 3653 533b
00000180: 4f39 e5bb f1ff f43a d2ee a0bb 30bb c239
00000190: 66a9 183c 74e5 35bc 5ec0 d8ba 1625 acbb
000001a0: ba9f 84ba e7a3 d6bb d44c 0dbb bf52 2e3a
000001b0: dc2c 693b 5ec8 a2bc e8e4 683b 2afc 5d3c
000001c0: 15ad 5f39 604b bbba c896 cc3b 5144 d6ba
000001d0: 9ad6 3fba d790 87ba 5631 b63a 34ac 26bb
000001e0: eee3 34bb 4e13 32bb 18f5 51ba c49d 983b
000001f0: 13fe 2cbb 8dc4 5f3c eaec 0dba ee04 8139
-0.01334511 0.015100552 0.0064120754 -0.0026303087 0.0045168176 -0.00988181 -0.0091198655 -0.009762907
0.0025598211 0.0015957702 -0.0043800757 0.0006880747 -0.0112879975 0.007145483 0.011439483 -0.0027840019
-0.01057049 0.008439835 0.0020652036 0.010656262 -0.0050180145 -0.017234068 -0.00487047 -0.0026693398
-0.00081526046 -0.012220137 -0.009982749 0.0042283363 -0.00962205 -0.00035501044 -0.006947713 -0.014329781
-0.005241018 -0.0048424844 -0.008331138 0.002661449 -0.0045191306 -0.009265128 -0.013776797 0.011655965
-0.010845035 -0.0076460927 -0.0069673103 -0.0004136822 -0.0048128073 -0.0046837796 -0.0048756236 0.0020608287
-0.002807594 -0.009037167 -0.0050040116 -0.0007060795 0.0049396954 0.00557515 0.0009013636 0.014469366
-0.0010937057 -0.002301563 -0.0076641417 -0.011108505 0.0052490844 -0.010450267 -0.0035122074 -0.00052802707
0.01214875 -0.0057682954 -0.008371761 -0.00844704 0.003080816 -0.008695083 0.0010943676 -0.00044923575
-0.018184148 0.0068067196 -0.0002527389 0.0022265727 -0.014082881 -0.010215794 -0.013824294 -0.0037614699
-0.014038297 -0.006454046 -0.0019648934 -0.0034588156 0.0002220328 0.018626578 -0.008725792 -0.0017451763
-0.0015931382 -0.0059248516 0.005152155 -0.010050727 -0.015124082 -0.015626963 -0.0034290631 0.0032245643
-0.006995357 0.0018691999 -0.004911282 0.0003714203 0.0093177315 -0.011102069 -0.0016536822 -0.0052534444
-0.0010118403 -0.0065503004 -0.0021560686 0.00066499034 0.0035579717 -0.019870933 0.003553683 0.01354889
0.00021331415 -0.0014289431 0.0062435605 -0.0016347264 -0.000731805 -0.0010342848 0.0013900201 -0.002543223
-0.0027601677 -0.002717215 -0.0008009239 0.004657479 -0.0026396557 0.013657701 -0.0005414026 0.0002460847

bn1.running_mean f4 [128]
00000000: 9bc7 43bd 5869 3ebc cfa9 d0bc a997 9b3c
00000010: 23d9 42bd 53f6 b93c dc82 35bd 1da7 703d
00000020: 1f32 533c d4c5 703c 8762 e93c b090 b9bc
00000030: d80e e3bc 30bf ebbc 517c ecbc ace8 953c
00000040: 5c46 ccba b1e4 cfbc d557 003d 3334 353c
00000050: 64e0 4fbd f8ee 93bc cdca 413d d251 313c
00000060: 8e9a 8d3b 37a0 b1bb 0622 a43c 2ef2 acbb
00000070: 9aef b1bc 4ab3 773c 8f69 ffbc 9177 f9bc
00000080: 0674 fcbc ff0d 7d3b 2249 703c 8475 253d
00000090: f261 c9bb ec47 f5bc 0653 1f3d ba7d 67bd
000000a0: 7168 953c 72cf c33c 9746 f33b 7fd2 003d
000000b0: c71d 52bd 4576 49bc 98ad d93c a1ea 1fbd
000000c0: 4cd6 9ebc 5a14 193d 2268 18bd 8048 e43c
000000d0: ac7e f0bc de2a fd39 2ed7 2fbc 1c3c 00bc
000000e0: 2862 233a 0a7b 39bd 2237 b5bb a800 e3bc
000000f0: ab2b ebbc 92bd 7ab9 92ca 57bd 1fbd 98bc
00000100: fc6c 6abd 70c3 d6bc 897b 08ba 3819 9a3c
00000110: cb69 a2bc 3814 b2bc 59ed c3bc a434 97bc
00000120: 9605 bfbc 2321 7b3c b360 ecbc fada 343d
00000130: f250 6b3d 2d0e e7bc 2656 7d3c a436 753d
00000140: 8524 90bc d9c7 b6bb 0382 dc3c 9c31 e9bb
00000150: bf68 e5bc 1b5b 4a3c 8390 543a f005 85bc
00000160: 4ec5 60bc f4c4 68bd 8cba 62bd 684e b6bc
00000170: 4002 033d eee2 9c3c 4726 13bc 8219 25bd
00000180: 58d9 ed3c 9f0c c6bc c99b c5bc 8434 923b
00000190: 4baa 0bbc d28b 48bc 404a e13c 6cbd 93bc
000001a0: fa3d 3e3c aa0c 223d 92b8 083d 4281 e7bc
000001b0: b029 1ebd 43f6 3abd 65d8 773c 3488 133c
000001c0: 8de3 dabc ae34 95bc 9b00 863c 94b4 733b
000001d0: 1fb2 a2bc 5070 c7bc e46b 5fbd 5890 2ebb
000001e0: dd96 68bc aa4c b33c d0ab 7bbc cb3c 8cbb
000001f0: de6a 8e3c e844 80bc b12e 53bd 9429 3ebb
-0.04779778 -0.011621796 -0.025471596 0.018993216 -0.04757036 0.022700464 -0.04431425 0.05875312
0.012890368 0.014695603 0.028489364 -0.022652 -0.027717039 -0.028777689 -0.028867872 0.018299423
-0.0015584934 -0.025377603 0.031333763 0.011059809 -0.050751105 -0.018058285 0.047312547 0.01082273
0.004321403 -0.0054207104 0.020035755 -0.0052778935 -0.021720696 0.015118429 -0.031178264 -0.030452522
-0.030817043 0.0038613079 0.014665874 0.040395275 -0.006145709 -0.029941522 0.038897537 -0.056516387
0.018238278 0.023902629 0.0074241864 0.031450745 -0.05129793 -0.012296264 0.026572034 -0.03904212
-0.019389294 0.037372924 -0.037208684 0.027866602 -0.029357277 0.0004828786 -0.010732455 -0.007826831
0.0006232583 -0.045283355 -0.005530254 -0.027710274 -0.028707346 -0.00023912478 -0.05268342 -0.018644867
-0.05723284 -0.026216239 -0.00052063965 0.018810853 -0.019825837 -0.021738157 -0.023916887 -0.018457718
-0.023318093 0.015327725 -0.028854704 0.044154145 0.057450242 -0.028205002 0.015462434 0.059866562
-0.017595539 -0.005578023 0.026917463 -0.0071165096 -0.028004048 0.012350823 0.0008108692 -0.016238183
-0.013718916 -0.056828454 -0.055353686 -0.022254184 0.031984568 0.019151177 -0.008981294 -0.04030753
0.029034302 -0.02417594 -0.024122136 0.0044618268 -0.008524488 -0.012240367 0.027501225 -0.01803466
0.011611456 0.03956286 0.033379145 -0.028259877 -0.038613975 -0.04564501 0.015127276 0.009004641
-0.026719833 -0.018213596 0.01635771 0.003718649 -0.019860325 -0.024345547 -0.054546252 -0.0026636329
-0.014196125 0.021887142 -0.0153607875 -0.004279708 0.017384943 -0.015657857 -0.0515582 -0.0029016482

bn1.running_var f4 [128]
00000000: 92b4 0b3b 3de2 5b3b 52b0 3f3b c842 233b
00000010: c158 423b c5e9 4e3b cc43 1e3b 3caa 5e3b
00000020: 0b01 953b b634 3d3b 624c b43b aa68 113b
00000030: d7a2 543b 7f71 313b c25b 353b cee2 5e3b
00000040: 97d9 993b f6bd 6d3b 213f 883b 7588 5d3b
00000050: 99eb 403b 2406 9f3b 6c67 083b 2c32 353b
00000060: 40eb 173b 4e42 4a3b 7468 bc3b c5b3 243b
00000070: f2a2 263b 7f3d a93b f4a5 303b 8fa0 353b
00000080: bd90 363b 8673 5c3b 0f73 033b a2fa 1e3b
00000090: ed8e 993b 6fa6 3a3b a13a 1b3b 8972 c83b
000000a0: 0d64 f13a f7ec 4f3b ac5f 0b3b 6e58 263b
000000b0: 18d5 c33b 33fd 673b b6a2 803b 1117 4c3b
000000c0: 1bc3 9d3b abcd 4c3b 5ad7 183b 3fe1 163b
000000d0: e476 3e3b fa0e 003b f52b 413b ef0e c03b
000000e0: 7b93 2b3b 2ab3 283b 80fc 233b ebc4 4d3b
000000f0: aa7b a03b 010a 2f3b 9e50 133b 53fd 933b
00000100: 03cb 653b d2aa 813b 02b3 043b 36f7 0d3b
00000110: 32de 213b 7838 423b 3d80 cc3b b297 333b
00000120: 64ea 113b acfe 3e3b 0e6f d73b a9b8 9d3b
00000130: 4e67 543b ee3b 293b 7912 933b 4d73 7c3b
00000140: fcae 4c3b c092 d43b 0316 393b 894b 843b
00000150: 01a6 413b 5c6b 033b c069 423b fd19 0e3b
00000160: 3f7c 363b 7367 313b cfbe 4a3b f94d 443b
00000170: fcfb 233b 06b4 7c3b 102e 953b a4b3 fa3a
00000180: ba60 393b 1af9 373b 6e87 1e3b bd7a 313b
00000190: 8b00 593b 957e 3b3b cc5b 473b 35b4 7e3b
000001a0: 8203 633b fcd5 1b3b 5912 193b beb6 3f3b
000001b0: 3c05 853b 6448 293b a9b1 123b 63ef 303b
000001c0: 653c 7c3b e13b 713b 38f7 813b d5b2 0e3b
000001d0: bbc8 953b 8889 393b d088 603b 648d 423b
000001e0: 67ac de3b 5507 303b 30ae 543b 262e 333b
000001f0: ec2a 2f3b 4587 f93b 3aa2 563b 88ca 2b3b
0.0021317345 0.0033551597 0.0029249382 0.002491163 0.0029654952 0.0031572443 0.0024149297 0.003397598
0.0045472435 0.002887053 0.0055022696 0.0022187629 0.0032445693 0.0027075706 0.00276731 0.0034009698
0.004695128 0.0036276556 0.004157916 0.0033803259 0.0029437302 0.004853027 0.0020813597 0.0027648313
0.0023180991 0.0030862275 0.0057497565 0.0025131565 0.0025426713 0.0051648016 0.0026954385 0.0027714109
0.0027857267 0.0033638193 0.0020057594 0.0024258276 0.0046862275 0.002848055 0.0023686069 0.0061171693
0.0018416658 0.0031726935 0.0021266742 0.0025382298 0.0059763305 0.0035398721 0.0039256467 0.0031141678
0.004814518 0.0031250517 0.002332172 0.002302244 0.0029062564 0.0019540177 0.0029475663 0.005861155
0.0026180435 0.0025741556 0.0025022328 0.003139789 0.0048975544 0.0026708844 0.0022478472 0.0045162826
0.0035063631 0.003957131 0.0020248299 0.0021662242 0.002469909 0.0029635709 0.006240873 0.002740365
0.0022264952 0.0029143495 0.006574518 0.004813273 0.0032410207 0.0025823074 0.004488286 0.0038520873
0.0031232229 0.0064872205 0.002824188 0.004037325 0.002954841 0.0020053005 0.0029665083 0.002168297
0.0027845053 0.0027069717 0.0030936485 0.0029953702 0.002502202 0.003855945 0.00455261 0.0019127023
0.0028286413 0.002807206 0.002418961 0.0027081214 0.0033111896 0.0028609384 0.0030419705 0.0038864736
0.0034639542 0.0023778668 0.0023356883 0.002925321 0.004059462 0.0025830502 0.0022383726 0.0026998154
0.0038488146 0.0036809372 0.0039662383 0.0021774073 0.004571048 0.0028310735 0.0034261234 0.0029686326
0.0067954543 0.002685984 0.0032452457 0.002734074 0.0026728464 0.0076150023 0.0032750503 0.0026213247

conv2.weight f4 [64, 128, 11, 1]
00000000: 4e7c cebb 85c2 d0bc bbf4 13bb 0cca b6ba
00000010: 626d 61bc 3433 723c 238a a33c cc64 58bb
00000020: 712e 38bc 03b8 02bd c1d0 8bbc ce9d 7fbc
00000030: 8933 deba dc9c 3b3c 07ff 17bc 33da 4cbc
00000040: 6bb7 71bc 17e4 793c 524f 913a b07f 9e3c
00000050: 92a1 9b3c 31de f43b 09d2 83ba 12d7 1abc
00000060: 2d77 993c 6222 30b9 723e ce3a 7f35 823b
00000070: 5f66 d1bb 41a4 76bb 3507 21bc 4783 803c
00000080: 291f 3cbc 6b8f a13c 2d6f 8d3c c25b 2a3c
00000090: ce3c e2bc 313f 6dbc bbdb 55bc 0582 3cbc
000000a0: 24f4 bebc 4fd2 04bd 8cd2 00bd 3952 bdbb
000000b0: faf3 bf3c 1448 b33b 962a 29bc ba41 8b3c
000000c0: 3bfb 8cbc 1b18 2c3b a3c6 dc3c d938 fc3c
000000d0: f8a9 aa3c 66da 203c 50e3 c13c fe38 043c
000000e0: 8264 1c3c 75b7 bcbc a865 01bd aa56 893c
000000f0: 1b70 413c 2dff 15bc f3d2 a13b 029e c53a
00000100: b409 d4bc fe33 96bc bd5d 223c 30ff 983c
00000110: cfdf 9aba 19b2 b43b ff8a 67bc 7118 88bc
00000120: a500 70bc 9d59 223b c70b 893b 7eef 83bc
00000130: 81ed 87bc b568 fcbc 1fef d0bc f573 a0bc
00000140: b34f 1d3c 65e1 653c 78cb 2abc d7ef aebb
00000150: 7f7b f1bc b1b5 9dbc cd21 27bc 3f31 2d3c
00000160: 2b3d d9bc aec4 5f3c 00ad 6f3c a006 03bd
00000170: 342f bfbc f03e efbc 28bf b03b e498 573c
00000180: 975e afbc 9e89 bdbc 47ae 48bc 58ad f7bc
00000190: 679e 823b 8ca2 05bd 9cc9 87bb 8a98 c2bb
000001a0: 8839 16bb 1e19 98bb 1069 c4bc d9a8 7a3c
000001b0: 5142 7a3a 1817 ffbc ffa1 5b3c 1af9 cd3a
000001c0: be5a bebc 3e1c 5cbc 9e0a 81bc 9ece 02bd
000001d0: 326c 02bd 2a13 33bc 2089 963c d1ef 9a3b
000001e0: 57a0 68bc e46f 463b 417e f7bb fb2b f9bb
000001f0: 1f7f 223b cba0 a6b9 a01b 653c 1b40 e9bc
00000200: 03f3 123c c768 873b b060 893c bb33 1d3c
00000210: ff10 363c fb54 90bc c6cc 733c 8359 f0bc
00000220: 4df8 d6bc 0a6f b53b 2ab5 833b ae23 81bc
00000230: 7e91 133c fa76 f4bc 9b3b e7bc adca 86bc
00000240: 295f 16bb e7b8 6dbc ba95 c7ba 958b e0bc
00000250: f17b 9dbc f8c7 42bc 839a 033c 211b 74bc
00000260: e2b5 1bbb a891 cdba ce66 b83b 854e 19bc
00000270: 340b 1b3b c8af 4d3c 14ba d33b 4a6d 6fbc
00000280: 742c 873b f9df 313c 82f5 2a3b 3175 293b
00000290: dbb8 0fbc 1855 573c 5fa9 5c3c d430 8f3c
000002a0: b132 cb3b b910 7c3c e139 93bc 0d23 d0bb
000002b0: f88c 3b3c 78b4 263c c021 adbc 57db bfbb
000002c0: 6c15 3438 c7c4 08bc b1ff 04bd c7cc 00bd
000002d0: 2a63 b5bb 38b6 a13a 3a19 f0bc 30ec f5bc
000002e0: d837 96bc 28e5 4bbc 19ae 5f3c 9bdf 84bc
000002f0: 5714 cdbc b0ea b3bc f1df d3bc 732b 58bb
00000300: bc8d 83bc e7b7 c1bc d4a4 95bb c887 913b
00000310: 205a 00bd 5abe 5f3c 151c e8bc b1dc acbc
00000320: a34c aebb a0ce 093c 4271 eb3b be72 72bc
00000330: 465b 50bb 340f c1bc 925f fd3a 992c a6bc
00000340: 86b4 cd3c 337c cabc ec24 a63c c155 023c
00000350: ee9a 79bb a475 c7bc e33d 9f3c 5803 5b3a
00000360: c6c6 753b 4824 6b3c 15a4 f93b dc6b 853b
00000370: 3480 4bbc 0f96 98bc b308 423c 136f efbc
00000380: 6ed4 533b 7ac8 51bc 01c6 6dbb 1824 b1bc
00000390: 10ca 813c 1a57 3d3c 2a47 86bb 6daf 7d3c
000003a0: 56ff 54bb 1118 a43c 2ff9 a0bc f537 293c
000003b0: 3996 853b d9fa b1ba aa37 1abc 3768 513c
000003c0: c0a2 4dbc f7e1 3cbc 3262 4a3c 0e5e 10bc
000003d0: 6664 ecbb bb92 94bc 8016 e036 571d c3bc
000003e0: 6946 f0bc fbaf 6c3c f15d 803b 0e66 8ebb
000003f0: a102 6d3c 4db8 f839 0db9 d43b bb17 89bc
-0.0063014394 -0.02548338 -0.002257629 -0.0013945713 -0.013758989 0.014782716 0.01996333 -0.0033019064
-0.011241541 -0.03191377 -0.017067315 -0.015601588 -0.0016952615 0.011450972 -0.009277112 -0.012503195
-0.014753203 0.015252135 0.0011086261 0.019347996 0.018997941 0.0074727763 -0.0010057102 -0.009450691
0.018733585 -0.00016797477 0.0015735163 0.0039736624 -0.0063903774 -0.0037634524 -0.009828378 0.015687598
-0.011482039 0.019721707 0.017264927 0.010397853 -0.027616885 -0.014480398 -0.013052876 -0.011505608
-0.023309775 -0.03242713 -0.031450793 -0.005777624 0.023431767 0.005471239 -0.010325095 0.016999114
-0.01720964 0.0026259485 0.026950186 0.030788826 0.020833 0.009817695 0.023667961 0.008070229
0.009545447 -0.023036698 -0.031591088 0.016764957 0.011806513 -0.009155077 0.004938477 0.0015076997
-0.025883533 -0.018335339 0.009910044 0.01867637 -0.0011815968 0.005514395 -0.01413226 -0.016613217
-0.014648591 0.0024772652 0.004182312 -0.01610541 -0.016592743 -0.030811647 -0.025504647 -0.019586543
0.009601521 0.014030789 -0.010424487 -0.0053386497 -0.029477833 -0.019251676 -0.01020093 0.010570823
-0.026518425 0.013657732 0.014628649 -0.03198874 -0.023337938 -0.029204816 0.0053938814 0.013159011
-0.021407409 -0.02313691 -0.012248582 -0.030234024 0.003986168 -0.03262572 -0.0041439068 -0.005938594
-0.0022922475 -0.004641666 -0.023975879 0.0152990455 0.0009546625 -0.031138942 0.013405322 0.0015714497
-0.023236629 -0.013434468 -0.015752133 -0.031935327 -0.031841464 -0.010929862 0.018375933 0.0047282954
-0.014198384 0.0030279094 -0.0075528924 -0.00760412 0.0024795008 -0.00031781787 0.013983637 -0.02847295
0.008969071 0.0041323635 0.016769737 0.009594853 0.011112451 -0.017618647 0.014880365 -0.029339558
-0.026241446 0.0055369185 0.004019399 -0.015764084 0.009006856 -0.029841889 -0.028226664 -0.016454065
-0.0022944903 -0.014509416 -0.0015227117 -0.027410308 -0.019224139 -0.011888497 0.008032444 -0.014899046
-0.0023759534 -0.0015683668 0.0056274896 -0.009357099 0.00236578 0.012554117 0.006461391 -0.014613459
0.0041251723 0.010856622 0.0026086275 0.0025857205 -0.0087721 0.0131428465 0.013468116 0.017479338
0.0062011112 0.015384846 -0.017971935 -0.0063518346 0.011447184 0.010174863 -0.021134257 -0.005855005
4.2935295e-05 -0.008347697 -0.03247041 -0.03144529 -0.005535503 0.0012337631 -0.029308904 -0.03001985
-0.018337175 -0.012444772 0.013652348 -0.016219905 -0.025034113 -0.021962494 -0.02586362 -0.0032984882
-0.016058795 -0.023647262 -0.004566768 0.004441235 -0.03133595 0.013656223 -0.028333703 -0.021101328
-0.0053191944 0.00841108 0.0071851322 -0.0147978645 -0.0031792684 -0.02356682 0.001933085 -0.020284938
0.025110494 -0.024717426 0.020281278 0.007955016 -0.003808673 -0.024348088 0.01943869 0.0008354685
0.0037502511 0.014351912 0.007618437 0.0040716957 -0.012420703 -0.018626241 0.011842894 -0.029227769
0.0032322663 -0.012804145 -0.003628135 -0.021623656 0.015843421 0.011556411 -0.004097839 0.015483719
-0.0032500825 0.020031007 -0.01965007 0.010328283 0.004076746 -0.0013578787 -0.009412685 0.012781194
-0.01255101 -0.011528484 0.012352513 -0.008811487 -0.007214117 -0.018136373 6.6783396e-06 -0.023817701
-0.02933045 0.014446254 0.0039174487 -0.004345662 0.014465959 0.0004743956 0.0064917863 -0.016734948

conv2.bias f4 [64]
00000000: e9d6 a9bb cd47 34bc d7d6 a9bc 123c bc3b
00000010: 127d adbc cbd5 d23b 76f4 7c3c 285a 863c
00000020: bf60 90bc 3bf7 343c 1316 a83c 3bb9 d53b
00000030: 3d4f 7a3c 20a0 81bc eb72 d5bc 29f2 3a3a
00000040: fea0 b73b 5041 753c f088 c8bb e9f8 12bb
00000050: 65fc a93c 5723 033d 7005 193c f703 e9bc
00000060: 7688 fdbc 9e66 793b 9eb1 b8b9 5096 48bb
00000070: bdc1 753c 2cdb e43c ec01 9a3c 225b 4dbb
00000080: e258 6f3c 1b91 933c a2eb 1dbc e81e 27bb
00000090: cff7 c93c 19fc 193d bacd aabc b7d7 febb
000000a0: 55a9 723b 7b09 46bc 3098 a93c 95cb 9db9
000000b0: 3455 3fbc 5232 18bd 2716 863c 876c 933c
000000c0: 7e7f 233c 30c8 e8ba 7b7f a1ba 0667 383c
000000d0: 9f9f 7abc 4194 8b3c 627e b0bc d591 653a
000000e0: 68e7 e6bb a1a0 a1bc f680 dd3c 3195 cf3c
000000f0: 08bc a43c 9388 5b3c 255e 743c 7084 a0bc
-0.00518309 -0.011003447 -0.020732326 0.0057444656 -0.021177802 0.0064341775 0.015439143 0.016400412
-0.017624257 0.011045272 0.020518338 0.0065223253 0.015277681 -0.015823424 -0.026055774 0.00071314216
0.0056039086 0.014969185 -0.00611984 -0.0022426194 0.020750234 0.032016125 0.009339675 -0.028444273
-0.030948859 0.003805555 -0.0003522755 -0.0030607171 0.014999804 0.02793654 0.018799745 -0.0031334837
0.014608594 0.018013528 -0.009638699 -0.00255006 0.024654297 0.037593935 -0.020850051 -0.00777718
0.00370272 -0.012087221 0.020702451 -0.00030097054 -0.011678029 -0.037157364 0.016367985 0.017996086
0.009979127 -0.0017759856 -0.0012321317 0.011255031 -0.015296846 0.017038466 -0.021544639 0.00087573874
-0.0070466287 -0.019729914 0.027039032 0.025339695 0.020109192 0.013399261 0.014915024 -0.019594401

bn2.weight f4 [64]
00000000: 6f76 7e3f 88b8 803f bf59 803f 3e60 803f
00000010: 1d74 7f3f cb64 803f 0c77 7e3f 0644 813f
00000020: f366 803f fb27 7f3f ca77 7e3f e3e6 7e3f
00000030: 5586 7e3f 72c2 803f de4f 7c3f e1ee 803f
00000040: cbe3 7c3f 8686 813f ac5f 7c3f 9e8d 7f3f
00000050: af16 7e3f b82e 803f 02c2 7f3f 9f66 813f
00000060: cee3 7e3f 60a5 803f bd7b 7e3f a17d 813f
00000070: 6e76 7e3f 438b 7d3f 410f 803f 6569 7d3f
00000080: 0262 7e3f dfad 7d3f 6dac 803f 31c0 7d3f
00000090: 7865 7e3f 241e 813f 3fa6 803f b1dd 803f
000000a0: fc24 813f 5e88 7d3f c694 803f b50c 803f
000000b0: d251 7e3f 7fd6 803f 2672 7e3f 5009 823f
000000c0: a17a 7e3f 04b4 7d3f 2452 7e3f 20aa 803f
000000d0: 6f76 7e3f ae13 7f3f 4195 813f cb76 7e3f
000000e0: eb1e 7e3f 792f 7e3f 8f53 7e3f 1652 7e3f
000000f0: 5f68 813f d746 813f e2fb 803f 7376 7e3f
0.99399465 1.0056314 1.0027388 1.0029371 0.9978655 1.003076 0.994004 1.0098884
1.0031418 0.9967038 0.99401534 0.99571055 0.99423724 1.005934 0.9855937 1.00729
0.98785084 1.0119178 0.98583484 0.99825466 0.9925336 1.0014257 0.9990541 1.0109442
0.9956635 1.0050468 0.9940756 1.0116464 0.9939946 0.9904062 1.0004655 0.98988944
0.993683 0.9909343 1.005262 0.99121386 0.9937358 1.0087323 1.0050734 1.0067655
1.0089412 0.99036205 1.0045402 1.0003878 0.993436 1.0065459 0.99392927 1.0159092
0.99405867 0.9910281 0.99344087 1.0051918 0.99399465 0.99639404 1.0123674 0.99400014
0.9926593 0.9929119 0.9934625 0.99344003 1.0109977 1.0099744 1.0076869 0.9939949

bn2.bias f4 [64]
00000000: 60ca c43b e2a2 c4bb 93b6 c13b a1f6 a7bc
00000010: 5f5f 8fbb 6e36 cbbb 08c0 1a3c 2bc9 c43b
00000020: 1d8b 5fba fc1c 91bb dec8 c43b f588 003c
00000030: 2472 9fba bcce c43b d8b2 3c3b 807d cfba
00000040: b4fe 043b 16df b43b cd56 c8bb a4cb c4bb
00000050: e5dd 0ebc c0c6 483a 2689 2cbc 5430 473c
00000060: 8ca3 47bb 6100 c8bb 0bc1 88bb fec3 c4bb
00000070: 06cd c4bb f667 faba b8fe e13b a606 c83b
00000080: ff0a cbba 377e b5bb c288 b1bb 3fb9 2c3c
00000090: 0b99 c4bb 540f 753b 0dcf 493c 5e27 663b
000000a0: 4857 1dbc a055 1c3b c7da 8abb 12c3 c43b
000000b0: 7dcf 77bb 6ecc c43b 4022 cabb 2953 53bd
000000c0: 10c9 c43b 0d29 de3a d675 c73a 14a2 d4bb
000000d0: afc9 c4bb d663 d3bb fd27 ceba 7bc8 c43b
000000e0: c7c5 c4bb 39d4 8bbb 6fc8 c43b 3bcd da3b
000000f0: f02c df3b 1280 ab3b 4eaa 3dbc 7603 ba3a
0.0060055703 -0.0060008625 0.005911657 -0.020503344 -0.004375383 -0.006201557 0.009445198 0.0060054264
-0.00085275044 -0.004428504 0.0060053905 0.007845153 -0.0012164754 0.00600609 0.0028793123 -0.0015830249
0.0020293416 0.005519758 -0.006113863 -0.006005721 -0.008719896 0.00076590106 -0.010530746 0.012157518
-0.0030462472 -0.006103561 -0.004173403 -0.0060048094 -0.006005886 -0.0019104469 0.00689682 0.006104308
-0.0015490948 -0.0055387276 -0.005417914 0.010542213 -0.0059996895 0.003739317 0.012317431 0.003511868
-0.009603329 0.0023854747 -0.004237506 0.0060046995 -0.0037812882 0.006005815 -0.0061686337 -0.05159298
0.006005414 0.001694949 0.0015217613 -0.006489048 -0.006005488 -0.0064511104 -0.001572847 0.0060053444
-0.006005022 -0.0042672423 0.006005339 0.0066772974 0.006810777 0.005233773 -0.011576248 0.0014191705

bn2.running_mean f4 [64]
00000000: 40cc cbbf bae7 833f 1792 31bf 4724 f13e
00000010: 00b9 643e d8f2 15bf fb27 f9bd 9f81 893f
00000020: 2245 5b3e 34e9 93bf 45fe 26bf 2d56 783f
00000030: 462d dbbf d77c 103f acaf 143f 3811 853f
00000040: 599b 8e3f 0e12 aabe fd06 cd3e 28df 1c3f
00000050: 201b 9d3e 0f97 02be 738f 23bf 2df6 373e
00000060: bfd7 cfbf 7800 ffbe 98e7 b4bf 125e 803f
00000070: 0ce2 b8bf a63b 333e eb72 6c3f 478d 80be
00000080: eb1b 373f 5598 343f 4a8e 0b3e b8ef 7abf
00000090: 5d1a 7b3f 44ca 0e3f ce0b 28bf a91e 183e
000000a0: 08c7 cb3e 3aad 253e f7c7 c03e 2a58 2e3f
000000b0: a8bb 433f 4cdb d8be 5213 65bf 5c16 023c
000000c0: 7b42 1fbf 8cce 543f 2cf8 6dbf 2d7b 6dbf
000000d0: 1392 cdbf a98c 68bf a74c 953e 44f7 b8bf
000000e0: 28a7 593f 59fe 6bbf da79 9fbf b8e9 c0bf
000000f0: efc9 8d3f 765d 423f c833 d03e ccb1 e4bf
-1.5921707 1.0305092 -0.6936354 0.4709799 0.22336197 -0.58573675 -0.12165829 1.0742682
0.21413091 -1.1555543 -0.65231735 0.97006494 -1.7123191 0.5644049 0.58080554 1.039588
1.1141158 -0.332169 0.40044394 0.6127801 0.30684757 -0.12752937 -0.6389076 0.17965002
-1.6237715 -0.49805045 -1.4133177 1.0028708 -1.4443984 0.17503223 0.9236285 -0.25107786
0.71526974 0.7054494 0.13628498 -0.9802203 0.980871 0.5577738 -0.6564301 0.14855446
0.39800286 0.16179362 0.3765256 0.6810328 0.76458216 -0.4235481 -0.89482605 0.007939901
-0.62210816 0.83127666 -0.92956805 -0.92766076 -1.6060203 -0.9083963 0.29160044 -1.445046
0.85020685 -0.9218498 -1.2459061 -1.5071325 1.107725 0.7592386 0.40664506 -1.7866759

bn2.running_var f4 [64]
00000000: 8fab c640 3d9d 5040 c8b5 5e3f dd2f 513f
00000010: 701a a53f bdd0 c23f bf6c 9e3e d057 d53f
00000020: ba5f 013f b1d2 6540 bb38 873f 57d2 1b40
00000030: 7433 c240 93ca 8d3f 7a8e 0b40 842f 1240
00000040: fbaa 5940 341c ce3f 6afb 5c3f e611 e03f
00000050: 1cce 743f f7f3 303f 3f3a 573f 44d5 bb3e
00000060: 5fdb 9340 6943 9c3f 1e3c 5d40 1e4d f43f
00000070: 85c6 6340 a85d b53e 699c 7a3f 15da ea3e
00000080: 45a0 5440 e9e8 c53f c53a a13e 98d3 4040
00000090: 6a08 0940 984a 333f cd80 893f b147 f03e
000000a0: 2d67 653f 0884 193f 73f3 8b3e c4db b33f
000000b0: 1018 1f40 a950 953f 05a4 d93f 89d5 943e
000000c0: 1ae5 c03f 0bb1 0040 8a8b 5340 51ae 0c40
000000d0: 4072 9340 5459 2a40 9312 9a3e 966e 8840
000000e0: bc5a 0140 0c1e 0840 4af6 7240 109b 8140
000000f0: 2606 e83f 598f 0f3f 1e48 b13e ecf8 9f40
6.208442 3.259597 0.86996126 0.8171366 1.2898693 1.5219952 0.30942342 1.6667423
0.5053669 3.5909846 1.0564188 2.4347131 6.068781 1.1077446 2.180571 2.2841501
3.4010608 1.6102357 0.8632113 1.7505462 0.95627 0.6912226 0.8407325 0.36686146
4.6205287 1.2208072 3.4567943 1.9086034 3.5589917 0.35423017 0.9789491 0.45869508
3.322282 1.5461704 0.3149015 3.0129147 2.1411386 0.70035696 1.0742432 0.46929696
0.8961056 0.5996709 0.27334175 1.4051442 2.4858437 1.166524 1.700318 0.29069164
1.5069916 2.0108058 3.3053918 2.1981394 4.6076965 2.6617022 0.30092296 4.2634993
2.021163 2.126834 3.7962823 4.0501785 1.8126876 0.56078106 0.34625334 4.999136

fc1.weight f4 [96, 64]
00000000: bd9c bfbd 2b1a 82bd 61e6 eabd 8016 b33d
00000010: 1d83 3cbc f12f 26bd 8440 03be 7a95 ac3d
00000020: 842f a6bd 4126 ba3c 3d23 f8bd 6cf4 8d3d
00000030: e725 f0bd 8041 8ebd ad99 ddbd ebfa 16bc
00000040: 4465 45bd 44b1 54bd d5fb a5bd ffca 6f3d
00000050: 2bf4 ebbd 7a7e 9c3c 81f3 56ba 3cb4 a33d
00000060: ce33 b33d 70a6 4a3d 1fe3 50bd 8715 b6bd
00000070: a4f3 3bbd 2132 4fbd 54d0 b43d dbb7 43bd
00000080: 80cc 0a3d c020 25bd d8bf 3c3d ff81 dabd
00000090: 6b93 303d 434f b83d 57f1 44bd 19be 883c
000000a0: e7d9 8cbd 13ed 0cbe f153 3e3d afa6 bf3d
000000b0: f3fe 0bbc 5928 41bd 1434 873d 5591 723d
000000c0: 727d ae3d aa8e b9bd 4fcc e6bd 9dd8 a6bc
000000d0: fbba de3c 994c f93d ed0b a2bd 08ca 95bd
000000e0: 14dd 3d3d cbef e73d 50f7 703c d406 263d
000000f0: e909 c6bd 0d73 483d 0196 c3bd 538a d6bd
00000100: 9a3f 8a3d 41f8 e4bc 6588 b03c 739e bd3d
00000110: 59c7 ed3b a53b b4bc 062a e33a b585 1ebc
00000120: 721f b03d 6886 8e3b 459b dd3d 597b b33d
00000130: ea26 f0bd ddb5 0fbe 5ba1 a4bd 4a93 04be
00000140: a699 543d 4bba a53d bcff f0bd 6aef e5bc
00000150: 63fc d8bc d81a 5bbd e8df 3fbc 6825 313a
00000160: b686 54bd 8d02 18bc 2dde 00be ed34 2bbd
00000170: ffbc e0bd f28d 503d 4d30 0f3c 2725 d9bd
00000180: 5437 a83d 780e cebd 80da 4e3d 2efc a9bd
00000190: cfa3 d53d 34d9 9b3d 8370 4cbd 7fd9 85bd
000001a0: 3f53 1b3d 0d8e 983c 1c21 01be 2173 48bd
000001b0: d159 c13d 89fd 983d afc9 db3c 28e9 ba3c
000001c0: c077 8e3d 4e67 b8bc 57e2 9fbd d7f2 de3d
000001d0: 8b57 2f3d d9c6 4a3d d497 a03d cc6f 79bd
000001e0: 8f51 f3bd 1699 d9bb fc01 9f3d 4e20 b53d
000001f0: cd43 253b 42df 4b3d fc2a 6cbd d593 c13d
00000200: 0220 933c c0bf 103c 9c5b dabd a5c8 9ebd
00000210: 8701 d13d 7a82 033e 7566 213e 2d6a e3bd
00000220: e682 c63d 5ad0 bb3d dbda c33d 5815 df3d
00000230: 5a73 dbbd 682e 153d 9ef2 82bd b366 9b3d
00000240: c023 9ebb 48a3 04bd 7524 9bbc 5db1 30bb
00000250: 79c9 f53d 6700 233d 5b46 dbbc f015 8abd
00000260: e593 963c 7e3f 24bd e9c6 af3c 28dc 89bd
00000270: 5e88 7fbd fb41 dc3d 730b 67bd bda2 033e
00000280: 33bb 223c 4ebc 443d 84c9 85bd 0309 4c3c
00000290: c685 d43c 8f34 c53d a468 033e 55b5 b93d
000002a0: bfde a83c ea8a 8e3d 9389 003e 1df6 b4bd
000002b0: 1fb4 58b9 038d 29bb 8dc0 d7bd 14a0 a2bd
000002c0: aebc f4bd 733b aebb ce4c d93d a9bd aabd
000002d0: df25 4d3d 529e 8a3b ba0f 283d f3d7 9ebd
000002e0: f97d 29bd c02f d03d c087 bf3d 656d 9d3d
000002f0: 0828 6dbd be00 eb3d bca1 233e 2a18 7dbb
00000300: 6ca8 653d 118e d4bc eea4 babd 17f2 5a3d
00000310: d1bf 043d ddf6 033e 1b39 0f3e c78e 31bd
00000320: cbf3 b5bd 1af7 c4bd e241 503c 6625 81bd
00000330: fbe0 033e 9ec4 003e 98ed 303c b98d a2bd
00000340: d092 063e 3909 5dbc c943 0b3d 8cbd b6bd
00000350: 98e5 d9bc 8edb 853d 05a6 923d b075 253d
00000360: 6060 203d a7a6 dabd 9a01 f63c b84a f13d
00000370: f777 99bd 5f40 a8bc 7534 853d 8599 f23d
00000380: bcbb ce3d 48ff 903d 6cf3 1b3d 7a8d 8cbd
00000390: cdde a13d a440 fdbd d57a 71bc 6a01 303c
000003a0: 9fe4 34bd 36dd babd 2509 d23d 7464 04bd
000003b0: 48fb 373d 5f16 4f3c 7542 873d 7d90 9dbd
000003c0: 38cc b23d 0c49 8bbd 20ae 143d e9bd 94bc
000003d0: 51e0 40bd 3188 09bd 14d0 7e3d f71a c43d
000003e0: 23cc 7a3c 1a89 d53d 0c07 33bc 887e de3d
000003f0: 12a4 373c f2ba 39bd 11ec aa3d 091f 65bd
-0.09356067 -0.063526474 -0.114697225 0.08744526 -0.011505869 -0.040573064 -0.1281758 0.08426948
-0.08114532 0.022723319 -0.12116096 0.069313854 -0.11725979 -0.06946087 -0.10820327 -0.009215097
-0.048192278 -0.051926866 -0.08104674 0.0585432 -0.11521181 0.019103277 -0.0008199737 0.07993361
0.08750115 0.049475133 -0.05099785 -0.08890825 -0.04588665 -0.050584916 0.08828798 -0.04778276
0.033886433 -0.040314436 0.046081394 -0.10669326 0.04310934 0.08999493 -0.048081722 0.016692208
-0.06877499 -0.13762312 0.04646677 0.09357964 -0.008544671 -0.04715762 0.0660173 0.05922063
0.085200205 -0.09060414 -0.112694375 -0.020366961 0.027188769 0.12172813 -0.07912431 -0.07313925
0.046353415 0.11325034 0.014707401 0.040533856 -0.09669859 0.048937846 -0.09550095 -0.10475602
0.06750412 -0.027950408 0.021549413 0.092587374 0.00725643 -0.022001097 0.001733125 -0.009675433
0.08599748 0.0043495186 0.10820631 0.08763761 -0.11726172 -0.14034219 -0.080385886 -0.12946811
0.051904343 0.08092173 -0.117675275 -0.028068263 -0.026487535 -0.053492397 -0.011711098 0.0006757588
-0.051886283 -0.009277952 -0.12584753 -0.04179852 -0.10973548 0.05091662 0.008739543 -0.10602789
0.08213678 -0.100613534 0.050501347 -0.083000526 0.10431635 0.076097876 -0.049911987 -0.06535625
0.037921187 0.018622423 -0.12610286 -0.04893792 0.09440959 0.07470233 0.026829569 0.022816256
0.06956434 -0.022510197 -0.07806843 0.10886162 0.042808097 0.049506042 0.07841459 -0.060897633
-0.118807904 -0.0066405637 0.0776405 0.08844052 0.0025217414 0.049773462 -0.05765818 0.09452025
0.017959598 0.008834779 -0.10662004 -0.07753114 0.102053694 0.12842742 0.1576174 -0.11104236
0.09692936 0.09170599 0.09563228 0.10892743 -0.10715361 0.03642121 -0.06393932 0.07587948
-0.004826039 -0.03238228 -0.018938283 -0.0026961186 0.120013185 0.039795306 -0.026766947 -0.067424655
0.018381068 -0.040099613 0.021457152 -0.067314446 -0.06238591 0.10754772 -0.056407403 0.12855048
0.009932327 0.048031144 -0.06532577 0.01245332 0.025942694 0.096291654 0.12832886 0.090677895
0.020614026 0.069600895 0.1255248 -0.08836005 -0.00020666466 -0.0025871403 -0.10534773 -0.07940689
-0.1195005 -0.0053171455 0.106103525 -0.08336956 0.050084945 0.004230299 0.041030623 -0.07756033
-0.041379903 0.101653576 0.09352064 0.07686881 -0.057899505 0.11474751 0.15979666 -0.003861914
0.056068823 -0.025946649 -0.09113489 0.05345353 0.032409493 0.1288714 0.13986628 -0.043349054
-0.088843904 -0.096174434 0.01271102 -0.06305961 0.12878792 0.12575004 0.010798834 -0.07937188
0.13141942 -0.013490968 0.03400019 -0.08922872 -0.026598737 0.06536017 0.07160572 0.04039544
0.03915441 -0.10676318 0.03003006 0.117818296 -0.074935846 -0.020538507 0.06504146 0.11845688
0.10094401 0.07079941 0.038073942 -0.06862922 0.07903824 -0.12365845 -0.014738758 0.010742525
-0.044163343 -0.09124224 0.102556504 -0.032322362 0.044917375 0.012639611 0.066044725 -0.076935746
0.08730358 -0.06801042 0.03629887 -0.018156962 -0.047088925 -0.033577148 0.062210158 0.09575456
0.015307459 0.10426541 -0.010926973 0.10863978 0.011208551 -0.0453443 0.08345807 -0.0559378

fc1.bias f4 [96]
00000000: f2e0 223d 0228 f63d 6609 e43d 849f ac3d
00000010: d84a 963d 2871 c4bd 8cf7 76bd f043 523c
00000020: dfd5 c73c 628c b13d 399d e83d bd3e 03bc
00000030: 06e1 d1bd fc5c 35bd 88d3 8e3d 3a5a ab3d
00000040: 2878 dbbd 26f6 2ebd 92db 78bd 7bc1 3fbb
00000050: ed5b a8bd 598c de3c b220 45bd d572 98bd
00000060: 9ff1 d0bc e7ae b7bd abf7 9f3d 765c ad3d
00000070: e943 0bbd 406d bdbd e04e 2c3d 1186 943d
00000080: f084 f8bd 665b 893d 7c6e 82bc 34d6 313d
00000090: d34d 1bbd ae1c 64bd b02c f0bc aadf fe3d
000000a0: 09c4 e53d c367 b2bd 88ff b13d 7a88 c23b
000000b0: 26d8 643d 012e ebbd c4e3 20bd abf5 2ebd
000000c0: 4e40 c1bd 433f b1bc 58ec 843d 4291 8dbd
000000d0: d416 253d 3ee8 89bc eaf4 123d dcdc b3bc
000000e0: ed56 093d 1b24 5fbd aef6 d5bd 5685 213d
000000f0: 9bcd df3d c93a a7bd 3e1f 5abd 2950 bf3d
00000100: 228d f4bc 37e5 e53d ffda b1bc 5cbe a0bd
00000110: 6d5f 2a3d e6ac 90bd f3ed 6bbd 6b33 5e3c
00000120: 687e df3d 738f d03d d613 c43b a7a1 44bd
00000130: f92c 59bc 8328 333d d16b 81bd e74f 883d
00000140: 7467 3c3d 2f79 613d 1e27 9f3c 5d3f 85bd
00000150: 638b efbc 8f2c a1bd dae2 59bd d628 bcbd
00000160: fc8b 70bc c30c cc3c bbe0 c6bd 0f65 9f3c
00000170: bf3c c53d f7ca ab3d 92f5 e5bc b65c 18bd
0.039765306 0.1201935 0.11134605 0.08428863 0.07338494 -0.09591895 -0.060294673 0.01283358
0.024393974 0.08669354 0.11358113 -0.008010563 -0.10247998 -0.04427813 0.0697394 0.08366819
-0.10716277 -0.042715214 -0.060756274 -0.002925961 -0.082206585 0.027166532 -0.048126884 -0.074437775
-0.025505839 -0.08968907 0.07810911 0.08464901 -0.03400031 -0.092493534 0.04206741 0.07252134
-0.12134731 0.06706886 -0.015921824 0.04341717 -0.037916016 -0.055691414 -0.029318184 0.12445004
0.11219031 -0.08711197 0.08691317 0.0059366794 0.055870198 -0.11483384 -0.039279714 -0.042714756
-0.09436093 -0.02163661 0.064903915 -0.06912471 0.040304974 -0.016834375 0.0358781 -0.0219559
0.033530165 -0.054477792 -0.10447441 0.0394338 0.10927888 -0.08165509 -0.05325245 0.09341461
-0.029852454 0.1122536 -0.02171087 -0.07848808 0.04159491 -0.07064228 -0.057599973 0.013562064
0.10912782 0.10183611 0.00598381 -0.048005726 -0.013255351 0.043739807 -0.063193925 0.06655865
0.045997098 0.05504721 0.019427832 -0.06506226 -0.02924127 -0.07869827 -0.053194858 -0.09187476
-0.014681812 0.024908429 -0.09710833 0.019457368 0.09630727 0.08388322 -0.028071199 -0.03719779

fc2.weight f4 [2, 96]
00000000: 701f c4bc fd1b 1d3c 0290 a0bb 3ad3 ef3d
00000010: 78c9 1ebd 6bff 1b3c 7e42 153d 0fad 533d
00000020: 2c5c cb3d ff6d 9e3d fc95 863d 072e b0bd
00000030: b570 d33d c3a4 f23c 63a4 3a3d a632 1bbd
00000040: a1b5 ee3b a5fa a83d f385 953b c151 acbd
00000050: 1943 f23d 7a48 febc 6649 bd3d d4ec df3d
00000060: 486e 913d e78c b33d e75c b13d aca0 053e
00000070: 6d3b 9e3d ecdc b5bd 9e1e 063e b99c adbc
00000080: bb9f 65bc 16ed 3abd a93d 9bbd e642 2dbd
00000090: 3c04 3abd 6199 b93c 7a64 a93d 73b5 00bd
000000a0: 7f4d 5f3c 5107 a9bd e3d2 0fbd e76f 84bd
000000b0: bc27 d03c 2ce2 2dbc 1ba8 053e 1707 9c3c
000000c0: d3b1 5dbd caf8 00ba 5c73 dbbd 0e03 7dbd
000000d0: 61ba ff3d aac7 9b3c 5184 6bbc 4b15 68bd
000000e0: 4658 bb3d 2ca9 e0bd aca4 843d ea37 a9bd
000000f0: 96f5 013c c70f f53d 91f6 c1bc dd77 fe3d
00000100: 1692 a33d e98e afbd 191b 6fbd d8f4 50bc
00000110: 7b93 023e 21f1 943d cda9 d8bd 6de3 fb3d
00000120: 761b ec3d a32e 62bd b95d 37bd cc02 853d
00000130: 4d57 e23d 257b 1c3c 212c 8e3b 9af8 acbd
00000140: dfc7 50bd a06e 643d 5643 033e 942d 8a3d
00000150: 885b 4fbd bdc5 43bc 5ba8 4c3d d3aa f03d
00000160: a734 db3d f921 0a3e 1e86 1abd 965e 21bd
00000170: 94a8 41bd 1911 84bc 0c4f 023e ff5b 4a3c
00000180: f2e2 0ebe f299 f23c c9fb 8fbd 7432 cfbd
00000190: ae77 a5bd 1d74 9d3d 3534 1abe 12e4 01be
000001a0: f601 52bc 0c84 f3bc cb4f 12be 6c3e a33d
000001b0: 3413 473c 2d01 b8bd b2ab f7bd 1ab2 833d
000001c0: a07a de3d eab6 093d 4ea7 dfbd c7f3 fb3c
000001d0: d962 23bd c551 e8bd a05b bfbc 1e17 1bbd
000001e0: 4baf b2bc 2029 553d c4a7 bb3c da95 16be
000001f0: 04c4 853c fd58 953c 30d7 10be ca67 13be
00000200: 99d2 01be 44ea dbbd 6b72 d43d c837 71bd
00000210: 02d4 f23c ccc2 fc3c cd8a 73bd 07fc 703c
00000220: c751 b3bd 542f e9ba 9d84 a03d 37ae debd
00000230: 0427 a1bd b2dd 8b3c 5d18 9d3c c562 a6bd
00000240: 1c51 a4bc e7ef 8a3d 36ff e33d 4d52 a73c
00000250: 19ac 96bd 84cf 01bb 3085 0a3d 861d 013b
00000260: 39c4 8abd b5a7 ba3d c640 883d f22e dd3d
00000270: c045 603d cd1a e5bd 0caa e33b 8dfe 2cbd
00000280: bb8c e7bd a646 18bd abd6 a33d 8aa2 babd
00000290: 62f7 bcbd e7f5 433d 2caf 963d f344 03bd
000002a0: 6753 96bd eba5 0ebd f910 dd3d b8d3 a03d
000002b0: 842f d1bd c764 1fbe 205a 8a3c 375e 383d
000002c0: 43e5 3ebd 566b 17bd acbb 713d 8721 9dbd
000002d0: a821 44bd 2d90 e8bd 4671 f5bc 1840 11be
000002e0: 13e9 06be eef3 f7bd dae8 5a3d b7f4 cdba
000002f0: d884 a53c d606 fcbc 6c57 bcbd c5b9 fbbd
-0.023940772 0.009589192 -0.0048999796 0.1171021 -0.038766354 0.009521346 0.036440365 0.051678713
0.0992969 0.07735824 0.06571576 -0.08602529 0.103242315 0.02961958 0.045566928 -0.0378901
0.0072848354 0.08250932 0.004563087 -0.08414031 0.11829204 -0.031040419 0.09242515 0.10933843
0.071011126 0.08767109 0.08660298 0.13049573 0.07726178 -0.08880028 0.13097617 -0.021192895
-0.0140151335 -0.04563626 -0.0758012 -0.042300127 -0.045414194 0.022656145 0.082711175 -0.031423043
0.013629316 -0.082533486 -0.035113227 -0.06466656 0.025409572 -0.010613006 0.13052408 0.01904635
-0.054124665 -0.0004919885 -0.107153624 -0.06177049 0.12486721 0.019016106 -0.014374808 -0.05666093
0.09147696 -0.10969767 0.06476721 -0.08262618 0.007932087 0.119659 -0.023677142 0.12425206
0.07986848 -0.0857218 -0.05837545 -0.012753688 0.12751572 0.07272554 -0.10579262 0.122992374
0.11528675 -0.055220257 -0.044767115 0.06494674 0.110518076 0.009550844 0.0043387567 -0.084458545
-0.050971862 0.055769563 0.12818655 0.067469746 -0.0506244 -0.011949 0.049965244 0.11751332
0.10703402 0.13489522 -0.03772556 -0.039396845 -0.04727991 -0.016121434 0.12725466 0.012351035
-0.1395376 0.029614422 -0.07030446 -0.10117045 -0.08079468 0.076881625 -0.15058978 -0.12684658
-0.01281785 -0.02972605 -0.14288251 0.079708904 0.0121505745 -0.08984599 -0.12093295 0.064304546
0.108632326 0.033621706 -0.10920583 0.03075589 -0.03988919 -0.11343721 -0.02335912 -0.037863843
-0.021812102 0.052041173 0.022907145 -0.14705601 0.01632882 0.01823091 -0.14144588 -0.14395061
-0.12677993 -0.10738042 0.10373386 -0.058891088 0.029642109 0.030854605 -0.059458543 0.0147085255
-0.08755832 -0.0017790594 0.07837794 -0.108730726 -0.0786877 0.017073486 0.019176656 -0.081243075
-0.020058207 0.06784039 0.11132662 0.020424986 -0.07357044 -0.0019807527 0.033818424 0.0019701435
-0.06775708 0.09114019 0.066529796 0.1079997 0.05475402 -0.111867525 0.0069477614 -0.042234946
-0.11306139 -0.03717675 0.07999929 -0.09113033 -0.09226872 0.047841933 0.0735763 -0.032048177
-0.073401265 -0.0348262 0.10794253 0.07852882 -0.10214141 -0.15565787 0.016888678 0.045011725
-0.04660536 -0.036967598 0.05901687 -0.076724105 -0.04788366 -0.11355624 -0.02996124 -0.14184606
-0.13174848 -0.12107073 0.05344472 -0.001571319 0.020204946 -0.030764978 -0.09196362 -0.12291292

fc2.bias f4 [2]
00000000: 541d 733d 47ea 91bd
0.05935414 -0.07124763
